dqn_maze_robot.pth (torch, 90665 bytes, 6 tensors)

fc1.weight f4 [128, 38]
-0.042631764 -0.10105958 -0.08389337 -0.067795634 0.10598347 -0.16193229 0.13880658 0.09549871
-0.030043557 0.071113214 0.023478283 0.07465073 -0.04388278 0.12831984 -0.0571592 0.07693279
-0.07253665 -0.038715374 0.15905912 -0.07016546 0.10280482 0.036747005 0.0017742891 0.084780805
0.033180963 0.09234243 0.028757619 -0.112232566 -0.04208316 0.008378202 0.04538109 0.06315978
-0.06949185 0.11537029 0.036666267 0.006467501 -0.13141401 0.110620975 0.0033469375 0.07408557
-0.16199124 -0.14568244 -0.15359467 -0.10532367 -0.123501904 -0.12973644 0.13357446 -0.1180298
0.0076931627 0.059309736 -0.07926558 0.0858582 -0.121328086 -0.08427997 0.06946602 0.10113107
0.13253407 -0.1400058 0.0040186145 -0.0058408626 -0.048506934 -0.12996326 0.069777966 0.02490918
0.010530923 0.038726047 -0.007750984 0.08460999 -0.15688404 0.031525355 0.110642746 0.09361605
0.084980614 0.06752155 0.09625888 0.15511516 0.01659665 -0.11085087 0.03739008 0.029979238
-0.0140763875 -0.14558013 -0.15851404 0.033709634 -0.12134767 0.13770372 -0.10572422 -0.03246204
-0.13300042 0.07161591 -0.01229794 -0.110928066 0.029507983 0.046576004 -0.11552161 -0.11569478
0.034087002 -0.059589714 -0.13920687 -0.073081315 0.13835396 0.13469982 0.06348597 0.04851645
-0.0066857142 0.1428335 -0.15968198 -0.079851285 0.03800438 0.004476217 -0.08277657 0.024170728
0.13589095 0.07888723 -0.13826229 -0.120162316 0.1299548 0.09465537 -0.10232305 -0.15347342
-0.14285214 -0.15360184 -0.005439071 0.044258215 -0.087054044 0.119526915 -0.0828498 0.06254909
0.09362031 -0.15745121 0.0843393 0.05173587 -0.09649779 -0.09247279 0.040220995 0.120851666
0.15738322 0.1289775 -0.011597526 0.06811675 0.012025463 -0.15591972 -0.08165427 0.09144191
0.07927398 0.056644335 0.07177128 0.008127385 -0.13301831 0.043903276 -0.08191882 0.15749228
-0.05970586 -0.052899707 -0.05736202 -0.09210093 0.08232925 0.09745708 -0.10182822 -0.087234005
-0.0681466 0.14877132 0.11084303 -0.104466215 -0.10965044 0.14157207 0.14089033 0.004565212
-0.09663509 -0.007701826 -0.13054423 -0.05615403 0.028205607 -0.1111994 -0.09438206 -0.1271022
-0.021583786 -0.09539798 -0.09185878 0.104806624 -0.08660112 0.00030608661 0.11289976 0.15118666
-0.0779143 -0.14319447 0.072235934 0.13800178 0.0048099766 0.027375916 0.005942988 0.07692915
0.015104199 0.14595723 0.045770332 -0.09357235 0.032473974 0.15120634 0.04479746 0.11648456
-0.09609615 -0.12966038 -0.05279348 0.08319638 -0.012424935 -0.1262651 -0.15689601 0.068934985
0.14545333 -0.02223566 -0.08758765 0.06298336 0.09224742 -0.005487339 0.1132938 0.09245413
0.069850594 0.116541184 0.15394202 -0.12883368 0.12588094 0.051104203 0.04974679 -0.031202154
-0.059458736 0.1229386 0.13015069 -0.047749724 0.02152693 -0.034389183 -0.010123464 0.1234371
0.02488087 -0.14678998 -0.015253761 -0.14285515 0.12933443 0.15591653 0.006823248 -0.028136877
0.155624 0.13739075 -0.13791972 0.08181837 0.1067281 0.050651997 -0.12798986 -0.114019044
0.1327017 -0.16101335 -0.07067826 0.012638856 0.1061096 -0.09932383 0.013381059 -0.03530578
00000000: a59e 2ebd 53f8 cebd 4ad0 abbd 70d8 8abd
00000010: dd0d d93d 94d1 25be 5023 0e3e d494 c33d
00000020: e81d f6bc cea3 913d 8755 c03c 7be2 983d
00000030: 6ebe 33bd 4766 033e c41f 6abd f08e 9d3d
00000040: 188e 94bd 0394 1ebd 65e0 223e e9b2 8fbd
00000050: 558b d23d 0784 163d 438f e83a 8fa1 ad3d
00000060: c3e8 073d 071e bd3d 1995 eb3c 30da e5bd
00000070: 645f 2cbd ba44 093c 86e1 393d ea59 813d
00000080: be51 8ebd 4247 ec3d 5e2f 163d 55ed d33b
00000090: 6591 06be 408d e23d 4b58 5b3b 2dba 973d
000000a0: 08e1 25be c72d 15be ec47 1dbe f0b3 d7bd
000000b0: 91ee fcbd a1d9 04be bec7 083e 9cb9 f1bd
000000c0: ed16 fc3b c4ee 723d fe55 a2bd 6dd6 af3d
000000d0: dc7a f8bd fa9a acbd 3344 8e3d ce1d cf3d
000000e0: 03b7 073e ae5d 0fbe 95ae 833b b564 bfbb
000000f0: 35af 46bd 1715 05be c0e7 8e3d 560e cc3c
00000100: e489 2c3c 349f 1e3d f7fb fdbb 0148 ad3d
00000110: 36a6 20be bb20 013d aa98 e23d c6b9 bf3d
00000120: 510a ae3d bd48 8a3d 6023 c53d 82d6 1e3e
00000130: b3f5 873c c805 e3bd 5726 193d 0597 f53c
00000140: a6a0 66bc f512 15be 8151 22be 1d13 0a3d
00000150: 2185 f8bd 3402 0d3e f185 d8bd ebf6 04bd
00000160: 4331 08be 5dab 923d 4d7d 49bc 412e e3bd
00000170: baba f13c 7bc6 3e3d 9896 ecbd 63f1 ecbd
00000180: d09e 0b3d 5814 74bd 3f8c 0ebe a8ab 95bd
00000190: a9ac 0d3e c0ee 093e ef04 823d 2fb9 463d
000001a0: d613 dbbb f242 123e ac83 23be 1289 a3bd
000001b0: 7baa 1b3d 3bad 923b c386 a9bd b101 c63c
000001c0: ff26 0b3e a18f a13d a194 0dbe a917 f6bd
000001d0: df12 053e adda c13d bf8e d1bd 2328 1dbe
000001e0: d547 12be cd49 1dbe 3c3a b2bb 1a48 353d
000001f0: 6449 b2bd 87ca f43d 28ad a9bd bd19 803d
00000200: 01bc bf3d e43a 21be 15ba ac3d fee8 533d
00000210: a2a0 c5bd 6062 bdbd c5be 243d 1481 f73d
00000220: 1129 213e ae12 043e 8d03 3ebc cb80 8b3d
00000230: 7306 453c 6ba9 1fbe 5b3a a7bd e545 bb3d
00000240: 655a a23d e403 683d d2fc 923d b928 053c
00000250: f435 08be ecd3 333d 0ec5 a7bd a845 213e
00000260: 228e 74bd 5dad 58bd 70f4 6abd 6a9f bcbd
00000270: 3d9c a83d 9497 c73d 508b d0bd bea7 b2bd
00000280: 7290 8bbd 8257 183e ac01 e33d 62f2 d5bd
00000290: 6990 e0bd 45f8 103e 8e45 103e c697 953b
000002a0: 9ee8 c5bd 995f fcbb 63ad 05be c501 66bd
000002b0: 720f e73c 83bc e3bd 624b c1bd 1427 02be
000002c0: 7bd0 b0bc 0460 c3bd 7520 bcbd dba4 d63d
000002d0: ee5b b1bd 407a a039 fd37 e73d add0 1a3e
000002e0: 8891 9fbd 92a1 12be 6ff0 933d 5750 0d3e
000002f0: 029d 9d3b 7543 e03c 66bd c23b 088d 9d3d
00000300: 9a77 773c d075 153e ac79 3b3d dca2 bfbd
00000310: 6e03 053d d6d5 1a3e 8b7d 373d 758f ee3d
00000320: 0fce c4bd b1c5 04be fa3d 58bd dd62 aa3d
00000330: f491 4bbc a34b 01be 59a9 20be c92d 8d3d
00000340: b8f1 143e 8f27 b6bc 2761 b3bd 6bfd 803d
00000350: 37ec bc3d 23cf b3bb 9406 e83d 9758 bd3d
00000360: d40d 8f3d 25ad ee3d faa2 1d3e faec 03be
00000370: efe6 003e a452 513d 4ac3 4b3d a99b ffbc
00000380: 018b 73bd 3cc7 fb3d 3946 053e 3795 43bd
00000390: 3f59 b03c acdb 0cbd e3dc 25bc 97cc fc3d
000003a0: f7d2 cb3c 1d50 16be e9ea 79bc 9f48 12be
000003b0: 3f70 043e 95a8 1f3e 8e95 df3b 4f7f e6bc
000003c0: e65b 1f3e 29b0 0c3e d43a 0dbe 6490 a73d
000003d0: 4394 da3d 7878 4f3d c60f 03be d182 e9bd
000003e0: f4e2 073e afe0 24be c3bf 90bd 3413 4f3c
000003f0: fd4f d93d 4b6a cbbd 3b3c 5b3c cb9c 10bd

fc1.bias f4 [128]
-0.051631596 0.13217716 -0.07633051 0.12294104 -0.10434802 0.09900602 -0.0742794 0.040566243
0.10165334 0.09741918 -0.0894353 -0.10184193 -0.050791927 0.14399724 -0.14650366 -0.13382627
0.12149795 0.107434794 -0.10421139 0.016477449 0.019430175 -0.08052488 -0.0430311 -0.097608924
0.018671148 -0.08204753 0.09342586 -0.010709396 -0.015595566 0.07475839 0.06662348 0.12974659
-0.1092058 -0.045110356 -0.049442057 0.07342982 0.05616467 -0.15713632 -0.07061494 0.121139094
0.09685439 0.082170755 -0.053036872 0.05339726 -0.100726396 -0.115410335 -0.013654077 0.032434024
-0.1344935 -0.023130618 0.056962702 -0.10239194 0.14728639 0.13931462 0.1177686 0.11927009
-0.03975527 0.14183451 0.12037991 -0.13786143 0.008894864 -0.04071157 0.047035716 -0.03283715
-0.016707962 -0.10786215 -0.019635646 -0.011946447 -0.1491775 0.14333867 -0.04097393 0.03505649
-0.11540333 0.14286305 -0.073348895 -0.084852286 -0.15477552 0.06668279 0.07637234 -0.02682431
-0.071105614 -0.054296184 0.0959024 -0.05543337 0.00812226 0.13985904 -0.15686834 0.09744765
-0.090739615 0.036889162 -0.025195155 -0.0961104 0.0905745 -0.046130314 0.014564815 0.036393173
0.14859304 -0.070554495 -0.10895993 0.08250353 -0.12071452 -0.15587538 0.10336066 0.07937939
0.14860399 0.107630186 -0.09771684 -0.060300205 -0.06744398 0.09128901 0.083747275 0.014489588
0.13150409 0.04845447 0.10718469 -0.04031558 -0.057478048 -0.018356534 -0.07263757 -0.06160397
-0.027062578 -0.03144456 0.064925365 0.05879369 0.034370404 0.01355288 0.05062026 0.083399065
00000000: a77b 53bd 7359 073e 2c53 9cbd 83c8 fb3d
00000010: 6ab4 d5bd abc3 ca3d cc1f 98bd ca28 263d
00000020: a02f d03d b583 c73d db29 b7bd 8092 d0bd
00000030: 320b 50bd 0374 133e 0e05 16be c109 09be
00000040: ebd3 f83d c606 dc3d c86c d5bd b7fb 863c
00000050: 082c 9f3c 3aea a4bd 6141 30bd 30e7 c7bd
00000060: 3cf4 983c 8908 a8bd 0f56 bf3d 7676 2fbc
00000070: 8b84 7fbc ed1a 993d e471 883d 4adc 043e
00000080: 4aa7 dfbd a3c5 38bd c183 4abd 6062 963d
00000090: ed0c 663d 58e8 20be 919e 90bd c617 f83d
000000a0: 985b c63d 2449 a83d 313d 59bd 16b7 5a3d
000000b0: a449 cebd 415c ecbd 5ab5 5fbc 8ad9 043d
000000c0: aab8 09be 6c7c bdbc b951 693d deb2 d1bd
000000d0: 3ed2 163e 7ea8 0e3e aa30 f13d e043 f43d
000000e0: 6cd6 22bd 113d 113e be89 f63d 8c2b 0dbe
000000f0: c3bb 113c 2dc1 26bd 86a8 403d 3f80 06bd
00000100: 23df 88bc d5e6 dcbd efda a0bc 08bb 43bc
00000110: fdc1 18be 5fc7 123e 48d4 27bd 6597 0f3d
00000120: 9558 ecbd b14a 123e f237 96bd 09c7 adbd
00000130: 797d 1ebe fd90 883d 1a69 9c3d a8be dbbc
00000140: d29f 91bd ad65 5ebd 7a68 c43d 1a0e 63bd
00000150: 3a13 053c 3537 0f3e 18a2 20be a292 c73d
00000160: b1d5 b9bd 1719 173d 1266 cebc 88d5 c4bd
00000170: 207f b93d 24f3 3cbd 43a1 6e3c 0211 153d
00000180: c628 183e e07e 90bd 6226 dfbd 9cf7 a83d
00000190: 2d39 f7bd cc9d 1fbe c1ae d33d a991 a23d
000001a0: a52b 183e 376d dc3d c41f c8bd 59fd 76bd
000001b0: 1220 8abd bcf5 ba3d b183 ab3d bd65 6d3c
000001c0: 02a9 063e 3278 463d a683 db3d f321 25bd
000001d0: 1a6e 6bbd 7160 96bc 02c3 94bd 7254 7cbd
000001e0: 57b2 ddbc 03cc 00bd 97f7 843d a7d1 703d
000001f0: fbc7 0c3d e60c 5e3c 3157 4f3d 21cd aa3d

fc2.weight f4 [128, 128]
-0.030507447 -0.05800305 0.06332817 -0.08543152 -0.033200704 -0.083078794 0.04439024 0.088138625
-0.07670585 0.04325418 -0.0029344743 0.011638673 -0.074382514 0.056985877 0.048427265 0.025511391
-0.015269592 0.05881426 0.08179197 -0.045401637 0.01391378 0.018322995 0.08499508 -0.016349984
0.0481142 -0.07659249 0.034052122 -0.082828216 -0.07119966 -0.0111535 0.014824764 0.027803738
-0.03518342 0.07486751 0.057904962 -0.021135254 -0.06755877 -0.036921546 -0.07188739 0.033508662
0.014970666 0.03519462 0.044461615 -0.02010626 0.03744248 0.054360647 0.07637579 -0.041323993
0.05581226 -0.030484445 0.03876807 -0.055206902 0.064522006 -0.012606775 -0.06310175 0.026246307
0.08422127 0.0047749323 0.06311539 -0.062425952 0.03681169 0.050372858 0.0062362584 0.08582722
-0.059773915 -0.07296504 0.05020054 0.008029554 -0.009470133 0.08227479 0.01176191 -0.00225807
-0.082024254 -0.018767823 0.057005044 -0.08415259 -0.00810545 -0.03932202 0.03056933 0.086847454
0.0072492366 -0.017541686 0.0022139528 0.05971442 -0.054881793 0.02029299 0.06436685 0.008715568
0.085000955 0.04454948 -0.057359986 0.03482043 0.06277636 0.03540193 -0.05426493 -0.014205679
-0.010149919 0.063682936 0.07321902 0.019794658 0.048799697 -0.045316827 0.027382575 0.060205664
-0.0102367215 0.04775144 -0.08670626 -0.034927852 0.032258764 -0.003072758 0.084834695 -0.058873814
0.012708476 -0.033118907 -0.00027183664 0.063532434 0.055387627 0.05829856 -0.02713825 -0.033632964
-0.017704342 0.014195111 -0.02827513 -0.079434104 -0.020332461 0.07788779 -0.007178314 -0.012138693
0.07025439 0.011041125 -0.077152796 -0.03774855 0.033723295 -0.029681211 0.083572574 0.04728044
0.059569668 0.04037901 -0.025961393 0.072485074 0.084753044 0.0718098 0.014324586 0.064637214
0.075204015 0.07524455 -0.048899427 -0.032463524 0.068742655 -0.047722686 -0.035841238 -0.026594218
0.066241175 -0.08507466 0.06380066 -0.07751291 -0.014588552 -0.054458637 0.08103466 0.043173283
0.038410645 -0.06406936 0.07483419 0.07179176 0.027193684 -0.054735363 0.0055648694 0.08067938
0.051628035 0.027484823 -0.021564234 0.06665464 -0.064758524 -0.00792915 -0.047684595 -0.07061393
0.0695299 0.0663089 0.05744766 0.0805283 0.030931814 -0.08059286 -0.05721246 0.039832383
0.038478397 -0.05596587 -0.0462272 -0.01461914 0.04255227 0.030465933 -0.021067303 -0.04746337
-0.03172371 0.03721295 -0.086370535 0.03376939 -0.08023388 -0.06639657 -0.049747135 -0.07050073
-0.039352693 -0.04308039 -0.06357835 0.055470143 0.03624166 0.034202978 0.06397346 0.054445982
0.08129744 0.024989381 0.040007632 0.085626565 0.026219934 0.06658712 -0.035109937 0.051484197
0.00565774 -0.029476093 0.07570579 -0.035416093 0.027479196 -0.011340125 0.0013515019 -0.055271998
0.08072451 0.07706228 -0.026735937 -0.063654244 -0.04933962 0.035920683 0.08576562 0.060983464
0.0034963444 0.040837187 -0.03452244 0.010203331 0.038905703 0.08131427 -0.02768049 -0.05034693
-0.07876576 -0.051787127 -0.019485088 0.05199115 -0.03798592 0.06485714 0.05445712 -0.042223733
0.05154747 0.049491443 0.019161453 0.088323355 -0.007965849 -0.056202304 0.051801182 -0.078537196
00000000: c1ea f9bc 9b94 6dbd 33b2 813d b9f6 aebd
00000010: 76fd 07bd 3725 aabd 8ad2 353d 0682 b43d
00000020: f517 9dbd 4c2b 313d 4f50 40bb 22b0 3e3c
00000030: dc55 98bd 066a 693d ab5b 463d 44fd d03c
00000040: 502d 7abc 39e7 703d 8c82 a73d 11f7 39bd
00000050: a0f6 633c 1b1a 963c e711 ae3d 67f0 85bc
00000060: 6513 453d 86dc 9cbd 3d7a 0b3d d7a1 a9bd
00000070: 21d1 91bd 2bbd 36bc 91e3 723c aac4 e33c
00000080: 7d1c 10bd 2354 993d c12d 6d3d d723 adbc
00000090: 415c 8abd 0c3b 17bd b239 93bd 6140 093d
000000a0: 8647 753c 3c28 103d 621d 363d e2b5 a4bc
000000b0: 495d 193d 45a9 5e3d e96a 9c3d 5943 29bd
000000c0: 659b 643d 84ba f9bc 45cb 1e3d a220 62bd
000000d0: 1d24 843d a68c 4ebc 7e3b 81bd 7f02 d73c
000000e0: 347c ac3d 0977 9c3b a442 813d 5bb2 7fbd
000000f0: dbc7 163d c553 4e3d 8759 cc3b 2ec6 af3d
00000100: 7ed5 74bd b26e 95bd 159f 4d3d 648e 033c
00000110: 9e28 1bbc af7f a83d 07b5 403c 21fc 13bb
00000120: 55fc a7bd fabe 99bc 1f7e 693d 3158 acbd
00000130: b9cc 04bc 2010 21bd 886c fa3c 14dd b13d
00000140: 018b ed3b 95b3 8fbc f717 113b 1c97 743d
00000150: bbcb 60bd 7c3d a63c c4d2 833d becb 0e3c
00000160: fb14 ae3d 8479 363d 4ef2 6abd de9f 0e3d
00000170: e490 803d 9d01 113d e744 5ebd f0be 68bc
00000180: d94b 26bc 336c 823d dbf3 953d 6828 a23c
00000190: 31e2 473d 239e 39bd 6c51 e03c 379a 763d
000001a0: ecb7 27bc 0497 433d 0d93 b1bd 8210 0fbd
000001b0: c421 043d 5360 49bb d0bd ad3d ab25 71bd
000001c0: 3637 503c b1a7 07bd 4c85 8eb9 4b1d 823d
000001d0: 23de 623d 79ca 6e3d 0951 debc b8c2 09bd
000001e0: b208 91bc 9c92 683c 3fa1 e7bc 59ae a2bd
000001f0: 4390 a6bc a283 9f3d 1038 ebbb 5ee1 46bc
00000200: 89e1 8f3d d6e5 343c 4902 9ebd 399e 1abd
00000210: 7021 0a3d 0326 f3bc 1928 ab3d 22a9 413d
00000220: 53ff 733d 7664 253d fdac d4bc 0e73 943d
00000230: 0193 ad3d 0411 933d abb1 6a3c 8460 843d
00000240: 9004 9a3d d119 9a3d c44a 48bd 79f8 04bd
00000250: f3c8 8c3d dd78 43bd 43ce 12bd 1edc d9bc
00000260: 74a9 873d a03b aebd eca9 823d 17bf 9ebd
00000270: d204 6fbc 0510 5fbd 80f5 a53d 78d6 303d
00000280: 7b54 1d3d cc36 83bd ab42 993d 8f07 933d
00000290: 4ac5 de3c 3032 60bd 8259 b63b 3b3b a53d
000002a0: eb77 533d da27 e13c 7aa7 b0bc 3a82 883d
000002b0: 1ea0 84bd 44e9 01bc ec50 43bd 099e 90bd
000002c0: b165 8e3d f6cc 873d 3d4e 6b3d 05ec a43d
000002d0: b764 fd3c df0d a5bd 9d57 6abd 4827 233d
000002e0: 869b 1d3d 783c 65bd bc58 3dbd 1e85 6fbc
000002f0: 4a4b 2e3d b193 f93c 5695 acbc f368 42bd
00000300: b9f0 01bd 9b6c 183d 09e3 b0bd c651 0a3d
00000310: a951 a4bd edfa 87bd a7c3 4bbd b062 90bd
00000320: 4a30 21bd 1075 30bd 5e35 82bd a934 633d
00000330: 2372 143d 6c18 0c3d 8404 833d c002 5f3d
00000340: 467f a63d 88b6 cc3c 0bdf 233d fb5c af3d
00000350: 30cb d63c d45e 883d 70cf 0fbd 18e1 523d
00000360: 9064 b93b d977 f1bc a30b 9b3d 7710 11bd
00000370: 0d1c e13c efcb 39bc e124 b13a e464 62bd
00000380: e452 a53d d4d2 9d3d 5305 dbbc 285d 82bd
00000390: 5718 4abd 9121 133d e3a5 af3d ccc9 793d
000003a0: ed22 653b e544 273d 6767 0dbd df2b 273c
000003b0: 965b 1f3d 1988 a63d 32c2 e2bc 9538 4ebd
000003c0: f14f a1bd bd1e 54bd 319f 9fbc acf4 543d
000003d0: 2097 1bbd d2d3 843d 6e0e 5f3d cbf2 2cbd
000003e0: 7123 533d 8ab7 4a3d 7bf8 9c3c e0e2 b43d
000003f0: 3183 02bc 6334 66bd 7a2d 543d 1cd8 a0bd

fc2.bias f4 [128]
0.07624977 -0.07411228 -0.055458836 0.009274582 -0.00010520907 -0.045306176 -0.017206892 0.0018283934
-0.034514233 0.035451062 -0.021765044 0.0024714596 -0.011275704 0.029645892 0.080862075 0.087011546
-0.016864186 -0.06521824 0.024636423 -0.050936457 0.02075648 -0.060065642 -0.003765589 -0.039787594
0.042482253 0.027249148 0.019411838 -0.08711029 0.036545027 -0.023763394 -0.012940104 -0.07071271
0.08147875 0.060860585 -0.081282996 -0.052637484 0.08641049 -0.008999954 0.002107532 0.014621711
0.05353974 -0.022500126 -0.055569217 0.010955641 0.06820492 0.08183445 -0.07273634 0.007618991
0.04747954 -0.08083103 -0.025607677 0.07935983 0.009866461 0.049627427 0.006294853 -0.006132145
0.06059425 0.07791157 0.056458674 -0.034024127 -0.049888656 0.07005522 0.07444705 -0.059481584
-0.055975165 0.027427861 0.07328105 -0.082652256 0.014625852 -0.01740865 0.05113304 -0.014044721
-0.0032881075 -0.0634513 -0.026666079 0.079067245 0.020991595 -0.08290122 -0.027035737 0.013141345
-0.01967711 0.015840398 0.044304945 -0.063490994 -0.0029493943 0.018324016 0.07496158 -0.0065903026
0.08368674 0.018112134 0.06115962 0.026057836 -0.03735513 0.002046082 -0.0333838 -0.02933764
0.054982554 0.08016439 0.023258854 0.059991654 -0.061004676 -0.07506709 -0.0662195 0.02019148
-0.069780804 -0.06373928 0.012245029 -0.0678838 0.028065164 0.0735959 0.06920804 0.05537551
0.028905679 0.034928568 0.054781873 0.013020458 -0.031788398 -0.0056817112 -0.07117551 -0.07177764
0.028791027 0.044047005 -0.059610005 -0.08382548 -0.0246067 0.03945555 0.040011592 0.044485796
00000000: d728 9c3d 2ec8 97bd ce28 63bd 6bf4 173c
00000010: b0a3 dcb8 f892 39bd 78f5 8cbc b4a6 ef3a
00000020: cc5e 0dbd 2235 113d 9b4c b2bc 36f8 213b
00000030: bbbd 38bc f1db f23c 049b a53d 1c33 b23d
00000040: c326 8abc 2491 85bd 53d2 c93c bfa2 50bd
00000050: 7e09 aa3c 6407 76bd 1ac8 76bb 51f8 22bd
00000060: df01 2e3d 9b39 df3c 9305 9f3c e166 b2bd
00000070: 3db0 153d 73ab c2bc bb02 54bc d3d1 90bd
00000080: 55de a63d f348 793d b377 a6bd 679a 57bd
00000090: fcf7 b03d 8b74 13bc 851e 0a3b e78f 6f3c
000000a0: 7d4c 5b3d 2f52 b8bc 8c9c 63bd 4a7f 333c
000000b0: 05af 8b3d d298 a73d caf6 94bd bba8 f93b
000000c0: e879 423d bd8a a5bd 31c7 d1bc 6887 a23d
000000d0: f0a6 213c 2146 4b3d 0e45 ce3b 29f0 c8bb
000000e0: ad31 783d 1a90 9f3d 3641 673d e25c 0bbd
000000f0: 0c58 4cbd 1c79 8f3d b277 983d f6a2 73bd
00000100: 3746 65bd 65b0 e03c 6014 963d 9645 a9bd
00000110: 45a1 6f3c 969c 8ebc e170 513d d41b 66bc
00000120: 4a7d 57bb c1f2 81bd d272 dabc 02ee a13d
00000130: 91f6 ab3c 1dc8 a9bd 0d7a ddbc cc4e 573c
00000140: e431 a1bc b9c3 813c 1a79 353d 9107 82bd
00000150: a04a 41bb 3f1c 963c 7585 993d 77f3 d7bb
00000160: f463 ab3d e65f 943c 8282 7a3d 3e77 d53c
00000170: b101 19bd 8f17 063b 74bd 08bd 7e55 f0bc
00000180: 6335 613d 3a2d a43d 5a89 be3c cfb9 753d
00000190: 0ae0 79bd c6bc 99bd 179e 87bd 9a68 a53c
000001a0: 3de9 8ebd bd89 82bd 609f 483c a906 8bbd
000001b0: eae8 e53c 72b9 963d f2bc 8d3d 6ed1 623d
000001c0: 9acb ec3c 4211 0f3d f562 603d c253 553c
000001d0: 8d34 02bd a62d babb 77c4 91bd 2800 93bd
000001e0: 29db eb3c a26a 343d 9f29 74bd b1ac abbd
000001f0: fd93 c9bc 259c 213d 32e3 233d bd36 363d

fc3.weight f4 [3, 128]
0.013946328 0.086774416 -0.04095975 -0.026701704 -0.035975084 -0.08316591 0.027029289 0.08693856
-0.0774291 -0.06529943 0.03949047 -0.022317156 0.016464014 0.032811668 -0.031586893 -0.03071659
0.044824257 -0.00064179115 -0.039938733 0.03732666 -0.059935525 0.07226256 0.07674966 0.037797377
0.04617672 -0.07483135 -0.073471524 -0.033304524 -0.0085756825 0.023042588 0.0034777578 -0.086454436
0.014971572 -0.0074915704 -0.033576213 0.006498022 0.08106331 -0.08353778 0.030968355 -0.049595714
0.05038621 0.021693088 0.05772422 0.046343155 -0.0037697616 -0.03680934 0.06428371 0.066935144
-0.009060961 0.018947473 -0.0059885927 0.06965464 -0.05933271 0.08387625 0.012396442 -0.068228245
-0.041691884 -0.034792613 0.047062118 0.07670684 0.07434845 0.077935815 -0.00498593 -0.028276943
0.008066991 0.044950172 -0.017850919 0.0079146195 -0.022081587 0.033747993 -0.0075574145 0.075269416
-0.018967409 0.026105758 -0.047684237 -0.0673234 0.039698336 0.05833715 -0.029657662 0.04565671
-0.07670844 -0.029637685 -0.026891954 0.025178622 -0.029544223 0.069596626 -0.038627226 -0.017204987
0.025866827 0.08766784 -0.016884986 0.06292855 -0.048069913 -0.0804991 0.0054511363 0.03887779
-0.007153869 0.08382126 -0.03677245 0.03375422 -0.07286481 -0.059543993 0.04697166 0.026760824
-0.049703725 0.02223302 -0.024936667 -0.032403667 -0.039974693 -0.025797507 -0.052607305 0.012052354
0.0641777 0.08005423 -0.083530635 0.024398379 -0.038961526 -0.042293612 0.05825262 0.06728908
-0.046019457 0.010221927 0.06417101 -0.08271122 -0.024662113 0.040978275 -0.00016734406 -0.06751446
0.04869548 -0.059709378 -0.03021381 0.021187251 0.00615521 0.0312863 -0.004282984 -0.047851603
0.0030276505 -0.05730708 -0.039298784 0.085727625 -0.053148143 0.029251019 -0.067379534 0.07975087
-0.05721384 -0.077180594 0.0564531 0.078747906 0.06458467 -0.0009841078 -0.055071145 -0.061082594
-0.020048318 0.074248224 0.077968486 -0.08001831 0.06846207 -0.07488407 -0.07307608 -0.043161806
-0.03287232 0.07608712 0.04618148 -0.062180508 0.08007725 0.05539494 -0.029941931 0.011047173
-0.048972677 0.01716032 -0.056473553 0.055022385 0.05614958 -0.025243508 0.011626703 0.012780504
-0.0044101197 -0.07935452 -0.0382696 -0.043937624 0.056791253 -0.012084196 -0.03866432 0.08553242
-0.07906519 -0.081202805 0.06302822 -0.029477833 -0.0645255 -0.06353834 0.064369634 0.08679988
0.0031354409 0.066698976 0.06230191 0.023746515 -0.039625455 0.05200997 0.02174633 0.050866146
0.072176024 0.07161316 -0.06638377 0.049558204 -0.021325093 0.07898066 0.07782893 0.04857734
0.008267389 -0.0622948 -0.014355553 0.012793528 0.007953637 0.074118316 0.0017189065 -0.042433772
0.04816941 0.044806693 -0.046591498 0.01521693 0.046836875 0.046395577 0.015705897 -0.0825775
0.06604072 0.00062184513 0.07680182 -0.081289686 -0.08737098 -0.03257045 -0.0056231692 -0.004864779
-0.0020438693 -0.0789247 0.023195844 -0.026136756 -0.07722168 -0.0020035873 0.057241004 0.021894665
-0.085655205 0.027592992 0.08176756 -0.06773712 -0.053939484 -0.07406334 -0.06374114 0.029702453
-0.082135074 0.020180363 0.04487293 -0.030758485 -0.06198341 -0.019449074 0.0057396106 0.050575174
00000000: 247f 643c c9b6 b13d 69c5 27bd 88bd dabc
00000010: 9c5a 13bd e352 aabd 876c dd3c d80c b23d
00000020: 2693 9ebd b5bb 85bd c2c0 213d 78d2 b6bc
00000030: 8adf 863c 8765 063d 4261 01bd 5ca1 fbbc
00000040: a499 373d e03d 28ba cc96 23bd d7e3 183d
00000050: f47e 75bd 65fe 933d ed2e 9d3d 6cd1 1a3d
00000060: cd23 3d3d 2e41 99bd 3d78 96bd 536a 08bd
00000070: 0581 0cbc cfc3 bc3c 18eb 633b 060f b1bd
00000080: 534b 753c d97b f5bb 3687 09bd 5ced d43b
00000090: 8504 a63d db15 abbd 59b1 fd3c e024 4bbd
000000a0: c561 4e3d b4b5 b13c 3b70 6c3d 52d2 3d3d
000000b0: 1b0e 77bb 64c5 16bd 2ea7 833d 4b15 893d
000000c0: 6d74 14bc bb37 9b3c f53b c4bb 18a7 8e3d
000000d0: db06 73bd 50c7 ab3d 721a 4b3c 40bb 8bbd
000000e0: 1cc5 2abd b382 0ebd 35c4 403d 7a18 9d3d
000000f0: 0044 983d d09c 9f3d 0361 a3bb 0ca5 e7bc
00000100: 6a2b 043c ac1d 383d 173c 92bc 52ac 013c
00000110: 72e4 b4bc 563b 0a3d 30a4 f7bb da26 9a3d
00000120: 8a61 9bbc bedb d53c 8c50 43bd dae0 89bd
00000130: b99a 223d eff2 6e3d a0f4 f2bc 8802 3b3d
00000140: 5119 9dbd bbca f2bc 844c dcbc 6643 ce3c
00000150: ba06 f2bc ad88 8e3d 9537 1ebd 79f1 8cbc
00000160: abe6 d33c 328b b33d 6252 8abc afe0 803d
00000170: f5e4 44bd b6dc a4bd 729f b23b 513e 1f3d
00000180: 016b eabb 7baa ab3d b59e 16bd dd41 0a3d
00000190: 253a 95bd 67e4 73bd 5b65 403d 8439 db3c
000001a0: 2296 4bbd 0622 b63c fb47 ccbc b5b9 04bd
000001b0: 81bc 23bd 4b55 d3bc c27a 57bd 3d77 453c
000001c0: 996f 833d 79f3 a33d 1c12 abbd 1cdf c73c
000001d0: 1f96 1fbd 113c 2dbd 4d9a 6e3d dbce 893d
000001e0: e67e 3cbd df79 273c 176c 833d 8064 a9bd
000001f0: 3308 cabc d6d8 273d 1479 2fb9 0545 8abd
00000200: e974 473d d291 74bd f482 f7bc e390 ad3c
00000210: a5b1 c93b 1026 003d 4658 8cbb 0b00 44bd
00000220: 8c6b 463b d4ba 6abd c3f7 20bd f791 af3d
00000230: deb1 59bd d59f ef3c 48fe 89bd 6d54 a33d
00000240: 0f59 6abd dc10 9ebd 5e3b 673d 9546 a13d
00000250: f844 843d 2efd 80ba 4892 61bd be31 7abd
00000260: 5f3c a4bc 740f 983d f1ad 9f3d a4e0 a3bd
00000270: d735 8c3d d25c 99bd e9a8 95bd 6fca 30bd
00000280: 20a5 06bd 90d3 9b3d cb28 3d3d fdb0 7ebd
00000290: 8bff a33d cee5 623d c848 f5bc 34ff 343c
000002a0: 9397 48bd cd93 8c3c d050 67bd 275f 613d
000002b0: 1afd 653d 79cb cebc ed7d 3e3c 5265 513c
000002c0: c482 90bb 9f84 a2bd 96c0 1cbd f0f7 33bd
000002d0: f29d 683d cbfc 45bc 7a5e 1ebd 9f2b af3d
000002e0: eeec a1bd a84d a6bd f014 813d 7f7b f1bc
000002f0: f225 84bd 6420 82bd 3ad4 833d 23c4 b13d
00000300: f87b 4d3b 7999 883d 4a30 7f3d 0d88 c23c
00000310: 4d4e 22bd 6808 553d 5c25 b23c 0559 503d
00000320: 06d1 933d eca9 923d 37f4 87bd 8bfd 4a3d
00000330: f6b1 aebc 9dc0 a13d c664 9f3d 08f9 463d
00000340: f173 073c d528 7fbd 8e33 6bbc f29b 513c
00000350: f94f 023c 58cb 973d ee4c e13a 09cf 2dbd
00000360: 4a4d 453d 3987 373d bad6 3ebd 6e50 793c
00000370: 06d8 3f3d 4a09 3e3d a7a9 803c 641e a9bd
00000380: 5b40 873d 5203 233a 464a 9d3d 357b a6bd
00000390: 8eef b2bd 9868 05bd 9042 b8bb b968 9fbb
000003a0: 70f2 05bb 46a3 a1bd 3605 be3c c01c d6bc
000003b0: 6626 9ebd 9e4e 03bb 8b75 6a3d 715c b33c
000003c0: ff6b afbd b30a e23c c075 a73d c2b9 8abd
000003d0: a6ef 5cbd 85ae 97bd b78a 82bd 8f52 f33c
000003e0: 6f36 a8bd 4a51 a53c adcc 373d 38f9 fbbc
000003f0: 51e2 7dbd aa53 9fbc 5813 bc3b ea27 4f3d

fc3.bias f4 [3]
-0.006419081 0.03411313 -0.058589533
00000000: 2757 d2bb 36ba 0b3d 94fb 6fbd
