dqn_car_model_episode_600.pth (torch, 307153 bytes, 24 tensors)

fc1.weight f4 [128, 10]
00000000: 14b9 10be a337 c03d 2830 353e 5f2b 48be
00000010: 922d 59be fe48 80be 60c6 7dbd 65c2 abbd
00000020: 045b 0b3e def2 84be f00c b73e 6c1a 4c3d
00000030: 0ac2 9e3e 27f4 5bbd 220a 523e 82b4 2e3d
00000040: 428d 0a3e 746b a23e 73f0 983e a15e 72be
00000050: dd40 2a3e e290 973e aab8 bc3d 5f31 9cbe
00000060: 81d4 97bd e078 96be a45d 863e 3f6f 9bbe
00000070: d97f 77be 1f15 503e 4deb 8bbe e680 9dbd
00000080: 5dcd 5dbe f973 7f3e d36b 8cbd f528 203e
00000090: 4d76 833c d760 033e 7031 44be a382 453e
000000a0: 7a12 d43d 9a72 67bd 77d9 353e beeb 473e
000000b0: 96c4 243e 22dc 8e3e 1778 053e 803a 813e
000000c0: 0a0d 893d ce6c adbe 5f98 cebd 0319 2c3e
000000d0: 46aa 803e 70a1 663e 0331 103e dae7 ea3d
000000e0: 83f8 313e 606b 433e 1345 9f3e 33dc b93d
000000f0: 64d0 28bd e345 8cbe 2a05 363e 5feb 92be
00000100: b656 0cbe 6842 7bbe b67d 053d b14b 993c
00000110: 8511 533d 918d 52bc ca1f 8f3e e22c 8a3e
00000120: a0d0 1b3e 3b75 29bc 3b17 1c3e 100e 50be
00000130: 0cba 0d3e e5bb 9dbe 2343 4f3e b7d0 c53d
00000140: cb08 aabd dc9e a33d 672a dcbd f86d 0c3e
00000150: e133 6ebe 8682 1ebe afb6 b8bd e1b1 063e
00000160: 2875 99be 8d37 6a3d c894 20be e03f 7ebe
00000170: acce 643e e2fc 843e 989a 203e 3074 82be
00000180: caa2 56bd 5ae1 ab3e 1caa 2fbd 4832 273c
00000190: b28c ca3e 305d 443e dd37 103e a0a3 73be
000001a0: b179 82be 1fa7 afbe 7e09 553e 9c39 0d3e
000001b0: 0932 013e 79ea 993b c15e 003e 6973 f93d
000001c0: adf4 0bbe 4684 78be 091c a0be 5edc e4bd
000001d0: fcaf efbd 624e 143d ef92 88be 28ad 89be
000001e0: 70da 213e 3b88 bdbd 4935 bcbd 99c9 80be
000001f0: 8753 41bd a049 a9bd 5b10 64be e0b5 1f3e
00000200: 016f 713e 5eb8 7d3e 6698 c63c 6fed 813e
00000210: 6df2 b5bd bc2d 76be 1a54 213e de4e 223e
00000220: b33c 453e 1014 81be 575f 973e b95d ae3b
00000230: 4145 b4bc c7dd 8bbd 29dd 14bd 7a56 3c3e
00000240: 9897 0b3d 548b 01be 73d3 fabd eba9 90be
00000250: 2eee cb3d 88a7 a0be dcaf 8a3d 90b0 393e
00000260: bdf4 fb3c 2e76 5b3e f8cf 533d dc11 303e
00000270: 5c96 8abe 5cf8 9ebe 31a4 a6bd bcc0 8bbe
00000280: 9630 afbd f481 753d 6a99 0e3d b44c 8bbe
00000290: 9b17 593c ae6e 913e a68d 0abe f186 a33d
000002a0: e875 d0bd 93e8 7bbe 4a2d 593e 82e5 fc3d
000002b0: b2dc 373e 976b 8abe f081 22be fb02 42be
000002c0: 8f2c 683e 2518 f73c 55cd 60be f369 edbc
000002d0: c854 9a3e cb31 b2bd 7879 903e d51a 9f3e
000002e0: a880 78be 80ea a0be edee f4bd 64f8 2bbe
000002f0: 9615 a8bc dd86 edbd c002 40be ce95 363e
00000300: 1138 323e 48cb 8a3e d6c0 4cbe 822a 15be
00000310: 72c8 96be ad37 5bbb 0d84 05be 9f47 543d
00000320: b67a 4cbd 8ad1 b13e 3b80 313e 7187 80be
00000330: 6dc9 f83d a1fb 12bc 04b9 3a3d e4ee 3e3e
00000340: 9f94 f43c 097f 6cbe 0451 863d a125 fe3d
00000350: 6559 823e 9f05 ab3e c330 4b3e 0736 c93d
00000360: 2e21 d23d 9772 f8bc fc5f 5f3e 7e3d 1c3d
00000370: aa99 7e3e e28a 8c3e e029 5e3d 6c7d 843e
00000380: 92b3 1abd 69ac be3c f1b3 7f3e 8198 733e
00000390: b8a7 853e ff61 b7bd 4a72 3b3e d764 67be
000003a0: 94e4 853e b38e 76be 478a 543e 1257 333e
000003b0: a39b 2abe ce9e 313e 9e2d bd3d 6271 0f3e
000003c0: 4139 6c3e 29df 913e ec7a 923e 4245 983e
000003d0: 8cba 13bd 01fa 9b3e 21c5 50be 39ee 6c3c
000003e0: 8d26 50bd 6107 cf3d 8bbb cbbd f098 8c3e
000003f0: bd69 d0bd dd22 4c3e 484b 57be b0ed 0f3e
-0.14133102 0.09385612 0.17694151 -0.19547795 -0.2120879 -0.2505569 -0.061956763 -0.08386687
0.13608938 -0.25966543 0.35752058 0.049829885 0.31007415 -0.05369964 0.20511678 0.042652614
0.13530448 0.31722605 0.29870948 -0.2366891 0.16626306 0.29602724 0.092149094 -0.30506417
-0.07413579 -0.29389095 0.26243317 -0.30358312 -0.24169864 0.20320557 -0.27327958 -0.07690601
-0.21660371 0.24946584 -0.06856503 0.15640624 0.016047621 0.1282991 -0.19159484 0.19288115
0.103550866 -0.056505777 0.17758738 0.19523522 0.16090617 0.27902323 0.13034092 0.25239944
0.0669194 -0.33872074 -0.10087656 0.16806416 0.25129908 0.22522521 0.14081196 0.114700034
0.17379956 0.19083929 0.31107387 0.09075203 -0.04121436 -0.2739707 0.17775407 -0.286952
-0.13704953 -0.2453705 0.03259059 0.01871285 0.05153038 -0.012851135 0.2795394 0.26987368
0.15216303 -0.010342891 0.15243237 -0.20317864 0.13840503 -0.30807415 0.20240454 0.0965895
-0.083024584 0.079892844 -0.10750275 0.13713825 -0.23261978 -0.15479478 -0.09019219 0.13153793
-0.29972196 0.057181884 -0.15681756 -0.24829054 0.22344464 0.25974184 0.15683973 -0.2547927
-0.05240134 0.33570367 -0.04288684 0.010204859 0.39560467 0.19176173 0.1408381 -0.23792887
-0.25483468 -0.3430719 0.20804402 0.13791507 0.12616743 0.004697141 0.12536146 0.12180216
-0.13667555 -0.24269208 -0.3127139 -0.11174844 -0.11703488 0.036207564 -0.266746 -0.2688992
0.15805984 -0.092544995 -0.09189851 -0.25153807 -0.0471988 -0.08265996 -0.22271864 0.15596724
0.23577501 0.24777362 0.024242591 0.2537646 -0.0888413 -0.24040884 0.15754738 0.15850398
0.19261436 -0.2521062 0.29564926 0.005321231 -0.02200568 -0.0682941 -0.036343727 0.18392363
0.034080118 -0.12650806 -0.12247362 -0.28254637 0.099575385 -0.31377816 0.06771824 0.1813376
0.030756349 0.214318 0.051712006 0.17194313 -0.2706784 -0.31048858 -0.08136786 -0.27295482
-0.08554189 0.059938386 0.034814276 -0.27206957 0.013250257 0.28404754 -0.13530597 0.079847224
-0.10178739 -0.24600439 0.21208683 0.12348463 0.17955282 -0.2703521 -0.1586988 -0.1894645
0.22673248 0.03016288 -0.21953328 -0.028981185 0.30142808 -0.087009035 0.28217673 0.3107516
-0.24267828 -0.3142891 -0.11959634 -0.16793972 -0.020518105 -0.11597989 -0.18751049 0.17830583
0.174042 0.27108216 -0.19995436 -0.14566997 -0.29449803 -0.0033449933 -0.13038655 0.051826116
-0.049921714 0.34730178 0.17334072 -0.25103334 0.12147794 -0.008971126 0.0455866 0.18645817
0.029856024 -0.23095335 0.06558421 0.12409521 0.25458828 0.33402726 0.1984282 0.09824758
0.10260235 -0.030328078 0.21813959 0.03814458 0.24863306 0.2744971 0.054239154 0.2587694
-0.037768908 0.023275571 0.24970986 0.23788644 0.26104522 -0.08954238 0.18305317 -0.22597061
0.26150954 -0.24077873 0.20755874 0.17513683 -0.16660933 0.17345735 0.092372164 0.14008096
0.23068716 0.2849057 0.28609407 0.2974034 -0.036066577 0.30464175 -0.20387699 0.014461094
-0.050818015 0.10108829 -0.0994788 0.27460432 -0.10176418 0.19935174 -0.21024811 0.14055514

fc1.bias f4 [128]
00000000: 5400 3e3e bf38 20bd ca10 823d fd92 013e
00000010: 6bb3 6b3e 1ad3 4cbc ce00 ddbd c02a 783d
00000020: cf03 13bd 4701 5e3e 3a27 833e 685a fc3c
00000030: d3f6 c83d 9c36 8c3e b656 a83d 025c 98bc
00000040: 4269 87be edbe 723e f2b1 9a3e 0dbc 0dbd
00000050: dff1 f33d 8b23 13be c717 49be 5f96 7ebd
00000060: b727 0f3e b3ae f73d 2a80 4f3e 629a 903d
00000070: 98fd 243e 468a 5d3e 6460 103e ec3d 603e
00000080: e97d 133e 52b9 f8bc 0500 dbbb 424d 363e
00000090: 6201 e13d 57e6 8c3e eb59 073e 1cbf 0a3e
000000a0: 40cd 363d feab cbbd 7be4 053e a553 68be
000000b0: c80a 803e 2425 0f3e 9205 993e 8a5d 363d
000000c0: c56b 13bd f66c 84be fa5e 94be 3fa0 b43d
000000d0: ce6d 86bd e708 b83d 68ab 963c bb41 853e
000000e0: 2378 6e3e a7ff bbbd 272b 49be 993c 363e
000000f0: 7de8 d53d 7d34 4abe 7f31 593e 0282 8c3e
00000100: 29d1 35be f3ab 6ebc 4509 a63d 8ce5 833e
00000110: b5ea 86be 890c 973e 9cfd 4abe b986 303e
00000120: 8dcf 88be 3544 8e3e 2ed3 a43e 4282 0e3e
00000130: 06a9 39bc d8cc e63d 991f c0bd e33d 2d3e
00000140: 5218 99be c830 02be 70b4 db3c 6f9f 8abe
00000150: dba7 593e 6d03 2cbe 5ed0 fd3d 14e8 763c
00000160: ed1e 53be 5b40 ce3d a2be 2ebe 524e b0bd
00000170: 24e9 5d3e 96a4 47be b823 42be 9cce 32be
00000180: 5551 9b3e 50dc 95be e1b8 02be cd2d 963e
00000190: bc0f f5bd af95 89be dc4b 6b3e a8d5 103e
000001a0: 1876 42be b162 a0be c874 423e d30e a7bd
000001b0: 8cd2 263e 5974 9abd 4d12 27be fab9 9b3e
000001c0: 2380 303e bd3f 7fbd b7a8 a73e 240a 68be
000001d0: 7310 91be 0d7b 303d b1aa 62be 9bf1 ccbd
000001e0: e868 93be f172 573e f602 f43c 9752 6cbe
000001f0: a268 533e e181 bf3d d6f5 863e a0c3 923e
0.18554813 -0.039116617 0.063508585 0.12653728 0.23017661 -0.012501502 -0.10791169 0.060587645
-0.035892304 0.21680175 0.25615865 0.030804828 0.09812703 0.27385414 0.08219664 -0.01859856
-0.26447493 0.23705645 0.30213886 -0.034603167 0.119113676 -0.14369027 -0.19637977 -0.062155124
0.13979994 0.12093868 0.20263734 0.07060696 0.16112363 0.21634778 0.1409927 0.21898621
0.144035 -0.030361805 -0.006683352 0.17802909 0.10986592 0.27519485 0.13217895 0.13549465
0.044629335 -0.09944914 0.1307544 -0.22688158 0.25008225 0.13979012 0.29887062 0.0445228
-0.03599145 -0.2586438 -0.2897871 0.08819627 -0.06563912 0.08986073 0.01839228 0.2602671
0.23288016 -0.09179621 -0.19645368 0.17796554 0.10444734 -0.19746585 0.21210288 0.27442938
-0.1775557 -0.014567363 0.08107237 0.25761068 -0.26350942 0.2950175 -0.19823307 0.17238893
-0.2672085 0.27786413 0.32192367 0.13916877 -0.011331802 0.112695396 -0.09381027 0.16918139
-0.29901367 -0.12713921 0.026819438 -0.27074763 0.21255438 -0.16798182 0.123932585 0.01506998
-0.20617266 0.100708686 -0.17064908 -0.086086884 0.21670967 -0.19496378 -0.18958938 -0.17461628
0.3033549 -0.29269648 -0.12765838 0.29331818 -0.11965892 -0.26872012 0.22978157 0.14144003
-0.18990362 -0.31325296 0.18989861 -0.08157124 0.16291255 -0.07541723 -0.16315575 0.30415326
0.1723638 -0.062316645 0.32745907 -0.22660118 -0.28332862 0.0430861 -0.22135426 -0.1000702
-0.28790975 0.2103994 0.029786568 -0.2307838 0.20645383 0.09350944 0.26359433 0.28664875

fc2.weight f4 [128, 128]
00000000: 373a 893b 6280 5fbd f299 cbbc b387 28bd
00000010: b91b 9abd bfbd a2bd f944 2dbd ee01 a3bc
00000020: ed34 19bd 0049 3dbd 6cca a5bd 5c89 b43c
00000030: deee 9fbd eb69 c93c 7717 d73c 6737 9fbb
00000040: 1239 60bd 9409 07bd 98cf e9bc a77f b3bd
00000050: 64c2 843d ecad a3bd 9d8d 753c 4443 52bd
00000060: 653d ea3b 64ec 91bd bf66 903d 1aff 223d
00000070: 9e81 e43c 4a95 bdbc 0616 8cbc a20f 8c3d
00000080: 6f52 b3bc a312 853b 5d57 15bd d39b 833d
00000090: 3d4d b3bc b111 2e3c 781e 873d 0d20 613d
000000a0: 7e04 4f3d 25e6 8dbd 564e 1bbd 78a0 5fbc
000000b0: b8eb af3c 6aef 883d 55de 243d 4ba2 72bc
000000c0: 2181 473c 92d8 873c a35c 473d c8e8 2fbd
000000d0: 6cdc abbd 58d8 a6bd c78f fa3c 31c0 65bd
000000e0: e4c4 21bd 22c5 253d 52de a83d 4fc3 3d3d
000000f0: a38a 893d 1fcb 1b3b 33c2 ea3c a0d3 84bd
00000100: 8d2e 843d 64cf 05bc f356 a7bd f22b 8c3c
00000110: 140f 2b3d 442f a73d 3934 7bbc 969c 383c
00000120: 16d8 fdbc 4aef 373d 4d5e 4c3b 5e2f 833d
00000130: 2bec 943c bc9a d03b 2136 febc 4f12 80bd
00000140: f7c5 14bd 9740 b1bc bdf8 11bd 80e2 cdbc
00000150: 6863 aabd 639c 8a3b b1da 3a3d 9a2d 4d3d
00000160: fa7d 35bd 2d98 193c 4062 a53d 79bd 2ebd
00000170: 91dc 4dbd 9831 293d 746f adbd 0841 873d
00000180: a0c4 43bd 9cfc 183d 2e40 48bc 76c0 8d3d
00000190: 9c12 6f3c a4b0 e4bc 46c1 d03b 3af8 893d
000001a0: cd0e 643d 07d1 ccba 5147 87bd ca9b 323d
000001b0: e38b 4cbd 82b3 92bd e629 3bbd 2094 1a3c
000001c0: b968 1f3d abf1 653d cc00 acbd 2ce2 18bd
000001d0: 49e6 e13c d533 02bd 25ec 853d 42de a83d
000001e0: 5d2c 0abd 2a9c d63b 5dc3 8a3d f254 7e3d
000001f0: 915e 113d 91e7 613d 1ef3 b0bb 4c10 613b
00000200: b2e2 13bc 6693 e43c 71fa f1ba b05a fc39
00000210: 5472 66bc 1dce acbd be99 a7bd 2b50 dfbc
00000220: c0e2 67bd 536d cdbd 8795 81bd e6ab 103d
00000230: f81c 143c d7c8 cabc 4bef 453d 333c 833d
00000240: 13eb 8ebc 2381 633d 00cf 38bd 9e10 d23b
00000250: af15 58bd c068 f13c b3fb 06bd c185 0d3d
00000260: 5643 8e3c 043d c2bd 56ce 5f3c 24f2 b93b
00000270: 2d34 aebd cfbe 5e3d 5023 753b 7625 e1bc
00000280: 3fef a8bc 1601 a13c f1f5 74bc b68f 7cbd
00000290: ad75 7bbd 6b5b b8bd b5c1 86bb c8c3 783d
000002a0: 2ccf 91bc 772a afbd 3b6d eb3c 1ddb 6c3d
000002b0: ca93 8ebd 9fcd bcbd e13b 813d 1246 063d
000002c0: 7434 e43b bbb6 4c3d 8825 3b3d 910d 093d
000002d0: f415 973d 0dc1 4c3c 3d43 3a3d 882d 8e3d
000002e0: eadf 9c3d 243b ffbb 2500 373d e186 9a3d
000002f0: a401 383d ccd3 fbbb 2c19 e03b 2bb5 2fbd
00000300: 37c5 5b3c c697 09bc 4421 c33c e171 26bd
00000310: 7895 063d 4844 b9bd 679c b23d b0b8 723c
00000320: 38fb fd3c e018 b4bd 64e4 963d 9fd4 54bd
00000330: bb60 c9bb a9a4 583d b37d 1cbd 1467 0abd
00000340: a015 38bd ef70 25bd db44 04bd c2c6 3ebc
00000350: 67ff b1bd 7909 6d3d c6d5 b6bd 77e7 80bd
00000360: 4907 463b e84c 353d 1448 793d e61b babd
00000370: b713 09bd 66e1 643c 45c7 8dbd 930a 4abd
00000380: b84c 893c 6353 1bbd aa78 4b3d 6574 0f3d
00000390: 7eb6 8a3d a6e0 893b b115 8bbd ff16 e9bc
000003a0: e4b4 cdbd eafc 99bc 506c 8abd 9828 8fbd
000003b0: fb8f aabd 24f0 943d e09e 79bc 1f11 2a3d
000003c0: 0e48 aebd 4131 edbc d0ba 35bb 3947 d6bc
000003d0: 8f2d a23d 494c 0dbc 1a2e e13b cd75 c13c
000003e0: 0f7c 01bc c9dd a7bd cc0d 3ebc c5b9 b03c
000003f0: ad32 d13c 5f04 92bd 32ff b3bd 265b acbd
0.004187848 -0.054565795 -0.02485368 -0.041145038 -0.07524819 -0.079463474 -0.042302106 -0.019898381
-0.03740399 -0.046212196 -0.080952495 0.022038154 -0.07809232 0.024586638 0.026256306 -0.0048588994
-0.054741926 -0.03296812 -0.028541371 -0.08764582 0.064823896 -0.07992157 0.0149873765 -0.05133368
0.007148432 -0.07125166 0.07050847 0.039794065 0.027893838 -0.023142476 -0.017100345 0.06838919
-0.021889893 0.0040610596 -0.03646027 0.064262055 -0.021887416 0.010624335 0.06597608 0.054962207
0.050541393 -0.06928662 -0.037916504 -0.013649099 0.021474704 0.066862896 0.040251095 -0.0148092015
0.012176783 0.016582761 0.04867233 -0.042946607 -0.083916515 -0.08146733 0.030586137 -0.05609149
-0.03949441 0.040471204 0.08245529 0.04632884 0.06715896 0.0023772193 0.028657055 -0.06485677
0.06454191 -0.008167122 -0.08170881 0.017110799 0.041762426 0.08163312 -0.015332275 0.011267802
-0.030986827 0.04490594 0.0031184137 0.06405519 0.01817902 0.006366102 -0.03103167 -0.06253492
-0.036321606 -0.021637244 -0.035637606 -0.025132418 -0.083197415 0.0042300685 0.045618717 0.050092317
-0.044309594 0.00937466 0.0807538 -0.042661164 -0.050259177 0.041307062 -0.084685236 0.066042006
-0.047794938 0.037350282 -0.012222333 0.06921475 0.014591839 -0.02791626 0.0063706962 0.067367986
0.055678178 -0.001562626 -0.066053994 0.043605603 -0.049938094 -0.07163145 -0.045694254 0.00943473
0.03891823 0.056138676 -0.083985895 -0.03732507 0.027575629 -0.031787712 0.065391816 0.08245517
-0.033733714 0.006549378 0.06775544 0.06209273 0.035490576 0.05515248 -0.0054000756 0.003434199
-0.009026216 0.027902316 -0.0018461478 0.00048132753 -0.014065344 -0.084377505 -0.08183621 -0.027259907
-0.05661273 -0.100306176 -0.06327348 0.035320185 0.00904011 -0.024753971 0.04832391 0.064079665
-0.017446076 0.055543076 -0.045119286 0.0064106723 -0.052755054 0.029468894 -0.032954883 0.034551386
0.017366093 -0.09484294 0.013660034 0.0056746174 -0.085060455 0.054381188 0.003740508 -0.027483683
-0.020621894 0.019653838 -0.014951215 -0.06166049 -0.06139152 -0.090018116 -0.004112447 0.060733587
-0.017798983 -0.085530214 0.028738609 0.05782615 -0.06961782 -0.092189066 0.06310249 0.032781668
0.0069642607 0.049978953 0.04569009 0.033460204 0.07377234 0.012497199 0.04547428 0.06942278
0.07659896 -0.0077890325 0.044677872 0.07545257 0.04492344 -0.0076851603 0.006838938 -0.042897385
0.013413719 -0.008398002 0.023819573 -0.040635947 0.03285739 -0.09046227 0.08721238 0.014814541
0.03100358 -0.08793807 0.07367781 -0.051960584 -0.0061455644 0.052891407 -0.038205814 -0.03378971
-0.0449425 -0.040390905 -0.03229223 -0.011644067 -0.08691292 0.057870362 -0.08927493 -0.062941484
0.0030216745 0.044262797 0.060859755 -0.090873525 -0.033466067 0.013969755 -0.06922773 -0.04932649
0.016760215 -0.03792132 0.04967562 0.03502311 0.06773089 0.0042076884 -0.06791247 -0.028453348
-0.10044268 -0.018797357 -0.0675894 -0.069901645 -0.08328243 0.07272366 -0.015235633 0.041520234
-0.08509837 -0.02895415 -0.0027729757 -0.026157008 0.07918846 -0.008624145 0.006871951 0.023615742
-0.007903113 -0.08196599 -0.011599969 0.021572957 0.02553686 -0.0712974 -0.08788909 -0.08415823

fc2.bias f4 [128]
00000000: e1c9 35bd 93da 503d 2710 7d3d 8761 61bc
00000010: b836 89bb 2a9a c13d e734 b0bb f619 d5bb
00000020: b201 a7bd fbb1 ed3d 508a b13d c4bc 183d
00000030: b56c e1bb 9714 04bd 51ab 53bd 6246 abbd
00000040: bdc1 b1bd 12ec 97bd 7156 b1bd c868 7d3d
00000050: 3fac 633c d58a 43bd 573e 47bd 6c64 e33d
00000060: 0f94 853d 52e9 073c de04 c73d 4215 e73c
00000070: 8bcd ce3d 7ea3 643d 8719 92bb 0489 083e
00000080: aa6c 6b3d c3d8 a1bd 496b 02bb 7181 e4bc
00000090: b948 c83d e3b8 dc3c de97 45bd 0707 aa3d
000000a0: 5470 66bb be4d c0ba 8c41 8e3d d998 04bd
000000b0: a91d e3bb a1a9 6e3d f4b8 0ebd a1e4 3cbd
000000c0: 8c6f f4bc ea9b 0b3d 60bc 7dbd 57f2 b8bc
000000d0: 81c1 3bbd 2d15 aebd f591 85bd 5504 733c
000000e0: 7962 7abd 4be2 adbc d26a d8bc 33d3 8d3d
000000f0: 4d31 383a 25f9 d43c db86 d83c 2924 0fbd
00000100: 50d0 9d3d 4617 0c3c bf25 a93c e867 403d
00000110: 8c6c 773c 3805 30bc e51f 983d 671d ae3c
00000120: c4de b23d ac02 7b3c 36cb 71bd 2a2b 073d
00000130: 4d3f 5dbd cf6a 80bb f167 07bd dcdc 253d
00000140: a7a6 b6bc 6b05 17bb 9535 3c3d f0f0 a5bd
00000150: ec5f 33bd 945e 4cba 280c b1bd 535e 87bd
00000160: ad2b 78bd 624d 1f3d 02ee 613d b3a2 babd
00000170: 6e16 0f3c 2c83 a43c 9dbc 833d 31d9 b0bd
00000180: db6d f53c e21d ccbc 1ece 10bc e698 e8bc
00000190: cdbb 0a3d 9d81 2dbd d12f 2dbd 3efe 9dbd
000001a0: 206b 6f3d 5746 b3bc 9681 203d 6dfe ed3d
000001b0: d345 44bd 9848 853d acd8 243d cde0 6f3b
000001c0: fee9 923c 6252 073d c843 693c 8287 033e
000001d0: ee3f 9f3d f831 84bb 8183 5ebd 64da 1d3d
000001e0: dba5 7d3d 4a91 0dbd 17d6 58bc a62b 49bd
000001f0: bac1 41bc 7df4 a1bd 08e6 93bd 8556 953d
-0.04438198 0.0509897 0.061782982 -0.0137561625 -0.004187431 0.094532326 -0.0053774 -0.006503339
-0.0815462 0.11606213 0.08668959 0.037289396 -0.006879414 -0.0322462 -0.051677052 -0.08363034
-0.08679531 -0.07418074 -0.086590655 0.061867505 0.013896047 -0.047739822 -0.048643436 0.11103138
0.065223806 0.008295374 0.09717725 0.028208379 0.10097798 0.05581998 -0.0044586095 0.13333517
0.057476677 -0.07902672 -0.0019900373 -0.027893754 0.09779496 0.02694363 -0.048240535 0.083021216
-0.0035162168 -0.0014671606 0.06946096 -0.03237233 -0.006931026 0.05826724 -0.034844354 -0.046116475
-0.029838346 0.034084238 -0.061947227 -0.022576494 -0.045838837 -0.08500133 -0.0652198 0.014832576
-0.061129067 -0.021226069 -0.026418123 0.06925049 0.00070263894 0.025997708 0.026431492 -0.034946594
0.07705748 0.008550471 0.020647882 0.046974093 0.015101563 -0.010743432 0.074279584 0.021254255
0.087338954 0.015320461 -0.059031688 0.03300015 -0.054015446 -0.0039189826 -0.03305811 0.04049383
-0.022296263 -0.0023044 0.045949537 -0.08102596 -0.04379265 -0.00077960757 -0.08644897 -0.06609788
-0.060588527 0.038892157 0.055158623 -0.09113064 0.008733375 0.020082079 0.064324595 -0.08635176
0.02995961 -0.024916593 -0.008838205 -0.02839322 0.033870507 -0.042359937 -0.04228193 -0.077145085
0.05845177 -0.021884127 0.039186083 0.116207935 -0.047918152 0.06507987 0.040245697 0.0036602498
0.017933842 0.03303755 0.014237352 0.12844661 0.077758655 -0.004034277 -0.05432463 0.03853835
0.06192575 -0.034562387 -0.013234637 -0.049113892 -0.011825973 -0.079079606 -0.07221609 0.07291893

fc3.weight f4 [5, 128]
00000000: 9312 943d f338 09bd 3816 b4bd 1ae7 b13d
00000010: 1e5b 84bd d1f2 9bbc 0627 48bd e818 4b3c
00000020: 2158 3cbd 894b a4bc 81b7 b7bd c222 b6bd
00000030: c5b8 fc3c 1394 99bd ce15 d33c 84bf 203d
00000040: a223 7a3d 461a 5b3c ba58 05bc 2403 8abc
00000050: a60c 2fbd 1b6c afbd e783 363d 59a9 e8bd
00000060: 0a1f 6e3d 61f9 823d 3ff2 f53c 9301 4b3d
00000070: 7fff 05be 1434 a2bd 5272 78bd 2b18 3dbd
00000080: f01d aebd 685a 513c b5b4 83bb 986f a0bd
00000090: 99b6 eabd ffa6 c9bd 0aea d13c 6bb8 91bd
000000a0: 7555 64bd cf34 a7bd 0fe9 aa3d cb89 92bd
000000b0: fe23 ff3c 1390 8cbd eadc 0bbd 6d15 723d
000000c0: 34f1 7abd 4f4d 04be 2794 c7bc 83c4 343c
000000d0: 69d1 7dbc f4a3 9f3d 8e75 cf3c 61ae f5bd
000000e0: 0928 da3c 2973 06be 7625 95bd 2bc2 a63d
000000f0: 450e bebd 0923 cb3c e4f4 e93c 9358 48bb
00000100: dc2e 96bd 6583 ffbd 990a 763c 084b a13d
00000110: 829b 13bd 8136 843d 1598 1cbd c1e8 8d3d
00000120: 94d9 c7bd feb5 68bc ef64 9b3d 2367 6e3d
00000130: 0723 3e3d 27cb 823d 621a 0b3c e422 543d
00000140: 6641 fabc be1f af3d fc2b c3bc ee65 94bb
00000150: 096c e7bc 09cc 2ebd 0378 bdbc bf45 663d
00000160: e11c 29bd 1710 36bc 05cc a13c 5a44 76bd
00000170: 318c f73c e0cd 1a3c 48d8 cb3c 6432 813b
00000180: 5999 abbd b7b5 873d fb57 843d acfe 30bd
00000190: f7eb a33b 44a5 febd 3236 a73d 6ed6 b13c
000001a0: fc67 eabd 2b8d ea3a 6b68 543d 5375 71bd
000001b0: 8027 aabd 1b5c 4bbd 18ff 34bd a9d9 1f3d
000001c0: d98a 52bd afb4 823d 3322 f0bd be95 cebd
000001d0: c9e9 9bbd 2d27 71bd ac32 583d cb6b 9ebd
000001e0: d3ad f4bb eb9c 733d 96b5 a9bd e414 483d
000001f0: c895 a93d 4976 07bd 86c4 49bd b1b4 edbc
00000200: 5b32 fdbc 59cd 803c ff25 323d 0ef0 133d
00000210: 2458 77bd e78d 8b3c 8ed7 53bd 91fd 1bbd
00000220: 4228 423d c52f b8bd a60e 88bd ae6a ccbd
00000230: 2880 593d 8038 593d d56d 093c 7e03 4abd
00000240: 5738 81bd 7782 9bbd 58e3 2d3d edab b0bd
00000250: 9b59 503d 5a43 9ebc a13d a1bd 578d e5bd
00000260: 1980 dabc a7f9 443d 35e7 61bd daa5 523d
00000270: d70e 89bd c16e ad3d 31f2 a33d 4f8e b0bd
00000280: cf11 0bbc df51 f8bb c500 863d 229a f7bc
00000290: e60c bb3c ba8e 4ebd 4df9 833d 6b97 ff3b
000002a0: 432e d43b 2e9f 8b3d 671f 943d ba8d 9a3d
000002b0: a370 a2bd 67d5 653d 7817 e5bd b81a 863d
000002c0: d0c8 4dbd d216 3d3c 9639 76bd 5dc4 8abd
000002d0: ba30 76bd 9602 15bd c45b 98bd 0881 e8bc
000002e0: e49e 8abd a663 16bd e07a a03c 06c1 77bd
000002f0: 56f9 05bc 3b04 85bd e1cf 67bd 0c68 04bd
00000300: c239 79bc 3a9e 6ebd 0924 753c e68b 9ebd
00000310: c1ff 85bd 492d ea3c 9534 ae3c f393 1a3c
00000320: 90da 66bc 6243 743c 1f49 523d b59a 0abd
00000330: 7cc9 37bd e86b 833d 2375 4ebc d6da a3bc
00000340: 1feb b3bc 656b d2bb a0f8 d4bc 331c 97bd
00000350: 0cbd c9bb 0986 abbd 9933 813d 79e4 9ebc
00000360: 6e38 b63c 6ede 1fbd 194c 0fbc 60f6 c03c
00000370: 6568 253d 7834 c43c f60d 363d 13c2 663d
00000380: 53bb 89bd db4f 0f3d 6b35 8d3d 82af 89bd
00000390: 8589 b8bd 885b 88bd 9897 d5bc 35ba cbbc
000003a0: e8c4 b5bd b3d8 513d 487a 98bd 48e1 f1bd
000003b0: 80cc 2e3d 0b5f 31bd d592 e8bb f751 80bd
000003c0: 3aa6 263c f716 11bd ac62 cfbd 73c9 73bc
000003d0: 7adc 1fbd 213f a8bd feec 39bc 716e 67bd
000003e0: 96da bebd 6279 b43b be77 83bd 129b 47bd
000003f0: dd57 9bbc 8c1c 94bd 9a7c 9abd 30c3 313d
0.07230105 -0.033501577 -0.087933004 0.08686657 -0.06462692 -0.019036682 -0.04886534 0.012396075
-0.045982484 -0.02005555 -0.089705475 -0.08893348 0.030849824 -0.07498946 0.025767233 0.039245144
0.06106914 0.013372963 -0.00813883 -0.0168472 -0.042736672 -0.08565541 0.044559386 -0.113604255
0.05813507 0.063952215 0.030022739 0.04956205 -0.13085745 -0.07920089 -0.0606559 -0.046165626
-0.08501804 0.012777902 -0.0040193447 -0.07833785 -0.11460609 -0.09846305 0.025624294 -0.07115253
-0.05574556 -0.08164369 0.08345234 -0.07155188 0.031145092 -0.068634175 -0.034146227 0.059102464
-0.061265185 -0.12920116 -0.024362637 0.01103318 -0.015491822 0.077949435 0.02532461 -0.11996151
0.026630418 -0.13129868 -0.07282536 0.08142503 -0.092800654 0.02479698 0.028559156 -0.0030570372
-0.073331565 -0.124762334 0.015017175 0.07875639 -0.036036976 0.06455708 -0.038230974 0.0692916
-0.097582966 -0.014203547 0.07587611 0.058203828 0.046420123 0.063864045 0.008490177 0.051791087
-0.030548763 0.08550976 -0.023824684 -0.0045287525 -0.028249757 -0.04267505 -0.023128515 0.05621886
-0.041287307 -0.011112235 0.019750604 -0.06012378 0.030218216 0.0094484985 0.024883404 0.0039427746
-0.08378858 0.06626456 0.064620934 -0.043211624 0.0050024944 -0.12433866 0.08164634 0.021708693
-0.11445615 0.0017894855 0.051857393 -0.05894978 -0.08308315 -0.049648385 -0.04418859 0.039025936
-0.051401947 0.06382119 -0.11725273 -0.10087155 -0.0761295 -0.05887525 0.0527827 -0.077354036
-0.0074670105 0.05947582 -0.08286588 0.048848048 0.08280522 -0.03307179 -0.049259685 -0.029016824
-0.0309078 0.015722917 0.043493267 0.036117606 -0.06038679 0.017035438 -0.05171924 -0.038083617
0.047401674 -0.08993486 -0.06643419 -0.09981285 0.053100735 0.0530324 0.008388002 -0.049319737
-0.06309574 -0.075932436 0.04245314 -0.08626542 0.050866704 -0.019319225 -0.07873083 -0.11208599
-0.02667241 0.04808965 -0.055152137 0.0514277 -0.066922836 0.0846839 0.08005179 -0.08620893
-0.008488133 -0.007578119 0.065431155 -0.030224863 0.022833299 -0.050429083 0.06444035 0.007800033
0.0064752414 0.068174705 0.07232552 0.075465634 -0.0793164 0.05611172 -0.11186117 0.06548065
-0.050240338 0.011541085 -0.060113512 -0.067757346 -0.060105063 -0.03637942 -0.07439378 -0.02838184
-0.06768587 -0.036716126 0.019589841 -0.060486816 -0.008177122 -0.064949475 -0.056594733 -0.03232579
-0.015211524 -0.058256365 0.014962205 -0.07741527 -0.06542922 0.028586047 0.021265307 0.009434688
-0.014090195 0.014908643 0.051339265 -0.033838946 -0.044869885 0.06417066 -0.01260117 -0.02000181
-0.0219627 -0.006421494 -0.02599746 -0.073784254 -0.0061565693 -0.083751746 0.063086696 -0.019396054
0.022243705 -0.039030485 -0.00874617 0.02355498 0.04038276 0.0239508 0.044446908 0.056337427
-0.067251824 0.034988265 0.06894954 -0.067229286 -0.09010605 -0.06658083 -0.026073262 -0.024869064
-0.088754475 0.05123205 -0.07445198 -0.11810547 0.042675495 -0.04330353 -0.007097582 -0.062656336
0.010171467 -0.03542229 -0.10126242 -0.014879572 -0.039028622 -0.08215166 -0.011348007 -0.05650181
-0.09319036 0.005507634 -0.064193234 -0.04873187 -0.018962795 -0.072320074 -0.07543297 0.043399036

fc3.bias f4 [5]
00000000: 81fe feba d08f 213d 4a24 5e3c d79e 0a3c
00000010: 0b10 413c
-0.001945451 0.03944379 0.013558457 0.008460722 0.01178361

fc1.weight f4 [128, 10]
00000000: 8964 11be ad5b c03d 1431 353e 64fc 47be
00000010: ea05 59be ca47 80be 76c2 7dbd 6dc0 abbd
00000020: fc5b 0b3e 54f3 84be 47a5 b63e ca6c 4c3d
00000030: 99c2 9e3e 001f 5bbd 3f38 523e 16c1 2e3d
00000040: 748e 0a3e 0d6c a23e 0af1 983e bf5f 72be
00000050: dd40 2a3e e290 973e aab8 bc3d 5f31 9cbe
00000060: 81d4 97bd e078 96be a45d 863e 3f6f 9bbe
00000070: d97f 77be 1f15 503e 4deb 8bbe e680 9dbd
00000080: 5dcd 5dbe f973 7f3e d36b 8cbd f528 203e
00000090: 4d76 833c d760 033e 7031 44be a382 453e
000000a0: 18a5 d23d 8d27 67bd 9cd9 353e 0e1a 483e
000000b0: 7eed 243e 26dd 8e3e 4978 053e 993a 813e
000000c0: 690d 893d e16c adbe 79f0 cfbd 742a 2c3e
000000d0: 3baa 803e 18cc 663e 2a56 103e 0deb ea3d
000000e0: 78f8 313e 566b 433e 0c45 9f3e 5edc b93d
000000f0: 58a0 2bbd 6f3c 8cbe 3206 363e f0d2 92be
00000100: 842c 0cbe d43f 7bbe 1b82 053d 8654 993c
00000110: df15 533d 1e9e 52bc ca1f 8f3e e22c 8a3e
00000120: a0d0 1b3e 3b75 29bc 3b17 1c3e 100e 50be
00000130: 0cba 0d3e e5bb 9dbe 2343 4f3e b7d0 c53d
00000140: cb08 aabd dc9e a33d 672a dcbd f86d 0c3e
00000150: e133 6ebe 8682 1ebe afb6 b8bd e1b1 063e
00000160: 2875 99be 8d37 6a3d e839 21be d12e 7ebe
00000170: 94ce 643e 8c11 853e 7ebe 203e 8c73 82be
00000180: 02a3 56bd 54e1 ab3e 5eaa 2fbd be33 273c
00000190: 8235 ca3e 9b6e 443e ed37 103e 7a78 73be
000001a0: f566 82be 30a6 afbe 9a09 553e b939 0d3e
000001b0: 2332 013e 56e8 993b c15e 003e 6973 f93d
000001c0: adf4 0bbe 4684 78be 091c a0be 5edc e4bd
000001d0: fcaf efbd 624e 143d ef92 88be 28ad 89be
000001e0: 663f 213e 6c66 bdbd cb35 bcbd 3bb5 80be
000001f0: b0c6 40bd b247 a9bd 9410 64be a8b5 1f3e
00000200: c56e 713e 9fb8 7d3e 04d8 c03c e0f6 813e
00000210: 9af1 b5bd eafe 75be 587d 213e e550 223e
00000220: 2a3d 453e d313 81be 915f 973e 9050 ae3b
00000230: 4145 b4bc c7dd 8bbd 29dd 14bd 7a56 3c3e
00000240: 9897 0b3d 548b 01be 73d3 fabd eba9 90be
00000250: 2eee cb3d 88a7 a0be dcaf 8a3d 90b0 393e
00000260: bdf4 fb3c 2e76 5b3e f8cf 533d dc11 303e
00000270: 5c96 8abe 5cf8 9ebe 31a4 a6bd bcc0 8bbe
00000280: 9630 afbd f481 753d 6a99 0e3d b44c 8bbe
00000290: 9b17 593c ae6e 913e a68d 0abe f186 a33d
000002a0: e875 d0bd 93e8 7bbe 4a2d 593e 82e5 fc3d
000002b0: b2dc 373e 976b 8abe f081 22be fb02 42be
000002c0: 8f2c 683e 2518 f73c 55cd 60be f369 edbc
000002d0: c854 9a3e cb31 b2bd 7879 903e d51a 9f3e
000002e0: a880 78be 80ea a0be edee f4bd 64f8 2bbe
000002f0: 9615 a8bc dd86 edbd c002 40be ce95 363e
00000300: 1138 323e 48cb 8a3e d6c0 4cbe 822a 15be
00000310: 72c8 96be ad37 5bbb 0d84 05be 9f47 543d
00000320: ab83 4fbd 3fdb b13e a480 313e 746f 80be
00000330: 391e f93d 1ed9 12bc e7ba 3a3d 5eef 3e3e
00000340: 4d98 f43c 727f 6cbe 18ed 843d 8148 fe3d
00000350: 3059 823e 1f1b ab3e 6256 4b3e 373a c93d
00000360: 6d20 d23d 8e75 f8bc 9a5f 5f3e 2a3f 1c3d
00000370: 4f25 7e3e d991 8c3e cd23 5e3d f48c 843e
00000380: 8a49 1abd 02aa be3c 6bb2 7f3e fc96 733e
00000390: f5a6 853e f55e b7bd 9ec2 3a3e 7252 67be
000003a0: fbe4 853e d060 76be bab1 543e a458 333e
000003b0: c79a 2abe ab9f 313e 502f bd3d 9370 0f3e
000003c0: 4139 6c3e 29df 913e ec7a 923e 4245 983e
000003d0: 8cba 13bd 01fa 9b3e 21c5 50be 39ee 6c3c
000003e0: 8d26 50bd 6107 cf3d a433 cdbd 45a2 8c3e
000003f0: 5868 d0bd d150 4c3e ca22 57be 7fef 0f3e
-0.14198507 0.09392486 0.17694503 -0.19529873 -0.21193662 -0.2505477 -0.06195303 -0.08386312
0.13609308 -0.25966895 0.35672972 0.049908437 0.3100784 -0.05349636 0.20529269 0.04266461
0.13530904 0.3172306 0.29871398 -0.23669337 0.16626306 0.29602724 0.092149094 -0.30506417
-0.07413579 -0.29389095 0.26243317 -0.30358312 -0.24169864 0.20320557 -0.27327958 -0.07690601
-0.21660371 0.24946584 -0.06856503 0.15640624 0.016047621 0.1282991 -0.19159484 0.19288115
0.102853954 -0.056434203 0.17758793 0.19541189 0.16106221 0.27903098 0.13034166 0.2524002
0.06692011 -0.3387213 -0.101532884 0.1681307 0.25129876 0.22538793 0.14095369 0.11470614
0.1737994 0.19083914 0.31107366 0.09075235 -0.041900963 -0.27389857 0.17775801 -0.28676558
-0.13688856 -0.24536067 0.03259478 0.018717062 0.05153453 -0.012855081 0.2795394 0.26987368
0.15216303 -0.010342891 0.15243237 -0.20317864 0.13840503 -0.30807415 0.20240454 0.0965895
-0.083024584 0.079892844 -0.10750275 0.13713825 -0.23261978 -0.15479478 -0.09019219 0.13153793
-0.29972196 0.057181884 -0.15744746 -0.24822547 0.22344428 0.2598995 0.15697667 -0.2547878
-0.05240155 0.3357035 -0.042887084 0.010205207 0.39493948 0.19182818 0.14083834 -0.23776427
-0.25469175 -0.34306479 0.20804444 0.1379155 0.12616782 0.004696886 0.12536146 0.12180216
-0.13667555 -0.24269208 -0.3127139 -0.11174844 -0.11703488 0.036207564 -0.266746 -0.2688992
0.15746841 -0.09248051 -0.09189948 -0.25138268 -0.047064483 -0.08265628 -0.22271949 0.1559664
0.23577411 0.24777459 0.023540504 0.25383663 -0.088839725 -0.24023023 0.15770471 0.15851171
0.19261613 -0.25210437 0.295651 0.0053196624 -0.02200568 -0.0682941 -0.036343727 0.18392363
0.034080118 -0.12650806 -0.12247362 -0.28254637 0.099575385 -0.31377816 0.06771824 0.1813376
0.030756349 0.214318 0.051712006 0.17194313 -0.2706784 -0.31048858 -0.08136786 -0.27295482
-0.08554189 0.059938386 0.034814276 -0.27206957 0.013250257 0.28404754 -0.13530597 0.079847224
-0.10178739 -0.24600439 0.21208683 0.12348463 0.17955282 -0.2703521 -0.1586988 -0.1894645
0.22673248 0.03016288 -0.21953328 -0.028981185 0.30142808 -0.087009035 0.28217673 0.3107516
-0.24267828 -0.3142891 -0.11959634 -0.16793972 -0.020518105 -0.11597989 -0.18751049 0.17830583
0.174042 0.27108216 -0.19995436 -0.14566997 -0.29449803 -0.0033449933 -0.13038655 0.051826116
-0.050662678 0.34737584 0.17334229 -0.25085032 0.12163968 -0.008962898 0.0455884 0.18645999
0.029857779 -0.23095492 0.064905345 0.12416173 0.2545867 0.3341913 0.19857171 0.09825557
0.10260091 -0.030329492 0.21813813 0.038146175 0.2481892 0.27455023 0.05423336 0.2588879
-0.03766779 0.023274425 0.24970405 0.23788065 0.2610394 -0.089536585 0.18238303 -0.22590044
0.2615126 -0.24060369 0.20770922 0.17514282 -0.16660605 0.17346065 0.0923754 0.14007787
0.23068716 0.2849057 0.28609407 0.2974034 -0.036066577 0.30464175 -0.20387699 0.014461094
-0.050818015 0.10108829 -0.10019615 0.27467552 -0.10176152 0.19952704 -0.21009365 0.14056204

fc1.bias f4 [128]
00000000: 4e01 3e3e fd33 20bd ca10 823d fd92 013e
00000010: 9cb3 6b3e d5d3 4cbc 9cfe dcbd c02a 783d
00000020: cf03 13bd 3901 5e3e 4727 833e 685a fc3c
00000030: 60f6 c83d d836 8c3e b656 a83d 025c 98bc
00000040: 4269 87be edbe 723e f2b1 9a3e 0dbc 0dbd
00000050: cff2 f33d ec23 13be 4d19 49be f192 7ebd
00000060: b727 0f3e 34b0 f73d 4e81 4f3e d59a 903d
00000070: 98fd 243e 438a 5d3e 5760 103e eb3e 603e
00000080: e97d 133e 42b3 f8bc 0500 dbbb 424d 363e
00000090: 6201 e13d 04e6 8c3e eb59 073e 1cbf 0a3e
000000a0: b5cb 363d 7fad cbbd 7be4 053e bf52 68be
000000b0: b00a 803e ff25 0f3e 0706 993e 8a5d 363d
000000c0: c56b 13bd f66c 84be fa5e 94be 3fa0 b43d
000000d0: f96c 86bd 5e0a b83d 68ab 963c 7742 853e
000000e0: 2378 6e3e a7ff bbbd 272b 49be 993c 363e
000000f0: 7de8 d53d 0834 4abe f531 593e e881 8c3e
00000100: 29d1 35be f3ab 6ebc 4209 a63d 8ce5 833e
00000110: b5ea 86be 400d 973e 9cfd 4abe 1187 303e
00000120: 8dcf 88be 7f44 8e3e 85d3 a43e ca82 0e3e
00000130: e2a8 39bc d8cc e63d e91d c0bd e33d 2d3e
00000140: 6618 99be 8830 02be ecb3 db3c 6f9f 8abe
00000150: dba7 593e 6d03 2cbe 77cf fd3d 14e8 763c
00000160: 691f 53be 5941 ce3d 77bc 2ebe 7b50 b0bd
00000170: 94e9 5d3e 6aa5 47be 4823 42be 9cce 32be
00000180: 9951 9b3e 50dc 95be 81b9 02be 622d 963e
00000190: bc0f f5bd af95 89be f34a 6b3e a8d5 103e
000001a0: ca76 42be b162 a0be c874 423e 8e0e a7bd
000001b0: c8d3 263e 5974 9abd 4d12 27be 85b9 9b3e
000001c0: 2380 303e c437 7fbd 8fa8 a73e 240a 68be
000001d0: 7310 91be ac77 303d b9a9 62be 9bf1 ccbd
000001e0: e868 93be 9273 573e 0b01 f43c fa51 6cbe
000001f0: a268 533e e181 bf3d d6f5 863e a0c3 923e
0.18555185 -0.03911208 0.063508585 0.12653728 0.23017734 -0.012501677 -0.107907504 0.060587645
-0.035892304 0.21680154 0.25615904 0.030804828 0.09812617 0.27385592 0.08219664 -0.01859856
-0.26447493 0.23705645 0.30213886 -0.034603167 0.119115464 -0.14369172 -0.19638558 -0.062151853
0.13979994 0.12094155 0.2026417 0.07060782 0.16112363 0.21634774 0.1409925 0.21899001
0.144035 -0.030358914 -0.006683352 0.17802909 0.10986592 0.27519238 0.13217895 0.13549465
0.044627864 -0.09945201 0.1307544 -0.22687815 0.25008154 0.13979338 0.2988741 0.0445228
-0.03599145 -0.2586438 -0.2897871 0.08819627 -0.06563754 0.089863524 0.01839228 0.2602727
0.23288016 -0.09179621 -0.19645368 0.17796554 0.10444734 -0.19746411 0.21210463 0.2744286
-0.1775557 -0.014567363 0.081072345 0.25761068 -0.26350942 0.29502296 -0.19823307 0.17239024
-0.2672085 0.27786633 0.32192627 0.1391708 -0.011331769 0.112695396 -0.09380705 0.16918139
-0.29901427 -0.12713826 0.026819192 -0.27074763 0.21255438 -0.16798182 0.123930864 0.01506998
-0.20617451 0.10071058 -0.17064081 -0.086091004 0.21671134 -0.19496694 -0.18958771 -0.17461628
0.30335692 -0.29269648 -0.12766077 0.293315 -0.11965892 -0.26872012 0.2297781 0.14144003
-0.18990627 -0.31325296 0.18989861 -0.08157073 0.16291726 -0.07541723 -0.16315575 0.30414978
0.1723638 -0.06230904 0.32745788 -0.22660118 -0.28332862 0.043082878 -0.22135057 -0.1000702
-0.28790975 0.2104018 0.029785654 -0.23078147 0.20645383 0.09350944 0.26359433 0.28664875

fc2.weight f4 [128, 128]
00000000: 373a 893b 6280 5fbd f299 cbbc b387 28bd
00000010: b91b 9abd bfbd a2bd f944 2dbd ee01 a3bc
00000020: ed34 19bd 0049 3dbd 6cca a5bd 5c89 b43c
00000030: deee 9fbd eb69 c93c 7717 d73c 6737 9fbb
00000040: 1239 60bd 9409 07bd 98cf e9bc a77f b3bd
00000050: 64c2 843d ecad a3bd 9d8d 753c 4443 52bd
00000060: 653d ea3b 64ec 91bd bf66 903d 1aff 223d
00000070: 9e81 e43c 4a95 bdbc 0616 8cbc a20f 8c3d
00000080: 6f52 b3bc a312 853b 5d57 15bd d39b 833d
00000090: 3d4d b3bc b111 2e3c 781e 873d 0d20 613d
000000a0: 7e04 4f3d 25e6 8dbd 564e 1bbd 78a0 5fbc
000000b0: b8eb af3c 6aef 883d 55de 243d 4ba2 72bc
000000c0: 2181 473c 92d8 873c a35c 473d c8e8 2fbd
000000d0: 6cdc abbd 58d8 a6bd c78f fa3c 31c0 65bd
000000e0: e4c4 21bd 22c5 253d 52de a83d 4fc3 3d3d
000000f0: a38a 893d 1fcb 1b3b 33c2 ea3c a0d3 84bd
00000100: 8d2e 843d 64cf 05bc f356 a7bd f22b 8c3c
00000110: 140f 2b3d 442f a73d 3934 7bbc 969c 383c
00000120: 16d8 fdbc 4aef 373d 4d5e 4c3b 5e2f 833d
00000130: 2bec 943c bc9a d03b 2136 febc 4f12 80bd
00000140: f7c5 14bd 9740 b1bc bdf8 11bd 80e2 cdbc
00000150: 6863 aabd 639c 8a3b b1da 3a3d 9a2d 4d3d
00000160: fa7d 35bd 2d98 193c 4062 a53d 79bd 2ebd
00000170: 91dc 4dbd 9831 293d 746f adbd 0841 873d
00000180: a0c4 43bd 9cfc 183d 2e40 48bc 76c0 8d3d
00000190: 9c12 6f3c a4b0 e4bc 46c1 d03b 3af8 893d
000001a0: cd0e 643d 07d1 ccba 5147 87bd ca9b 323d
000001b0: e38b 4cbd 82b3 92bd e629 3bbd 2094 1a3c
000001c0: b968 1f3d abf1 653d cc00 acbd 2ce2 18bd
000001d0: 49e6 e13c d533 02bd 25ec 853d 42de a83d
000001e0: 5d2c 0abd 2a9c d63b 5dc3 8a3d f254 7e3d
000001f0: 915e 113d 91e7 613d 1ef3 b0bb 4c10 613b
00000200: b2e2 13bc 6693 e43c 71fa f1ba b05a fc39
00000210: 5472 66bc 1dce acbd be99 a7bd 2b50 dfbc
00000220: c0e2 67bd 536d cdbd 8795 81bd e6ab 103d
00000230: f81c 143c d7c8 cabc 4bef 453d 333c 833d
00000240: 13eb 8ebc 2381 633d 00cf 38bd 9e10 d23b
00000250: af15 58bd c068 f13c b3fb 06bd c185 0d3d
00000260: 5643 8e3c 043d c2bd 56ce 5f3c 24f2 b93b
00000270: 2d34 aebd cfbe 5e3d 5023 753b 7625 e1bc
00000280: 3fef a8bc 1601 a13c f1f5 74bc b68f 7cbd
00000290: ad75 7bbd 6b5b b8bd b5c1 86bb c8c3 783d
000002a0: 2ccf 91bc 772a afbd 3b6d eb3c 1ddb 6c3d
000002b0: ca93 8ebd 9fcd bcbd e13b 813d 1246 063d
000002c0: 7434 e43b bbb6 4c3d 8825 3b3d 910d 093d
000002d0: f415 973d 0dc1 4c3c 3d43 3a3d 882d 8e3d
000002e0: eadf 9c3d 243b ffbb 2500 373d e186 9a3d
000002f0: a401 383d ccd3 fbbb 2c19 e03b 2bb5 2fbd
00000300: 37c5 5b3c c697 09bc 4421 c33c e171 26bd
00000310: 7895 063d 4844 b9bd 679c b23d b0b8 723c
00000320: 38fb fd3c e018 b4bd 64e4 963d 9fd4 54bd
00000330: bb60 c9bb a9a4 583d b37d 1cbd 1467 0abd
00000340: a015 38bd ef70 25bd db44 04bd c2c6 3ebc
00000350: 67ff b1bd 7909 6d3d c6d5 b6bd 77e7 80bd
00000360: 4907 463b e84c 353d 1448 793d e61b babd
00000370: b713 09bd 66e1 643c 45c7 8dbd 930a 4abd
00000380: b84c 893c 6353 1bbd aa78 4b3d 6574 0f3d
00000390: 7eb6 8a3d a6e0 893b b115 8bbd ff16 e9bc
000003a0: e4b4 cdbd eafc 99bc 506c 8abd 9828 8fbd
000003b0: fb8f aabd 24f0 943d e09e 79bc 1f11 2a3d
000003c0: 0e48 aebd 4131 edbc d0ba 35bb 3947 d6bc
000003d0: 8f2d a23d 494c 0dbc 1a2e e13b cd75 c13c
000003e0: 0f7c 01bc c9dd a7bd cc0d 3ebc c5b9 b03c
000003f0: ad32 d13c 5f04 92bd 32ff b3bd 265b acbd
0.004187848 -0.054565795 -0.02485368 -0.041145038 -0.07524819 -0.079463474 -0.042302106 -0.019898381
-0.03740399 -0.046212196 -0.080952495 0.022038154 -0.07809232 0.024586638 0.026256306 -0.0048588994
-0.054741926 -0.03296812 -0.028541371 -0.08764582 0.064823896 -0.07992157 0.0149873765 -0.05133368
0.007148432 -0.07125166 0.07050847 0.039794065 0.027893838 -0.023142476 -0.017100345 0.06838919
-0.021889893 0.0040610596 -0.03646027 0.064262055 -0.021887416 0.010624335 0.06597608 0.054962207
0.050541393 -0.06928662 -0.037916504 -0.013649099 0.021474704 0.066862896 0.040251095 -0.0148092015
0.012176783 0.016582761 0.04867233 -0.042946607 -0.083916515 -0.08146733 0.030586137 -0.05609149
-0.03949441 0.040471204 0.08245529 0.04632884 0.06715896 0.0023772193 0.028657055 -0.06485677
0.06454191 -0.008167122 -0.08170881 0.017110799 0.041762426 0.08163312 -0.015332275 0.011267802
-0.030986827 0.04490594 0.0031184137 0.06405519 0.01817902 0.006366102 -0.03103167 -0.06253492
-0.036321606 -0.021637244 -0.035637606 -0.025132418 -0.083197415 0.0042300685 0.045618717 0.050092317
-0.044309594 0.00937466 0.0807538 -0.042661164 -0.050259177 0.041307062 -0.084685236 0.066042006
-0.047794938 0.037350282 -0.012222333 0.06921475 0.014591839 -0.02791626 0.0063706962 0.067367986
0.055678178 -0.001562626 -0.066053994 0.043605603 -0.049938094 -0.07163145 -0.045694254 0.00943473
0.03891823 0.056138676 -0.083985895 -0.03732507 0.027575629 -0.031787712 0.065391816 0.08245517
-0.033733714 0.006549378 0.06775544 0.06209273 0.035490576 0.05515248 -0.0054000756 0.003434199
-0.009026216 0.027902316 -0.0018461478 0.00048132753 -0.014065344 -0.084377505 -0.08183621 -0.027259907
-0.05661273 -0.100306176 -0.06327348 0.035320185 0.00904011 -0.024753971 0.04832391 0.064079665
-0.017446076 0.055543076 -0.045119286 0.0064106723 -0.052755054 0.029468894 -0.032954883 0.034551386
0.017366093 -0.09484294 0.013660034 0.0056746174 -0.085060455 0.054381188 0.003740508 -0.027483683
-0.020621894 0.019653838 -0.014951215 -0.06166049 -0.06139152 -0.090018116 -0.004112447 0.060733587
-0.017798983 -0.085530214 0.028738609 0.05782615 -0.06961782 -0.092189066 0.06310249 0.032781668
0.0069642607 0.049978953 0.04569009 0.033460204 0.07377234 0.012497199 0.04547428 0.06942278
0.07659896 -0.0077890325 0.044677872 0.07545257 0.04492344 -0.0076851603 0.006838938 -0.042897385
0.013413719 -0.008398002 0.023819573 -0.040635947 0.03285739 -0.09046227 0.08721238 0.014814541
0.03100358 -0.08793807 0.07367781 -0.051960584 -0.0061455644 0.052891407 -0.038205814 -0.03378971
-0.0449425 -0.040390905 -0.03229223 -0.011644067 -0.08691292 0.057870362 -0.08927493 -0.062941484
0.0030216745 0.044262797 0.060859755 -0.090873525 -0.033466067 0.013969755 -0.06922773 -0.04932649
0.016760215 -0.03792132 0.04967562 0.03502311 0.06773089 0.0042076884 -0.06791247 -0.028453348
-0.10044268 -0.018797357 -0.0675894 -0.069901645 -0.08328243 0.07272366 -0.015235633 0.041520234
-0.08509837 -0.02895415 -0.0027729757 -0.026157008 0.07918846 -0.008624145 0.006871951 0.023615742
-0.007903113 -0.08196599 -0.011599969 0.021572957 0.02553686 -0.0712974 -0.08788909 -0.08415823

fc2.bias f4 [128]
00000000: e1c9 35bd 93da 503d 2710 7d3d 8761 61bc
00000010: 7918 89bb c8a5 c13d e734 b0bb f619 d5bb
00000020: b201 a7bd 4fae ed3d 398f b13d 91d2 183d
00000030: b56c e1bb 9714 04bd 51ab 53bd 6246 abbd
00000040: bdc1 b1bd 12ec 97bd 7156 b1bd c868 7d3d
00000050: 3fac 633c d58a 43bd 573e 47bd 2d6c e33d
00000060: 0f94 853d 52e9 073c 6217 c73d 4215 e73c
00000070: bfcd ce3d 7ea3 643d 8719 92bb e688 083e
00000080: aa6c 6b3d c3d8 a1bd 496b 02bb 7181 e4bc
00000090: 9755 c83d 85b1 dc3c de97 45bd 0707 aa3d
000000a0: 5470 66bb be4d c0ba 8c41 8e3d d998 04bd
000000b0: d841 e3bb a1a9 6e3d 75b9 0ebd a1e4 3cbd
000000c0: 8c6f f4bc bf89 0b3d 60bc 7dbd 5222 b9bc
000000d0: 81c1 3bbd 2d15 aebd f591 85bd a0d1 723c
000000e0: 7962 7abd 79e0 adbc d26a d8bc 33d3 8d3d
000000f0: 0fee 3e3a 6fc2 d43c 9982 d83c 2924 0fbd
00000100: 50d0 9d3d e953 0c3c bf25 a93c e867 403d
00000110: 8c6c 773c 3805 30bc e51f 983d 671d ae3c
00000120: 57e0 b23d ac02 7b3c 36cb 71bd 2a2b 073d
00000130: 4d3f 5dbd cf6a 80bb f167 07bd dcdc 253d
00000140: a7a6 b6bc 6b05 17bb 9535 3c3d f0f0 a5bd
00000150: ec5f 33bd cbb4 4aba 280c b1bd 535e 87bd
00000160: ad2b 78bd 7c5a 1f3d 02ee 613d b3a2 babd
00000170: 6e16 0f3c 2c83 a43c 9dbc 833d 31d9 b0bd
00000180: db6d f53c e21d ccbc 1ece 10bc cfc5 e8bc
00000190: 56ba 0a3d fc84 2dbd d12f 2dbd 3efe 9dbd
000001a0: 115c 6f3d 5746 b3bc 9681 203d 7dff ed3d
000001b0: d345 44bd 3b43 853d acd8 243d cde0 6f3b
000001c0: fee9 923c 6252 073d d636 693c 198c 033e
000001d0: ee3f 9f3d 22df 83bb 8183 5ebd 64da 1d3d
000001e0: 38ae 7d3d 4a91 0dbd 17d6 58bc a62b 49bd
000001f0: bac1 41bc 7df4 a1bd 08e6 93bd 8556 953d
-0.04438198 0.0509897 0.061782982 -0.0137561625 -0.0041838256 0.094554484 -0.0053774 -0.006503339
-0.0815462 0.11605512 0.08669896 0.037310187 -0.006879414 -0.0322462 -0.051677052 -0.08363034
-0.08679531 -0.07418074 -0.086590655 0.061867505 0.013896047 -0.047739822 -0.048643436 0.11104617
0.065223806 0.008295374 0.09721257 0.028208379 0.10097837 0.05581998 -0.0044586095 0.13333473
0.057476677 -0.07902672 -0.0019900373 -0.027893754 0.0978195 0.026940117 -0.048240535 0.083021216
-0.0035162168 -0.0014671606 0.06946096 -0.03237233 -0.0069353394 0.05826724 -0.034844834 -0.046116475
-0.029838346 0.03406691 -0.061947227 -0.022599373 -0.045838837 -0.08500133 -0.0652198 0.014820486
-0.061129067 -0.021225201 -0.026418123 0.06925049 0.00072833983 0.02597162 0.026429461 -0.034946594
0.07705748 0.008564928 0.020647882 0.046974093 0.015101563 -0.010743432 0.074279584 0.021254255
0.08734196 0.015320461 -0.059031688 0.03300015 -0.054015446 -0.0039189826 -0.03305811 0.04049383
-0.022296263 -0.0023044 0.045949537 -0.08102596 -0.04379265 -0.0007732629 -0.08644897 -0.06609788
-0.060588527 0.038904652 0.055158623 -0.09113064 0.008733375 0.020082079 0.064324595 -0.08635176
0.02995961 -0.024916593 -0.008838205 -0.028414635 0.03386911 -0.042363152 -0.04228193 -0.077145085
0.05843741 -0.021884127 0.039186083 0.11620996 -0.047918152 0.06506964 0.040245697 0.0036602498
0.017933842 0.03303755 0.014234265 0.12846412 0.077758655 -0.0040244022 -0.05432463 0.03853835
0.061933726 -0.034562387 -0.013234637 -0.049113892 -0.011825973 -0.079079606 -0.07221609 0.07291893
