dqn_car_model_final.pth (torch, 303161 bytes, 24 tensors)

fc1.weight f4 [128, 10]
-0.11581835 0.35041827 -0.17516589 -0.18064947 0.12552853 0.8043975 -0.4336672 0.3216463
-0.0851188 0.19245663 0.22870411 -0.09506332 0.065321706 0.23047085 -0.05150149 0.030991053
-0.28418133 -0.19228671 -0.26099476 -0.11482797 0.044467125 0.043925773 -0.12003478 -0.7287284
0.13411048 -0.20084114 -0.031709075 0.046544995 -0.09734406 0.16940655 0.2464346 0.058392912
-0.2230209 0.22012103 -0.6274411 -0.07503579 -0.11032369 -0.16212302 0.11569252 0.27263176
0.08548672 -0.25648522 -0.28079832 0.23224226 -0.13763544 -0.07904914 -0.2197375 0.3620858
0.014903373 -0.18141744 0.2424964 0.44396615 -0.1722944 0.7463321 -0.6333182 -0.2327767
0.429037 -0.2436848 0.27405554 0.35269138 -0.12839329 0.20645268 0.15111311 1.2500359
-0.1574275 -0.5924184 0.25754437 -0.2069188 0.21696644 -0.32197964 0.038327273 -0.12217446
-0.03954232 1.1794261 -4.6221445e-05 -0.5734666 -0.16146061 -0.13279565 0.38928825 -0.19388297
0.42761734 0.35996342 -0.31413785 -0.1771495 0.49000555 0.08465449 0.089091636 -0.008178618
-0.033403 0.08800461 0.18751675 0.5243384 -0.5124292 -0.073529854 0.3204959 0.12051369
0.45137346 0.15468359 -0.16501044 0.42500833 -0.15942933 -0.024735548 0.09618036 0.24194074
0.2811668 -0.31815472 0.2460728 0.22849919 0.35941437 0.09262632 -0.44717327 -0.552414
-0.26944134 -0.6852083 0.16670902 0.14037535 -0.322968 0.1401454 0.05559459 0.32074937
0.283201 0.43281344 -0.49128196 -0.38768294 0.028039813 0.21289267 0.7343315 -0.15025876
0.13460463 0.39647755 -0.016456144 0.35456908 0.17258987 4.5836883 -0.05386819 -0.9767842
-0.018175423 0.43877473 -0.4478991 -0.25341186 -0.13014479 -0.10029739 -0.09661356 0.75108916
-0.9106956 -0.92707 0.47816712 -0.029982235 0.19123113 0.31562576 0.44404656 -0.4601728
-0.06079238 -1.1019728 -1.2193477 0.71380776 -0.5529709 0.12305332 0.05624083 0.09985881
0.19409166 -0.075759046 0.45244554 0.15450653 0.40701944 0.041519094 -0.37658438 -0.053527087
-0.32049936 -0.031512704 -0.29622367 -0.17257811 0.0149863055 0.188568 0.45433328 -0.50518036
-0.18572158 0.34968176 -0.07927846 -0.44655257 -0.12322034 0.1925145 0.32467502 -0.30198798
0.12499103 -0.29921398 -0.28214604 -0.3202512 -0.16060703 -0.08913108 0.018149095 -0.07753012
0.20212215 -0.07139044 -0.17064954 0.035712637 -0.042249575 -0.25385016 -0.27199647 0.15040158
-0.4597641 -0.25156456 -0.27424288 -0.4242341 -0.17045671 -0.3021363 -0.17874265 -0.072345495
0.3032208 0.21864052 -0.25549042 -0.54405385 -0.57472605 0.3141955 -0.20247956 0.3931349
-0.5427866 0.032764103 0.018223593 0.4174674 -0.46606085 -0.026554238 0.54046804 -0.122987114
0.46276936 -0.017635537 -0.5640566 0.1549298 0.03310971 -0.5239806 0.26181155 0.1479188
0.29303527 -0.2299619 0.994162 -0.046457145 0.13666096 -0.10303002 -0.238752 -0.39729562
-0.17157897 0.115844704 0.033903997 0.032969594 0.15868767 -0.10302228 -0.1017112 -0.0898948
-0.29770204 0.2368599 0.36757615 0.3145473 -0.123875186 -0.12028497 0.5743516 0.19238245
00000000: 2c32 edbd 066a b33e b05e 33be 2dfc 38be
00000010: 8d8a 003e ffec 4d3f a109 debe d3ae a43e
00000020: c452 aebd 5a13 453e 6931 6a3e 8fb0 c2bd
00000030: 63c7 853d 8d00 6c3e 3af3 52bd f3e0 fd3c
00000040: 3780 91be cfe6 44be 1ba1 85be ed2a ebbd
00000050: 2923 363d 83eb 333d cbd4 f5bd f28d 3abf
00000060: 4254 093e 4da9 4dbe 60e1 01bd f7a5 3e3d
00000070: 535c c7bd e978 2d3e 5a59 7c3e 682d 6f3d
00000080: 975f 64be 6867 613e fb9f 20bf 5dac 99bd
00000090: 63f1 e1bd 9403 26be 33f0 ec3d 6496 8b3e
000000a0: a913 af3d 0852 83be ccc4 8fbe ead0 6d3e
000000b0: 4ef0 0cbe 84e4 a1bd de02 61be 4f63 b93e
000000c0: 472d 743c 7ec5 39be fa50 783e 884f e33e
000000d0: f16d 30be 9f0f 3f3f 2421 22bf 045d 6ebe
000000e0: bdaa db3e 8288 79be 0251 8c3e f793 b43e
000000f0: 8879 03be 5568 533e 65bd 1a3e 2d01 a03f
00000100: ad34 21be bba8 17bf dbdc 833e 86e2 53be
00000110: 732c 5e3e 84da a4be 0ffd 1c3d 9a36 fabd
00000120: 21f7 21bd 6ff7 963f e6dd 41b8 b5ce 12bf
00000130: ee55 25be 95fb 07be ca50 c73e 4289 46be
00000140: a9f0 da3e 204d b83e add6 a0be ae66 35be
00000150: 02e2 fa3e 555f ad3d ad75 b63d 9cff 05bc
00000160: 96d1 08bd c33b b43d 6404 403e 0b3b 063f
00000170: 8f2e 03bf d296 96bd 0a18 a43e e2cf f63d
00000180: 6c1a e73e 6065 1e3e 7ff8 28be b19a d93e
00000190: 7141 23be 34a2 cabc 35fa c43d 50bf 773e
000001a0: 18f5 8f3e 2de5 a2be 82fa 7b3e b1fb 693e
000001b0: 2905 b83e deb2 bd3d e5f3 e4be 016b 0dbf
000001c0: 37f4 89be d069 2fbf c5b5 2a3e 8ebe 0f3e
000001d0: 105c a5be 4782 0f3e 27b7 633d 4339 a43e
000001e0: b9ff 903e b999 dd3e 4f89 fbbe 617e c6be
000001f0: c0b3 e53c 8900 5a3e 26fd 3b3f 6fdd 19be
00000200: ccd5 093e 1bff ca3e 09cf 86bc 148a b53e
00000210: 66bb 303e 93ad 9240 e4a4 5cbd 880e 7abf
00000220: a0e4 94bc 15a7 e03e 0853 e5be 33bf 81be
00000230: ad44 05be b868 cdbd 55dd c5bd 6147 403f
00000240: 5923 69bf 7654 6dbf 52d2 f43e 4e9d f5bc
00000250: 18d2 433e b399 a13e 125a e33e c59b ebbe
00000260: 6e01 79bd 720d 8dbf 9613 9cbf 1bbc 363f
00000270: 808f 0dbf 6103 fc3d c95c 663d c782 cc3d
00000280: f7bf 463e 8f27 9bbd f1a6 e73e f636 1e3e
00000290: da64 d03e ed0f 2a3d abcf c0be 383f 5bbd
000002a0: 7e18 a4be 7713 01bd a1aa 97be 51b8 30be
000002b0: 1f89 753c f817 413e 5f9e e83e 8053 01bf
000002c0: cc2d 3ebe 7d09 b33e bf5c a2bd 8aa2 e4be
000002d0: f25a fcbd 8522 453e ce3b a63e 2b9e 9abe
000002e0: 4cfb ff3d 9332 99be 7275 90be f7f7 a3be
000002f0: 2b76 24be 5b8a b6bd 69ad 943c 1dc8 9ebd
00000300: 1cf9 4e3e 2735 92bd c1be 2ebe 6a47 123d
00000310: e40d 2dbd a6f8 81be 1f43 8bbe df02 1a3e
00000320: 3366 ebbe 12cd 80be 9069 8cbe 3635 d9be
00000330: 348c 2ebe 9cb1 9abe 5008 37be e029 94bd
00000340: c23f 9b3e 4de3 5f3e a4cf 82be 1d47 0bbf
00000350: 3f21 13bf 3cde a03e cd56 4fbe fa48 c93e
00000360: 10f4 0abf a733 063d a549 953c 49be d53e
00000370: 879f eebe 4688 d9bc 1d5c 0a3f abe0 fbbd
00000380: 1bf0 ec3e 6778 90bc 0366 10bf eba5 1e3e
00000390: 0c9e 073d 9823 06bf 2a0c 863e 0778 173e
000003a0: b808 963e 227b 6bbe 6781 7e3f d949 3ebd
000003b0: daf0 0b3e 6701 d3bd 677b 74be 556a cbbe
000003c0: 66b2 2fbe fd3f ed3d ebde 0a3d 200b 073d
000003d0: 057f 223e 58fd d2bd f64d d0bd c41a b8bd
000003e0: 676c 98be 678b 723e f132 bc3e 580c a13e
000003f0: 46b2 fdbd f757 f6bd b508 133f e8ff 443e

fc1.bias f4 [128]
0.10140544 -0.21823063 0.22106785 0.32027242 0.30914313 0.48138195 0.2004563 0.43929374
0.28801104 0.15946823 -0.08842995 -0.1642987 0.379096 0.07708552 0.10311666 0.35902372
-0.019833347 -0.22401054 -0.051053945 -0.19263136 -0.27994198 0.16706955 0.015126757 0.20713897
-0.20470226 -0.082279146 -0.03802772 -0.15257733 0.25648305 0.3032195 -0.015642475 -0.29087874
-0.0004790189 0.28274164 0.5679846 0.07866329 0.22978044 0.016506726 -0.23490016 0.34626368
0.084364064 0.23394367 -0.2591745 0.25723267 0.41235965 -0.03049125 -0.16595426 -0.31986386
-0.3470324 -0.007099533 0.021734772 -0.047325283 0.047237188 0.14220826 0.20506404 -0.24621174
-0.19282192 0.18288326 0.31395096 0.27967855 -0.026551858 0.0142866215 0.27955583 0.08372406
0.19342163 -0.16048335 0.11519354 0.30100927 0.34270683 0.30741844 -0.0010978308 -0.29062685
0.1509486 -0.34816355 -0.17371348 0.03956678 -0.146562 -0.046817627 0.29141685 -0.005745279
0.32579213 0.3571647 0.40915763 -0.0049991882 -0.37015623 0.37087446 0.38914675 -0.033094987
-0.35469648 -0.4021036 -0.0008546873 -0.091986924 0.35027334 -0.20849529 0.29765984 0.3634137
-0.14762333 0.16886964 -0.2659229 -0.04981265 -0.24367924 -0.07689479 0.2081406 0.23382701
0.36150074 0.075754546 -0.20098141 -0.32155976 -0.29368356 0.41892606 0.12900203 -0.29419816
-0.35981116 -0.19008295 0.28193074 0.3686778 -0.36290056 -0.041583177 0.15437637 0.37917447
-0.07556571 -0.12079168 0.23102652 -0.16741003 0.020056972 0.21430373 -0.051525325 0.15022919
00000000: a8ad cf3d da77 5fbe 9c5f 623e bffa a33e
00000010: 0248 9e3e b277 f63e 6b44 4d3e 1ceb e03e
00000020: 2f76 933e a44b 233e c31a b5bd eb3d 28be
00000030: df18 c23e 03df 9d3d d42e d33d f5d1 b73e
00000040: 8b79 a2bc 0563 65be f11d 51bd 2841 45be
00000050: 8e54 8fbe 4814 2b3e 38d6 773c 3d1c 543e
00000060: 789d 51be f881 a8bd f4c2 1bbd 3b3d 1cbe
00000070: bf51 833e 963f 9b3e a624 80bc 0fee 94be
00000080: d424 fbb9 83c3 903e 7067 113f 381a a13d
00000090: 904b 6b3e 1d39 873c ab89 70be 7949 b13e
000000a0: 11c7 ac3d ee8e 6f3e 85b2 84be 00b4 833e
000000b0: ce20 d33e c9c8 f9bc eaef 29be 32c5 a3be
000000c0: 3bae b1be 33a3 e8bb 1f0d b23c 28d8 41bd
000000d0: c87b 413d 0b9f 113e 4ffc 513e ee1e 7cbe
000000e0: 1c73 45be c045 3b3e 2ebe a03e 0732 8f3e
000000f0: 4883 d9bc 6f12 6a3c f121 8f3e 8577 ab3d
00000100: 5210 463e bf55 24be 97ea eb3d e31d 9a3e
00000110: 4577 af3e f365 9d3e 17e5 8fba 0bcd 94be
00000120: 4592 1a3e 7e42 b2be f2e1 31be c710 223d
00000130: 5914 16be d7c3 3fbd 9734 953e e542 bcbb
00000140: 3ace a63e 4bde b63e 1c7d d13e 3bd0 a3bb
00000150: 1e85 bdbe 42e3 bd3e 3e3e c73e 9c8e 07bd
00000160: c79a b5be 86e0 cdbe 180d 60ba a463 bcbd
00000170: 0757 b33e ca7f 55be df66 983e 5c11 ba3e
00000180: 922a 17be 2aec 2c3e 0c27 88be 5908 4cbd
00000190: 0d87 79be 047b 9dbd cf22 553e 5970 6f3e
000001a0: a016 b93e 3325 9b3d 12ce 4dbe 7ba3 a4be
000001b0: b15d 96be 7a7d d63e 1c19 043e 24a1 96be
000001c0: 2b39 b8be 1ba5 42be 3a59 903e 56c3 bc3e
000001d0: 1ace b9be 1f53 2abd d714 1e3e 2823 c23e
000001e0: 32c2 9abd a161 f7bd 3792 6c3e 896d 2bbe
000001f0: 854e a43c 7072 5b3e 380c 53bd aed5 193e

fc2.weight f4 [128, 128]
-0.027740182 -0.06289807 -0.10559741 -0.11523194 -0.048254803 0.088685855 -0.017396718 0.0072694505
0.0006222716 -0.052857675 -0.07630717 -0.10009353 0.06734901 -0.0076254453 -0.13129838 -0.118225716
-0.036215626 -0.031055773 0.022617538 -0.06325498 0.0027988662 -0.10446337 0.031129811 -0.00666561
-0.046233837 -0.037792765 0.01864374 -0.12976748 -0.11466407 -0.12018498 -0.045552645 -0.025079714
-0.048030116 0.007800402 0.002425055 0.0020072004 -0.03222225 -0.12183373 -0.07484341 -0.019803725
-0.062206183 -0.010893003 0.08142763 -0.037902564 -0.060851537 -0.06105644 0.0051405174 -0.09279933
0.006002595 0.008977717 0.020854227 0.050422013 -0.036287107 0.039401658 -0.12603647 -0.083869904
-0.008112528 -0.046702985 -0.06182342 -0.03353375 0.010009254 -0.027961273 -0.15834351 -0.08671508
0.02836739 0.04888638 -0.12098935 0.0204354 -0.013366941 -0.03606719 -0.08788634 -0.0108503895
-0.005883767 -0.08825852 0.0136701595 -0.03856925 -0.008142276 -0.10606362 0.012504503 -0.08565794
-0.058102526 -6.611714e-05 0.036578212 -0.05652436 -0.036468558 0.006827015 -0.056821298 -0.10539775
0.0137504 -0.08466078 -0.056440804 0.04063166 -0.0014271681 -0.12111519 -0.06544209 -0.030633641
-0.052091658 -0.09244544 -0.084259436 -0.11787329 0.053236306 -0.048626456 -0.11488263 -0.15092063
-0.03438676 -0.049738295 -0.03984835 0.0819098 -0.13689694 0.06578955 -0.01371876 -0.040133618
-0.035149794 -0.034165584 -0.009135839 -0.0021750948 -0.111246325 -0.0929275 -0.070351824 0.022193594
0.14918216 0.028050108 -0.10760803 -0.08316458 -0.16360259 -0.122633226 -0.11936149 -0.070559405
0.33870977 0.04947479 0.12672478 0.07060509 0.03481994 0.4322766 0.010112147 0.02706818
-0.48583207 -0.032412056 0.116522126 0.07613316 -0.040372726 0.3756832 0.10488457 0.37291878
-0.012010983 0.18220693 0.009240476 0.051500455 0.08055279 0.092467114 0.4089593 0.1576147
-0.07133652 -0.19707999 0.8117696 0.06995117 0.01992074 0.045039468 0.16300195 0.02225649
0.050368454 0.13251194 0.25414482 -0.18974169 -0.6600726 0.03624383 0.44700134 -0.23179668
0.024630852 -0.12781209 -0.05120315 0.050682873 0.11499678 0.107905135 -0.04264307 -0.038092457
-0.061852563 -0.21191292 0.24822018 0.01412641 0.007442164 0.08042753 0.07648708 0.07216284
0.07390788 0.5268133 0.039042696 0.07184887 -0.04281889 0.0049571064 0.15078117 0.014801686
0.052760962 -0.056532346 0.11595392 0.06749783 0.026742412 0.12921204 -0.028708164 -0.0589721
0.34468046 0.02213576 0.06646865 0.15244156 0.06911496 0.09676738 -0.0042835264 -0.042726558
-0.046820555 0.21534765 0.42582384 0.01171203 0.03776612 0.12408173 0.14804973 0.013336576
0.3174694 0.093806714 0.18921366 -0.03389945 0.11996068 -0.05467236 -0.030468293 0.5341433
0.08827288 -0.099006504 0.021926183 0.006467992 1.5517206 0.29543927 0.005481939 0.09090775
0.17724568 -0.07512865 -0.16179001 0.040017072 -0.025650473 -0.34898758 0.090534106 0.014907256
0.052232202 -0.01361496 0.15002425 0.08673526 0.04735516 -0.051540647 0.1732212 0.17926642
0.05425251 -0.033851486 0.035302415 -0.05345035 -0.010084374 -0.016196996 0.056358404 -0.2573069
00000000: 613f e3bc b4d0 80bd 7443 d8bd b9fe ebbd
00000010: d4a6 45bd eea0 b53d 9083 8ebc 9234 ee3b
00000020: f11f 233a 4a81 58bd ef46 9cbd d6fd ccbd
00000030: 47ee 893d dfde f9bb 1573 06be 5320 f2bd
00000040: d656 14bd ad68 febc 6a48 b93c d48b 81bd
00000050: 2f6d 373b e4f0 d5bd f203 ff3c 306b dabb
00000060: b15f 3dbd 96cc 1abd c2ba 983c c4e1 04be
00000070: ffd4 eabd 8b23 f6bd 6995 3abd f973 cdbc
00000080: 3abb 44bd 849a ff3b aced 1e3b 3c8b 033b
00000090: 7afb 03bd f683 f9bd 8047 99bd 6c3b a2bc
000000a0: e9cb 7ebd 9178 32bc 87c3 a63d b83f 1bbd
000000b0: 763f 79bd 5116 7abd c971 a83b 930d bebd
000000c0: 6bb1 c43b 4617 133c 7cd6 aa3c 5087 4e3d
000000d0: caa1 14bd a263 213d b40f 01be fcc3 abbd
000000e0: 69ea 04bc a14b 3fbd 8e3a 7dbd af5a 09bd
000000f0: dbfd 233c 0a0f e5bc cd24 22be ad97 b1bd
00000100: bb62 e83c 163d 483d 44c9 f7bd 2468 a73c
00000110: 0401 5bbc 31bb 13bd c1fd b3bd d5c5 31bc
00000120: 9dcc c0bb e2c0 b4bd cef8 5f3c cafa 1dbd
00000130: 2e67 05bc e237 d9bd b0df 4c3c 6e6d afbd
00000140: eafc 6dbd 5fa8 8ab8 09d3 153d 1686 67bd
00000150: 0e60 15bd 27b5 df3b 73bd 68bd c7da d7bd
00000160: 5c49 613c a262 adbd 792e 67bd 626d 263d
00000170: d10f bbba 3e0b f8bd 8106 86bd 67f3 fabc
00000180: 105e 55bd 0954 bdbd 3690 acbd 8d67 f1bd
00000190: 500e 5a3d 892c 47bd 9647 ebbd f08a 1abe
000001a0: 22d9 0cbd 62ba 4bbd 0638 23bd 53c0 a73d
000001b0: b62e 0cbe acbc 863d a6c4 60bc 2663 24bd
000001c0: 3bf9 0fbd 36f1 0bbd 7cae 15bc 098c 0ebb
000001d0: 1dd5 e3bd c650 bebd 9e14 90bd 57cf b53c
000001e0: 35c3 183e 57c9 e53c 9961 dcbd 3152 aabd
000001f0: 7087 27be 2127 fbbd cc73 f4bd 7381 90bd
00000200: 5e6b ad3e 14a6 4a3d 24c4 013e 6799 903d
00000210: 5a9f 0e3d 5c53 dd3e 6bad 253c 16be dd3c
00000220: fbbe f8be 81c2 04bd 27a3 ee3d b4eb 9b3d
00000230: df5d 25bd 8c59 c03e b9cd d63d 36ef be3e
00000240: b7c9 44bc 7494 3a3e 5e65 173c 24f2 523d
00000250: dcf8 a43d 665f bd3d 1d63 d13e bf65 213e
00000260: e218 92bd 56cf 49be 22d0 4f3f 8f42 8f3d
00000270: d230 a33c 4e7b 383d fce9 263e 3e53 b63c
00000280: 274f 4e3d 36b1 073e 451f 823e a54b 42be
00000290: 85fa 28bf 6974 143d 5cdd e43e 1c5c 6dbe
000002a0: a4c6 c93c 2ce1 02be 65ba 51bd d898 4f3d
000002b0: 6f83 eb3d 5efd dc3d 80aa 2ebd d606 1cbd
000002c0: 1d59 7dbd b3ff 58be 6e2d 7e3e 7572 673c
000002d0: 65dd f33b 30b7 a43d 42a5 9c3d 1cca 933d
000002e0: 045d 973d 3ddd 063f 3ceb 1f3d 8025 933d
000002f0: dc62 2fbd 396f a23b 6166 1a3e c582 723c
00000300: e11b 583d 768e 67bd 4079 ed3d 4d3c 8a3d
00000310: e712 db3c 2950 043e 622d ebbc bb8c 71bd
00000320: f579 b03e 0e56 b53c b720 883d a419 1c3e
00000330: 258c 8d3d fa2d c63d d35c 8cbb 0b02 2fbd
00000340: e9c6 3fbd 1884 5c3e 9505 da3e d0e3 3f3c
00000350: a6b0 1a3d 901e fe3d 599a 173e a781 5a3c
00000360: 598b a23e bc1d c03d 3ac1 413e 26da 0abd
00000370: f2ad f53d 20f0 5fbd a498 f9bc 9ebd 083f
00000380: 69c8 b43d ecc3 cabd 8a9e b33c 73f1 d33b
00000390: c89e c63f d143 973e d6a1 b33b d82d ba3d
000003a0: e47f 353e 0ddd 99bd 48ac 25be f1e8 233d
000003b0: f120 d2bc 80ae b2be f269 b93d 903d 743c
000003c0: 6ff1 553d 4811 5fbc f59f 193e 42a2 b13d
000003d0: 7cf7 413d 491c 53bd e660 313e 9e91 373e
000003e0: e137 5e3d dba7 0abd 4499 103d c1ee 5abd
000003f0: ee38 25bc 90af 84bc 12d8 663d bbbd 83be

fc2.bias f4 [128]
-0.004798718 0.1705651 0.051255453 0.03832067 0.21361415 0.15751424 0.02880924 -0.048823234
0.022771034 0.096350685 0.013552068 0.02838758 0.0016838016 0.08163776 -0.05336029 0.049518313
-0.067221075 0.22335343 -0.0032963667 -0.09755938 -0.1643886 -0.022275893 0.29870498 0.1436492
-0.0658606 -0.02855957 0.008457324 0.13155964 0.19810404 0.0702191 0.01519151 -0.093127824
-0.087165214 0.0037419898 -0.037094094 -0.067183815 0.01010674 0.12837015 -0.111409105 0.055487294
-0.1139769 -0.06617714 0.19024707 0.13553107 0.04060313 0.027662091 0.027260032 0.20488368
0.20024122 -0.07977244 0.07659824 0.17263435 -0.10086152 -0.10395304 -0.07019627 0.17153081
-0.020784846 -0.05014067 -0.032923285 -0.059122924 -0.052038096 0.0035711762 -0.05387401 -0.09161519
0.04637535 0.2275261 -0.04563259 0.1739347 -0.039242156 -0.07048713 0.18620838 0.04857259
-0.08373614 0.15998426 -0.04490501 0.0336996 -0.08820816 0.0460278 0.020205818 0.20679308
0.07249075 0.2061967 -0.100576974 0.22779417 -0.11696571 0.03850818 0.018780228 -0.10813724
-0.018696917 -0.015360111 0.05142147 -0.009480783 0.121102326 0.102741346 0.16990547 -0.02791564
-0.025302365 0.05258492 -0.020408606 0.17563377 0.14734843 -0.069281854 -0.09453576 -0.029939136
0.14935048 0.026859658 0.07280022 0.1266781 0.15802078 -0.10170825 -0.083483435 -0.09671896
0.12690498 0.17473269 0.18221577 0.072081596 0.010413694 0.04985485 0.025618503 -0.0699047
0.024892682 -0.043470543 0.043963425 -0.002505687 0.0405374 0.07467099 0.027686123 0.035241473
00000000: 903e 9dbb 9ea8 2e3e 3df1 513d 23f6 1c3d
00000010: abbd 5a3e 6a4b 213e 5b01 ec3c dffa 47bd
00000020: 528a ba3c 8253 c53d 7e09 5e3c 128d e83c
00000030: 02b3 dc3a b331 a73d 5290 5abd b7d3 4a3d
00000040: 34ab 89bd c3b6 643e db07 58bb 36cd c7bd
00000050: 7c55 28be ef7b b6bc dcef 983e c718 133e
00000060: ece1 86bd c2f5 e9bc 9690 0a3c 92b7 063e
00000070: c9db 4a3e 08cf 8f3d d0e5 783c cdb9 bebd
00000080: ad83 b2bd 2c3c 753b faef 17bd ab97 89bd
00000090: bd96 253c 7773 033e 752a e4bd a546 633d
000000a0: b96c e9bd e187 87bd 21d0 423e a8c8 0a3e
000000b0: 784f 263d 9c9b e23c 6e50 df3c 07cd 513e
000000c0: 090c 4d3e bc5f a3bd 8adf 9c3d 0fc7 303e
000000d0: 7c90 cebd 55e5 d4bd 10c3 8fbd c6a5 2f3e
000000e0: fb44 aabc 4e60 4dbd 91da 06bd e12a 72bd
000000f0: e625 55bd 650a 6a3b feaa 5cbd bfa0 bbbd
00000100: 14f4 3d3d 9afc 683e 3de9 3abd f01b 323e
00000110: 62bc 20bd 8e5b 90bd 69ad 3e3e 0df4 463d
00000120: da7d abbd ead2 233e 51ee 37bd 9708 0a3d
00000130: 7ba6 b4bd a587 3c3d ac86 a53c 91c1 533e
00000140: 0876 943d 3a25 533e 4dfb cdbd e042 693e
00000150: b88b efbd c1ba 1d3d fed8 993c 0f77 ddbd
00000160: 472a 99bc faa8 7bbc 529f 523d 4955 1bbc
00000170: 7f04 f83d 0e6a d23d b3fb 2d3e 57af e4bc
00000180: e846 cfbc 4963 573d f32f a7bc 57d9 333e
00000190: 82e2 163e a5e3 8dbd f79b c1bd eb42 f5bc
000001a0: 55ef 183e c908 dc3c 4818 953d e7b7 013e
000001b0: 33d0 213e 6a4c d0bd 5df9 aabd 9714 c6bd
000001c0: 61f3 013e 20ed 323e c596 3a3e 849f 933d
000001d0: 339e 2a3c 9934 4c3d e5dd d13c 322a 8fbd
000001e0: bdeb cb3c 2b0e 32bd fe12 343d 7436 24bb
000001f0: 8b0a 263d 1bed 983d 02ce e23c 5d59 103d

fc3.weight f4 [3, 128]
-0.08197762 -0.06804222 0.07308239 -0.0057672346 -0.14595844 -0.12719743 -0.015096083 0.015093039
-0.61642826 -0.16383931 0.049181957 -0.08119685 -0.001242301 -0.10397359 -0.08381143 -0.008849334
0.015203048 -0.16091034 -0.07347397 0.04177669 -1.1479506 0.0631421 0.6161162 -0.16874906
-0.0850244 -0.025755983 0.037161194 -0.04898721 -0.123232275 -0.09787929 0.079238035 0.008283394
-0.08603263 -0.054301877 0.06484288 0.024288269 -0.6277601 -0.12384332 0.031492587 -0.13093151
-0.62488115 0.048802637 -0.13163108 -0.055446893 0.3630146 -0.029626116 -0.023053544 -0.15477356
0.5519098 0.056519184 0.00057319715 -0.039830547 -0.017443685 0.051525716 0.030733895 -0.09223099
0.016266158 0.03273315 0.052038416 -0.06136478 -0.0047185025 0.025567142 0.012380743 -0.01797979
-0.009220807 0.42940548 -0.0102104535 -0.15256271 0.024809469 0.069105394 -0.12940162 0.023035303
-0.060451213 0.44625577 -0.0066754916 -0.025577648 0.06829857 0.03454448 0.055271465 -0.11713134
0.33627677 -0.14968854 -0.0747916 -0.32648823 -0.041003436 -0.056179363 -0.037974067 0.027384177
-0.21465522 0.02266827 0.0404305 0.0057407217 -0.06939607 -0.15393756 -0.29503086 0.06992851
-0.06127549 -0.11925211 0.0004542019 -0.0660118 -0.1476121 -0.025586683 0.020458685 0.012785965
-0.082128994 0.031764753 0.06329729 -0.09560233 -0.7498926 0.05832606 0.04215505 -0.04299456
-0.14572991 -0.04668452 -0.14820476 0.0711858 -0.0792592 0.020197947 0.06737999 -0.012243227
0.05491643 0.10481291 -0.019377192 -0.0121724205 0.046057336 -0.033215575 -0.06697528 0.0016059013
0.012914186 -0.029530725 0.0056276196 0.017753158 -0.16467324 -0.060538992 0.034423828 0.018918123
-0.6345688 -0.13232295 -0.024393044 -0.05037467 -0.05946339 -0.10102947 -0.06611029 0.014566334
0.032131817 -0.08439904 0.025560925 -0.01965019 -0.85689783 -0.0058327233 0.6180917 -0.11072925
-0.19671474 0.0015068764 -0.05396196 -0.09422581 -0.107845835 -0.11988251 0.019596193 -0.022584552
0.057028245 0.013066667 -0.048170254 -0.008317536 -0.4864176 -0.11270752 0.010177726 -0.12798621
-0.5881988 0.045078762 -0.11039234 -0.102768816 0.36497748 -0.09307186 -0.05773168 -0.08957616
0.5334257 -0.057149213 -0.024357622 -0.14325869 0.035887033 -0.025239704 -0.06201248 -0.15998323
0.013463982 -0.039242677 0.07267485 0.05956651 -0.070156686 -0.026372641 0.056598783 0.078502856
0.008509921 0.4454257 0.0023662946 -0.075104766 0.0568933 -0.062374856 -0.17819595 -0.047843665
-0.016354641 0.45325476 -0.018465957 -0.059696678 0.0024005743 -0.044150066 -0.020895397 -0.06806023
0.32464024 -0.043362953 0.03080275 -0.27767056 0.07725875 0.06169738 0.0060292813 0.08805911
-0.17458712 -0.009801418 0.01734332 -0.057051186 -0.09554542 -0.12970543 -0.30682677 0.04293832
-0.019518806 -0.11520501 0.0054702885 -0.16682889 -0.15665135 -0.00979352 0.03382584 0.03065898
-0.033123136 0.02299984 -0.086158596 -0.11079079 -0.8021596 0.03409447 0.052155484 -0.032093246
-0.17046224 -0.11995807 -0.15483585 0.051996868 -0.029720314 -0.06462163 0.058127087 -0.0109782005
0.05353617 0.07098942 0.021327358 -0.005277175 0.032479446 -0.10856696 -0.11311923 -0.023922876
00000000: e2e3 a7bd b859 8bbd 38ac 953d 12fb bcbb
00000010: 2176 15be 0b40 02be 9055 77bc cb48 773c
00000020: 3ece 1dbf 7ec5 27be 0573 493d 894a a6bd
00000030: b4d4 a2ba 1bf0 d4bd 54a5 abbd ccfc 10bc
00000040: 3416 793c aec5 24be 8579 96bd 091e 2b3d
00000050: 0cf0 92bf a550 813d cbb9 1d3f 8ecc 2cbe
00000060: 4621 aebd 36fe d2bc 5636 183d d0a6 48bd
00000070: 3461 fcbd f074 c8bd 8d47 a23d 13b7 073c
00000080: e031 b0bd a56b 5ebd 58cc 843d 31f8 c63c
00000090: e3b4 20bf 91a1 fdbd 5ffe 003d e912 06be
000000a0: 36f8 1fbf 46e5 473d 4cca 06be 481c 63bd
000000b0: 0ddd b93e 78b2 f2bc c9da bcbc f67c 1ebe
000000c0: f649 0d3f a980 673d 9c42 163a 5b25 23bd
000000d0: 0fe6 8ebc a10c 533d a6c5 fb3c 9ae3 bcbd
000000e0: 9b40 853c 3213 063d 3c26 553d a359 7bbd
000000f0: ab9d 9abb 2f72 d13c 9ad8 4a3c 5a4a 93bc
00000100: de12 17bc 09db db3e bf49 27bc 6639 1cbe
00000110: 3a3d cb3c 2187 8d3d dc81 04be 88b4 bc3c
00000120: b19b 77bd a37b e43e 15be dabb 3788 d1bc
00000130: 1fe0 8b3d 837e 0d3d 5564 623d 8ee2 efbd
00000140: 782c ac3e f447 19be 572c 99bd 7729 a7be
00000150: 38f3 27bd 551c 66bd b28a 1bbd c854 e03c
00000160: 94ce 5bbe cfb2 b93c 749a 253d aa1c bc3b
00000170: 871f 8ebd cfa1 1dbe 490e 97be ae36 8f3d
00000180: 02fc 7abd 733a f4bd f221 ee39 3231 87bd
00000190: a027 17be 2a9b d1bc f998 a73c 397c 513c
000001a0: 3f33 a8bd c21b 023d 02a2 813d 28cb c3bd
000001b0: f6f8 3fbf 4fe7 6e3d c6aa 2c3d 101b 30bd
000001c0: 393a 15be 4438 3fbd fdc2 17be dcc9 913d
000001d0: a652 a2bd 2a76 a53c 85fe 893d d197 48bc
000001e0: 0df0 603d 27a8 d63d ebbc 9ebc d56e 47bc
000001f0: 9ea6 3c3d 0e0d 08bd 562a 89bd 1b7d d23a
00000200: 0696 533c 6bea f1bc e567 b83b 126f 913c
00000210: 1aa0 28be bcf7 77bd 0000 0d3d 2efa 9a3c
00000220: 1a73 22bf ab7f 07be ecd3 c7bc ac55 4ebd
00000230: e28f 73bd 8ae8 cebd d564 87bd a2a7 6e3c
00000240: a79c 033d 67d9 acbd 2565 d13c 6ff9 a0bc
00000250: a85d 5bbf 6e20 bfbb 423b 1e3f 04c6 e2bd
00000260: 976f 49be 6282 c53a 3707 5dbd 76f9 c0bd
00000270: 47de dcbd f684 f5bd 3288 a03c 3d03 b9bc
00000280: 7396 693d 9315 563c 2c4e 45bd 4646 08bc
00000290: ba0b f9be 33d3 e6bd 7ac0 263c d10e 03be
000002a0: 3294 16bf 82a4 383d 6115 e2bd 7578 d2bd
000002b0: 54de ba3e 769c bebd 0e78 6cbd b573 b7bd
000002c0: 968e 083f 4b15 6abd a389 c7bc 68b2 12be
000002d0: 48fe 123d 7fc3 cebc cc00 7ebd a5d2 23be
000002e0: 0998 5c3c eebc 20bd 8dd6 943d 03fc 733d
000002f0: 4fae 8fbd 700b d8bc 20d4 673d 1bc6 a03d
00000300: 326d 0b3c d60e e43e d613 1b3b 87d0 99bd
00000310: f308 693d c77c 7fbd 0079 36be b8f7 43bd
00000320: 2bfa 85bc 0211 e83e eb45 97bc 8184 74bd
00000330: f452 1d3b b3d6 34bd d32c abbc 2963 8bbd
00000340: 3f37 a63e 5a9d 31bd 0c56 fc3c d62a 8ebe
00000350: d639 9e3d 64b6 7c3d 4791 c53b 5658 b43d
00000360: f7c6 32be 2096 20bc 9413 8e3c 81ae 69bd
00000370: 51ad c3bd 80d1 04be 6618 9dbe 18e0 2f3d
00000380: e7e5 9fbc 9bf0 ebbd 1b40 b33b 31d5 2abe
00000390: 3669 20be 0075 20bc f78c 0a3d 8b28 fb3c
000003a0: 20ac 07bd 296a bc3c eb73 b0bd 48e6 e2bd
000003b0: 555a 4dbf a5a6 0b3d fda0 553d 3574 03bd
000003c0: a78d 2ebe 94ac f5bd 4a8d 1ebe abfa 543d
000003d0: 0478 f3bc 5858 84bd ab16 6e3d e9dd 33bc
000003e0: be48 5b3d e762 913d b6b6 ae3c 27ec acbb
000003f0: 2b09 053d 5b58 debd 0eab e7bd e8f9 c3bc

fc3.bias f4 [3]
-0.04952723 -0.059511054 -0.20821573
00000000: 11dd 4abd ddc1 73bd 8136 55be

fc1.weight f4 [128, 10]
-0.11567597 0.35058248 -0.17522399 -0.1804166 0.12545554 0.8044449 -0.43369406 0.32157722
-0.0851985 0.19251473 0.22870411 -0.09506332 0.065321706 0.23047085 -0.05150149 0.030991053
-0.28418133 -0.19228671 -0.26099476 -0.11482797 0.044568297 0.04392318 -0.12001571 -0.728892
0.13411507 -0.20093691 -0.03172314 0.046476252 -0.09737433 0.16938747 0.24673918 0.05852858
-0.22267051 0.22016756 -0.62723076 -0.07534978 -0.11062924 -0.16268547 0.11508943 0.27228138
0.085645095 -0.25624654 -0.2807683 0.23251252 -0.13775091 -0.07894119 -0.21973689 0.36203563
0.01482184 -0.18144746 0.24261421 0.44405416 -0.17220499 0.7465094 -0.6334068 -0.23277155
0.42896372 -0.24378106 0.2739663 0.35260198 -0.12856771 0.20617156 0.15174986 1.2496651
-0.15756461 -0.592681 0.25712237 -0.20710143 0.21687396 -0.3226164 0.038346358 -0.12214223
-0.0393901 1.1794839 -7.002323e-05 -0.5735046 -0.16157411 -0.132895 0.38918442 -0.1940352
0.42746168 0.3598317 -0.31425548 -0.177493 0.48991323 0.08457426 0.08923121 -0.007970519
-0.03311822 0.08812221 0.18752442 0.52431244 -0.5124589 -0.073867455 0.32043892 0.12033895
0.45144856 0.15471011 -0.16496947 0.42503807 -0.15921871 -0.0244373 0.096200466 0.24224277
0.28101572 -0.31804794 0.24609429 0.22844581 0.3593266 0.09260621 -0.44701615 -0.5522207
-0.26926506 -0.68533343 0.16638194 0.1401832 -0.3229784 0.14010714 0.055535067 0.3205731
0.2830715 0.43268704 -0.49132016 -0.38792166 0.028055632 0.2128397 0.73436654 -0.15018986
0.13467647 0.39651576 -0.016585888 0.35442513 0.17251472 4.583982 -0.05401613 -0.9765786
-0.018115656 0.43898377 -0.44751066 -0.2533367 -0.13015671 -0.10033987 -0.09646053 0.75119066
-0.9107592 -0.92702466 0.47804433 -0.030053047 0.19117145 0.31547275 0.44437382 -0.45974588
-0.060829353 -1.101588 -1.2195405 0.71394986 -0.55289596 0.12301038 0.05616074 0.09989578
0.19409166 -0.075759046 0.45244554 0.15450653 0.40701944 0.041519094 -0.37658438 -0.053527087
-0.32049936 -0.031512704 -0.2962173 -0.17260537 0.0150070125 0.18879966 0.45408207 -0.50502086
-0.18563004 0.34974027 -0.07920911 -0.44657326 -0.12322034 0.1925145 0.32467502 -0.30198798
0.12499103 -0.29921398 -0.28214604 -0.3202512 -0.16060703 -0.08913108 0.018149095 -0.07753012
0.20212215 -0.07139044 -0.17064954 0.035712637 -0.042249575 -0.25385016 -0.27199647 0.15040158
-0.45962152 -0.25132382 -0.2738572 -0.42459437 -0.17068882 -0.3025397 -0.17901394 -0.072536126
0.30299437 0.21825486 -0.2553925 -0.54387105 -0.5744682 0.31392273 -0.2027411 0.39286998
-0.5428648 0.03270357 0.018124873 0.4172096 -0.46600553 -0.026497092 0.5406391 -0.12288659
0.4625025 -0.017677667 -0.5640075 0.15491857 0.03309633 -0.5241517 0.26160976 0.14770888
0.2933838 -0.23077944 0.9944968 -0.04699517 0.13633512 -0.10351086 -0.23937635 -0.39764416
-0.17157897 0.115844704 0.033903997 0.032969594 0.15868767 -0.10302228 -0.1017112 -0.0898948
-0.29770204 0.2368599 0.36746866 0.31445423 -0.12393407 -0.12048426 0.57430553 0.19235086
00000000: 86e7 ecbd 8c7f b33e eb6d 33be 21bf 38be
00000010: 6b77 003e 1af0 4d3f 260d debe c5a5 a43e
00000020: 8d7c aebd 9522 453e 6931 6a3e 8fb0 c2bd
00000030: 63c7 853d 8d00 6c3e 3af3 52bd f3e0 fd3c
00000040: 3780 91be cfe6 44be 1ba1 85be ed2a ebbd
00000050: 3f8d 363d cbe8 333d ccca f5bd ab98 3abf
00000060: 7655 093e 68c2 4dbe 20f0 01bd e25d 3e3d
00000070: 316c c7bd e973 2d3e 32a9 7c3e aabb 6f3d
00000080: bd03 64be 9b73 613e 3292 20bf fc50 9abd
00000090: 9591 e2bd 0597 26be 02b4 eb3d 7768 8b3e
000000a0: b266 af3d bf32 83be ddc0 8fbe c317 6e3e
000000b0: 930e 0dbe ebab a1bd b502 61be bc5c b93e
000000c0: 4ed7 723c 5dcd 39be dc6f 783e 115b e33e
000000d0: 8156 30be 3d1b 3f3f f326 22bf aa5b 6ebe
000000e0: 22a1 db3e bea1 79be 5045 8c3e 3f88 b43e
000000f0: 41a7 03be a31e 533e 5164 1b3e 07f5 9f3f
00000100: 9e58 21be f1b9 17bf 8ba5 833e 6612 54be
00000110: 3514 5e3e fa2d a5be 1211 1d3d b525 fabd
00000120: 8357 21bd 54f9 963f 6fd9 92b8 33d1 12bf
00000130: af73 25be a015 08be 2e43 c73e 2ab1 46be
00000140: 42dc da3e dc3b b83e 18e6 a0be bac0 35be
00000150: e8d5 fa3e 4535 ad3d dabe b63d c896 02bc
00000160: f8a6 07bd 6b79 b43d 6706 403e 5739 063f
00000170: 8230 03bf d247 97bd 9210 a43e 4474 f63d
00000180: 4424 e73e 546c 1e3e c2ed 28be 979e d93e
00000190: 3b0a 23be bc30 c8bc c004 c53d 7d0e 783e
000001a0: 4be1 8f3e 2ed7 a2be 2400 7c3e b3ed 693e
000001b0: a8f9 b73e 53a8 bd3d 4ddf e4be 565e 0dbf
000001c0: 1cdd 89be 0372 2fbf 0760 2a3e 2f8c 0f3e
000001d0: 6d5d a5be 3f78 0f3e bd78 633d 2822 a43e
000001e0: bfee 903e 2889 dd3e 518e fbbe ab9d c6be
000001f0: edd4 e53c a6f2 593e 72ff 3b3f 5fcb 19be
00000200: a1e8 093e 1d04 cb3e 21df 87bc 3677 b53e
00000210: b3a7 303e fbaf 9240 0440 5dbd 0e01 7abf
00000220: 4967 94bc 7bc2 e03e 1e20 e5be 59b5 81be
00000230: cd47 05be fd7e cdbd 198d c5bd 084e 403f
00000240: 8427 69bf 7d51 6dbf 3ac2 f43e cf31 f6bc
00000250: 73c2 433e a585 a13e f784 e33e d063 ebbe
00000260: 3328 79bd d600 8dbf e719 9cbf 6bc5 363f
00000270: 978a 0dbf deec fb3d ce08 663d 2996 cc3d
00000280: f7bf 463e 8f27 9bbd f1a6 e73e f636 1e3e
00000290: da64 d03e ed0f 2a3d abcf c0be 383f 5bbd
000002a0: 7e18 a4be 7713 01bd cba9 97be 76bf 30be
000002b0: f9df 753c b354 413e 727d e83e 0c49 01bf
000002c0: cd15 3ebe 2811 b33e 6338 a2bd 40a5 e4be
000002d0: f25a fcbd 8522 453e ce3b a63e 2b9e 9abe
000002e0: 4cfb ff3d 9332 99be 7275 90be f7f7 a3be
000002f0: 2b76 24be 5b8a b6bd 69ad 943c 1dc8 9ebd
00000300: 1cf9 4e3e 2735 92bd c1be 2ebe 6a47 123d
00000310: e40d 2dbd a6f8 81be 1f43 8bbe df02 1a3e
00000320: 8353 ebbe 84ad 80be 0337 8cbe 6f64 d9be
00000330: 0dc9 2ebe 7ce6 9abe 6e4f 37be d28d 94bd
00000340: 1422 9b3e 347e 5f3e cec2 82be 223b 0bbf
00000350: 5910 13bf 7bba a03e 5d9b 4fbe 4126 c93e
00000360: 30f9 0abf 2ef4 053d 9d7a 943c 7f9c d53e
00000370: 4798 eebe 6e10 d9bc 5367 0a3f f7ab fbbd
00000380: 21cd ec3e c1d0 90bc cc62 10bf f9a2 1e3e
00000390: 0490 073d ce2e 06bf b7f1 853e ff40 173e
000003a0: 6736 963e 7251 6cbe 5897 7e3f 027e 40bd
000003b0: 6f9b 0b3e 80fd d3bd 131f 75be 0498 cbbe
000003c0: 66b2 2fbe fd3f ed3d ebde 0a3d 200b 073d
000003d0: 057f 223e 58fd d2bd f64d d0bd c41a b8bd
000003e0: 676c 98be 678b 723e da24 bc3e 2500 a13e
000003f0: 25d1 fdbd 74c0 f6bd b005 133f a0f7 443e

fc1.bias f4 [128]
0.1013729 -0.21823063 0.22104447 0.31992105 0.30914116 0.48129994 0.20006001 0.4391696
0.28812706 0.15949805 -0.08841376 -0.16428642 0.37913427 0.077158794 0.10301662 0.35909277
-0.019833347 -0.22391324 -0.051053945 -0.19263136 -0.28015488 0.16702798 0.015144007 0.20678693
-0.20470226 -0.08221807 -0.03781946 -0.15257733 0.25614846 0.30321306 -0.014915627 -0.29087874
-0.0004828964 0.28264028 0.5680443 0.07872082 0.22967239 0.016506726 -0.23490016 0.34628984
0.084221736 0.23374921 -0.2591745 0.25735012 0.41237268 -0.03044704 -0.1660614 -0.32003024
-0.3470324 -0.0069382587 0.021579083 -0.047325283 0.047237188 0.14195137 0.20516995 -0.24585557
-0.19306788 0.18281654 0.31414047 0.27965295 -0.026551858 0.0138666425 0.27955583 0.0837479
0.19346182 -0.16048335 0.1150551 0.30082273 0.34272557 0.30741337 -0.0010978308 -0.29062685
0.15208815 -0.34833273 -0.17377666 0.039143924 -0.146562 -0.04697187 0.29143944 -0.0058316905
0.32577392 0.35653126 0.40908858 -0.0049991882 -0.37015623 0.37143466 0.38918972 -0.033112686
-0.35493794 -0.4021036 -0.0008546873 -0.091986924 0.3498975 -0.20857076 0.29775023 0.36331102
-0.14762333 0.16890915 -0.2659229 -0.049870826 -0.24355297 -0.076929845 0.20806377 0.23386456
0.36151683 0.075754546 -0.20096932 -0.32155976 -0.29361865 0.41898155 0.1292207 -0.29419816
-0.35981116 -0.19008295 0.28313583 0.3686817 -0.36290056 -0.041583177 0.15415284 0.37899834
-0.07530276 -0.12079168 0.23094484 -0.16741003 0.020023562 0.2141724 -0.051525325 0.15028754
00000000: 989c cf3d da77 5fbe 7b59 623e b1cc a33e
00000010: c047 9e3e f26c f63e 88dc 4c3e d6da e03e
00000020: 6485 933e 7553 233e 4612 b5bd b33a 28be
00000030: e31d c23e 6e05 9e3d 61fa d23d 02db b73e
00000040: 8b79 a2bc 8349 65be f11d 51bd 2841 45be
00000050: 7670 8fbe 6209 2b3e 921e 783c f4bf 533e
00000060: 789d 51be f361 a8bd 94e8 1abd 3b3d 1cbe
00000070: e425 833e be3e 9b3e ad60 74bc 0fee 94be
00000080: 422d fdb9 3ab6 903e 5a6b 113f 6238 a13d
00000090: 3d2f 6b3e 1d39 873c ab89 70be e74c b13e
000000a0: 727c ac3d f45b 6f3e 85b2 84be 65c3 833e
000000b0: 8322 d33e 126c f9bc 000c 2abe 01db a3be
000000c0: 3bae b1be 555a e3bb 9ec6 b03c 28d8 41bd
000000d0: c87b 413d b35b 113e 1218 523e 90c1 7bbe
000000e0: 96b3 45be 4234 3b3e 05d7 a03e ac2e 8f3e
000000f0: 4883 d9bc ea30 633c f121 8f3e 0584 ab3d
00000100: db1a 463e bf55 24be 02a2 eb3d 7005 9a3e
00000110: ba79 af3e 4965 9d3e 17e5 8fba 0bcd 94be
00000120: ffbc 1b3e ab58 b2be 82f2 31be 6155 203d
00000130: 5914 16be 9365 40bd 8d37 953e c417 bfbb
00000140: d7cb a63e 448b b63e 0f74 d13e 3bd0 a3bb
00000150: 1e85 bdbe af2c be3e e043 c73e 2ba1 07bd
00000160: 6dba b5be 86e0 cdbe 180d 60ba a463 bcbd
00000170: c425 b33e 9393 55be b872 983e e703 ba3e
00000180: 922a 17be 85f6 2c3e 0c27 88be 5a45 4cbd
00000190: f365 79be 658d 9dbd ab0e 553e 317a 6f3e
000001a0: bc18 b93e 3325 9b3d e7ca 4dbe 7ba3 a4be
000001b0: 2f55 96be c084 d63e 6e52 043e 24a1 96be
000001c0: 2b39 b8be 1ba5 42be 2ef7 903e d9c3 bc3e
000001d0: 1ace b9be 1f53 2abd 3eda 1d3e 120c c23e
000001e0: 5538 9abd a161 f7bd ce7c 6c3e 896d 2bbe
000001f0: 7408 a43c 0250 5b3e 380c 53bd fae4 193e

fc2.weight f4 [128, 128]
-0.027740182 -0.06289807 -0.10559741 -0.11523194 -0.048254803 0.088685855 -0.017396718 0.0072694505
0.0006222716 -0.052857675 -0.07630717 -0.10009353 0.06734901 -0.0076254453 -0.13129838 -0.118225716
-0.036215626 -0.031055773 0.022617538 -0.06325498 0.0027988662 -0.10446337 0.031129811 -0.00666561
-0.046233837 -0.037792765 0.01864374 -0.12976748 -0.11466407 -0.12018498 -0.045552645 -0.025079714
-0.048030116 0.007800402 0.002425055 0.0020072004 -0.03222225 -0.12183373 -0.07484341 -0.019803725
-0.062206183 -0.010893003 0.08142763 -0.037902564 -0.060851537 -0.06105644 0.0051405174 -0.09279933
0.006002595 0.008977717 0.020854227 0.050422013 -0.036287107 0.039401658 -0.12603647 -0.083869904
-0.008112528 -0.046702985 -0.06182342 -0.03353375 0.010009254 -0.027961273 -0.15834351 -0.08671508
0.02836739 0.04888638 -0.12098935 0.0204354 -0.013366941 -0.03606719 -0.08788634 -0.0108503895
-0.005883767 -0.08825852 0.0136701595 -0.03856925 -0.008142276 -0.10606362 0.012504503 -0.08565794
-0.058102526 -6.611714e-05 0.036578212 -0.05652436 -0.036468558 0.006827015 -0.056821298 -0.10539775
0.0137504 -0.08466078 -0.056440804 0.04063166 -0.0014271681 -0.12111519 -0.06544209 -0.030633641
-0.052091658 -0.09244544 -0.084259436 -0.11787329 0.053236306 -0.048626456 -0.11488263 -0.15092063
-0.03438676 -0.049738295 -0.03984835 0.0819098 -0.13689694 0.06578955 -0.01371876 -0.040133618
-0.035149794 -0.034165584 -0.009135839 -0.0021750948 -0.111246325 -0.0929275 -0.070351824 0.022193594
0.14918216 0.028050108 -0.10760803 -0.08316458 -0.16360259 -0.122633226 -0.11936149 -0.070559405
0.338647 0.04947479 0.12664825 0.07064803 0.034782108 0.43220994 0.010011471 0.02701925
-0.48581967 -0.03245865 0.11649008 0.0762227 -0.04043122 0.37504917 0.10484893 0.37286562
-0.012010983 0.18230858 0.009240476 0.051500455 0.080668196 0.09252016 0.40899444 0.15767656
-0.07133652 -0.19712612 0.81160754 0.06995117 0.019880995 0.04500431 0.16299187 0.02225649
0.050329454 0.13244143 0.25405625 -0.18980214 -0.6601891 0.03624383 0.44700134 -0.23185164
0.02455871 -0.12807854 -0.05120315 0.050629403 0.11496586 0.10786207 -0.042643398 -0.03802758
-0.061852563 -0.2119846 0.24820213 0.01412641 0.007442164 0.08033706 0.07643417 0.07221811
0.073999606 0.52676755 0.038989693 0.07181514 -0.04281889 0.004901248 0.15078117 0.014764468
0.052682377 -0.056532346 0.11590975 0.06746448 0.026688127 0.12918067 -0.028708164 -0.0589721
0.34544882 0.022194343 0.06655467 0.15235332 0.06911496 0.096690655 -0.0043217703 -0.042756297
-0.046874378 0.21526533 0.425777 0.01171203 0.03776612 0.12401797 0.14800596 0.013300211
0.31700668 0.093806714 0.18921366 -0.03389945 0.119912826 -0.054704424 -0.030557431 0.5340465
0.08827288 -0.099076316 0.021926183 0.006434691 1.551859 0.295389 0.005433449 0.09087353
0.17717049 -0.07512865 -0.16183898 0.040017072 -0.025688715 -0.34905398 0.0904786 0.014907256
0.052232202 -0.01361496 0.15004347 0.086703636 0.04735516 -0.051540647 0.17310634 0.17921735
0.05430827 -0.033851486 0.035287336 -0.05345035 -0.010115264 -0.016053852 0.056358404 -0.25737587
00000000: 613f e3bc b4d0 80bd 7443 d8bd b9fe ebbd
00000010: d4a6 45bd eea0 b53d 9083 8ebc 9234 ee3b
00000020: f11f 233a 4a81 58bd ef46 9cbd d6fd ccbd
00000030: 47ee 893d dfde f9bb 1573 06be 5320 f2bd
00000040: d656 14bd ad68 febc 6a48 b93c d48b 81bd
00000050: 2f6d 373b e4f0 d5bd f203 ff3c 306b dabb
00000060: b15f 3dbd 96cc 1abd c2ba 983c c4e1 04be
00000070: ffd4 eabd 8b23 f6bd 6995 3abd f973 cdbc
00000080: 3abb 44bd 849a ff3b aced 1e3b 3c8b 033b
00000090: 7afb 03bd f683 f9bd 8047 99bd 6c3b a2bc
000000a0: e9cb 7ebd 9178 32bc 87c3 a63d b83f 1bbd
000000b0: 763f 79bd 5116 7abd c971 a83b 930d bebd
000000c0: 6bb1 c43b 4617 133c 7cd6 aa3c 5087 4e3d
000000d0: caa1 14bd a263 213d b40f 01be fcc3 abbd
000000e0: 69ea 04bc a14b 3fbd 8e3a 7dbd af5a 09bd
000000f0: dbfd 233c 0a0f e5bc cd24 22be ad97 b1bd
00000100: bb62 e83c 163d 483d 44c9 f7bd 2468 a73c
00000110: 0401 5bbc 31bb 13bd c1fd b3bd d5c5 31bc
00000120: 9dcc c0bb e2c0 b4bd cef8 5f3c cafa 1dbd
00000130: 2e67 05bc e237 d9bd b0df 4c3c 6e6d afbd
00000140: eafc 6dbd 5fa8 8ab8 09d3 153d 1686 67bd
00000150: 0e60 15bd 27b5 df3b 73bd 68bd c7da d7bd
00000160: 5c49 613c a262 adbd 792e 67bd 626d 263d
00000170: d10f bbba 3e0b f8bd 8106 86bd 67f3 fabc
00000180: 105e 55bd 0954 bdbd 3690 acbd 8d67 f1bd
00000190: 500e 5a3d 892c 47bd 9647 ebbd f08a 1abe
000001a0: 22d9 0cbd 62ba 4bbd 0638 23bd 53c0 a73d
000001b0: b62e 0cbe acbc 863d a6c4 60bc 2663 24bd
000001c0: 3bf9 0fbd 36f1 0bbd 7cae 15bc 098c 0ebb
000001d0: 1dd5 e3bd c650 bebd 9e14 90bd 57cf b53c
000001e0: 35c3 183e 57c9 e53c 9961 dcbd 3152 aabd
000001f0: 7087 27be 2127 fbbd cc73 f4bd 7381 90bd
00000200: 2463 ad3e 14a6 4a3d 14b0 013e eaaf 903d
00000210: af77 0e3d 9f4a dd3e 2707 243c 7957 dd3c
00000220: 5bbd f8be 5df3 04bd 5a92 ee3d a61a 9c3d
00000230: 359b 25bd 7206 c03e 09bb d63d 3ee8 be3e
00000240: b7c9 44bc 1aaf 3a3e 5e65 173c 24f2 523d
00000250: 5e35 a53d 367b bd3d b867 d13e f775 213e
00000260: e218 92bd 6edb 49be 83c5 4f3f 8f42 8f3d
00000270: 78dd a23c 7056 383d 57e7 263e 3e53 b63c
00000280: 4226 4e3d ba9e 073e a913 823e 7e5b 42be
00000290: 2702 29bf 6974 143d 5cdd e43e 846a 6dbe
000002a0: 592f c93c 0527 03be 65ba 51bd c760 4f3d
000002b0: 3973 eb3d cae6 dc3d d8aa 2ebd cfc2 1bbd
000002c0: 1d59 7dbd 7e12 59be b328 7e3e 7572 673c
000002d0: 65dd f33b c287 a43d 8589 9c3d 17e7 933d
000002e0: 1b8d 973d 3dda 063f a8b3 1f3d d113 933d
000002f0: dc62 2fbd a69a a03b 6166 1a3e abe6 713c
00000300: 7ac9 573d 768e 67bd 1762 ed3d d12a 8a3d
00000310: 0fa1 da3c f047 043e 622d ebbc bb8c 71bd
00000320: abde b03e e9d0 b53c d14d 883d 8202 1c3e
00000330: 258c 8d3d c005 c63d a39d 8dbb 3a21 2fbd
00000340: 59ff 3fbd 846e 5c3e 71ff d93e d0e3 3f3c
00000350: a6b0 1a3d 22fd fd3d e08e 173e 21e9 593c
00000360: b34e a23e bc1d c03d 3ac1 413e 26da 0abd
00000370: db94 f53d bf11 60bd 9453 fabc 45b7 083f
00000380: 69c8 b43d 86e8 cabd 8a9e b33c 1ada d23b
00000390: 51a3 c63f 3a3d 973e 130b b23b e71b ba3d
000003a0: 2e6c 353e 0ddd 99bd 1eb9 25be f1e8 233d
000003b0: 2471 d2bc 34b7 b2be d84c b93d 903d 743c
000003c0: 6ff1 553d 4811 5fbc ffa4 193e ad91 b13d
000003d0: 7cf7 413d 491c 53bd ca42 313e c184 373e
000003e0: 5972 5e3d dba7 0abd 7489 103d c1ee 5abd
000003f0: 7eba 25bc 5e83 83bc 12d8 663d c5c6 83be

fc2.bias f4 [128]
-0.004798718 0.17051621 0.051255453 0.03832067 0.21356061 0.15744181 0.02880924 -0.048823234
0.022483401 0.09629067 0.013552068 0.02838758 0.0016838016 0.08159565 -0.05336029 0.049518313
-0.067221075 0.22329582 -0.0032963667 -0.09755938 -0.1643886 -0.022275893 0.29877013 0.14358652
-0.0658606 -0.02855957 0.008457324 0.13152064 0.198042 0.07016766 0.01519151 -0.093127824
-0.087165214 0.0037419898 -0.037094094 -0.067183815 0.01010674 0.1283172 -0.111409105 0.055433933
-0.11389913 -0.06617714 0.19019507 0.13549116 0.04038473 0.02764214 0.027260032 0.20480582
0.20028007 -0.07977244 0.07659824 0.17264217 -0.10086152 -0.10395304 -0.07019627 0.17149758
-0.020784846 -0.05014067 -0.032923285 -0.059122924 -0.052038096 0.0035711762 -0.05387401 -0.09161519
0.04637535 0.2275607 -0.04563259 0.17386794 -0.039242156 -0.07048713 0.18617097 0.049660545
-0.08373614 0.16000044 -0.04490501 0.0336996 -0.08820816 0.0460278 0.020205818 0.20674738
0.07255623 0.20613833 -0.100576974 0.22763065 -0.11696571 0.03850818 0.018780228 -0.10813724
-0.019692337 -0.015360111 0.05142147 -0.009480783 0.121090986 0.10266858 0.17021224 -0.02791564
-0.025302365 0.05252575 -0.020408606 0.1756297 0.14729881 -0.069281854 -0.09453576 -0.02983701
0.14927621 0.026859658 0.07280022 0.12664731 0.15802078 -0.10170825 -0.083483435 -0.09671896
0.12685968 0.17473717 0.18215877 0.072081596 0.010413694 0.04985485 0.025618503 -0.0699047
0.024892682 -0.043470543 0.043963425 -0.002505687 0.0405374 0.07466519 0.027658485 0.035241473
00000000: 903e 9dbb cd9b 2e3e 3df1 513d 23f6 1c3d
00000010: a2af 5a3e 6d38 213e 5b01 ec3c dffa 47bd
00000020: 1c2f b83c 0b34 c53d 7e09 5e3c 128d e83c
00000030: 02b3 dc3a 9f1b a73d 5290 5abd b7d3 4a3d
00000040: 34ab 89bd a9a7 643e db07 58bb 36cd c7bd
00000050: 7c55 28be ef7b b6bc 66f8 983e 5808 133e
00000060: ece1 86bd c2f5 e9bc 9690 0a3c 59ad 063e
00000070: 86cb 4a3e 10b4 8f3d d0e5 783c cdb9 bebd
00000080: ad83 b2bd 2c3c 753b faef 17bd ab97 89bd
00000090: bd96 253c 9665 033e 752a e4bd b10e 633d
000000a0: f243 e9bd e187 87bd 7fc2 423e 32be 0a3e
000000b0: 756a 253d c571 e23c 6e50 df3c 9eb8 513e
000000c0: 3816 4d3e bc5f a3bd 8adf 9c3d 1cc9 303e
000000d0: 7c90 cebd 55e5 d4bd 10c3 8fbd 109d 2f3e
000000e0: fb44 aabc 4e60 4dbd 91da 06bd e12a 72bd
000000f0: e625 55bd 650a 6a3b feaa 5cbd bfa0 bbbd
00000100: 14f4 3d3d ac05 693e 3de9 3abd 700a 323e
00000110: 62bc 20bd 8e5b 90bd 9aa3 3e3e db68 4b3d
00000120: da7d abbd 28d7 233e 51ee 37bd 9708 0a3d
00000130: 7ba6 b4bd a587 3c3d ac86 a53c 96b5 533e
00000140: 5c98 943d ed15 533e 4dfb cdbd 0218 693e
00000150: b88b efbd c1ba 1d3d fed8 993c 0f77 ddbd
00000160: d351 a1bc faa8 7bbc 529f 523d 4955 1bbc
00000170: 8dfe f73d e843 d23d 1e4c 2e3e 57af e4bc
00000180: e846 cfbc 3e25 573d f32f a7bc 46d8 333e
00000190: 80d5 163e a5e3 8dbd f79b c1bd bf6c f4bc
000001a0: dddb 183e c908 dc3c 4818 953d d5af 013e
000001b0: 33d0 213e 6a4c d0bd 5df9 aabd 9714 c6bd
000001c0: 81e7 013e 4dee 323e d487 3a3e 849f 933d
000001d0: 339e 2a3c 9934 4c3d e5dd d13c 322a 8fbd
000001e0: bdeb cb3c 2b0e 32bd fe12 343d 7436 24bb
000001f0: 8b0a 263d 10ea 983d 0c94 e23c 5d59 103d

fc3.weight f4 [3, 128]
-0.08197762 -0.067959 0.07308239 -0.0057672346 -0.14588241 -0.12711897 -0.015096083 0.015093039
-0.61569375 -0.16375847 0.049181957 -0.08119685 -0.001242301 -0.103892796 -0.08381143 -0.008849334
0.015203048 -0.16083214 -0.07347397 0.04177669 -1.1479506 0.0631421 0.6163443 -0.1686728
-0.0850244 -0.025755983 0.037161194 -0.048911832 -0.12315253 -0.097799204 0.079238035 0.008283394
-0.08603263 -0.054301877 0.06484288 0.024288269 -0.6277601 -0.123769 0.031492587 -0.13085541
-0.62488115 0.048802637 -0.13155387 -0.05536942 0.3634312 -0.029549964 -0.023053544 -0.15469354
0.552167 0.056519184 0.00057319715 -0.039756466 -0.017443685 0.051525716 0.030733895 -0.092158504
0.016266158 0.03273315 0.052038416 -0.06136478 -0.0047185025 0.025567142 0.012380743 -0.01797979
-0.009220807 0.42964122 -0.0102104535 -0.15248576 0.024809469 0.069105394 -0.12932514 0.022775792
-0.060451213 0.44651535 -0.0066754916 -0.025577648 0.06829857 0.03454448 0.055271465 -0.11704841
0.33651784 -0.14960831 -0.0747916 -0.32596305 -0.041003436 -0.056179363 -0.037974067 0.027384177
-0.21301886 0.02266827 0.0404305 0.0057407217 -0.06932249 -0.1538574 -0.29507804 0.06992851
-0.06127549 -0.11917559 0.0004542019 -0.06593887 -0.1475366 -0.025586683 0.020458685 0.013018625
-0.082042985 0.031764753 0.06329729 -0.09552526 -0.7498926 0.05832606 0.04215505 -0.04299456
-0.14565295 -0.046611752 -0.14812446 0.0711858 -0.0792592 0.020197947 0.06737999 -0.012243227
0.05491643 0.10481291 -0.019377192 -0.0121724205 0.046057336 -0.03314559 -0.0668995 0.0016059013
0.012914186 -0.02935438 0.0056276196 0.017753158 -0.16448168 -0.06035558 0.034423828 0.018918123
-0.634584 -0.13212705 -0.024393044 -0.05037467 -0.05946339 -0.100845076 -0.06611029 0.014566334
0.032131817 -0.08420492 0.025560925 -0.01965019 -0.85689783 -0.0058327233 0.61775094 -0.11053413
-0.19671474 0.0015068764 -0.05396196 -0.094058804 -0.10765143 -0.11972114 0.019596193 -0.022584552
0.057028245 0.013066667 -0.048170254 -0.008317536 -0.4864176 -0.11251273 0.010177726 -0.1277879
-0.5881996 0.045078762 -0.1102049 -0.10262708 0.36523607 -0.09288733 -0.05773168 -0.08939173
0.5331378 -0.057149213 -0.024357622 -0.14307292 0.035887033 -0.025239704 -0.06201248 -0.15980706
0.013463982 -0.039242677 0.07267485 0.05956651 -0.070156686 -0.026372641 0.056598783 0.078502856
0.008509921 0.44513825 0.0023662946 -0.07491466 0.0568933 -0.062374856 -0.1779996 -0.04836362
-0.016354641 0.45289543 -0.018465957 -0.059696678 0.0024005743 -0.044150066 -0.020895397 -0.06787405
0.32425377 -0.043171275 0.03080275 -0.2777673 0.07725875 0.06169738 0.0060292813 0.08805911
-0.17381898 -0.009801418 0.01734332 -0.057051186 -0.0953511 -0.12952454 -0.3068472 0.04293832
-0.019518806 -0.11499792 0.0054702885 -0.1666472 -0.15645026 -0.00979352 0.03382584 0.03056526
-0.03296304 0.02299984 -0.086158596 -0.110595204 -0.8021596 0.03409447 0.052155484 -0.032093246
-0.17027792 -0.119765334 -0.15464501 0.051996868 -0.029720314 -0.06462163 0.058127087 -0.0109782005
0.05353617 0.07098942 0.021327358 -0.005277175 0.032479446 -0.10838096 -0.112945005 -0.023922876
00000000: e2e3 a7bd 172e 8bbd 38ac 953d 12fb bcbb
00000010: 3362 15be 7a2b 02be 9055 77bc cb48 773c
00000020: 1b9e 1dbf 4db0 27be 0573 493d 894a a6bd
00000030: b4d4 a2ba bfc5 d4bd 54a5 abbd ccfc 10bc
00000040: 3416 793c 2eb1 24be 8579 96bd 091e 2b3d
00000050: 0cf0 92bf a550 813d bdc8 1d3f 90b8 2cbe
00000060: 4621 aebd 36fe d2bc 5636 183d c657 48bd
00000070: 6537 fcbd f34a c8bd 8d47 a23d 13b7 073c
00000080: e031 b0bd a56b 5ebd 58cc 843d 31f8 c63c
00000090: e3b4 20bf 9a7a fdbd 5ffe 003d f6fe 05be
000000a0: 36f8 1fbf 46e5 473d 0fb6 06be 0ccb 62bd
000000b0: a713 ba3e c412 f2bc c9da bcbc fc67 1ebe
000000c0: d15a 0d3f a980 673d 9c42 163a add7 22bd
000000d0: 0fe6 8ebc a10c 533d a6c5 fb3c 99bd bcbd
000000e0: 9b40 853c 3213 063d 3c26 553d a359 7bbd
000000f0: ab9d 9abb 2f72 d13c 9ad8 4a3c 5a4a 93bc
00000100: de12 17bc eff9 db3e bf49 27bc 3a25 1cbe
00000110: 3a3d cb3c 2187 8d3d cf6d 04be 4c94 ba3c
00000120: b19b 77bd a99d e43e 15be dabb 3788 d1bc
00000130: 1fe0 8b3d 837e 0d3d 5564 623d 14b7 efbd
00000140: 114c ac3e ec32 19be 572c 99bd a1e4 a6be
00000150: 38f3 27bd 551c 66bd b28a 1bbd c854 e03c
00000160: 9e21 5abe cfb2 b93c 749a 253d aa1c bc3b
00000170: f3f8 8dbd cb8c 1dbe 7814 97be ae36 8f3d
00000180: 02fc 7abd 5512 f4bd f221 ee39 f50a 87bd
00000190: d613 17be 2a9b d1bc f998 a73c 124c 553c
000001a0: 2706 a8bd c21b 023d 02a2 813d bfa2 c3bd
000001b0: f6f8 3fbf 4fe7 6e3d c6aa 2c3d 101b 30bd
000001c0: 0c26 15be f7eb 3ebd f0ad 17be dcc9 913d
000001d0: a652 a2bd 2a76 a53c 85fe 893d d197 48bc
000001e0: 0df0 603d 27a8 d63d ebbc 9ebc d56e 47bc
000001f0: 9ea6 3c3d acc3 07bd 9b02 89bd 1b7d d23a
00000200: 0696 533c 9978 f0bc e567 b83b 126f 913c
00000210: e36d 28be 6a37 77bd 0000 0d3d 2efa 9a3c
00000220: 1974 22bf 504c 07be ecd3 c7bc ac55 4ebd
00000230: e28f 73bd dd87 cebd d564 87bd a2a7 6e3c
00000240: a79c 033d a173 acbd 2565 d13c 6ff9 a0bc
00000250: a85d 5bbf 6e20 bfbb ed24 1e3f b85f e2bd
00000260: 976f 49be 6282 c53a 3707 5dbd e7a1 c0bd
00000270: 5a78 dcbd 5b30 f5bd 3288 a03c 3d03 b9bc
00000280: 7396 693d 9315 563c 2c4e 45bd 4646 08bc
00000290: ba0b f9be 136d e6bd 7ac0 263c d5da 02be
000002a0: 4094 16bf 82a4 383d 1bb3 e1bd 262e d2bd
000002b0: 3900 bb3e b63b bebd 0e78 6cbd 0313 b7bd
000002c0: b87b 083f 4b15 6abd a389 c7bc b581 12be
000002d0: 48fe 123d 7fc3 cebc cc00 7ebd 76a4 23be
000002e0: 0998 5c3c eebc 20bd 8dd6 943d 03fc 733d
000002f0: 4fae 8fbd 700b d8bc 20d4 673d 1bc6 a03d
00000300: 326d 0b3c 29e9 e33e d613 1b3b db6c 99bd
00000310: f308 693d c77c 7fbd 8745 36be ee18 46bd
00000320: 2bfa 85bc e9e1 e73e eb45 97bc 8184 74bd
00000330: f452 1d3b b3d6 34bd d32c abbc 8d01 8bbd
00000340: 9704 a63e 5dd4 30bd 0c56 fc3c 8437 8ebe
00000350: d639 9e3d 64b6 7c3d 4791 c53b 5658 b43d
00000360: 9afd 31be 2096 20bc 9413 8e3c 81ae 69bd
00000370: 7047 c3bd 15a2 04be 141b 9dbe 18e0 2f3d
00000380: e7e5 9fbc 0884 ebbd 1b40 b33b 90a5 2abe
00000390: 7f34 20be 0075 20bc f78c 0a3d ff63 fa3c
000003a0: 4104 07bd 296a bc3c eb73 b0bd bd7f e2bd
000003b0: 555a 4dbf a5a6 0b3d fda0 553d 3574 03bd
000003c0: 565d 2ebe 8747 f5bd 435b 1ebe abfa 543d
000003d0: 0478 f3bc 5858 84bd ab16 6e3d e9dd 33bc
000003e0: be48 5b3d e762 913d b6b6 ae3c 27ec acbb
000003f0: 2b09 053d d6f6 ddbd b64f e7bd e8f9 c3bc

fc3.bias f4 [3]
-0.049376015 -0.059544463 -0.20827386
00000000: 813e 4abd e5e4 73bd be45 55be
