dqn_car_model_episode_800.pth (torch, 307153 bytes, 24 tensors)

fc1.weight f4 [128, 10]
00000000: 6dd8 ebbd 2a2c ba3d 4829 353e de40 50be
00000010: 477c 60be 5301 80be fded 7dbd 9ad6 abbd
00000020: 8a51 0b3e 70ef 84be ab3f c73e 9566 3e3d
00000030: babe 9e3e b216 80bd ff96 493e cfa4 303d
00000040: a782 0a3e 0566 a23e 63eb 983e fb57 72be
00000050: dd40 2a3e e290 973e aab8 bc3d 5f31 9cbe
00000060: 81d4 97bd e078 96be a45d 863e 3f6f 9bbe
00000070: d97f 77be 1f15 503e 4deb 8bbe e680 9dbd
00000080: 5dcd 5dbe f973 7f3e d36b 8cbd f528 203e
00000090: 4d76 833c d760 033e 7031 44be a382 453e
000000a0: 817b 063e ce30 74bd 35d2 353e 7211 403e
000000b0: 7533 1d3e 5a2f 8f3e dc6d 053e 4a35 813e
000000c0: 7bf9 883d 2869 adbe ce5a 99bd a01c 293e
000000d0: c0a6 803e ad63 5f3e 364a 093e b45f ec3d
000000e0: e8ee 313e 9b61 433e 7d40 9f3e 58ea b93d
000000f0: 9caa 5dbc 08d9 8dbe 21fe 353e 3615 97be
00000100: 6a17 14be 89ce 7abe 9553 053d b6f5 983c
00000110: 2be9 523d d91c 52bc ca1f 8f3e e22c 8a3e
00000120: a0d0 1b3e 3b75 29bc 3b17 1c3e 100e 50be
00000130: 0cba 0d3e e5bb 9dbe 2343 4f3e b7d0 c53d
00000140: cb08 aabd dc9e a33d 672a dcbd f86d 0c3e
00000150: e133 6ebe 8682 1ebe afb6 b8bd e1b1 063e
00000160: 2875 99be 8d37 6a3d 6e10 07be 0d96 80be
00000170: 88c7 643e ab7c 813e 3eec 193e 2f12 82be
00000180: 8bc8 56bd 89dc ab3e 46ce 2fbd e0a3 273c
00000190: 4219 d83e 1f65 413e 4c31 103e e5fc 7abe
000001a0: 47f2 85be 9d52 afbe 4700 553e 3430 0d3e
000001b0: 3c29 013e 6bbd 9a3b c15e 003e 6973 f93d
000001c0: adf4 0bbe 4684 78be 091c a0be 5edc e4bd
000001d0: fcaf efbd 624e 143d ef92 88be 28ad 89be
000001e0: 2cb2 393e a05d c3bd 2f45 bcbd 7040 84be
000001f0: c5a8 5bbd 4290 a7bd 511a 64be bcab 1f3e
00000200: 7565 713e 56c0 7d3e a91a 563d 9755 803e
00000210: 1901 b6bd 6517 7ebe 9fb6 193e aeee 223e
00000220: 3532 453e 7219 81be 515a 973e 9a48 af3b
00000230: 4145 b4bc c7dd 8bbd 29dd 14bd 7a56 3c3e
00000240: 9897 0b3d 548b 01be 73d3 fabd eba9 90be
00000250: 2eee cb3d 88a7 a0be dcaf 8a3d 90b0 393e
00000260: bdf4 fb3c 2e76 5b3e f8cf 533d dc11 303e
00000270: 5c96 8abe 5cf8 9ebe 31a4 a6bd bcc0 8bbe
00000280: 9630 afbd f481 753d 6a99 0e3d b44c 8bbe
00000290: 9b17 593c ae6e 913e a68d 0abe f186 a33d
000002a0: e875 d0bd 93e8 7bbe 4a2d 593e 82e5 fc3d
000002b0: b2dc 373e 976b 8abe f081 22be fb02 42be
000002c0: 8f2c 683e 2518 f73c 55cd 60be f369 edbc
000002d0: c854 9a3e cb31 b2bd 7879 903e d51a 9f3e
000002e0: a880 78be 80ea a0be edee f4bd 64f8 2bbe
000002f0: 9615 a8bc dd86 edbd c002 40be ce95 363e
00000300: 1138 323e 48cb 8a3e d6c0 4cbe 822a 15be
00000310: 72c8 96be ad37 5bbb 0d84 05be 9f47 543d
00000320: 456b a7bc 052e b03e bc78 313e 7f90 84be
00000330: 0325 e93d e2c8 08bc 568d 3a3d bbe3 3e3e
00000340: 0041 f43c 8a77 6cbe f229 bd3d e81f f83d
00000350: 9d55 823e 5d5d a73e 5b35 443e 1ea0 ca3d
00000360: e30c d23d 57c5 f8bc 3e56 5f3e 925b 1c3d
00000370: 33dd 873e b048 8b3e 8606 5e3d 74dc 813e
00000380: f904 2fbd 20bd c73c 70aa 7f3e e08e 733e
00000390: 28a3 853e 5b50 b7bd 2fde 563e 7d79 6abe
000003a0: 3ee1 853e e154 7ebe 3d40 4d3e 8c04 343e
000003b0: 38a5 2abe 0095 313e 4c1b bd3d 0d78 0f3e
000003c0: 4139 6c3e 29df 913e ec7a 923e 4245 983e
000003d0: 8cba 13bd 01fa 9b3e 21c5 50be 39ee 6c3c
000003e0: 8d26 50bd 6107 cf3d 4be7 90bd 3b09 8b3e
000003f0: 6476 d0bd 1466 443e cec2 5ebe a288 103e
-0.11515889 0.09090455 0.17691529 -0.20337245 -0.21922408 -0.2500101 -0.06199454 -0.083905414
0.13605323 -0.25963926 0.38915762 0.04648455 0.31004888 -0.06254329 0.19686507 0.043125924
0.13526402 0.3171846 0.29867086 -0.23666374 0.16626306 0.29602724 0.092149094 -0.30506417
-0.07413579 -0.29389095 0.26243317 -0.30358312 -0.24169864 0.20320557 -0.27327958 -0.07690601
-0.21660371 0.24946584 -0.06856503 0.15640624 0.016047621 0.1282991 -0.19159484 0.19288115
0.1313305 -0.059616856 0.17755969 0.18756655 0.1535166 0.27965814 0.1303019 0.2523597
0.066882096 -0.3386929 -0.07488023 0.16514826 0.2512722 0.21815367 0.13407215 0.115416914
0.17376292 0.19080202 0.31103888 0.09077901 -0.013529446 -0.27704644 0.17772724 -0.2950837
-0.14462057 -0.2449285 0.032550413 0.018671852 0.051491898 -0.012824261 0.2795394 0.26987368
0.15216303 -0.010342891 0.15243237 -0.20317864 0.13840503 -0.30807415 0.20240454 0.0965895
-0.083024584 0.079892844 -0.10750275 0.13713825 -0.23261978 -0.15479478 -0.09019219 0.13153793
-0.29972196 0.057181884 -0.13189861 -0.2511448 0.2234174 0.25290427 0.15031525 -0.25404498
-0.052437346 0.33566692 -0.042921327 0.010231942 0.4220677 0.18886231 0.14081305 -0.24510534
-0.26161405 -0.34242716 0.20800887 0.1378792 0.12613386 0.0047222874 0.12536146 0.12180216
-0.13667555 -0.24269208 -0.3127139 -0.11174844 -0.11703488 0.036207564 -0.266746 -0.2688992
0.18134373 -0.09539342 -0.09192883 -0.25830412 -0.053627748 -0.08181812 -0.22275664 0.15592855
0.23573859 0.24780402 0.05227152 0.250653 -0.08886928 -0.24813612 0.1501107 0.15911362
0.19257434 -0.25214726 0.29561093 0.005349231 -0.02200568 -0.0682941 -0.036343727 0.18392363
0.034080118 -0.12650806 -0.12247362 -0.28254637 0.099575385 -0.31377816 0.06771824 0.1813376
0.030756349 0.214318 0.051712006 0.17194313 -0.2706784 -0.31048858 -0.08136786 -0.27295482
-0.08554189 0.059938386 0.034814276 -0.27206957 0.013250257 0.28404754 -0.13530597 0.079847224
-0.10178739 -0.24600439 0.21208683 0.12348463 0.17955282 -0.2703521 -0.1586988 -0.1894645
0.22673248 0.03016288 -0.21953328 -0.028981185 0.30142808 -0.087009035 0.28217673 0.3107516
-0.24267828 -0.3142891 -0.11959634 -0.16793972 -0.020518105 -0.11597989 -0.18751049 0.17830583
0.174042 0.27108216 -0.19995436 -0.14566997 -0.29449803 -0.0033449933 -0.13038655 0.051826116
-0.020436892 0.3441011 0.17331213 -0.25891492 0.113840126 -0.008348675 0.045544945 0.1864156
0.02981615 -0.23092476 0.09236516 0.12115461 0.25455943 0.32688418 0.19160978 0.09893821
0.10256364 -0.030367536 0.21810243 0.038173266 0.2653595 0.27203894 0.05420544 0.25363505
-0.04272935 0.024382174 0.2496736 0.23784971 0.2610104 -0.089508735 0.20983194 -0.22897907
0.2614841 -0.24837066 0.20044036 0.1757986 -0.16664588 0.17341995 0.09233722 0.1401064
0.23068716 0.2849057 0.28609407 0.2974034 -0.036066577 0.30464175 -0.20387699 0.014461094
-0.050818015 0.10108829 -0.07075366 0.2715548 -0.10178831 0.19179565 -0.21754 0.14114621

fc1.bias f4 [128]
00000000: 7cf6 3d3e cd62 20bd ca10 823d fd92 013e
00000010: 46a9 6b3e 6a6b 4dbc b815 ddbd c02a 783d
00000020: cf03 13bd edf7 5d3e aa22 833e 685a fc3c
00000030: 09e3 c83d 6631 8c3e b656 a83d 025c 98bc
00000040: 4269 87be edbe 723e f2b1 9a3e 0dbc 0dbd
00000050: 34dc f33d 9b2d 13be 4521 49be 79bc 7ebd
00000060: b727 0f3e d39b f73d 3076 4f3e 3385 903d
00000070: 98fd 243e 867f 5d3e b056 103e f634 603e
00000080: e97d 133e 6105 f9bc 0500 dbbb 424d 363e
00000090: 6201 e13d 5fe1 8c3e eb59 073e 1cbf 0a3e
000000a0: 91a4 363d a6bf cbbd 7be4 053e 4d5d 68be
000000b0: 7a05 803e 431b 0f3e a200 993e 8a5d 363d
000000c0: c56b 13bd f66c 84be fa5e 94be 3fa0 b43d
000000d0: 4a81 86bd d3f5 b73d 68ab 963c b43c 853e
000000e0: 2378 6e3e a7ff bbbd 272b 49be 993c 363e
000000f0: 7de8 d53d 8e3d 4abe 0426 593e d17c 8c3e
00000100: 29d1 35be f3ab 6ebc 6af4 a53d 8ce5 833e
00000110: b5ea 86be 3a07 973e 9cfd 4abe 537d 303e
00000120: 8dcf 88be e93e 8e3e efcd a43e 5079 0e3e
00000130: e142 3abc d8cc e63d 4633 c0bd e33d 2d3e
00000140: d41d 99be 403c 02be 2c68 db3c 6f9f 8abe
00000150: dba7 593e 6d03 2cbe 77b9 fd3d 14e8 763c
00000160: f229 53be d22b ce3d 67c8 2ebe df64 b0bd
00000170: b4df 5d3e 94b1 47be af2e 42be 9cce 32be
00000180: 8a4c 9b3e 50dc 95be 3ac2 02be 3d28 963e
00000190: bc0f f5bd af95 89be 7841 6b3e a8d5 103e
000001a0: 7680 42be b162 a0be c874 423e 6e25 a7bd
000001b0: 31ca 263e 5974 9abd 4d12 27be 6ab4 9b3e
000001c0: 2380 303e 1e6d 7fbd bea3 a73e 240a 68be
000001d0: 7310 91be 3551 303d 0cb4 62be 9bf1 ccbd
000001e0: e868 93be f167 573e 9bb3 f33c 2f5d 6cbe
000001f0: a268 533e e181 bf3d d6f5 863e a0c3 923e
0.18551058 -0.039156724 0.063508585 0.12653728 0.23013791 -0.012537817 -0.10795158 0.060587645
-0.035892304 0.21676607 0.25612384 0.030804828 0.098089285 0.27381438 0.08219664 -0.01859856
-0.26447493 0.23705645 0.30213886 -0.034603167 0.11907235 -0.14372866 -0.19641598 -0.06219146
0.13979994 0.12090268 0.20259929 0.07056656 0.16112363 0.21630678 0.14095569 0.21895203
0.144035 -0.030398073 -0.006683352 0.17802909 0.10986592 0.27515694 0.13217895 0.13549465
0.044590537 -0.099486634 0.1307544 -0.22691841 0.25004178 0.13975243 0.29883295 0.0445228
-0.03599145 -0.2586438 -0.2897871 0.08819627 -0.06567629 0.08982434 0.01839228 0.26022875
0.23288016 -0.09179621 -0.19645368 0.17796554 0.10444734 -0.19750044 0.21205908 0.27438977
-0.1775557 -0.014567363 0.08103259 0.25761068 -0.26350942 0.294977 -0.19823307 0.17235307
-0.2672085 0.27782372 0.32188365 0.13913465 -0.011368484 0.112695396 -0.0938478 0.16918139
-0.2990557 -0.12718296 0.026783071 -0.27074763 0.21255438 -0.16798182 0.1238889 0.01506998
-0.2062147 0.10066952 -0.17068635 -0.0861299 0.21667367 -0.19501334 -0.18963121 -0.17461628
0.30331832 -0.29269648 -0.12769404 0.29327574 -0.11965892 -0.26872012 0.22974193 0.14144003
-0.18994316 -0.31325296 0.18989861 -0.08161436 0.16288067 -0.07541723 -0.16315575 0.30411083
0.1723638 -0.06235992 0.32742113 -0.22660118 -0.28332862 0.043046195 -0.22138995 -0.1000702
-0.28790975 0.21035744 0.029748728 -0.23082422 0.20645383 0.09350944 0.26359433 0.28664875

fc2.weight f4 [128, 128]
00000000: 373a 893b 6280 5fbd f299 cbbc b387 28bd
00000010: b91b 9abd bfbd a2bd f944 2dbd ee01 a3bc
00000020: ed34 19bd 0049 3dbd 6cca a5bd 5c89 b43c
00000030: deee 9fbd eb69 c93c 7717 d73c 6737 9fbb
00000040: 1239 60bd 9409 07bd 98cf e9bc a77f b3bd
00000050: 64c2 843d ecad a3bd 9d8d 753c 4443 52bd
00000060: 653d ea3b 64ec 91bd bf66 903d 1aff 223d
00000070: 9e81 e43c 4a95 bdbc 0616 8cbc a20f 8c3d
00000080: 6f52 b3bc a312 853b 5d57 15bd d39b 833d
00000090: 3d4d b3bc b111 2e3c 781e 873d 0d20 613d
000000a0: 7e04 4f3d 25e6 8dbd 564e 1bbd 78a0 5fbc
000000b0: b8eb af3c 6aef 883d 55de 243d 4ba2 72bc
000000c0: 2181 473c 92d8 873c a35c 473d c8e8 2fbd
000000d0: 6cdc abbd 58d8 a6bd c78f fa3c 31c0 65bd
000000e0: e4c4 21bd 22c5 253d 52de a83d 4fc3 3d3d
000000f0: a38a 893d 1fcb 1b3b 33c2 ea3c a0d3 84bd
00000100: 8d2e 843d 64cf 05bc f356 a7bd f22b 8c3c
00000110: 140f 2b3d 442f a73d 3934 7bbc 969c 383c
00000120: 16d8 fdbc 4aef 373d 4d5e 4c3b 5e2f 833d
00000130: 2bec 943c bc9a d03b 2136 febc 4f12 80bd
00000140: f7c5 14bd 9740 b1bc bdf8 11bd 80e2 cdbc
00000150: 6863 aabd 639c 8a3b b1da 3a3d 9a2d 4d3d
00000160: fa7d 35bd 2d98 193c 4062 a53d 79bd 2ebd
00000170: 91dc 4dbd 9831 293d 746f adbd 0841 873d
00000180: a0c4 43bd 9cfc 183d 2e40 48bc 76c0 8d3d
00000190: 9c12 6f3c a4b0 e4bc 46c1 d03b 3af8 893d
000001a0: cd0e 643d 07d1 ccba 5147 87bd ca9b 323d
000001b0: e38b 4cbd 82b3 92bd e629 3bbd 2094 1a3c
000001c0: b968 1f3d abf1 653d cc00 acbd 2ce2 18bd
000001d0: 49e6 e13c d533 02bd 25ec 853d 42de a83d
000001e0: 5d2c 0abd 2a9c d63b 5dc3 8a3d f254 7e3d
000001f0: 915e 113d 91e7 613d 1ef3 b0bb 4c10 613b
00000200: b2e2 13bc 6693 e43c 71fa f1ba b05a fc39
00000210: 5472 66bc 1dce acbd be99 a7bd 2b50 dfbc
00000220: c0e2 67bd 536d cdbd 8795 81bd e6ab 103d
00000230: f81c 143c d7c8 cabc 4bef 453d 333c 833d
00000240: 13eb 8ebc 2381 633d 00cf 38bd 9e10 d23b
00000250: af15 58bd c068 f13c b3fb 06bd c185 0d3d
00000260: 5643 8e3c 043d c2bd 56ce 5f3c 24f2 b93b
00000270: 2d34 aebd cfbe 5e3d 5023 753b 7625 e1bc
00000280: 3fef a8bc 1601 a13c f1f5 74bc b68f 7cbd
00000290: ad75 7bbd 6b5b b8bd b5c1 86bb c8c3 783d
000002a0: 2ccf 91bc 772a afbd 3b6d eb3c 1ddb 6c3d
000002b0: ca93 8ebd 9fcd bcbd e13b 813d 1246 063d
000002c0: 7434 e43b bbb6 4c3d 8825 3b3d 910d 093d
000002d0: f415 973d 0dc1 4c3c 3d43 3a3d 882d 8e3d
000002e0: eadf 9c3d 243b ffbb 2500 373d e186 9a3d
000002f0: a401 383d ccd3 fbbb 2c19 e03b 2bb5 2fbd
00000300: 37c5 5b3c c697 09bc 4421 c33c e171 26bd
00000310: 7895 063d 4844 b9bd 679c b23d b0b8 723c
00000320: 38fb fd3c e018 b4bd 64e4 963d 9fd4 54bd
00000330: bb60 c9bb a9a4 583d b37d 1cbd 1467 0abd
00000340: a015 38bd ef70 25bd db44 04bd c2c6 3ebc
00000350: 67ff b1bd 7909 6d3d c6d5 b6bd 77e7 80bd
00000360: 4907 463b e84c 353d 1448 793d e61b babd
00000370: b713 09bd 66e1 643c 45c7 8dbd 930a 4abd
00000380: b84c 893c 6353 1bbd aa78 4b3d 6574 0f3d
00000390: 7eb6 8a3d a6e0 893b b115 8bbd ff16 e9bc
000003a0: e4b4 cdbd eafc 99bc 506c 8abd 9828 8fbd
000003b0: fb8f aabd 24f0 943d e09e 79bc 1f11 2a3d
000003c0: 0e48 aebd 4131 edbc d0ba 35bb 3947 d6bc
000003d0: 8f2d a23d 494c 0dbc 1a2e e13b cd75 c13c
000003e0: 0f7c 01bc c9dd a7bd cc0d 3ebc c5b9 b03c
000003f0: ad32 d13c 5f04 92bd 32ff b3bd 265b acbd
0.004187848 -0.054565795 -0.02485368 -0.041145038 -0.07524819 -0.079463474 -0.042302106 -0.019898381
-0.03740399 -0.046212196 -0.080952495 0.022038154 -0.07809232 0.024586638 0.026256306 -0.0048588994
-0.054741926 -0.03296812 -0.028541371 -0.08764582 0.064823896 -0.07992157 0.0149873765 -0.05133368
0.007148432 -0.07125166 0.07050847 0.039794065 0.027893838 -0.023142476 -0.017100345 0.06838919
-0.021889893 0.0040610596 -0.03646027 0.064262055 -0.021887416 0.010624335 0.06597608 0.054962207
0.050541393 -0.06928662 -0.037916504 -0.013649099 0.021474704 0.066862896 0.040251095 -0.0148092015
0.012176783 0.016582761 0.04867233 -0.042946607 -0.083916515 -0.08146733 0.030586137 -0.05609149
-0.03949441 0.040471204 0.08245529 0.04632884 0.06715896 0.0023772193 0.028657055 -0.06485677
0.06454191 -0.008167122 -0.08170881 0.017110799 0.041762426 0.08163312 -0.015332275 0.011267802
-0.030986827 0.04490594 0.0031184137 0.06405519 0.01817902 0.006366102 -0.03103167 -0.06253492
-0.036321606 -0.021637244 -0.035637606 -0.025132418 -0.083197415 0.0042300685 0.045618717 0.050092317
-0.044309594 0.00937466 0.0807538 -0.042661164 -0.050259177 0.041307062 -0.084685236 0.066042006
-0.047794938 0.037350282 -0.012222333 0.06921475 0.014591839 -0.02791626 0.0063706962 0.067367986
0.055678178 -0.001562626 -0.066053994 0.043605603 -0.049938094 -0.07163145 -0.045694254 0.00943473
0.03891823 0.056138676 -0.083985895 -0.03732507 0.027575629 -0.031787712 0.065391816 0.08245517
-0.033733714 0.006549378 0.06775544 0.06209273 0.035490576 0.05515248 -0.0054000756 0.003434199
-0.009026216 0.027902316 -0.0018461478 0.00048132753 -0.014065344 -0.084377505 -0.08183621 -0.027259907
-0.05661273 -0.100306176 -0.06327348 0.035320185 0.00904011 -0.024753971 0.04832391 0.064079665
-0.017446076 0.055543076 -0.045119286 0.0064106723 -0.052755054 0.029468894 -0.032954883 0.034551386
0.017366093 -0.09484294 0.013660034 0.0056746174 -0.085060455 0.054381188 0.003740508 -0.027483683
-0.020621894 0.019653838 -0.014951215 -0.06166049 -0.06139152 -0.090018116 -0.004112447 0.060733587
-0.017798983 -0.085530214 0.028738609 0.05782615 -0.06961782 -0.092189066 0.06310249 0.032781668
0.0069642607 0.049978953 0.04569009 0.033460204 0.07377234 0.012497199 0.04547428 0.06942278
0.07659896 -0.0077890325 0.044677872 0.07545257 0.04492344 -0.0076851603 0.006838938 -0.042897385
0.013413719 -0.008398002 0.023819573 -0.040635947 0.03285739 -0.09046227 0.08721238 0.014814541
0.03100358 -0.08793807 0.07367781 -0.051960584 -0.0061455644 0.052891407 -0.038205814 -0.03378971
-0.0449425 -0.040390905 -0.03229223 -0.011644067 -0.08691292 0.057870362 -0.08927493 -0.062941484
0.0030216745 0.044262797 0.060859755 -0.090873525 -0.033466067 0.013969755 -0.06922773 -0.04932649
0.016760215 -0.03792132 0.04967562 0.03502311 0.06773089 0.0042076884 -0.06791247 -0.028453348
-0.10044268 -0.018797357 -0.0675894 -0.069901645 -0.08328243 0.07272366 -0.015235633 0.041520234
-0.08509837 -0.02895415 -0.0027729757 -0.026157008 0.07918846 -0.008624145 0.006871951 0.023615742
-0.007903113 -0.08196599 -0.011599969 0.021572957 0.02553686 -0.0712974 -0.08788909 -0.08415823

fc2.bias f4 [128]
00000000: e1c9 35bd 93da 503d 2710 7d3d 8761 61bc
00000010: 9d59 8abb c586 c13d e734 b0bb f619 d5bb
00000020: b201 a7bd 249f ed3d 727f b13d a8ae 183d
00000030: b56c e1bb 9714 04bd 51ab 53bd 6246 abbd
00000040: bdc1 b1bd 12ec 97bd 7156 b1bd c868 7d3d
00000050: 3fac 633c d58a 43bd 573e 47bd fb58 e33d
00000060: 0f94 853d 52e9 073c a7e8 c63d 4215 e73c
00000070: acc1 ce3d 7ea3 643d 8719 92bb 8182 083e
00000080: aa6c 6b3d c3d8 a1bd 496b 02bb 7181 e4bc
00000090: 0d34 c83d 7476 dc3c de97 45bd 0707 aa3d
000000a0: 5470 66bb be4d c0ba 8c41 8e3d d998 04bd
000000b0: 9a90 e4bb a1a9 6e3d e4d2 0ebd a1e4 3cbd
000000c0: 8c6f f4bc f36f 0b3d 60bc 7dbd 495b b9bc
000000d0: 81c1 3bbd 2d15 aebd f591 85bd 10af 723c
000000e0: 7962 7abd 9022 aebc d26a d8bc 33d3 8d3d
000000f0: 1e2f 323a 5c49 d43c 4f21 d83c 2924 0fbd
00000100: 50d0 9d3d 64e5 0b3c bf25 a93c e867 403d
00000110: 8c6c 773c 3805 30bc e51f 983d 671d ae3c
00000120: 83c8 b23d ac02 7b3c 36cb 71bd 2a2b 073d
00000130: 4d3f 5dbd cf6a 80bb f167 07bd dcdc 253d
00000140: a7a6 b6bc 6b05 17bb 9535 3c3d f0f0 a5bd
00000150: ec5f 33bd abbb 53ba 280c b1bd 535e 87bd
00000160: ad2b 78bd 8531 1f3d 02ee 613d b3a2 babd
00000170: 6e16 0f3c 2c83 a43c 9dbc 833d 31d9 b0bd
00000180: db6d f53c e21d ccbc 1ece 10bc 47f3 e8bc
00000190: c794 0a3d 879b 2dbd d12f 2dbd 3efe 9dbd
000001a0: a15c 6f3d 5746 b3bc 9681 203d 79f3 ed3d
000001b0: d345 44bd a933 853d acd8 243d cde0 6f3b
000001c0: fee9 923c 6252 073d fce5 683c 2c81 033e
000001d0: ee3f 9f3d 71cc 84bb 8183 5ebd 64da 1d3d
000001e0: 888f 7d3d 4a91 0dbd 17d6 58bc a62b 49bd
000001f0: bac1 41bc 7df4 a1bd 08e6 93bd 8556 953d
-0.04438198 0.0509897 0.061782982 -0.0137561625 -0.0042221085 0.094495334 -0.0053774 -0.006503339
-0.0815462 0.11602619 0.086668864 0.03727594 -0.006879414 -0.0322462 -0.051677052 -0.08363034
-0.08679531 -0.07418074 -0.086590655 0.061867505 0.013896047 -0.047739822 -0.048643436 0.11100956
0.065223806 0.008295374 0.09712344 0.028208379 0.10095534 0.05581998 -0.0044586095 0.13331033
0.057476677 -0.07902672 -0.0019900373 -0.027893754 0.09775553 0.026911952 -0.048240535 0.083021216
-0.0035162168 -0.0014671606 0.06946096 -0.03237233 -0.0069752457 0.05826724 -0.03486909 -0.046116475
-0.029838346 0.03404231 -0.061947227 -0.022626536 -0.045838837 -0.08500133 -0.0652198 0.014812246
-0.061129067 -0.021256715 -0.026418123 0.06925049 0.0006797182 0.025913887 0.02638307 -0.034946594
0.07705748 0.008538578 0.020647882 0.046974093 0.015101563 -0.010743432 0.074279584 0.021254255
0.08729651 0.015320461 -0.059031688 0.03300015 -0.054015446 -0.0039189826 -0.03305811 0.04049383
-0.022296263 -0.0023044 0.045949537 -0.08102596 -0.04379265 -0.0008076976 -0.08644897 -0.06609788
-0.060588527 0.038865585 0.055158623 -0.09113064 0.008733375 0.020082079 0.064324595 -0.08635176
0.02995961 -0.024916593 -0.008838205 -0.028436316 0.03383329 -0.04238465 -0.04228193 -0.077145085
0.058437947 -0.021884127 0.039186083 0.11618704 -0.047918152 0.06503994 0.040245697 0.0036602498
0.017933842 0.03303755 0.014214989 0.12842244 0.077758655 -0.0040526916 -0.05432463 0.03853835
0.06190446 -0.034562387 -0.013234637 -0.049113892 -0.011825973 -0.079079606 -0.07221609 0.07291893

fc3.weight f4 [5, 128]
00000000: 9312 943d f338 09bd 3816 b4bd 1ae7 b13d
00000010: 9d64 84bd d015 9cbc 0627 48bd e818 4b3c
00000020: 2158 3cbd ea72 a4bc d2c0 b7bd 012c b6bd
00000030: c5b8 fc3c 1394 99bd ce15 d33c 84bf 203d
00000040: a223 7a3d 461a 5b3c ba58 05bc 2403 8abc
00000050: a60c 2fbd 1b6c afbd e783 363d b0b2 e8bd
00000060: 0a1f 6e3d 61f9 823d d4cf f53c 9301 4b3d
00000070: 6d04 06be 1434 a2bd 5272 78bd 4d2b 3dbd
00000080: f01d aebd 685a 513c b5b4 83bb 986f a0bd
00000090: c5be eabd 52b0 c9bd 0aea d13c 6bb8 91bd
000000a0: 7555 64bd cf34 a7bd 0fe9 aa3d cb89 92bd
000000b0: c2fd fe3c 1390 8cbd 37f0 0bbd 6d15 723d
000000c0: 34f1 7abd 0952 04be 2794 c7bc 2675 343c
000000d0: 69d1 7dbc f4a3 9f3d 8e75 cf3c 4fb8 f5bd
000000e0: 0928 da3c e177 06be 7625 95bd 2bc2 a63d
000000f0: 2715 bebd 99fd ca3c 7dcf e93c 9358 48bb
00000100: dc2e 96bd a28c ffbd 990a 763c 084b a13d
00000110: 829b 13bd 8136 843d 1598 1cbd c1e8 8d3d
00000120: 30e2 c7bd feb5 68bc ef64 9b3d 2367 6e3d
00000130: 0723 3e3d 27cb 823d 621a 0b3c e422 543d
00000140: 6641 fabc be1f af3d fc2b c3bc ee65 94bb
00000150: 096c e7bc 31df 2ebd 0378 bdbc bf45 663d
00000160: e11c 29bd 3d5c 36bc 05cc a13c 5a44 76bd
00000170: 318c f73c e0cd 1a3c 48d8 cb3c 6432 813b
00000180: 5999 abbd b7b5 873d fb57 843d 2812 31bd
00000190: 2353 a33b b9ae febd 3236 a73d 6ed6 b13c
000001a0: f771 eabd 2b8d ea3a 6b68 543d 7e88 71bd
000001b0: 8027 aabd 8d6e 4bbd 18ff 34bd a9d9 1f3d
000001c0: d98a 52bd afb4 823d e42b f0bd 6e9e cebd
000001d0: c9e9 9bbd ca39 71bd ac32 583d cb6b 9ebd
000001e0: 3349 f5bb eb9c 733d 96b5 a9bd e414 483d
000001f0: c895 a93d 4976 07bd 86c4 49bd b1b4 edbc
00000200: 5b32 fdbc 59cd 803c ff25 323d 0ef0 133d
00000210: 1059 77bd 0c8c 8b3c 8ed7 53bd 91fd 1bbd
00000220: 4228 423d 2d30 b8bd e30e 88bd d66a ccbd
00000230: 2880 593d 8038 593d d56d 093c 7e03 4abd
00000240: 5738 81bd 7782 9bbd 58e3 2d3d edab b0bd
00000250: 9b59 503d 5a43 9ebc a13d a1bd e98d e5bd
00000260: 1980 dabc a7f9 443d 65e8 61bd daa5 523d
00000270: 8b0f 89bd c16e ad3d 31f2 a33d 788e b0bd
00000280: cf11 0bbc df51 f8bb c500 863d 229a f7bc
00000290: 6e09 bb3c d78e 4ebd 4df9 833d 6b97 ff3b
000002a0: 432e d43b 2e9f 8b3d 671f 943d ba8d 9a3d
000002b0: fa70 a2bd 67d5 653d 8417 e5bd b81a 863d
000002c0: d0c8 4dbd bf10 3d3c 9639 76bd f7c4 8abd
000002d0: ba30 76bd 9602 15bd c45b 98bd 5683 e8bc
000002e0: e49e 8abd ea64 16bd e07a a03c 06c1 77bd
000002f0: 0dee 05bc ee04 85bd a1d0 67bd 0c68 04bd
00000300: c239 79bc 7b9e 6ebd 0924 753c e68b 9ebd
00000310: c1ff 85bd 492d ea3c 9534 ae3c f393 1a3c
00000320: 7bdb 66bc 6243 743c 1f49 523d b59a 0abd
00000330: 7cc9 37bd e86b 833d 2375 4ebc d6da a3bc
00000340: 1feb b3bc 656b d2bb a0f8 d4bc 331c 97bd
00000350: 0cbd c9bb 9b86 abbd 9933 813d 79e4 9ebc
00000360: 6e38 b63c 57df 1fbd 194c 0fbc 60f6 c03c
00000370: 6568 253d 7834 c43c f60d 363d 13c2 663d
00000380: 53bb 89bd db4f 0f3d 6b35 8d3d f5af 89bd
00000390: 8c89 b8bd d85b 88bd 9897 d5bc 35ba cbbc
000003a0: 41c5 b5bd b3d8 513d 487a 98bd 77e1 f1bd
000003b0: 80cc 2e3d a45e 31bd d592 e8bb f751 80bd
000003c0: 3aa6 263c f716 11bd f362 cfbd 18ca 73bc
000003d0: 7adc 1fbd 163f a8bd feec 39bc 716e 67bd
000003e0: c6da bebd 6279 b43b be77 83bd 129b 47bd
000003f0: dd57 9bbc 8c1c 94bd 9a7c 9abd 30c3 313d
0.07230105 -0.033501577 -0.087933004 0.08686657 -0.06464503 -0.01905337 -0.04886534 0.012396075
-0.045982484 -0.020074327 -0.089723244 -0.08895112 0.030849824 -0.07498946 0.025767233 0.039245144
0.06106914 0.013372963 -0.00813883 -0.0168472 -0.042736672 -0.08565541 0.044559386 -0.11362207
0.05813507 0.063952215 0.030006327 0.04956205 -0.13087626 -0.07920089 -0.0606559 -0.046183873
-0.08501804 0.012777902 -0.0040193447 -0.07833785 -0.11462168 -0.098480836 0.025624294 -0.07115253
-0.05574556 -0.08164369 0.08345234 -0.07155188 0.03112686 -0.068634175 -0.034164634 0.059102464
-0.061265185 -0.12921919 -0.024362637 0.0110142585 -0.015491822 0.077949435 0.02532461 -0.11998045
0.026630418 -0.13131668 -0.07282536 0.08142503 -0.09281378 0.024779128 0.028541321 -0.0030570372
-0.073331565 -0.124779955 0.015017175 0.07875639 -0.036036976 0.06455708 -0.038230974 0.0692916
-0.09759939 -0.014203547 0.07587611 0.058203828 0.046420123 0.063864045 0.008490177 0.051791087
-0.030548763 0.08550976 -0.023824684 -0.0045287525 -0.028249757 -0.04269332 -0.023128515 0.05621886
-0.041287307 -0.01113039 0.019750604 -0.06012378 0.030218216 0.0094484985 0.024883404 0.0039427746
-0.08378858 0.06626456 0.064620934 -0.043230206 0.004984276 -0.124356695 0.08164634 0.021708693
-0.11447518 0.0017894855 0.051857393 -0.05896806 -0.08308315 -0.049665976 -0.04418859 0.039025936
-0.051401947 0.06382119 -0.117271215 -0.10088812 -0.0761295 -0.058893003 0.0527827 -0.077354036
-0.0074855327 0.05947582 -0.08286588 0.048848048 0.08280522 -0.03307179 -0.049259685 -0.029016824
-0.0309078 0.015722917 0.043493267 0.036117606 -0.06038767 0.017034553 -0.05171924 -0.038083617
0.047401674 -0.08993564 -0.066434644 -0.09981315 0.053100735 0.0530324 0.008388002 -0.049319737
-0.06309574 -0.075932436 0.04245314 -0.08626542 0.050866704 -0.019319225 -0.07873083 -0.11208708
-0.02667241 0.04808965 -0.05515327 0.0514277 -0.06692418 0.0846839 0.08005179 -0.08620924
-0.008488133 -0.007578119 0.065431155 -0.030224863 0.022831645 -0.05042919 0.06444035 0.007800033
0.0064752414 0.068174705 0.07232552 0.075465634 -0.07931705 0.05611172 -0.11186126 0.06548065
-0.050240338 0.011539637 -0.060113512 -0.06775849 -0.060105063 -0.03637942 -0.07439378 -0.028382938
-0.06768587 -0.036717333 0.019589841 -0.060486816 -0.0081744315 -0.06495081 -0.05659545 -0.03232579
-0.015211524 -0.058256608 0.014962205 -0.07741527 -0.06542922 0.028586047 0.021265307 0.009434688
-0.014090414 0.014908643 0.051339265 -0.033838946 -0.044869885 0.06417066 -0.01260117 -0.02000181
-0.0219627 -0.006421494 -0.02599746 -0.073784254 -0.0061565693 -0.08375283 0.063086696 -0.019396054
0.022243705 -0.039031353 -0.00874617 0.02355498 0.04038276 0.0239508 0.044446908 0.056337427
-0.067251824 0.034988265 0.06894954 -0.06723014 -0.0901061 -0.06658143 -0.026073262 -0.024869064
-0.08875514 0.05123205 -0.07445198 -0.11810582 0.042675495 -0.043303147 -0.007097582 -0.062656336
0.010171467 -0.03542229 -0.10126295 -0.014879726 -0.039028622 -0.08215158 -0.011348007 -0.05650181
-0.093190715 0.005507634 -0.064193234 -0.04873187 -0.018962795 -0.072320074 -0.07543297 0.043399036

fc3.bias f4 [5]
00000000: 5569 00bb 6b8d 213d 6caf 5e3c 8061 0a3c
00000010: ac09 423c
-0.0019594033 0.039441507 0.0135916285 0.008446097 0.011843126

fc1.weight f4 [128, 10]
00000000: bb9e ecbd 1d42 ba3d fe2d 353e 4d22 50be
00000010: 6e60 60be 6601 80be dcda 7dbd 08cd abbd
00000020: 5156 0b3e cbf1 84be 8203 c73e 6b99 3e3d
00000030: 7dc1 9e3e e2a2 7fbd 6fb7 493e fca6 303d
00000040: 4388 0a3e d368 a23e 30ee 983e 805d 72be
00000050: dd40 2a3e e290 973e aab8 bc3d 5f31 9cbe
00000060: 81d4 97bd e078 96be a45d 863e 3f6f 9bbe
00000070: d97f 77be 1f15 503e 4deb 8bbe e680 9dbd
00000080: 5dcd 5dbe f973 7f3e d36b 8cbd f528 203e
00000090: 4d76 833c d760 033e 7031 44be a382 453e
000000a0: bf14 063e 2e04 74bd 8ad6 353e 582f 403e
000000b0: e34f 1d3e 1c2f 8f3e 4372 053e 7d37 813e
000000c0: 4402 893d 526b adbe 5419 9abd d926 293e
000000d0: aaa8 803e 297f 5f3e e363 093e f55d ec3d
000000e0: cdf2 313e 8065 433e 6e42 9f3e aee2 b93d
000000f0: e744 64bc 38d3 8dbe 1203 363e 4f05 97be
00000100: adf9 13be 37ce 7abe a767 053d dd1d 993c
00000110: 37fd 523d e26b 52bc ca1f 8f3e e22c 8a3e
00000120: a0d0 1b3e 3b75 29bc 3b17 1c3e 100e 50be
00000130: 0cba 0d3e e5bb 9dbe 2343 4f3e b7d0 c53d
00000140: cb08 aabd dc9e a33d 672a dcbd f86d 0c3e
00000150: e133 6ebe 8682 1ebe afb6 b8bd e1b1 063e
00000160: 2875 99be 8d37 6a3d 7f6b 07be 1991 80be
00000170: 1fcb 643e f189 813e fa04 1a3e b212 82be
00000180: f7b9 56bd 5bde ab3e b7bf 2fbd 796a 273c
00000190: 79e8 d73e 706f 413e 4e35 103e 04e1 7abe
000001a0: 46e5 85be f152 afbe 5904 553e 4734 0d3e
000001b0: 4d2d 013e 233d 9a3b c15e 003e 6973 f93d
000001c0: adf4 0bbe 4684 78be 091c a0be 5edc e4bd
000001d0: fcaf efbd 624e 143d ef92 88be 28ad 89be
000001e0: 465e 393e 4f4a c3bd 7f3e bcbd 6333 84be
000001f0: 3048 5bbd 2793 a7bd eb16 64be 22af 1f3e
00000200: d968 713e fdbc 7d3e b777 543d 3d5b 803e
00000210: 35f8 b5bd 2bf9 7dbe 57d3 193e 68ee 223e
00000220: b836 453e 2f17 81be 935c 973e 67ba ae3b
00000230: 4145 b4bc c7dd 8bbd 29dd 14bd 7a56 3c3e
00000240: 9897 0b3d 548b 01be 73d3 fabd eba9 90be
00000250: 2eee cb3d 88a7 a0be dcaf 8a3d 90b0 393e
00000260: bdf4 fb3c 2e76 5b3e f8cf 533d dc11 303e
00000270: 5c96 8abe 5cf8 9ebe 31a4 a6bd bcc0 8bbe
00000280: 9630 afbd f481 753d 6a99 0e3d b44c 8bbe
00000290: 9b17 593c ae6e 913e a68d 0abe f186 a33d
000002a0: e875 d0bd 93e8 7bbe 4a2d 593e 82e5 fc3d
000002b0: b2dc 373e 976b 8abe f081 22be fb02 42be
000002c0: 8f2c 683e 2518 f73c 55cd 60be f369 edbc
000002d0: c854 9a3e cb31 b2bd 7879 903e d51a 9f3e
000002e0: a880 78be 80ea a0be edee f4bd 64f8 2bbe
000002f0: 9615 a8bc dd86 edbd c002 40be ce95 363e
00000300: 1138 323e 48cb 8a3e d6c0 4cbe 822a 15be
00000310: 72c8 96be ad37 5bbb 0d84 05be 9f47 543d
00000320: d7df aabc db33 b03e 647d 313e ff80 84be
00000330: 0e60 e93d d6ca 08bc 42a0 3a3d 76e8 3e3e
00000340: ce66 f43c 327c 6cbe 1666 bc3d 8b34 f83d
00000350: a557 823e 4c6b a73e 5a4f 443e ad9e ca3d
00000360: 2115 d23d 5ba4 f8bc 5c5a 5f3e 564b 1c3d
00000370: c5c1 873e 584c 8b3e 7f0d 5e3d 42e6 813e
00000380: fbbe 2ebd dca7 c73c 35ac 7f3e a590 733e
00000390: 0aa4 853e d853 b7bd ba79 563e 926e 6abe
000003a0: 57e3 853e 6137 7ebe b35b 4d3e 0a04 343e
000003b0: f5a0 2abe 4399 313e cf23 bd3d db73 0f3e
000003c0: 4139 6c3e 29df 913e ec7a 923e 4245 983e
000003d0: 8cba 13bd 01fa 9b3e 21c5 50be 39ee 6c3c
000003e0: 8d26 50bd 6107 cf3d 34bf 91bd cf0e 8b3e
000003f0: c06d d0bd ab83 443e 91a6 5ebe 7188 103e
-0.11553713 0.09094641 0.17693326 -0.20325585 -0.21911785 -0.25001067 -0.0619763 -0.08388716
0.13607146 -0.25965723 0.38869864 0.04653303 0.31006995 -0.062411197 0.1969888 0.043128
0.13528542 0.317206 0.29869223 -0.2366848 0.16626306 0.29602724 0.092149094 -0.30506417
-0.07413579 -0.29389095 0.26243317 -0.30358312 -0.24169864 0.20320557 -0.27327958 -0.07690601
-0.21660371 0.24946584 -0.06856503 0.15640624 0.016047621 0.1282991 -0.19159484 0.19288115
0.13093852 -0.0595743 0.17757621 0.1876806 0.15362506 0.2796563 0.13031869 0.25237647
0.06689885 -0.3387094 -0.07524362 0.16518725 0.2512868 0.21825852 0.1341701 0.115413584
0.17377777 0.19081688 0.3110537 0.09076439 -0.013932443 -0.2770021 0.17774609 -0.29496238
-0.14450713 -0.24492727 0.032569554 0.018690998 0.051511016 -0.012843104 0.2795394 0.26987368
0.15216303 -0.010342891 0.15243237 -0.20317864 0.13840503 -0.30807415 0.20240454 0.0965895
-0.083024584 0.079892844 -0.10750275 0.13713825 -0.23261978 -0.15479478 -0.09019219 0.13153793
-0.29972196 0.057181884 -0.132246 -0.251107 0.2234311 0.25300553 0.15040961 -0.25404888
-0.052423444 0.3356808 -0.042907443 0.010218256 0.4216955 0.18890166 0.14082834 -0.24499899
-0.26151484 -0.34242967 0.2080244 0.13789473 0.12614937 0.004706995 0.12536146 0.12180216
-0.13667555 -0.24269208 -0.3127139 -0.11174844 -0.11703488 0.036207564 -0.266746 -0.2688992
0.18102369 -0.095356576 -0.09191608 -0.25820455 -0.05353564 -0.08182364 -0.22274368 0.15594152
0.23575152 0.24779125 0.05187198 0.2506961 -0.08885232 -0.24802081 0.15022026 0.15911257
0.19259155 -0.25213 0.29562816 0.0053322795 -0.02200568 -0.0682941 -0.036343727 0.18392363
0.034080118 -0.12650806 -0.12247362 -0.28254637 0.099575385 -0.31377816 0.06771824 0.1813376
0.030756349 0.214318 0.051712006 0.17194313 -0.2706784 -0.31048858 -0.08136786 -0.27295482
-0.08554189 0.059938386 0.034814276 -0.27206957 0.013250257 0.28404754 -0.13530597 0.079847224
-0.10178739 -0.24600439 0.21208683 0.12348463 0.17955282 -0.2703521 -0.1586988 -0.1894645
0.22673248 0.03016288 -0.21953328 -0.028981185 0.30142808 -0.087009035 0.28217673 0.3107516
-0.24267828 -0.3142891 -0.11959634 -0.16793972 -0.020518105 -0.11597989 -0.18751049 0.17830583
0.174042 0.27108216 -0.19995436 -0.14566997 -0.29449803 -0.0033449933 -0.13038655 0.051826116
-0.020858688 0.34414563 0.17332989 -0.25879666 0.11395274 -0.008349141 0.04556299 0.18643364
0.029834177 -0.23094252 0.09199159 0.12119397 0.25457492 0.3269905 0.19170895 0.09893546
0.10257936 -0.030351808 0.21811813 0.038157783 0.26515022 0.27206683 0.05421209 0.25370985
-0.042662602 0.024372034 0.24968036 0.23785646 0.26101714 -0.08951539 0.20944872 -0.22893742
0.2615001 -0.24825813 0.20054512 0.17579666 -0.16662963 0.17343621 0.092353456 0.14009039
0.23068716 0.2849057 0.28609407 0.2974034 -0.036066577 0.30464175 -0.20387699 0.014461094
-0.050818015 0.10108829 -0.07116547 0.27159736 -0.10177183 0.19190852 -0.21743228 0.14114548

fc1.bias f4 [128]
00000000: 44fb 3d3e 604c 20bd ca10 823d fd92 013e
00000010: abad 6b3e 262d 4dbc b10b ddbd c02a 783d
00000020: cf03 13bd 91fb 5d3e b224 833e 685a fc3c
00000030: d3e9 c83d a833 8c3e b656 a83d 025c 98bc
00000040: 4269 87be edbe 723e f2b1 9a3e 0dbc 0dbd
00000050: a9e5 f33d 7d29 13be 801f 49be 70ab 7ebd
00000060: b727 0f3e 9aa4 f73d 407b 4f3e de8e 903d
00000070: 98fd 243e 9f84 5d3e 455a 103e f838 603e
00000080: e97d 133e 4cdf f8bc 0500 dbbb 424d 363e
00000090: 6201 e13d 3ce3 8c3e eb59 073e 1cbf 0a3e
000000a0: a6b3 363d 7eb8 cbbd 7be4 053e 3259 68be
000000b0: de07 803e 2220 0f3e e302 993e 8a5d 363d
000000c0: c56b 13bd f66c 84be fa5e 94be 3fa0 b43d
000000d0: 8578 86bd abfe b73d 68ab 963c 403f 853e
000000e0: 2378 6e3e a7ff bbbd 272b 49be 993c 363e
000000f0: 7de8 d53d 9d39 4abe 902b 593e 267f 8c3e
00000100: 29d1 35be f3ab 6ebc 2cfd a53d 8ce5 833e
00000110: b5ea 86be fc09 973e 9cfd 4abe c081 303e
00000120: 8dcf 88be 7241 8e3e 91d0 a43e 6c7d 0e3e
00000130: f401 3abc d8cc e63d 7b29 c0bd e33d 2d3e
00000140: 071c 99be 2537 02be c485 db3c 6f9f 8abe
00000150: dba7 593e 6d03 2cbe cec2 fd3d 14e8 763c
00000160: 7325 53be 4c34 ce3d 9cc2 2ebe 2b5c b0bd
00000170: 5ce3 5d3e 46ac 47be f328 42be 9cce 32be
00000180: c74e 9b3e 50dc 95be 43c0 02be 5e2a 963e
00000190: bc0f f5bd af95 89be 1445 6b3e a8d5 103e
000001a0: bb7c 42be b162 a0be c874 423e db1b a7bd
000001b0: e6cd 263e 5974 9abd 4d12 27be f3b5 9b3e
000001c0: 2380 303e 8a56 7fbd a3a5 a73e 240a 68be
000001d0: 7310 91be 3161 303d f4af 62be 9bf1 ccbd
000001e0: e868 93be 656d 573e bcd2 f33c 5e58 6cbe
000001f0: a268 533e e181 bf3d d6f5 863e a0c3 923e
0.18552881 -0.039135337 0.063508585 0.12653728 0.23015468 -0.012522971 -0.107932456 0.060587645
-0.035892304 0.21677996 0.25613934 0.030804828 0.098102234 0.2738316 0.08219664 -0.01859856
-0.26447493 0.23705645 0.30213886 -0.034603167 0.119090386 -0.14371295 -0.19640923 -0.062175214
0.13979994 0.12091942 0.2026186 0.070585 0.16112363 0.21632622 0.14096935 0.21896732
0.144035 -0.030379914 -0.006683352 0.17802909 0.10986592 0.27517116 0.13217895 0.13549465
0.04460492 -0.099472985 0.1307544 -0.22690275 0.25006002 0.13977101 0.29885015 0.0445228
-0.03599145 -0.2586438 -0.2897871 0.08819627 -0.06565956 0.08984121 0.01839228 0.26024818
0.23288016 -0.09179621 -0.19645368 0.17796554 0.10444734 -0.1974854 0.21208024 0.27440757
-0.1775557 -0.014567363 0.08104929 0.25761068 -0.26350942 0.29499805 -0.19823307 0.17236996
-0.2672085 0.27784306 0.32190374 0.13915032 -0.011353005 0.112695396 -0.09382912 0.16918139
-0.29904196 -0.12716348 0.026797183 -0.27074763 0.21255438 -0.16798182 0.12390672 0.01506998
-0.20619754 0.100685686 -0.17066425 -0.0861133 0.21668762 -0.19499311 -0.18960933 -0.17461628
0.3033354 -0.29269648 -0.12768655 0.293292 -0.11965892 -0.26872012 0.2297557 0.14144003
-0.18992893 -0.31325296 0.18989861 -0.0815961 0.16289482 -0.07541723 -0.16315575 0.30412254
0.1723638 -0.06233839 0.32743558 -0.22660118 -0.28332862 0.04306144 -0.22137433 -0.1000702
-0.28790975 0.21037824 0.029763572 -0.23080584 0.20645383 0.09350944 0.26359433 0.28664875

fc2.weight f4 [128, 128]
00000000: 373a 893b 6280 5fbd f299 cbbc b387 28bd
00000010: b91b 9abd bfbd a2bd f944 2dbd ee01 a3bc
00000020: ed34 19bd 0049 3dbd 6cca a5bd 5c89 b43c
00000030: deee 9fbd eb69 c93c 7717 d73c 6737 9fbb
00000040: 1239 60bd 9409 07bd 98cf e9bc a77f b3bd
00000050: 64c2 843d ecad a3bd 9d8d 753c 4443 52bd
00000060: 653d ea3b 64ec 91bd bf66 903d 1aff 223d
00000070: 9e81 e43c 4a95 bdbc 0616 8cbc a20f 8c3d
00000080: 6f52 b3bc a312 853b 5d57 15bd d39b 833d
00000090: 3d4d b3bc b111 2e3c 781e 873d 0d20 613d
000000a0: 7e04 4f3d 25e6 8dbd 564e 1bbd 78a0 5fbc
000000b0: b8eb af3c 6aef 883d 55de 243d 4ba2 72bc
000000c0: 2181 473c 92d8 873c a35c 473d c8e8 2fbd
000000d0: 6cdc abbd 58d8 a6bd c78f fa3c 31c0 65bd
000000e0: e4c4 21bd 22c5 253d 52de a83d 4fc3 3d3d
000000f0: a38a 893d 1fcb 1b3b 33c2 ea3c a0d3 84bd
00000100: 8d2e 843d 64cf 05bc f356 a7bd f22b 8c3c
00000110: 140f 2b3d 442f a73d 3934 7bbc 969c 383c
00000120: 16d8 fdbc 4aef 373d 4d5e 4c3b 5e2f 833d
00000130: 2bec 943c bc9a d03b 2136 febc 4f12 80bd
00000140: f7c5 14bd 9740 b1bc bdf8 11bd 80e2 cdbc
00000150: 6863 aabd 639c 8a3b b1da 3a3d 9a2d 4d3d
00000160: fa7d 35bd 2d98 193c 4062 a53d 79bd 2ebd
00000170: 91dc 4dbd 9831 293d 746f adbd 0841 873d
00000180: a0c4 43bd 9cfc 183d 2e40 48bc 76c0 8d3d
00000190: 9c12 6f3c a4b0 e4bc 46c1 d03b 3af8 893d
000001a0: cd0e 643d 07d1 ccba 5147 87bd ca9b 323d
000001b0: e38b 4cbd 82b3 92bd e629 3bbd 2094 1a3c
000001c0: b968 1f3d abf1 653d cc00 acbd 2ce2 18bd
000001d0: 49e6 e13c d533 02bd 25ec 853d 42de a83d
000001e0: 5d2c 0abd 2a9c d63b 5dc3 8a3d f254 7e3d
000001f0: 915e 113d 91e7 613d 1ef3 b0bb 4c10 613b
00000200: b2e2 13bc 6693 e43c 71fa f1ba b05a fc39
00000210: 5472 66bc 1dce acbd be99 a7bd 2b50 dfbc
00000220: c0e2 67bd 536d cdbd 8795 81bd e6ab 103d
00000230: f81c 143c d7c8 cabc 4bef 453d 333c 833d
00000240: 13eb 8ebc 2381 633d 00cf 38bd 9e10 d23b
00000250: af15 58bd c068 f13c b3fb 06bd c185 0d3d
00000260: 5643 8e3c 043d c2bd 56ce 5f3c 24f2 b93b
00000270: 2d34 aebd cfbe 5e3d 5023 753b 7625 e1bc
00000280: 3fef a8bc 1601 a13c f1f5 74bc b68f 7cbd
00000290: ad75 7bbd 6b5b b8bd b5c1 86bb c8c3 783d
000002a0: 2ccf 91bc 772a afbd 3b6d eb3c 1ddb 6c3d
000002b0: ca93 8ebd 9fcd bcbd e13b 813d 1246 063d
000002c0: 7434 e43b bbb6 4c3d 8825 3b3d 910d 093d
000002d0: f415 973d 0dc1 4c3c 3d43 3a3d 882d 8e3d
000002e0: eadf 9c3d 243b ffbb 2500 373d e186 9a3d
000002f0: a401 383d ccd3 fbbb 2c19 e03b 2bb5 2fbd
00000300: 37c5 5b3c c697 09bc 4421 c33c e171 26bd
00000310: 7895 063d 4844 b9bd 679c b23d b0b8 723c
00000320: 38fb fd3c e018 b4bd 64e4 963d 9fd4 54bd
00000330: bb60 c9bb a9a4 583d b37d 1cbd 1467 0abd
00000340: a015 38bd ef70 25bd db44 04bd c2c6 3ebc
00000350: 67ff b1bd 7909 6d3d c6d5 b6bd 77e7 80bd
00000360: 4907 463b e84c 353d 1448 793d e61b babd
00000370: b713 09bd 66e1 643c 45c7 8dbd 930a 4abd
00000380: b84c 893c 6353 1bbd aa78 4b3d 6574 0f3d
00000390: 7eb6 8a3d a6e0 893b b115 8bbd ff16 e9bc
000003a0: e4b4 cdbd eafc 99bc 506c 8abd 9828 8fbd
000003b0: fb8f aabd 24f0 943d e09e 79bc 1f11 2a3d
000003c0: 0e48 aebd 4131 edbc d0ba 35bb 3947 d6bc
000003d0: 8f2d a23d 494c 0dbc 1a2e e13b cd75 c13c
000003e0: 0f7c 01bc c9dd a7bd cc0d 3ebc c5b9 b03c
000003f0: ad32 d13c 5f04 92bd 32ff b3bd 265b acbd
0.004187848 -0.054565795 -0.02485368 -0.041145038 -0.07524819 -0.079463474 -0.042302106 -0.019898381
-0.03740399 -0.046212196 -0.080952495 0.022038154 -0.07809232 0.024586638 0.026256306 -0.0048588994
-0.054741926 -0.03296812 -0.028541371 -0.08764582 0.064823896 -0.07992157 0.0149873765 -0.05133368
0.007148432 -0.07125166 0.07050847 0.039794065 0.027893838 -0.023142476 -0.017100345 0.06838919
-0.021889893 0.0040610596 -0.03646027 0.064262055 -0.021887416 0.010624335 0.06597608 0.054962207
0.050541393 -0.06928662 -0.037916504 -0.013649099 0.021474704 0.066862896 0.040251095 -0.0148092015
0.012176783 0.016582761 0.04867233 -0.042946607 -0.083916515 -0.08146733 0.030586137 -0.05609149
-0.03949441 0.040471204 0.08245529 0.04632884 0.06715896 0.0023772193 0.028657055 -0.06485677
0.06454191 -0.008167122 -0.08170881 0.017110799 0.041762426 0.08163312 -0.015332275 0.011267802
-0.030986827 0.04490594 0.0031184137 0.06405519 0.01817902 0.006366102 -0.03103167 -0.06253492
-0.036321606 -0.021637244 -0.035637606 -0.025132418 -0.083197415 0.0042300685 0.045618717 0.050092317
-0.044309594 0.00937466 0.0807538 -0.042661164 -0.050259177 0.041307062 -0.084685236 0.066042006
-0.047794938 0.037350282 -0.012222333 0.06921475 0.014591839 -0.02791626 0.0063706962 0.067367986
0.055678178 -0.001562626 -0.066053994 0.043605603 -0.049938094 -0.07163145 -0.045694254 0.00943473
0.03891823 0.056138676 -0.083985895 -0.03732507 0.027575629 -0.031787712 0.065391816 0.08245517
-0.033733714 0.006549378 0.06775544 0.06209273 0.035490576 0.05515248 -0.0054000756 0.003434199
-0.009026216 0.027902316 -0.0018461478 0.00048132753 -0.014065344 -0.084377505 -0.08183621 -0.027259907
-0.05661273 -0.100306176 -0.06327348 0.035320185 0.00904011 -0.024753971 0.04832391 0.064079665
-0.017446076 0.055543076 -0.045119286 0.0064106723 -0.052755054 0.029468894 -0.032954883 0.034551386
0.017366093 -0.09484294 0.013660034 0.0056746174 -0.085060455 0.054381188 0.003740508 -0.027483683
-0.020621894 0.019653838 -0.014951215 -0.06166049 -0.06139152 -0.090018116 -0.004112447 0.060733587
-0.017798983 -0.085530214 0.028738609 0.05782615 -0.06961782 -0.092189066 0.06310249 0.032781668
0.0069642607 0.049978953 0.04569009 0.033460204 0.07377234 0.012497199 0.04547428 0.06942278
0.07659896 -0.0077890325 0.044677872 0.07545257 0.04492344 -0.0076851603 0.006838938 -0.042897385
0.013413719 -0.008398002 0.023819573 -0.040635947 0.03285739 -0.09046227 0.08721238 0.014814541
0.03100358 -0.08793807 0.07367781 -0.051960584 -0.0061455644 0.052891407 -0.038205814 -0.03378971
-0.0449425 -0.040390905 -0.03229223 -0.011644067 -0.08691292 0.057870362 -0.08927493 -0.062941484
0.0030216745 0.044262797 0.060859755 -0.090873525 -0.033466067 0.013969755 -0.06922773 -0.04932649
0.016760215 -0.03792132 0.04967562 0.03502311 0.06773089 0.0042076884 -0.06791247 -0.028453348
-0.10044268 -0.018797357 -0.0675894 -0.069901645 -0.08328243 0.07272366 -0.015235633 0.041520234
-0.08509837 -0.02895415 -0.0027729757 -0.026157008 0.07918846 -0.008624145 0.006871951 0.023615742
-0.007903113 -0.08196599 -0.011599969 0.021572957 0.02553686 -0.0712974 -0.08788909 -0.08415823

fc2.bias f4 [128]
00000000: e1c9 35bd 93da 503d 2710 7d3d 8761 61bc
00000010: 19a1 89bb 9c94 c13d e734 b0bb f619 d5bb
00000020: b201 a7bd cca3 ed3d 0b87 b13d 59c2 183d
00000030: b56c e1bb 9714 04bd 51ab 53bd 6246 abbd
00000040: bdc1 b1bd 12ec 97bd 7156 b1bd c868 7d3d
00000050: 3fac 633c d58a 43bd 573e 47bd b267 e33d
00000060: 0f94 853d 52e9 073c 3808 c73d 4215 e73c
00000070: 51c7 ce3d 7ea3 643d 8719 92bb e483 083e
00000080: aa6c 6b3d c3d8 a1bd 496b 02bb 7181 e4bc
00000090: f551 c83d f198 dc3c de97 45bd 0707 aa3d
000000a0: 5470 66bb be4d c0ba 8c41 8e3d d998 04bd
000000b0: dae9 e3bb a1a9 6e3d d0cd 0ebd a1e4 3cbd
000000c0: 8c6f f4bc 5f81 0b3d 60bc 7dbd 754a b9bc
000000d0: 81c1 3bbd 2d15 aebd f591 85bd e191 723c
000000e0: 7962 7abd 4bf1 adbc d26a d8bc 33d3 8d3d
000000f0: 7f99 3b3a 3d9e d43c aa57 d83c 2924 0fbd
00000100: 50d0 9d3d 3c15 0c3c bf25 a93c e867 403d
00000110: 8c6c 773c 3805 30bc e51f 983d 671d ae3c
00000120: f7db b23d ac02 7b3c 36cb 71bd 2a2b 073d
00000130: 4d3f 5dbd cf6a 80bb f167 07bd dcdc 253d
00000140: a7a6 b6bc 6b05 17bb 9535 3c3d f0f0 a5bd
00000150: ec5f 33bd 5808 4fba 280c b1bd 535e 87bd
00000160: ad2b 78bd 8539 1f3d 02ee 613d b3a2 babd
00000170: 6e16 0f3c 2c83 a43c 9dbc 833d 31d9 b0bd
00000180: db6d f53c e21d ccbc 1ece 10bc c6e6 e8bc
00000190: 419f 0a3d c18f 2dbd d12f 2dbd 3efe 9dbd
000001a0: d54e 6f3d 5746 b3bc 9681 203d d0f6 ed3d
000001b0: d345 44bd 133a 853d acd8 243d cde0 6f3b
000001c0: fee9 923c 6252 073d 8b05 693c fd87 033e
000001d0: ee3f 9f3d ab81 84bb 8183 5ebd 64da 1d3d
000001e0: 5992 7d3d 4a91 0dbd 17d6 58bc a62b 49bd
000001f0: bac1 41bc 7df4 a1bd 08e6 93bd 8556 953d
-0.04438198 0.0509897 0.061782982 -0.0137561625 -0.0042001125 0.09452173 -0.0053774 -0.006503339
-0.0815462 0.116035074 0.086683355 0.03729472 -0.006879414 -0.0322462 -0.051677052 -0.08363034
-0.08679531 -0.07418074 -0.086590655 0.061867505 0.013896047 -0.047739822 -0.048643436 0.11103763
0.065223806 0.008295374 0.097183645 0.028208379 0.1009661 0.05581998 -0.0044586095 0.13331562
0.057476677 -0.07902672 -0.0019900373 -0.027893754 0.09781257 0.026928397 -0.048240535 0.083021216
-0.0035162168 -0.0014671606 0.06946096 -0.03237233 -0.0069553675 0.05826724 -0.034864247 -0.046116475
-0.029838346 0.034058925 -0.061947227 -0.022618512 -0.045838837 -0.08500133 -0.0652198 0.014805288
-0.061129067 -0.021233222 -0.026418123 0.06925049 0.00071563566 0.02595436 0.026408989 -0.034946594
0.07705748 0.008549985 0.020647882 0.046974093 0.015101563 -0.010743432 0.074279584 0.021254255
0.08733361 0.015320461 -0.059031688 0.03300015 -0.054015446 -0.0039189826 -0.03305811 0.04049383
-0.022296263 -0.0023044 0.045949537 -0.08102596 -0.04379265 -0.00078976667 -0.08644897 -0.06609788
-0.060588527 0.038873214 0.055158623 -0.09113064 0.008733375 0.020082079 0.064324595 -0.08635176
0.02995961 -0.024916593 -0.008838205 -0.028430354 0.033843283 -0.042373423 -0.04228193 -0.077145085
0.05842479 -0.021884127 0.039186083 0.116193414 -0.047918152 0.065052174 0.040245697 0.0036602498
0.017933842 0.03303755 0.014222513 0.12844844 0.077758655 -0.004043778 -0.05432463 0.03853835
0.061907146 -0.034562387 -0.013234637 -0.049113892 -0.011825973 -0.079079606 -0.07221609 0.07291893
