dqn_car_model_episode_400.pth (torch, 307153 bytes, 24 tensors)

fc1.weight f4 [128, 10]
000000 41 fa 2c be 67 7c c7 3d 23 29 35 3e 0d e2 3e be
       -0.1689234 0.09740525 0.17691474 -0.18640919
000010 58 9a 51 be 48 9a 80 be 8a de 7d bd 00 ce ab bd
       -0.20469034 -0.25117707 -0.061979808 -0.08388901
000020 81 54 0b 3e 59 ef 84 be 41 d0 a5 3e 8c 6e 5c 3d
       0.13606454 -0.25963858 0.32385448 0.053816363
000030 ed bc 9e 3e c4 b6 32 bd bc bc 5a 3e c1 19 2c 3d
       0.31003514 -0.04363133 0.21361059 0.04201675
000040 ad 84 0a 3e 4b 67 a2 3e e5 eb 98 3e 64 54 72 be
       0.13527174 0.3171943 0.29867473 -0.23665005
000050 dd 40 2a 3e e2 90 97 3e aa b8 bc 3d 5f 31 9c be
       0.16626306 0.29602724 0.092149094 -0.30506417
000060 81 d4 97 bd e0 78 96 be a4 5d 86 3e 3f 6f 9b be
       -0.07413579 -0.29389095 0.26243317 -0.30358312
000070 d9 7f 77 be 1f 15 50 3e 4d eb 8b be e6 80 9d bd
       -0.24169864 0.20320557 -0.27327958 -0.07690601
000080 5d cd 5d be f9 73 7f 3e d3 6b 8c bd f5 28 20 3e
       -0.21660371 0.24946584 -0.06856503 0.15640624
000090 4d 76 83 3c d7 60 03 3e 70 31 44 be a3 82 45 3e
       0.016047621 0.1282991 -0.19159484 0.19288115
0000a0 12 52 97 3d e8 b3 57 bd 6d d1 35 3e 3e 2a 51 3e
       0.073887005 -0.052661806 0.17755671 0.2042627
0000b0 65 b8 2c 3e e8 70 8e 3e b0 70 05 3e ed 36 81 3e
       0.16867216 0.27820516 0.13031268 0.25237218
0000c0 31 fd 88 3d ca 68 ad be 83 d9 03 be a1 d4 2f 3e
       0.066889174 -0.3386901 -0.12875943 0.17170955
0000d0 b4 a6 80 3e 5d 45 6f 3e 4c 81 17 3e 24 22 e9 3d
       0.25127184 0.23366304 0.14795417 0.11383465
0000e0 90 f1 31 3e a5 64 43 3e 5e 41 9f 3e 95 ea b9 3d
       0.17377305 0.19081362 0.3110456 0.09077946
0000f0 04 d7 8f bd 23 65 8a be 03 fd 35 3e b8 2d 8e be
       -0.07023433 -0.27030286 0.17772298 -0.27769256
000100 4c 5d 04 be a9 db 7b be 91 62 05 3d 4e 17 99 3c
       -0.12926215 -0.24595512 0.032564703 0.01868787
000110 60 f4 52 3d e0 0a 52 bc ca 1f 8f 3e e2 2c 8a 3e
       0.051502585 -0.012819976 0.2795394 0.26987368
000120 a0 d0 1b 3e 3b 75 29 bc 3b 17 1c 3e 10 0e 50 be
       0.15216303 -0.010342891 0.15243237 -0.20317864
000130 0c ba 0d 3e e5 bb 9d be 23 43 4f 3e b7 d0 c5 3d
       0.13840503 -0.30807415 0.20240454 0.0965895
000140 cb 08 aa bd dc 9e a3 3d 67 2a dc bd f8 6d 0c 3e
       -0.083024584 0.079892844 -0.10750275 0.13713825
000150 e1 33 6e be 86 82 1e be af b6 b8 bd e1 b1 06 3e
       -0.23261978 -0.15479478 -0.09019219 0.13153793
000160 28 75 99 be 8d 37 6a 3d e7 f7 3b be f6 93 7a be
       -0.29972196 0.057181884 -0.18356286 -0.24470505
000170 e1 c7 64 3e 4b 31 89 3e 7d b5 27 3e a2 e8 82 be
       0.22341873 0.2679542 0.16377826 -0.2556811
000180 88 bd 56 bd 20 de ab 3e c2 c6 2f bd 9e 9e 27 3c
       -0.052426845 0.33567905 -0.04291416 0.010230688
000190 81 15 bc 3e 8d 0b 48 3e 7e 30 10 3e 49 f5 6a be
       0.36735156 0.19535656 0.14080998 -0.22945131
0001a0 4f a2 7d be 3d 0f b0 be 90 02 55 3e f3 32 0d 3e
       -0.24768947 -0.34386626 0.20801759 0.13788967
0001b0 a9 2a 01 3e 9a d5 9a 3b c1 5e 00 3e 69 73 f9 3d
       0.1261393 0.0047251703 0.12536146 0.12180216
0001c0 ad f4 0b be 46 84 78 be 09 1c a0 be 5e dc e4 bd
       -0.13667555 -0.24269208 -0.3127139 -0.11174844
0001d0 fc af ef bd 62 4e 14 3d ef 92 88 be 28 ad 89 be
       -0.11703488 0.036207564 -0.266746 -0.2688992
0001e0 ae 20 08 3e 19 1f b6 bd 05 40 bc bd 00 26 79 be
       0.13293716 -0.0889265 -0.09191898 -0.24330902
0001f0 af 13 25 bd 42 44 ab bd 01 16 64 be 64 b0 1f 3e
       -0.040301975 -0.083626285 -0.22274019 0.15594631
000200 e0 68 71 3e c3 bd 7d 3e d4 0a b7 bb 4b e1 83 3e
       0.23575163 0.2477942 -0.0055860076 0.25757822
000210 38 03 b6 bd 34 ec 6c be 37 4a 29 3e 1e 81 21 3e
       -0.08887333 -0.2313698 0.16532217 0.1577191
000220 1e 35 45 3e b9 17 81 be 4c 5b 97 3e ac 6a af 3b
       0.19258544 -0.2521341 0.2956184 0.0053532925
000230 41 45 b4 bc c7 dd 8b bd 29 dd 14 bd 7a 56 3c 3e
       -0.02200568 -0.0682941 -0.036343727 0.18392363
000240 98 97 0b 3d 54 8b 01 be 73 d3 fa bd eb a9 90 be
       0.034080118 -0.12650806 -0.12247362 -0.28254637
000250 2e ee cb 3d 88 a7 a0 be dc af 8a 3d 90 b0 39 3e
       0.099575385 -0.31377816 0.06771824 0.1813376
000260 bd f4 fb 3c 2e 76 5b 3e f8 cf 53 3d dc 11 30 3e
       0.030756349 0.214318 0.051712006 0.17194313
000270 5c 96 8a be 5c f8 9e be 31 a4 a6 bd bc c0 8b be
       -0.2706784 -0.31048858 -0.08136786 -0.27295482
000280 96 30 af bd f4 81 75 3d 6a 99 0e 3d b4 4c 8b be
       -0.08554189 0.059938386 0.034814276 -0.27206957
000290 9b 17 59 3c ae 6e 91 3e a6 8d 0a be f1 86 a3 3d
       0.013250257 0.28404754 -0.13530597 0.079847224
0002a0 e8 75 d0 bd 93 e8 7b be 4a 2d 59 3e 82 e5 fc 3d
       -0.10178739 -0.24600439 0.21208683 0.12348463
0002b0 b2 dc 37 3e 97 6b 8a be f0 81 22 be fb 02 42 be
       0.17955282 -0.2703521 -0.1586988 -0.1894645
0002c0 8f 2c 68 3e 25 18 f7 3c 55 cd 60 be f3 69 ed bc
       0.22673248 0.03016288 -0.21953328 -0.028981185
0002d0 c8 54 9a 3e cb 31 b2 bd 78 79 90 3e d5 1a 9f 3e
       0.30142808 -0.087009035 0.28217673 0.3107516
0002e0 a8 80 78 be 80 ea a0 be ed ee f4 bd 64 f8 2b be
       -0.24267828 -0.3142891 -0.11959634 -0.16793972
0002f0 96 15 a8 bc dd 86 ed bd c0 02 40 be ce 95 36 3e
       -0.020518105 -0.11597989 -0.18751049 0.17830583
000300 11 38 32 3e 48 cb 8a 3e d6 c0 4c be 82 2a 15 be
       0.174042 0.27108216 -0.19995436 -0.14566997
000310 72 c8 96 be ad 37 5b bb 0d 84 05 be 9f 47 54 3d
       -0.29449803 -0.0033449933 -0.13038655 0.051826116
000320 dd b9 a6 bd 6d d2 b3 3e 8f 76 31 3e 87 a1 77 be
       -0.08140919 0.3512148 0.17330383 -0.24182712
000330 f4 8c 04 3e fe 27 20 bc 7f 96 3a 3d 89 e6 3e 3e
       0.12944394 -0.00977516 0.04555368 0.1864263
000340 5a 4b f4 3c 5d 75 6c be 04 9d 16 3d 89 d7 02 3e
       0.029821087 -0.23091646 0.036770836 0.12777533
000350 7d 55 82 3e 9c 61 af 3e 3a 96 52 3e 95 7c c7 3d
       0.25455847 0.34254158 0.2056512 0.09740559
000360 2e 12 d2 3d aa ac f8 bc 06 58 5f 3e b1 5c 1c 3d
       0.10257374 -0.03035577 0.21810922 0.038174335
000370 b8 36 6b 3e 61 3e 8e 3e 1e 1e 5e 3d 5b f4 87 3e
       0.22970092 0.27781966 0.05422794 0.26553616
000380 76 cd 03 bd 8a e0 b4 3c 40 af 7f 3e 0c 94 73 3e
       -0.032178365 0.022079725 0.24969196 0.23786944
000390 2f a5 85 3e 1c 5c b7 bd 57 53 1e 3e 99 a0 63 be
       0.26102588 -0.08953115 0.15461479 -0.22229232
0003a0 dc e0 85 3e 3b 75 6d be db 2a 5c 3e 62 86 32 3e
       0.26148117 -0.23189251 0.21500723 0.17434075
0003b0 5d a2 2a be 55 98 31 3e 28 1f bd 3d ca 78 0f 3e
       -0.16663499 0.17343266 0.09234458 0.14010921
0003c0 41 39 6c 3e 29 df 91 3e ec 7a 92 3e 42 45 98 3e
       0.23068716 0.2849057 0.28609407 0.2974034
0003d0 8c ba 13 bd 01 fa 9b 3e 21 c5 50 be 39 ee 6c 3c
       -0.036066577 0.30464175 -0.20387699 0.014461094
0003e0 8d 26 50 bd 61 07 cf 3d a1 1d 05 be 33 80 8e 3e
       -0.050818015 0.10108829 -0.12999584 0.27832183
0003f0 43 7b d0 bd 06 27 55 3e 46 83 4f be 6b 23 0f 3e
       -0.1017976 0.20815668 -0.2026492 0.13978355

fc1.bias f4 [128]
000000 3c fa 3d 3e 52 5b 20 bd ca 10 82 3d fd 92 01 3e
       0.18552488 -0.03914959 0.063508585 0.12653728
000010 fc ab 6b 3e 02 43 4d bc 78 0e dd bd c0 2a 78 3d
       0.23014826 -0.012528183 -0.10793775 0.060587645
000020 cf 03 13 bd 8b fa 5d 3e bc 23 83 3e 68 5a fc 3c
       -0.035892304 0.21677606 0.256132 0.030804828
000030 6d eb c8 3d d1 32 8c 3e b6 56 a8 3d 02 5c 98 bc
       0.09810529 0.2738252 0.08219664 -0.01859856
000040 42 69 87 be ed be 72 3e f2 b1 9a 3e 0d bc 0d bd
       -0.26447493 0.23705645 0.30213886 -0.034603167
000050 84 e0 f3 3d 0f 2b 13 be 72 1c 49 be 74 b1 7e bd
       0.11908057 -0.14371894 -0.19639757 -0.06218095
000060 b7 27 0f 3e 00 9f f7 3d 58 78 4f 3e 72 8b 90 3d
       0.13979994 0.12090874 0.20260751 0.07057847
000070 98 fd 24 3e b6 81 5d 3e 46 59 10 3e 4a 37 60 3e
       0.16112363 0.21631512 0.14096555 0.21896091
000080 e9 7d 13 3e 95 f8 f8 bc 05 00 db bb 42 4d 36 3e
       0.144035 -0.03039197 -0.006683352 0.17802909
000090 62 01 e1 3d a5 e2 8c 3e eb 59 07 3e 1c bf 0a 3e
       0.10986592 0.27516666 0.13217895 0.13549465
0000a0 fc b1 36 3d 82 ba cb bd 7b e4 05 3e e1 5a 68 be
       0.044603333 -0.09947683 0.1307544 -0.22690918
0000b0 8c 06 80 3e 9a 1d 0f 3e b4 01 99 3e 8a 5d 36 3d
       0.25004995 0.13976136 0.29884112 0.0445228
0000c0 c5 6b 13 bd f6 6c 84 be fa 5e 94 be 3f a0 b4 3d
       -0.03599145 -0.2586438 -0.2897871 0.08819627
0000d0 99 7c 86 bd d0 fa b7 3d 68 ab 96 3c de 3d 85 3e
       -0.06566734 0.089833856 0.01839228 0.26023763
0000e0 23 78 6e 3e a7 ff bb bd 27 2b 49 be 99 3c 36 3e
       0.23288016 -0.09179621 -0.19645368 0.17796554
0000f0 7d e8 d5 3d 2b 3b 4a be c1 27 59 3e 02 7e 8c 3e
       0.10444734 -0.19749133 0.21206571 0.27439886
000100 29 d1 35 be f3 ab 6e bc 56 f9 a5 3d 8c e5 83 3e
       -0.1775557 -0.014567363 0.08104198 0.25761068
000110 b5 ea 86 be 56 08 97 3e 9c fd 4a be 4f 7f 30 3e
       -0.26350942 0.29498547 -0.19823307 0.17236064
000120 8d cf 88 be c4 3f 8e 3e d4 ce a4 3e 49 7c 0e 3e
       -0.2672085 0.27783024 0.32189047 0.13914599
000130 8d 1f 3a bc d8 cc e6 3d 5c 2f c0 bd e3 3d 2d 3e
       -0.011360061 0.112695396 -0.09384033 0.16918139
000140 63 1b 99 be 83 38 02 be 5b 80 db 3c 6f 9f 8a be
       -0.29903707 -0.1271687 0.026794603 -0.27074763
000150 db a7 59 3e 6d 03 2c be 01 c0 fd 3d 14 e8 76 3c
       0.21255438 -0.16798182 0.123901375 0.01506998
000160 03 27 53 be a9 31 ce 3d cc c6 2e be 10 5f b0 bd
       -0.2062035 0.10068066 -0.17068022 -0.08611882
000170 10 e2 5d 3e b7 ad 47 be 84 2c 42 be 9c ce 32 be
       0.21668267 -0.1949986 -0.18962294 -0.17461628
000180 67 4d 9b 3e 50 dc 95 be 0f be 02 be b0 29 96 3e
       0.3033249 -0.29269648 -0.12767814 0.2932868
000190 bc 0f f5 bd af 95 89 be 0c 45 6b 3e a8 d5 10 3e
       -0.11965892 -0.26872012 0.22975558 0.14144003
0001a0 a8 7c 42 be b1 62 a0 be c8 74 42 3e e0 1f a7 bd
       -0.18992865 -0.31325296 0.18989861 -0.081603765
0001b0 c9 cb 26 3e 59 74 9a bd 4d 12 27 be cc b6 9b 3e
       0.16288675 -0.07541723 -0.16315575 0.304129
0001c0 23 80 30 3e 4d 60 7f bd d3 a4 a7 3e 24 0a 68 be
       0.1723638 -0.0623477 0.32742938 -0.22660118
0001d0 73 10 91 be 41 5b 30 3d 32 b1 62 be 9b f1 cc bd
       -0.28332862 0.043055777 -0.22137907 -0.1000702
0001e0 e8 68 93 be 83 69 57 3e 2c cd f3 3c 15 5b 6c be
       -0.28790975 0.21036343 0.02976092 -0.2308162
0001f0 a2 68 53 3e e1 81 bf 3d d6 f5 86 3e a0 c3 92 3e
       0.20645383 0.09350944 0.26359433 0.28664875

fc2.weight f4 [128, 128]
000000 37 3a 89 3b 62 80 5f bd f2 99 cb bc b3 87 28 bd
       0.004187848 -0.054565795 -0.02485368 -0.041145038
000010 b9 1b 9a bd bf bd a2 bd f9 44 2d bd ee 01 a3 bc
       -0.07524819 -0.079463474 -0.042302106 -0.019898381
000020 ed 34 19 bd 00 49 3d bd 6c ca a5 bd 5c 89 b4 3c
       -0.03740399 -0.046212196 -0.080952495 0.022038154
000030 de ee 9f bd eb 69 c9 3c 77 17 d7 3c 67 37 9f bb
       -0.07809232 0.024586638 0.026256306 -0.0048588994
000040 12 39 60 bd 94 09 07 bd 98 cf e9 bc a7 7f b3 bd
       -0.054741926 -0.03296812 -0.028541371 -0.08764582
000050 64 c2 84 3d ec ad a3 bd 9d 8d 75 3c 44 43 52 bd
       0.064823896 -0.07992157 0.0149873765 -0.05133368
000060 65 3d ea 3b 64 ec 91 bd bf 66 90 3d 1a ff 22 3d
       0.007148432 -0.07125166 0.07050847 0.039794065
000070 9e 81 e4 3c 4a 95 bd bc 06 16 8c bc a2 0f 8c 3d
       0.027893838 -0.023142476 -0.017100345 0.06838919
000080 6f 52 b3 bc a3 12 85 3b 5d 57 15 bd d3 9b 83 3d
       -0.021889893 0.0040610596 -0.03646027 0.064262055
000090 3d 4d b3 bc b1 11 2e 3c 78 1e 87 3d 0d 20 61 3d
       -0.021887416 0.010624335 0.06597608 0.054962207
0000a0 7e 04 4f 3d 25 e6 8d bd 56 4e 1b bd 78 a0 5f bc
       0.050541393 -0.06928662 -0.037916504 -0.013649099
0000b0 b8 eb af 3c 6a ef 88 3d 55 de 24 3d 4b a2 72 bc
       0.021474704 0.066862896 0.040251095 -0.0148092015
0000c0 21 81 47 3c 92 d8 87 3c a3 5c 47 3d c8 e8 2f bd
       0.012176783 0.016582761 0.04867233 -0.042946607
0000d0 6c dc ab bd 58 d8 a6 bd c7 8f fa 3c 31 c0 65 bd
       -0.083916515 -0.08146733 0.030586137 -0.05609149
0000e0 e4 c4 21 bd 22 c5 25 3d 52 de a8 3d 4f c3 3d 3d
       -0.03949441 0.040471204 0.08245529 0.04632884
0000f0 a3 8a 89 3d 1f cb 1b 3b 33 c2 ea 3c a0 d3 84 bd
       0.06715896 0.0023772193 0.028657055 -0.06485677
000100 8d 2e 84 3d 64 cf 05 bc f3 56 a7 bd f2 2b 8c 3c
       0.06454191 -0.008167122 -0.08170881 0.017110799
000110 14 0f 2b 3d 44 2f a7 3d 39 34 7b bc 96 9c 38 3c
       0.041762426 0.08163312 -0.015332275 0.011267802
000120 16 d8 fd bc 4a ef 37 3d 4d 5e 4c 3b 5e 2f 83 3d
       -0.030986827 0.04490594 0.0031184137 0.06405519
000130 2b ec 94 3c bc 9a d0 3b 21 36 fe bc 4f 12 80 bd
       0.01817902 0.006366102 -0.03103167 -0.06253492
000140 f7 c5 14 bd 97 40 b1 bc bd f8 11 bd 80 e2 cd bc
       -0.036321606 -0.021637244 -0.035637606 -0.025132418
000150 68 63 aa bd 63 9c 8a 3b b1 da 3a 3d 9a 2d 4d 3d
       -0.083197415 0.0042300685 0.045618717 0.050092317
000160 fa 7d 35 bd 2d 98 19 3c 40 62 a5 3d 79 bd 2e bd
       -0.044309594 0.00937466 0.0807538 -0.042661164
000170 91 dc 4d bd 98 31 29 3d 74 6f ad bd 08 41 87 3d
       -0.050259177 0.041307062 -0.084685236 0.066042006
000180 a0 c4 43 bd 9c fc 18 3d 2e 40 48 bc 76 c0 8d 3d
       -0.047794938 0.037350282 -0.012222333 0.06921475
000190 9c 12 6f 3c a4 b0 e4 bc 46 c1 d0 3b 3a f8 89 3d
       0.014591839 -0.02791626 0.0063706962 0.067367986
0001a0 cd 0e 64 3d 07 d1 cc ba 51 47 87 bd ca 9b 32 3d
       0.055678178 -0.001562626 -0.066053994 0.043605603
0001b0 e3 8b 4c bd 82 b3 92 bd e6 29 3b bd 20 94 1a 3c
       -0.049938094 -0.07163145 -0.045694254 0.00943473
0001c0 b9 68 1f 3d ab f1 65 3d cc 00 ac bd 2c e2 18 bd
       0.03891823 0.056138676 -0.083985895 -0.03732507
0001d0 49 e6 e1 3c d5 33 02 bd 25 ec 85 3d 42 de a8 3d
       0.027575629 -0.031787712 0.065391816 0.08245517
0001e0 5d 2c 0a bd 2a 9c d6 3b 5d c3 8a 3d f2 54 7e 3d
       -0.033733714 0.006549378 0.06775544 0.06209273
0001f0 91 5e 11 3d 91 e7 61 3d 1e f3 b0 bb 4c 10 61 3b
       0.035490576 0.05515248 -0.0054000756 0.003434199
000200 b2 e2 13 bc 66 93 e4 3c 71 fa f1 ba b0 5a fc 39
       -0.009026216 0.027902316 -0.0018461478 0.00048132753
000210 54 72 66 bc 1d ce ac bd be 99 a7 bd 2b 50 df bc
       -0.014065344 -0.084377505 -0.08183621 -0.027259907
000220 c0 e2 67 bd 53 6d cd bd 87 95 81 bd e6 ab 10 3d
       -0.05661273 -0.100306176 -0.06327348 0.035320185
000230 f8 1c 14 3c d7 c8 ca bc 4b ef 45 3d 33 3c 83 3d
       0.00904011 -0.024753971 0.04832391 0.064079665
000240 13 eb 8e bc 23 81 63 3d 00 cf 38 bd 9e 10 d2 3b
       -0.017446076 0.055543076 -0.045119286 0.0064106723
000250 af 15 58 bd c0 68 f1 3c b3 fb 06 bd c1 85 0d 3d
       -0.052755054 0.029468894 -0.032954883 0.034551386
000260 56 43 8e 3c 04 3d c2 bd 56 ce 5f 3c 24 f2 b9 3b
       0.017366093 -0.09484294 0.013660034 0.0056746174
000270 2d 34 ae bd cf be 5e 3d 50 23 75 3b 76 25 e1 bc
       -0.085060455 0.054381188 0.003740508 -0.027483683
000280 3f ef a8 bc 16 01 a1 3c f1 f5 74 bc b6 8f 7c bd
       -0.020621894 0.019653838 -0.014951215 -0.06166049
000290 ad 75 7b bd 6b 5b b8 bd b5 c1 86 bb c8 c3 78 3d
       -0.06139152 -0.090018116 -0.004112447 0.060733587
0002a0 2c cf 91 bc 77 2a af bd 3b 6d eb 3c 1d db 6c 3d
       -0.017798983 -0.085530214 0.028738609 0.05782615
0002b0 ca 93 8e bd 9f cd bc bd e1 3b 81 3d 12 46 06 3d
       -0.06961782 -0.092189066 0.06310249 0.032781668
0002c0 74 34 e4 3b bb b6 4c 3d 88 25 3b 3d 91 0d 09 3d
       0.0069642607 0.049978953 0.04569009 0.033460204
0002d0 f4 15 97 3d 0d c1 4c 3c 3d 43 3a 3d 88 2d 8e 3d
       0.07377234 0.012497199 0.04547428 0.06942278
0002e0 ea df 9c 3d 24 3b ff bb 25 00 37 3d e1 86 9a 3d
       0.07659896 -0.0077890325 0.044677872 0.07545257
0002f0 a4 01 38 3d cc d3 fb bb 2c 19 e0 3b 2b b5 2f bd
       0.04492344 -0.0076851603 0.006838938 -0.042897385
000300 37 c5 5b 3c c6 97 09 bc 44 21 c3 3c e1 71 26 bd
       0.013413719 -0.008398002 0.023819573 -0.040635947
000310 78 95 06 3d 48 44 b9 bd 67 9c b2 3d b0 b8 72 3c
       0.03285739 -0.09046227 0.08721238 0.014814541
000320 38 fb fd 3c e0 18 b4 bd 64 e4 96 3d 9f d4 54 bd
       0.03100358 -0.08793807 0.07367781 -0.051960584
000330 bb 60 c9 bb a9 a4 58 3d b3 7d 1c bd 14 67 0a bd
       -0.0061455644 0.052891407 -0.038205814 -0.03378971
000340 a0 15 38 bd ef 70 25 bd db 44 04 bd c2 c6 3e bc
       -0.0449425 -0.040390905 -0.03229223 -0.011644067
000350 67 ff b1 bd 79 09 6d 3d c6 d5 b6 bd 77 e7 80 bd
       -0.08691292 0.057870362 -0.08927493 -0.062941484
000360 49 07 46 3b e8 4c 35 3d 14 48 79 3d e6 1b ba bd
       0.0030216745 0.044262797 0.060859755 -0.090873525
000370 b7 13 09 bd 66 e1 64 3c 45 c7 8d bd 93 0a 4a bd
       -0.033466067 0.013969755 -0.06922773 -0.04932649
000380 b8 4c 89 3c 63 53 1b bd aa 78 4b 3d 65 74 0f 3d
       0.016760215 -0.03792132 0.04967562 0.03502311
000390 7e b6 8a 3d a6 e0 89 3b b1 15 8b bd ff 16 e9 bc
       0.06773089 0.0042076884 -0.06791247 -0.028453348
0003a0 e4 b4 cd bd ea fc 99 bc 50 6c 8a bd 98 28 8f bd
       -0.10044268 -0.018797357 -0.0675894 -0.069901645
0003b0 fb 8f aa bd 24 f0 94 3d e0 9e 79 bc 1f 11 2a 3d
       -0.08328243 0.07272366 -0.015235633 0.041520234
0003c0 0e 48 ae bd 41 31 ed bc d0 ba 35 bb 39 47 d6 bc
       -0.08509837 -0.02895415 -0.0027729757 -0.026157008
0003d0 8f 2d a2 3d 49 4c 0d bc 1a 2e e1 3b cd 75 c1 3c
       0.07918846 -0.008624145 0.006871951 0.023615742
0003e0 0f 7c 01 bc c9 dd a7 bd cc 0d 3e bc c5 b9 b0 3c
       -0.007903113 -0.08196599 -0.011599969 0.021572957
0003f0 ad 32 d1 3c 5f 04 92 bd 32 ff b3 bd 26 5b ac bd
       0.02553686 -0.0712974 -0.08788909 -0.08415823

fc2.bias f4 [128]
000000 e1 c9 35 bd 93 da 50 3d 27 10 7d 3d 87 61 61 bc
       -0.04438198 0.0509897 0.061782982 -0.0137561625
000010 49 3d 8a bb dc 81 c1 3d e7 34 b0 bb f6 19 d5 bb
       -0.0042187315 0.09448597 -0.0053774 -0.006503339
000020 b2 01 a7 bd d7 a4 ed 3d e8 80 b1 3d 67 a4 18 3d
       -0.0815462 0.11603706 0.08667165 0.03726616
000030 b5 6c e1 bb 97 14 04 bd 51 ab 53 bd 62 46 ab bd
       -0.006879414 -0.0322462 -0.051677052 -0.08363034
000040 bd c1 b1 bd 12 ec 97 bd 71 56 b1 bd c8 68 7d 3d
       -0.08679531 -0.07418074 -0.086590655 0.061867505
000050 3f ac 63 3c d5 8a 43 bd 57 3e 47 bd cc 55 e3 3d
       0.013896047 -0.047739822 -0.048643436 0.11100349
000060 0f 94 85 3d 52 e9 07 3c 98 da c6 3d 42 15 e7 3c
       0.065223806 0.008295374 0.09709662 0.028208379
000070 e6 c0 ce 3d 7e a3 64 3d 87 19 92 bb 9e 84 08 3e
       0.10095386 0.05581998 -0.0044586095 0.1333184
000080 aa 6c 6b 3d c3 d8 a1 bd 49 6b 02 bb 71 81 e4 bc
       0.057476677 -0.07902672 -0.0019900373 -0.027893754
000090 98 2a c8 3d 9b 6d dc 3c de 97 45 bd 07 07 aa 3d
       0.09773749 0.026907733 -0.048240535 0.083021216
0000a0 54 70 66 bb be 4d c0 ba 8c 41 8e 3d d9 98 04 bd
       -0.0035162168 -0.0014671606 0.06946096 -0.03237233
0000b0 a7 af e4 bb a1 a9 6e 3d 04 c8 0e bd a1 e4 3c bd
       -0.006978947 0.05826724 -0.03485872 -0.046116475
0000c0 8c 6f f4 bc 74 7c 0b 3d 60 bc 7d bd 4d 43 b9 bc
       -0.029838346 0.034054235 -0.061947227 -0.0226151
0000d0 81 c1 3b bd 2d 15 ae bd f5 91 85 bd 31 f1 72 3c
       -0.045838837 -0.08500133 -0.0652198 0.014828012
0000e0 79 62 7a bd 33 1f ae bc d2 6a d8 bc 33 d3 8d 3d
       -0.061129067 -0.021255111 -0.026418123 0.06925049
0000f0 8d 2d 2f 3a c9 50 d4 3c 42 11 d8 3c 29 24 0f bd
       0.0006682508 0.025917428 0.026375417 -0.034946594
000100 50 d0 9d 3d 10 d9 0b 3c bf 25 a9 3c e8 67 40 3d
       0.07705748 0.008535638 0.020647882 0.046974093
000110 8c 6c 77 3c 38 05 30 bc e5 1f 98 3d 67 1d ae 3c
       0.015101563 -0.010743432 0.074279584 0.021254255
000120 9b c8 b2 3d ac 02 7b 3c 36 cb 71 bd 2a 2b 07 3d
       0.08729669 0.015320461 -0.059031688 0.03300015
000130 4d 3f 5d bd cf 6a 80 bb f1 67 07 bd dc dc 25 3d
       -0.054015446 -0.0039189826 -0.03305811 0.04049383
000140 a7 a6 b6 bc 6b 05 17 bb 95 35 3c 3d f0 f0 a5 bd
       -0.022296263 -0.0023044 0.045949537 -0.08102596
000150 ec 5f 33 bd 82 28 55 ba 28 0c b1 bd 53 5e 87 bd
       -0.04379265 -0.00081313413 -0.08644897 -0.06609788
000160 ad 2b 78 bd 8a 37 1f 3d 02 ee 61 3d b3 a2 ba bd
       -0.060588527 0.038871326 0.055158623 -0.09113064
000170 6e 16 0f 3c 2c 83 a4 3c 9d bc 83 3d 31 d9 b0 bd
       0.008733375 0.020082079 0.064324595 -0.08635176
000180 db 6d f5 3c e2 1d cc bc 1e ce 10 bc 78 cd e8 bc
       0.02995961 -0.024916593 -0.008838205 -0.028418288
000190 b7 a2 0a 3d ec 94 2d bd d1 2f 2d bd 3e fe 9d bd
       0.033846583 -0.04237835 -0.04228193 -0.077145085
0001a0 0d 7b 6f 3d 57 46 b3 bc 96 81 20 3d 3d f6 ed 3d
       0.05846696 -0.021884127 0.039186083 0.11619232
0001b0 d3 45 44 bd b6 39 85 3d ac d8 24 3d cd e0 6f 3b
       -0.047918152 0.06505148 0.040245697 0.0036602498
0001c0 fe e9 92 3c 62 52 07 3d f4 ee 68 3c 47 81 03 3e
       0.017933842 0.03303755 0.014217127 0.12842284
0001d0 ee 3f 9f 3d ea b1 84 bb 81 83 5e bd 64 da 1d 3d
       0.077758655 -0.0040495293 -0.05432463 0.03853835
0001e0 b8 98 7d 3d 4a 91 0d bd 17 d6 58 bc a6 2b 49 bd
       0.061913222 -0.034562387 -0.013234637 -0.049113892
0001f0 ba c1 41 bc 7d f4 a1 bd 08 e6 93 bd 85 56 95 3d
       -0.011825973 -0.079079606 -0.07221609 0.07291893

fc3.weight f4 [5, 128]
000000 93 12 94 3d f3 38 09 bd 38 16 b4 bd 1a e7 b1 3d
       0.07230105 -0.033501577 -0.087933004 0.08686657
000010 59 65 84 bd fa 17 9c bc 06 27 48 bd e8 18 4b 3c
       -0.06464643 -0.019054402 -0.04886534 0.012396075
000020 21 58 3c bd 6f 75 a4 bc d5 c1 b7 bd 0a 2d b6 bd
       -0.045982484 -0.020075528 -0.089725174 -0.08895309
000030 c5 b8 fc 3c 13 94 99 bd ce 15 d3 3c 84 bf 20 3d
       0.030849824 -0.07498946 0.025767233 0.039245144
000040 a2 23 7a 3d 46 1a 5b 3c ba 58 05 bc 24 03 8a bc
       0.06106914 0.013372963 -0.00813883 -0.0168472
000050 a6 0c 2f bd 1b 6c af bd e7 83 36 3d 36 b3 e8 bd
       -0.042736672 -0.08565541 0.044559386 -0.11362307
000060 0a 1f 6e 3d 61 f9 82 3d 3a cf f5 3c 93 01 4b 3d
       0.05813507 0.063952215 0.03000604 0.04956205
000070 af 04 06 be 14 34 a2 bd 52 72 78 bd 70 2d 3d bd
       -0.13087724 -0.07920089 -0.0606559 -0.04618591
000080 f0 1d ae bd 68 5a 51 3c b5 b4 83 bb 98 6f a0 bd
       -0.08501804 0.012777902 -0.0040193447 -0.07833785
000090 0a bf ea bd 9f b1 c9 bd 0a ea d1 3c 6b b8 91 bd
       -0.11462219 -0.09848332 0.025624294 -0.07115253
0000a0 75 55 64 bd cf 34 a7 bd 0f e9 aa 3d cb 89 92 bd
       -0.05574556 -0.08164369 0.08345234 -0.07155188
0000b0 bc fa fe 3c 13 90 8c bd ad f2 0b bd 6d 15 72 3d
       0.031125419 -0.068634175 -0.03416698 0.059102464
0000c0 34 f1 7a bd 48 52 04 be 27 94 c7 bc 45 71 34 3c
       -0.061265185 -0.12922013 -0.024362637 0.011013334
0000d0 69 d1 7d bc f4 a3 9f 3d 8e 75 cf 3c f5 b8 f5 bd
       -0.015491822 0.077949435 0.02532461 -0.119981684
0000e0 09 28 da 3c 22 78 06 be 76 25 95 bd 2b c2 a6 3d
       0.026630418 -0.13131765 -0.07282536 0.08142503
0000f0 67 18 be bd eb fb ca 3c 48 cc e9 3c 93 58 48 bb
       -0.09281998 0.024778327 0.028539792 -0.0030570372
000100 dc 2e 96 bd d3 8d ff bd 99 0a 76 3c 08 4b a1 3d
       -0.073331565 -0.12478223 0.015017175 0.07875639
000110 82 9b 13 bd 81 36 84 3d 15 98 1c bd c1 e8 8d 3d
       -0.036036976 0.06455708 -0.038230974 0.0692916
000120 4d e3 c7 bd fe b5 68 bc ef 64 9b 3d 23 67 6e 3d
       -0.09760151 -0.014203547 0.07587611 0.058203828
000130 07 23 3e 3d 27 cb 82 3d 62 1a 0b 3c e4 22 54 3d
       0.046420123 0.063864045 0.008490177 0.051791087
000140 66 41 fa bc be 1f af 3d fc 2b c3 bc ee 65 94 bb
       -0.030548763 0.08550976 -0.023824684 -0.0045287525
000150 09 6c e7 bc 1f e0 2e bd 03 78 bd bc bf 45 66 3d
       -0.028249757 -0.042694207 -0.023128515 0.05621886
000160 e1 1c 29 bd 6e 60 36 bc 05 cc a1 3c 5a 44 76 bd
       -0.041287307 -0.011131389 0.019750604 -0.06012378
000170 31 8c f7 3c e0 cd 1a 3c 48 d8 cb 3c 64 32 81 3b
       0.030218216 0.0094484985 0.024883404 0.0039427746
000180 59 99 ab bd b7 b5 87 3d fb 57 84 3d f5 13 31 bd
       -0.08378858 0.06626456 0.064620934 -0.043231923
000190 31 42 a3 3b b0 af fe bd 32 36 a7 3d 6e d6 b1 3c
       0.004982256 -0.124358535 0.08164634 0.021708693
0001a0 f1 72 ea bd 2b 8d ea 3a 6b 68 54 3d d2 8a 71 bd
       -0.114477046 0.0017894855 0.051857393 -0.05897028
0001b0 80 27 aa bd 0b 72 4b bd 18 ff 34 bd a9 d9 1f 3d
       -0.08308315 -0.049669307 -0.04418859 0.039025936
0001c0 d9 8a 52 bd af b4 82 3d e7 2c f0 bd b9 9f ce bd
       -0.051401947 0.06382119 -0.117273144 -0.100890584
0001d0 c9 e9 9b bd 9b 3c 71 bd ac 32 58 3d cb 6b 9e bd
       -0.0761295 -0.05889569 0.0527827 -0.077354036
0001e0 46 57 f5 bb eb 9c 73 3d 96 b5 a9 bd e4 14 48 3d
       -0.0074872104 0.05947582 -0.08286588 0.048848048
0001f0 c8 95 a9 3d 49 76 07 bd 86 c4 49 bd b1 b4 ed bc
       0.08280522 -0.03307179 -0.049259685 -0.029016824
000200 5b 32 fd bc 59 cd 80 3c ff 25 32 3d 0e f0 13 3d
       -0.0309078 0.015722917 0.043493267 0.036117606
000210 1c 61 77 bd c1 7e 8b 3c 8e d7 53 bd 91 fd 1b bd
       -0.060395345 0.017028214 -0.05171924 -0.038083617
000220 42 28 42 3d 7b 34 b8 bd 50 13 88 bd 24 6f cc bd
       0.047401674 -0.08994385 -0.066443086 -0.09982136
000230 28 80 59 3d 80 38 59 3d d5 6d 09 3c 7e 03 4a bd
       0.053100735 0.0530324 0.008388002 -0.049319737
000240 57 38 81 bd 77 82 9b bd 58 e3 2d 3d ed ab b0 bd
       -0.06309574 -0.075932436 0.04245314 -0.08626542
000250 9b 59 50 3d 5a 43 9e bc a1 3d a1 bd 68 91 e5 bd
       0.050866704 -0.019319225 -0.07873083 -0.11209375
000260 19 80 da bc a7 f9 44 3d 8a ed 61 bd da a5 52 3d
       -0.02667241 0.04808965 -0.055158176 0.0514277
000270 56 13 89 bd c1 6e ad 3d 31 f2 a3 3d 4a 93 b0 bd
       -0.06693141 0.0846839 0.08005179 -0.08621843
000280 cf 11 0b bc df 51 f8 bb c5 00 86 3d 22 9a f7 bc
       -0.008488133 -0.007578119 0.065431155 -0.030224863
000290 b1 00 bb 3c af 98 4e bd 4d f9 83 3d 6b 97 ff 3b
       0.022827478 -0.05043858 0.06444035 0.007800033
0002a0 43 2e d4 3b 2e 9f 8b 3d 67 1f 94 3d ba 8d 9a 3d
       0.0064752414 0.068174705 0.07232552 0.075465634
0002b0 49 75 a2 bd 67 d5 65 3d b2 1c e5 bd b8 1a 86 3d
       -0.079325266 0.05611172 -0.11187114 0.06548065
0002c0 d0 c8 4d bd ec f4 3c 3c 96 39 76 bd 00 c9 8a bd
       -0.050240338 0.011533003 -0.060113512 -0.06776619
0002d0 ba 30 76 bd 96 02 15 bd c4 5b 98 bd dd 93 e8 bc
       -0.060105063 -0.03637942 -0.07439378 -0.02839082
0002e0 e4 9e 8a bd 09 6c 16 bd e0 7a a0 3c 06 c1 77 bd
       -0.06768587 -0.036724124 0.019589841 -0.060486816
0002f0 58 1e 06 bc 7e 08 85 bd 01 d9 67 bd 0c 68 04 bd
       -0.008185945 -0.064957604 -0.056603435 -0.03232579
000300 c2 39 79 bc 9b a7 6e bd 09 24 75 3c e6 8b 9e bd
       -0.015211524 -0.05826531 0.014962205 -0.07741527
000310 c1 ff 85 bd 49 2d ea 3c 95 34 ae 3c f3 93 1a 3c
       -0.06542922 0.028586047 0.021265307 0.009434688
000320 4e fb 66 bc 62 43 74 3c 1f 49 52 3d b5 9a 0a bd
       -0.014098002 0.014908643 0.051339265 -0.033838946
000330 7c c9 37 bd e8 6b 83 3d 23 75 4e bc d6 da a3 bc
       -0.044869885 0.06417066 -0.01260117 -0.02000181
000340 1f eb b3 bc 65 6b d2 bb a0 f8 d4 bc 33 1c 97 bd
       -0.0219627 -0.006421494 -0.02599746 -0.073784254
000350 0c bd c9 bb 3d 8a ab bd 99 33 81 3d 79 e4 9e bc
       -0.0061565693 -0.08375976 0.063086696 -0.019396054
000360 6e 38 b6 3c 0c e7 1f bd 19 4c 0f bc 60 f6 c0 3c
       0.022243705 -0.039038703 -0.00874617 0.02355498
000370 65 68 25 3d 78 34 c4 3c f6 0d 36 3d 13 c2 66 3d
       0.04038276 0.0239508 0.044446908 0.056337427
000380 53 bb 89 bd db 4f 0f 3d 6b 35 8d 3d 7c b4 89 bd
       -0.067251824 0.034988265 0.06894954 -0.06723878
000390 6a 8e b8 bd 49 60 88 bd 98 97 d5 bc 35 ba cb bc
       -0.09011538 -0.0665899 -0.026073262 -0.024869064
0003a0 0f ca b5 bd b3 d8 51 3d 48 7a 98 bd 58 e6 f1 bd
       -0.0887643 0.05123205 -0.07445198 -0.11811513
0003b0 80 cc 2e 3d 96 69 31 bd d5 92 e8 bb f7 51 80 bd
       0.042675495 -0.043313585 -0.007097582 -0.062656336
0003c0 3a a6 26 3c f7 16 11 bd a1 67 cf bd 1f ed 73 bc
       0.010171467 -0.03542229 -0.101271875 -0.014888077
0003d0 7a dc 1f bd 1c 44 a8 bd fe ec 39 bc 71 6e 67 bd
       -0.039028622 -0.08216116 -0.011348007 -0.05650181
0003e0 72 df be bd 62 79 b4 3b be 77 83 bd 12 9b 47 bd
       -0.093199626 0.005507634 -0.064193234 -0.04873187
0003f0 dd 57 9b bc 8c 1c 94 bd 9a 7c 9a bd 30 c3 31 3d
       -0.018962795 -0.072320074 -0.07543297 0.043399036

fc3.bias f4 [5]
000000 2a 50 00 bb aa 8b 21 3d 2a 44 5f 3c 33 7c 0a 3c
       -0.0019579032 0.039439835 0.013627091 0.008452463
000010 97 d6 41 3c
       0.011830947

fc1.weight f4 [128, 10]
000000 06 7f 2d be 40 a3 c7 3d 84 28 35 3e e7 b2 3e be
       -0.16942987 0.09747934 0.17691237 -0.18622933
000010 19 75 51 be 59 9c 80 be 13 e1 7d bd 42 cf ab bd
       -0.20454825 -0.25119284 -0.061982226 -0.08389141
000020 dd 53 0b 3e 09 ef 84 be 8f 7f a5 3e 70 c8 5c 3d
       0.1360621 -0.2596362 0.32323882 0.05390209
000030 26 bd 9e 3e 5e e4 31 bd d0 e7 5a 3e c8 06 2c 3d
       0.31003684 -0.04343068 0.21377492 0.041998655
000040 1f 85 0a 3e 84 67 a2 3e 1d ec 98 3e d6 54 72 be
       0.13527344 0.317196 0.2986764 -0.23665175
000050 dd 40 2a 3e e2 90 97 3e aa b8 bc 3d 5f 31 9c be
       0.16626306 0.29602724 0.092149094 -0.30506417
000060 81 d4 97 bd e0 78 96 be a4 5d 86 3e 3f 6f 9b be
       -0.07413579 -0.29389095 0.26243317 -0.30358312
000070 d9 7f 77 be 1f 15 50 3e 4d eb 8b be e6 80 9d bd
       -0.24169864 0.20320557 -0.27327958 -0.07690601
000080 5d cd 5d be f9 73 7f 3e d3 6b 8c bd f5 28 20 3e
       -0.21660371 0.24946584 -0.06856503 0.15640624
000090 4d 76 83 3c d7 60 03 3e 70 31 44 be a3 82 45 3e
       0.016047621 0.1282991 -0.19159484 0.19288115
0000a0 75 30 96 3d a5 5f 57 bd 57 d0 35 3e 0c 59 51 3e
       0.07333461 -0.052581448 0.17755257 0.20444125
0000b0 dc df 2c 3e 7e 6e 8e 3e 94 6f 05 3e 60 36 81 3e
       0.1688227 0.27818674 0.13030845 0.25236797
0000c0 f6 fa 88 3d 3e 68 ad be 89 62 04 be 46 e8 2f 3e
       0.06688492 -0.33868593 -0.12928213 0.17178449
0000d0 e5 a5 80 3e e5 70 6f 3e 7a a5 17 3e d1 18 e9 3d
       0.25126567 0.2338291 0.14809218 0.113816865
0000e0 eb ef 31 3e 01 63 43 3e 89 40 9f 3e d3 ed b9 3d
       0.17376678 0.19080736 0.31103924 0.090785645
0000f0 29 ec 90 bd e3 5a 8a be 18 fd 35 3e 96 15 8e be
       -0.07076294 -0.27022466 0.17772329 -0.27750844
000100 e3 35 04 be da df 7b be e0 62 05 3d f4 17 99 3c
       -0.12911181 -0.24597111 0.032564998 0.01868818
000110 a5 f4 52 3d 28 0c 52 bc ca 1f 8f 3e e2 2c 8a 3e
       0.051502842 -0.012820281 0.2795394 0.26987368
000120 a0 d0 1b 3e 3b 75 29 bc 3b 17 1c 3e 10 0e 50 be
       0.15216303 -0.010342891 0.15243237 -0.20317864
000130 0c ba 0d 3e e5 bb 9d be 23 43 4f 3e b7 d0 c5 3d
       0.13840503 -0.30807415 0.20240454 0.0965895
000140 cb 08 aa bd dc 9e a3 3d 67 2a dc bd f8 6d 0c 3e
       -0.083024584 0.079892844 -0.10750275 0.13713825
000150 e1 33 6e be 86 82 1e be af b6 b8 bd e1 b1 06 3e
       -0.23261978 -0.15479478 -0.09019219 0.13153793
000160 28 75 99 be 8d 37 6a 3d c9 7b 3c be ce 80 7a be
       -0.29972196 0.057181884 -0.18406595 -0.24463198
000170 fc c5 64 3e 6c 46 89 3e 94 d8 27 3e e6 ea 82 be
       0.2234115 0.2681154 0.16391212 -0.25569838
000180 3a c5 56 bd 2b dd ab 3e 7f ce 2f bd f2 bc 27 3c
       -0.052434184 0.33567175 -0.04292154 0.010237919
000190 69 d0 bb 3e 16 1f 48 3e 31 2f 10 3e 67 c9 6a be
       0.36682442 0.19543108 0.14080502 -0.22928391
0001a0 14 7e 7d be 88 11 b0 be 3e 01 55 3e a1 31 0d 3e
       -0.24755126 -0.34388375 0.20801255 0.13788463
0001b0 54 29 01 3e 44 ff 9a 3b c1 5e 00 3e 69 73 f9 3d
       0.12613422 0.004730137 0.12536146 0.12180216
0001c0 ad f4 0b be 46 84 78 be 09 1c a0 be 5e dc e4 bd
       -0.13667555 -0.24269208 -0.3127139 -0.11174844
0001d0 fc af ef bd 62 4e 14 3d ef 92 88 be 28 ad 89 be
       -0.11703488 0.036207564 -0.266746 -0.2688992
0001e0 62 a3 07 3e 24 f9 b5 bd 3b 45 bc bd cf fb 78 be
       0.1324592 -0.088854104 -0.09192892 -0.24314807
0001f0 87 88 24 bd 8f 4d ab bd a5 18 64 be c1 ad 1f 3e
       -0.040169265 -0.083644025 -0.22275026 0.15593626
000200 39 66 71 3e 5e c0 7d 3e 8b 20 c9 bb ca eb 83 3e
       0.23574151 0.24780414 -0.0061379126 0.2576583
000210 b5 04 b6 bd 58 bd 6c be aa 71 29 3e 79 7c 21 3e
       -0.088876165 -0.23119104 0.16547266 0.15770139
000220 5b 34 45 3e 19 18 81 be e9 5a 97 3e 85 82 af 3b
       0.19258253 -0.25213698 0.29561546 0.0053561353
000230 41 45 b4 bc c7 dd 8b bd 29 dd 14 bd 7a 56 3c 3e
       -0.02200568 -0.0682941 -0.036343727 0.18392363
000240 98 97 0b 3d 54 8b 01 be 73 d3 fa bd eb a9 90 be
       0.034080118 -0.12650806 -0.12247362 -0.28254637
000250 2e ee cb 3d 88 a7 a0 be dc af 8a 3d 90 b0 39 3e
       0.099575385 -0.31377816 0.06771824 0.1813376
000260 bd f4 fb 3c 2e 76 5b 3e f8 cf 53 3d dc 11 30 3e
       0.030756349 0.214318 0.051712006 0.17194313
000270 5c 96 8a be 5c f8 9e be 31 a4 a6 bd bc c0 8b be
       -0.2706784 -0.31048858 -0.08136786 -0.27295482
000280 96 30 af bd f4 81 75 3d 6a 99 0e 3d b4 4c 8b be
       -0.08554189 0.059938386 0.034814276 -0.27206957
000290 9b 17 59 3c ae 6e 91 3e a6 8d 0a be f1 86 a3 3d
       0.013250257 0.28404754 -0.13530597 0.079847224
0002a0 e8 75 d0 bd 93 e8 7b be 4a 2d 59 3e 82 e5 fc 3d
       -0.10178739 -0.24600439 0.21208683 0.12348463
0002b0 b2 dc 37 3e 97 6b 8a be f0 81 22 be fb 02 42 be
       0.17955282 -0.2703521 -0.1586988 -0.1894645
0002c0 8f 2c 68 3e 25 18 f7 3c 55 cd 60 be f3 69 ed bc
       0.22673248 0.03016288 -0.21953328 -0.028981185
0002d0 c8 54 9a 3e cb 31 b2 bd 78 79 90 3e d5 1a 9f 3e
       0.30142808 -0.087009035 0.28217673 0.3107516
0002e0 a8 80 78 be 80 ea a0 be ed ee f4 bd 64 f8 2b be
       -0.24267828 -0.3142891 -0.11959634 -0.16793972
0002f0 96 15 a8 bc dd 86 ed bd c0 02 40 be ce 95 36 3e
       -0.020518105 -0.11597989 -0.18751049 0.17830583
000300 11 38 32 3e 48 cb 8a 3e d6 c0 4c be 82 2a 15 be
       0.174042 0.27108216 -0.19995436 -0.14566997
000310 72 c8 96 be ad 37 5b bb 0d 84 05 be 9f 47 54 3d
       -0.29449803 -0.0033449933 -0.13038655 0.051826116
000320 2f ea a7 bd 44 dd b3 3e 2e 76 31 3e d6 71 77 be
       -0.08198964 0.3512975 0.17330238 -0.24164519
000330 60 b5 04 3e b7 73 20 bc ee 94 3a 3d 26 e6 3e 3e
       0.12959814 -0.009793214 0.045552187 0.18642482
000340 21 48 f4 3c fc 74 6c be 37 69 14 3d a1 eb 02 3e
       0.02981955 -0.23091501 0.036233153 0.12785198
000350 e6 54 82 3e 9e 77 af 3e f3 ba 52 3e f2 72 c7 3d
       0.25455397 0.34270948 0.20579128 0.09738721
000360 c6 0f d2 3d 3f b6 f8 bc d0 56 5f 3e 68 61 1c 3d
       0.10256915 -0.03036034 0.2181046 0.03817883
000370 45 d3 6a 3e 95 46 8e 3e fb 0b 5e 3d 51 05 88 3e
       0.22932155 0.27788225 0.054210644 0.26566556
000380 4e 5d 03 bd ac bb b4 3c a6 aa 7f 3e 75 8f 73 3e
       -0.032071404 0.022062145 0.24967441 0.23785193
000390 e1 a2 85 3e 0b 53 b7 bd e2 c8 1d 3e b7 8c 63 be
       0.2610083 -0.08951386 0.15408662 -0.22221647
0003a0 3b e0 85 3e 46 47 6d be 69 50 5c 3e fe 81 32 3e
       0.26147637 -0.2317172 0.21515049 0.174324
0003b0 a4 a3 2a be 0e 97 31 3e 94 1c bd 3d 0e 7a 0f 3e
       -0.16663986 0.17342779 0.092339665 0.14011404
0003c0 41 39 6c 3e 29 df 91 3e ec 7a 92 3e 42 45 98 3e
       0.23068716 0.2849057 0.28609407 0.2974034
0003d0 8c ba 13 bd 01 fa 9b 3e 21 c5 50 be 39 ee 6c 3c
       -0.036066577 0.30464175 -0.20387699 0.014461094
0003e0 8d 26 50 bd 61 07 cf 3d 8b b1 05 be 6d 8a 8e 3e
       -0.050818015 0.10108829 -0.13056009 0.27839985
0003f0 ae 7c d0 bd a8 54 55 3e c6 5c 4f be f0 1e 0f 3e
       -0.10180031 0.20833075 -0.20250234 0.13976645

fc1.bias f4 [128]
000000 9a f9 3d 3e 8a 59 20 bd ca 10 82 3d fd 92 01 3e
       0.18552247 -0.03914789 0.063508585 0.12653728
000010 e0 aa 6b 3e 57 5d 4d bc 51 0e dd bd c0 2a 78 3d
       0.23014402 -0.012534461 -0.10793746 0.060587645
000020 cf 03 13 bd 9e f8 5d 3e 12 23 83 3e 68 5a fc 3c
       -0.035892304 0.21676871 0.25612694 0.030804828
000030 25 e6 c8 3d 6f 32 8c 3e b6 56 a8 3d 02 5c 98 bc
       0.098095216 0.27382228 0.08219664 -0.01859856
000040 42 69 87 be ed be 72 3e f2 b1 9a 3e 0d bc 0d bd
       -0.26447493 0.23705645 0.30213886 -0.034603167
000050 bb df f3 3d 42 2c 13 be 0b 21 49 be 93 b6 7e bd
       0.119079076 -0.14372352 -0.19641511 -0.062185835
000060 b7 27 0f 3e 8e 9d f7 3d 18 78 4f 3e 68 8a 90 3d
       0.13979994 0.12090598 0.20260656 0.07057649
000070 98 fd 24 3e 8f 81 5d 3e 72 57 10 3e d7 35 60 3e
       0.16112363 0.21631454 0.14095858 0.21895538
000080 e9 7d 13 3e b6 fb f8 bc 05 00 db bb 42 4d 36 3e
       0.144035 -0.030393463 -0.006683352 0.17802909
000090 62 01 e1 3d cd e1 8c 3e eb 59 07 3e 1c bf 0a 3e
       0.10986592 0.27516022 0.13217895 0.13549465
0000a0 a1 aa 36 3d de bd cb bd 7b e4 05 3e 34 5c 68 be
       0.04459632 -0.09948324 0.1307544 -0.22691423
0000b0 4e 06 80 3e 49 1d 0f 3e 48 01 99 3e 8a 5d 36 3d
       0.2500481 0.13976015 0.2988379 0.0445228
0000c0 c5 6b 13 bd f6 6c 84 be fa 5e 94 be 3f a0 b4 3d
       -0.03599145 -0.2586438 -0.2897871 0.08819627
0000d0 9a 7e 86 bd b6 f8 b7 3d 68 ab 96 3c db 3d 85 3e
       -0.06567116 0.08982985 0.01839228 0.26023754
0000e0 23 78 6e 3e a7 ff bb bd 27 2b 49 be 99 3c 36 3e
       0.23288016 -0.09179621 -0.19645368 0.17796554
0000f0 7d e8 d5 3d d3 3c 4a be 4c 28 59 3e b6 7d 8c 3e
       0.10444734 -0.19749765 0.21206778 0.2743966
000100 29 d1 35 be f3 ab 6e bc 5e f7 a5 3d 8c e5 83 3e
       -0.1775557 -0.014567363 0.08103822 0.25761068
000110 b5 ea 86 be 98 08 97 3e 9c fd 4a be 66 7e 30 3e
       -0.26350942 0.29498744 -0.19823307 0.17235717
000120 8d cf 88 be ea 3f 8e 3e e1 ce a4 3e a7 7a 0e 3e
       -0.2672085 0.27783138 0.32189086 0.13913976
000130 b1 34 3a bc d8 cc e6 3d f3 2f c0 bd e3 3d 2d 3e
       -0.011365102 0.112695396 -0.093841456 0.16918139
000140 8a 1c 99 be bc 38 02 be 3f 70 db 3c 6f 9f 8a be
       -0.29904586 -0.12716955 0.026786922 -0.27074763
000150 db a7 59 3e 6d 03 2c be 9e be fd 3d 14 e8 76 3c
       0.21255438 -0.16798182 0.12389873 0.01506998
000160 05 28 53 be 6e 2f ce 3d 32 c6 2e be b2 60 b0 bd
       -0.20620735 0.1006764 -0.17067793 -0.08612193
000170 6b e0 5d 3e d3 ad 47 be 07 2c 42 be 9c ce 32 be
       0.2166764 -0.19499902 -0.18962108 -0.17461628
000180 02 4d 9b 3e 50 dc 95 be 2d c2 02 be 1f 29 96 3e
       0.3033219 -0.29269648 -0.12769385 0.29328248
000190 bc 0f f5 bd af 95 89 be 08 43 6b 3e a8 d5 10 3e
       -0.11965892 -0.26872012 0.22974789 0.14144003
0001a0 6c 7e 42 be b1 62 a0 be c8 74 42 3e f4 20 a7 bd
       -0.18993539 -0.31325296 0.18989861 -0.08160582
0001b0 5e ca 26 3e 59 74 9a bd 4d 12 27 be 83 b5 9b 3e
       0.16288134 -0.07541723 -0.16315575 0.3041192
0001c0 23 80 30 3e 53 5f 7f bd 16 a4 a7 3e 24 0a 68 be
       0.1723638 -0.062346768 0.32742375 -0.22660118
0001d0 73 10 91 be e0 55 30 3d ce b2 62 be 9b f1 cc bd
       -0.28332862 0.043050647 -0.22138521 -0.1000702
0001e0 e8 68 93 be 12 6a 57 3e 02 c0 f3 3c 5b 5b 6c be
       -0.28790975 0.21036556 0.029754642 -0.23081724
0001f0 a2 68 53 3e e1 81 bf 3d d6 f5 86 3e a0 c3 92 3e
       0.20645383 0.09350944 0.26359433 0.28664875

fc2.weight f4 [128, 128]
000000 37 3a 89 3b 62 80 5f bd f2 99 cb bc b3 87 28 bd
       0.004187848 -0.054565795 -0.02485368 -0.041145038
000010 b9 1b 9a bd bf bd a2 bd f9 44 2d bd ee 01 a3 bc
       -0.07524819 -0.079463474 -0.042302106 -0.019898381
000020 ed 34 19 bd 00 49 3d bd 6c ca a5 bd 5c 89 b4 3c
       -0.03740399 -0.046212196 -0.080952495 0.022038154
000030 de ee 9f bd eb 69 c9 3c 77 17 d7 3c 67 37 9f bb
       -0.07809232 0.024586638 0.026256306 -0.0048588994
000040 12 39 60 bd 94 09 07 bd 98 cf e9 bc a7 7f b3 bd
       -0.054741926 -0.03296812 -0.028541371 -0.08764582
000050 64 c2 84 3d ec ad a3 bd 9d 8d 75 3c 44 43 52 bd
       0.064823896 -0.07992157 0.0149873765 -0.05133368
000060 65 3d ea 3b 64 ec 91 bd bf 66 90 3d 1a ff 22 3d
       0.007148432 -0.07125166 0.07050847 0.039794065
000070 9e 81 e4 3c 4a 95 bd bc 06 16 8c bc a2 0f 8c 3d
       0.027893838 -0.023142476 -0.017100345 0.06838919
000080 6f 52 b3 bc a3 12 85 3b 5d 57 15 bd d3 9b 83 3d
       -0.021889893 0.0040610596 -0.03646027 0.064262055
000090 3d 4d b3 bc b1 11 2e 3c 78 1e 87 3d 0d 20 61 3d
       -0.021887416 0.010624335 0.06597608 0.054962207
0000a0 7e 04 4f 3d 25 e6 8d bd 56 4e 1b bd 78 a0 5f bc
       0.050541393 -0.06928662 -0.037916504 -0.013649099
0000b0 b8 eb af 3c 6a ef 88 3d 55 de 24 3d 4b a2 72 bc
       0.021474704 0.066862896 0.040251095 -0.0148092015
0000c0 21 81 47 3c 92 d8 87 3c a3 5c 47 3d c8 e8 2f bd
       0.012176783 0.016582761 0.04867233 -0.042946607
0000d0 6c dc ab bd 58 d8 a6 bd c7 8f fa 3c 31 c0 65 bd
       -0.083916515 -0.08146733 0.030586137 -0.05609149
0000e0 e4 c4 21 bd 22 c5 25 3d 52 de a8 3d 4f c3 3d 3d
       -0.03949441 0.040471204 0.08245529 0.04632884
0000f0 a3 8a 89 3d 1f cb 1b 3b 33 c2 ea 3c a0 d3 84 bd
       0.06715896 0.0023772193 0.028657055 -0.06485677
000100 8d 2e 84 3d 64 cf 05 bc f3 56 a7 bd f2 2b 8c 3c
       0.06454191 -0.008167122 -0.08170881 0.017110799
000110 14 0f 2b 3d 44 2f a7 3d 39 34 7b bc 96 9c 38 3c
       0.041762426 0.08163312 -0.015332275 0.011267802
000120 16 d8 fd bc 4a ef 37 3d 4d 5e 4c 3b 5e 2f 83 3d
       -0.030986827 0.04490594 0.0031184137 0.06405519
000130 2b ec 94 3c bc 9a d0 3b 21 36 fe bc 4f 12 80 bd
       0.01817902 0.006366102 -0.03103167 -0.06253492
000140 f7 c5 14 bd 97 40 b1 bc bd f8 11 bd 80 e2 cd bc
       -0.036321606 -0.021637244 -0.035637606 -0.025132418
000150 68 63 aa bd 63 9c 8a 3b b1 da 3a 3d 9a 2d 4d 3d
       -0.083197415 0.0042300685 0.045618717 0.050092317
000160 fa 7d 35 bd 2d 98 19 3c 40 62 a5 3d 79 bd 2e bd
       -0.044309594 0.00937466 0.0807538 -0.042661164
000170 91 dc 4d bd 98 31 29 3d 74 6f ad bd 08 41 87 3d
       -0.050259177 0.041307062 -0.084685236 0.066042006
000180 a0 c4 43 bd 9c fc 18 3d 2e 40 48 bc 76 c0 8d 3d
       -0.047794938 0.037350282 -0.012222333 0.06921475
000190 9c 12 6f 3c a4 b0 e4 bc 46 c1 d0 3b 3a f8 89 3d
       0.014591839 -0.02791626 0.0063706962 0.067367986
0001a0 cd 0e 64 3d 07 d1 cc ba 51 47 87 bd ca 9b 32 3d
       0.055678178 -0.001562626 -0.066053994 0.043605603
0001b0 e3 8b 4c bd 82 b3 92 bd e6 29 3b bd 20 94 1a 3c
       -0.049938094 -0.07163145 -0.045694254 0.00943473
0001c0 b9 68 1f 3d ab f1 65 3d cc 00 ac bd 2c e2 18 bd
       0.03891823 0.056138676 -0.083985895 -0.03732507
0001d0 49 e6 e1 3c d5 33 02 bd 25 ec 85 3d 42 de a8 3d
       0.027575629 -0.031787712 0.065391816 0.08245517
0001e0 5d 2c 0a bd 2a 9c d6 3b 5d c3 8a 3d f2 54 7e 3d
       -0.033733714 0.006549378 0.06775544 0.06209273
0001f0 91 5e 11 3d 91 e7 61 3d 1e f3 b0 bb 4c 10 61 3b
       0.035490576 0.05515248 -0.0054000756 0.003434199
000200 b2 e2 13 bc 66 93 e4 3c 71 fa f1 ba b0 5a fc 39
       -0.009026216 0.027902316 -0.0018461478 0.00048132753
000210 54 72 66 bc 1d ce ac bd be 99 a7 bd 2b 50 df bc
       -0.014065344 -0.084377505 -0.08183621 -0.027259907
000220 c0 e2 67 bd 53 6d cd bd 87 95 81 bd e6 ab 10 3d
       -0.05661273 -0.100306176 -0.06327348 0.035320185
000230 f8 1c 14 3c d7 c8 ca bc 4b ef 45 3d 33 3c 83 3d
       0.00904011 -0.024753971 0.04832391 0.064079665
000240 13 eb 8e bc 23 81 63 3d 00 cf 38 bd 9e 10 d2 3b
       -0.017446076 0.055543076 -0.045119286 0.0064106723
000250 af 15 58 bd c0 68 f1 3c b3 fb 06 bd c1 85 0d 3d
       -0.052755054 0.029468894 -0.032954883 0.034551386
000260 56 43 8e 3c 04 3d c2 bd 56 ce 5f 3c 24 f2 b9 3b
       0.017366093 -0.09484294 0.013660034 0.0056746174
000270 2d 34 ae bd cf be 5e 3d 50 23 75 3b 76 25 e1 bc
       -0.085060455 0.054381188 0.003740508 -0.027483683
000280 3f ef a8 bc 16 01 a1 3c f1 f5 74 bc b6 8f 7c bd
       -0.020621894 0.019653838 -0.014951215 -0.06166049
000290 ad 75 7b bd 6b 5b b8 bd b5 c1 86 bb c8 c3 78 3d
       -0.06139152 -0.090018116 -0.004112447 0.060733587
0002a0 2c cf 91 bc 77 2a af bd 3b 6d eb 3c 1d db 6c 3d
       -0.017798983 -0.085530214 0.028738609 0.05782615
0002b0 ca 93 8e bd 9f cd bc bd e1 3b 81 3d 12 46 06 3d
       -0.06961782 -0.092189066 0.06310249 0.032781668
0002c0 74 34 e4 3b bb b6 4c 3d 88 25 3b 3d 91 0d 09 3d
       0.0069642607 0.049978953 0.04569009 0.033460204
0002d0 f4 15 97 3d 0d c1 4c 3c 3d 43 3a 3d 88 2d 8e 3d
       0.07377234 0.012497199 0.04547428 0.06942278
0002e0 ea df 9c 3d 24 3b ff bb 25 00 37 3d e1 86 9a 3d
       0.07659896 -0.0077890325 0.044677872 0.07545257
0002f0 a4 01 38 3d cc d3 fb bb 2c 19 e0 3b 2b b5 2f bd
       0.04492344 -0.0076851603 0.006838938 -0.042897385
000300 37 c5 5b 3c c6 97 09 bc 44 21 c3 3c e1 71 26 bd
       0.013413719 -0.008398002 0.023819573 -0.040635947
000310 78 95 06 3d 48 44 b9 bd 67 9c b2 3d b0 b8 72 3c
       0.03285739 -0.09046227 0.08721238 0.014814541
000320 38 fb fd 3c e0 18 b4 bd 64 e4 96 3d 9f d4 54 bd
       0.03100358 -0.08793807 0.07367781 -0.051960584
000330 bb 60 c9 bb a9 a4 58 3d b3 7d 1c bd 14 67 0a bd
       -0.0061455644 0.052891407 -0.038205814 -0.03378971
000340 a0 15 38 bd ef 70 25 bd db 44 04 bd c2 c6 3e bc
       -0.0449425 -0.040390905 -0.03229223 -0.011644067
000350 67 ff b1 bd 79 09 6d 3d c6 d5 b6 bd 77 e7 80 bd
       -0.08691292 0.057870362 -0.08927493 -0.062941484
000360 49 07 46 3b e8 4c 35 3d 14 48 79 3d e6 1b ba bd
       0.0030216745 0.044262797 0.060859755 -0.090873525
000370 b7 13 09 bd 66 e1 64 3c 45 c7 8d bd 93 0a 4a bd
       -0.033466067 0.013969755 -0.06922773 -0.04932649
000380 b8 4c 89 3c 63 53 1b bd aa 78 4b 3d 65 74 0f 3d
       0.016760215 -0.03792132 0.04967562 0.03502311
000390 7e b6 8a 3d a6 e0 89 3b b1 15 8b bd ff 16 e9 bc
       0.06773089 0.0042076884 -0.06791247 -0.028453348
0003a0 e4 b4 cd bd ea fc 99 bc 50 6c 8a bd 98 28 8f bd
       -0.10044268 -0.018797357 -0.0675894 -0.069901645
0003b0 fb 8f aa bd 24 f0 94 3d e0 9e 79 bc 1f 11 2a 3d
       -0.08328243 0.07272366 -0.015235633 0.041520234
0003c0 0e 48 ae bd 41 31 ed bc d0 ba 35 bb 39 47 d6 bc
       -0.08509837 -0.02895415 -0.0027729757 -0.026157008
0003d0 8f 2d a2 3d 49 4c 0d bc 1a 2e e1 3b cd 75 c1 3c
       0.07918846 -0.008624145 0.006871951 0.023615742
0003e0 0f 7c 01 bc c9 dd a7 bd cc 0d 3e bc c5 b9 b0 3c
       -0.007903113 -0.08196599 -0.011599969 0.021572957
0003f0 ad 32 d1 3c 5f 04 92 bd 32 ff b3 bd 26 5b ac bd
       0.02553686 -0.0712974 -0.08788909 -0.08415823

fc2.bias f4 [128]
000000 e1 c9 35 bd 93 da 50 3d 27 10 7d 3d 87 61 61 bc
       -0.04438198 0.0509897 0.061782982 -0.0137561625
000010 83 1c 8a bb 63 89 c1 3d e7 34 b0 bb f6 19 d5 bb
       -0.0042148246 0.094500326 -0.0053774 -0.006503339
000020 b2 01 a7 bd 1d 9f ed 3d 6d 7e b1 3d 8b a9 18 3d
       -0.0815462 0.11602614 0.08666692 0.037271064
000030 b5 6c e1 bb 97 14 04 bd 51 ab 53 bd 62 46 ab bd
       -0.006879414 -0.0322462 -0.051677052 -0.08363034
000040 bd c1 b1 bd 12 ec 97 bd 71 56 b1 bd c8 68 7d 3d
       -0.08679531 -0.07418074 -0.086590655 0.061867505
000050 3f ac 63 3c d5 8a 43 bd 57 3e 47 bd 68 5c e3 3d
       0.013896047 -0.047739822 -0.048643436 0.111016095
000060 0f 94 85 3d 52 e9 07 3c 1e f9 c6 3d 42 15 e7 3c
       0.065223806 0.008295374 0.09715484 0.028208379
000070 d9 bd ce 3d 7e a3 64 3d 87 19 92 bb c0 80 08 3e
       0.10094804 0.05581998 -0.0044586095 0.13330364
000080 aa 6c 6b 3d c3 d8 a1 bd 49 6b 02 bb 71 81 e4 bc
       0.057476677 -0.07902672 -0.0019900373 -0.027893754
000090 d0 43 c8 3d 9c 71 dc 3c de 97 45 bd 07 07 aa 3d
       0.09778559 0.026909642 -0.048240535 0.083021216
0000a0 54 70 66 bb be 4d c0 ba 8c 41 8e 3d d9 98 04 bd
       -0.0035162168 -0.0014671606 0.06946096 -0.03237233
0000b0 61 73 e4 bb a1 a9 6e 3d ad d8 0e bd a1 e4 3c bd
       -0.006971762 0.05826724 -0.034874607 -0.046116475
0000c0 8c 6f f4 bc 86 77 0b 3d 60 bc 7d bd e1 57 b9 bc
       -0.029838346 0.034049533 -0.061947227 -0.022624912
0000d0 81 c1 3b bd 2d 15 ae bd f5 91 85 bd f2 6e 72 3c
       -0.045838837 -0.08500133 -0.0652198 0.014796959
0000e0 79 62 7a bd 8b 14 ae bc d2 6a d8 bc 33 d3 8d 3d
       -0.061129067 -0.02125003 -0.026418123 0.06925049
0000f0 b4 57 35 3a 8e 8e d4 3c c2 30 d8 3c 29 24 0f bd
       0.0006917671 0.025946882 0.026390437 -0.034946594
000100 50 d0 9d 3d 67 bf 0b 3c bf 25 a9 3c e8 67 40 3d
       0.07705748 0.008529521 0.020647882 0.046974093
000110 8c 6c 77 3c 38 05 30 bc e5 1f 98 3d 67 1d ae 3c
       0.015101563 -0.010743432 0.074279584 0.021254255
000120 88 d3 b2 3d ac 02 7b 3c 36 cb 71 bd 2a 2b 07 3d
       0.08731753 0.015320461 -0.059031688 0.03300015
000130 4d 3f 5d bd cf 6a 80 bb f1 67 07 bd dc dc 25 3d
       -0.054015446 -0.0039189826 -0.03305811 0.04049383
000140 a7 a6 b6 bc 6b 05 17 bb 95 35 3c 3d f0 f0 a5 bd
       -0.022296263 -0.0023044 0.045949537 -0.08102596
000150 ec 5f 33 bd d0 2f 54 ba 28 0c b1 bd 53 5e 87 bd
       -0.04379265 -0.0008094283 -0.08644897 -0.06609788
000160 ad 2b 78 bd cf 2b 1f 3d 02 ee 61 3d b3 a2 ba bd
       -0.060588527 0.03886014 0.055158623 -0.09113064
000170 6e 16 0f 3c 2c 83 a4 3c 9d bc 83 3d 31 d9 b0 bd
       0.008733375 0.020082079 0.064324595 -0.08635176
000180 db 6d f5 3c e2 1d cc bc 1e ce 10 bc 6a ee e8 bc
       0.02995961 -0.024916593 -0.008838205 -0.028433997
000190 a1 98 0a 3d 6c 9e 2d bd d1 2f 2d bd 3e fe 9d bd
       0.033836965 -0.04238741 -0.04228193 -0.077145085
0001a0 6d 4e 6f 3d 57 46 b3 bc 96 81 20 3d 73 ef ed 3d
       0.058424402 -0.021884127 0.039186083 0.11617937
0001b0 d3 45 44 bd ce 35 85 3d ac d8 24 3d cd e0 6f 3b
       -0.047918152 0.06504403 0.040245697 0.0036602498
0001c0 fe e9 92 3c 62 52 07 3d 07 c3 68 3c 39 83 03 3e
       0.017933842 0.03303755 0.014206654 0.12843026
0001d0 ee 3f 9f 3d 95 06 85 bb 81 83 5e bd 64 da 1d 3d
       0.077758655 -0.0040596225 -0.05432463 0.03853835
0001e0 4a 86 7d 3d 4a 91 0d bd 17 d6 58 bc a6 2b 49 bd
       0.061895646 -0.034562387 -0.013234637 -0.049113892
0001f0 ba c1 41 bc 7d f4 a1 bd 08 e6 93 bd 85 56 95 3d
       -0.011825973 -0.079079606 -0.07221609 0.07291893
