dqn_car_model_episode_0.pth (torch, 303369 bytes, 24 tensors)

fc1.weight f4 [128, 10]
-0.008709619 0.2681692 -0.097069345 0.083703205 -0.05324278 0.258745 -0.18529913 0.19030586
-0.21580084 0.11435954 0.26046413 -0.06330724 0.034797046 0.25800782 -0.08020449 0.06273986
-0.2524296 -0.22402234 -0.22925666 -0.08430331 0.123981245 0.049190126 0.055698957 -0.34356144
-0.05314292 -0.14566371 0.13820732 0.11245905 -0.025742156 -0.006327552 -0.11599365 -0.16739751
-0.20798425 0.15548547 -0.14087121 0.18952397 -0.18110391 -0.16511132 0.12022316 0.2575949
0.10314272 -0.2418303 -0.32245445 0.22765316 0.20369555 0.2466061 -0.24740845 0.28101304
-0.057273086 -0.139761 0.18398874 0.11458215 0.20027095 -0.00012443874 -0.07296536 0.064372
-0.09910896 -0.0634238 -0.09895183 -0.019873219 -0.02902565 0.048709687 0.009332477 0.08135248
-0.10607835 -0.253949 0.30630204 -0.24991013 0.27583405 -0.18020129 0.018682351 -0.0797915
-0.13978262 0.1375192 0.10076583 -0.26612332 -0.22645071 -0.19062755 0.3179366 -0.09364195
0.07921857 0.03472177 -0.27669176 0.19166206 -0.09456425 0.091947354 0.0012622052 0.050541576
0.14596662 0.050561342 0.11867581 0.26494747 -0.17906241 -0.060531776 0.3060641 0.03719825
0.024778653 -0.29390845 -0.2590446 0.091641314 -0.14553204 -0.025965847 -0.039825615 -0.23146318
0.03447985 -0.26961488 0.28554478 0.18236715 0.32236323 0.22863212 -0.27536887 -0.23886904
-0.27105597 -0.29411486 -0.070250124 -0.060794335 0.08668404 0.23832017 0.099581 0.3223626
-0.1731053 0.2504007 0.03626268 -0.018783126 0.21133575 -0.028322801 0.22898248 -0.24745499
-0.27483886 -0.13106818 0.16935742 -0.09461521 0.11418099 -0.30368495 -0.13931921 -0.06953566
-0.124885954 -0.1504203 0.24602297 -0.19500399 0.085152 -0.20934612 -0.07415112 -0.0664421
-0.2173622 -0.22069462 0.34618112 -0.13942751 0.20459767 0.29316083 -0.014342537 -0.23487145
0.14550339 0.15097483 -0.29343742 0.21868448 -0.26728258 0.14130351 -0.2675904 -0.10643703
0.21533896 0.11280291 0.2954474 0.23267226 0.27752665 0.16246879 -0.19335613 0.055210203
-0.24975497 0.1254858 -0.058964003 -0.10258132 -0.14703426 0.018491467 -0.24786352 -0.2533384
-0.089129664 0.2615915 -0.100640126 -0.28453144 -0.07437935 0.24134497 0.28731957 -0.29074064
0.093933575 -0.30832464 -0.23345089 -0.27199438 -0.20937997 -0.05177579 0.018149095 -0.07753012
0.20212215 -0.07139044 -0.17064954 0.035712637 -0.042249575 -0.25385016 -0.27199647 0.15040158
-0.3217644 -0.0816084 -0.2669333 -0.0781293 -0.27740997 0.043675408 -0.03722167 -0.07234257
0.29396072 0.21133138 -0.3410617 -0.3188606 -0.2618937 0.19473472 0.14723368 0.065555915
-0.18280879 0.1390072 5.651816e-05 0.10463609 -0.16496067 0.17497727 0.28229406 0.112426676
0.13508193 -0.06902524 -0.2668651 0.07991464 -0.0028074367 -0.26580557 0.09352838 0.035894226
0.09562905 -0.082517825 0.13996178 -0.015806533 0.26310667 0.14039658 -0.056928795 -0.19989161
-0.17157897 0.115844704 0.033903997 0.032969594 0.15868767 -0.10302228 -0.1017112 -0.0898948
-0.29770204 0.2368599 0.09868773 0.29480278 0.06574803 0.28977194 -0.012803205 0.305516
00000000: cab2 0ebc 794d 893e 4bcc c6bd 966c ab3d
00000010: 1a15 5abd 3a7a 843e 0ebf 3dbe 8adf 423e
00000020: e5fa 5cbe 5635 ea3d 8e5b 853e 3aa7 81bd
00000030: 5987 0e3d 9a19 843e 4042 a4bd c17d 803d
00000040: 743e 81be 1d66 65be 42c2 6abe 37a7 acbd
00000050: e1e9 fd3d 967b 493d 9724 643d 49e7 afbe
00000060: 64ac 59bd de28 15be 3886 0d3e ee50 e63d
00000070: 37e1 d2bc 5a57 cfbb 148e edbd 416a 2bbe
00000080: d3f9 54be 9537 1f3e 8b40 10be 9212 423e
00000090: 4e73 39be f112 29be 8f37 f63d 7be3 833e
000000a0: 7e3c d33d 5da2 77be c018 a5be e91d 693e
000000b0: 9195 503e 4f86 7c3e a458 7dbe f1e0 8f3e
000000c0: 2f97 6abd 821d 0fbe 8b67 3c3e 0caa ea3d
000000d0: d413 4d3e c57b 02b9 dd6e 95bd 78d5 833d
000000e0: a3f9 cabd 56e4 81bd 42a7 cabd 29cd a2bc
000000f0: 33c7 edbc cf83 473d 3fe7 183c 219c a63d
00000100: 9b3f d9bd 9a05 82be 9fd3 9c3e 71e8 7fbe
00000110: 1f3a 8d3e b086 38be bb0b 993c ba69 a3bd
00000120: 2d23 0fbe d5d1 0c3e 515e ce3d 5141 88be
00000130: b2e2 67be de33 43be 96c8 a23e 5ac7 bfbd
00000140: 583d a23d 6a38 0e3d 8baa 8dbe 0f43 443e
00000150: e7aa c1bd e54e bc3d 9470 a53a af04 4f3d
00000160: 4678 153e 6919 4f3d 4e0c f33d 32a7 873e
00000170: 235c 37be 2bf0 77bd 6fb4 9c3e 315d 183d
00000180: 9afc ca3c 2b7b 96be 7ea1 84be 71ae bb3d
00000190: 5a06 15be 54b6 d4bc 2f20 23bd af04 6dbe
000001a0: be3a 0d3d f60a 8abe ed32 923e 74be 3a3e
000001b0: cb0c a53e 8a1e 6a3e 26fd 8cbe 169a 74be
000001c0: d9c7 8abe 3996 96be 4cdf 8fbd 7b03 79bd
000001d0: 6787 b13d 340a 743e 20f1 cb3d b60c a53e
000001e0: 8442 31be 8534 803e 2d88 143d 12df 99bc
000001f0: 6668 583e 3805 e8bc 627a 6a3e d764 7dbe
00000200: aeb7 8cbe bd36 06be 086c 2d3e 9fc5 c1bd
00000210: b9d7 e93d 987c 9bbe b2a9 0ebe b668 8ebd
00000220: 35c4 ffbd c707 1abe 72ed 7b3e 20af 47be
00000230: 2c64 ae3d d45e 56be 8bdc 97bd cc12 88bd
00000240: 3294 5ebe c5fd 61be a73e b13e 16c6 0ebe
00000250: 0d82 513e 2d19 963e f6fc 6abc 2482 70be
00000260: d7fe 143e 2599 1a3e 6e3d 96be d3ee 5f3e
00000270: 43d9 88be deb1 103e 9c01 89be a8fb d9bd
00000280: d181 5c3e 3605 e73d e244 973e a341 6e3e
00000290: f917 8e3e 385e 263e 26ff 45be 1824 623d
000002a0: c4bf 7fbe 597f 003e 3d84 71bd 2816 d2bd
000002b0: 2690 16be 6b7b 973c efcf 7dbe 92b5 81be
000002c0: 9d89 b6bd 52ef 853e 691c cebd 1bae 91be
000002d0: 3354 98bd 2323 773e 8d1b 933e f5db 94be
000002e0: 3f60 c03d badc 9dbe c00d 6fbe d942 8bbe
000002f0: b467 56be da12 54bd 69ad 943c 1dc8 9ebd
00000300: 1cf9 4e3e 2735 92bd c1be 2ebe 6a47 123d
00000310: e40d 2dbd a6f8 81be 1f43 8bbe df02 1a3e
00000320: 4ebe a4be 4e22 a7bd 7bab 88be 4102 a0bd
00000330: ae08 8ebe fce4 323d c075 18bd 5728 94bd
00000340: 0582 963e 4167 583e a49f aebe b241 a3be
00000350: ee16 86be 8a68 473e 6dc4 163e 2e42 863d
00000360: 3a32 3bbe e757 0e3e ea0d 6d38 724b d63d
00000370: 73eb 28be 3e2d 333e d988 903e f53f e63d
00000380: eb52 0a3e 1b5d 8dbd 8ba2 88be 49aa a33d
00000390: f9fc 37bb ab17 88be cf8b bf3d d305 133d
000003a0: 2ad9 c33d 1bff a8bd 2452 0f3e b47c 81bc
000003b0: ebb5 863e 1fc4 0f3e 2b2e 69bd 63b0 4cbe
000003c0: 66b2 2fbe fd3f ed3d ebde 0a3d 200b 073d
000003d0: 057f 223e 58fd d2bd f64d d0bd c41a b8bd
000003e0: 676c 98be 678b 723e cb1c ca3d 64f0 963e
000003f0: e7a6 863d fd5c 943e 89c4 51bc 986c 9c3e

fc1.bias f4 [128]
-0.027393488 -0.18647559 0.28353298 0.17933185 0.19773498 0.11176005 0.20174445 0.33871916
0.10484649 -0.15507402 -0.15156919 0.01432443 -0.123886175 0.015543768 0.028430376 0.16761662
0.16077392 -0.21285331 -0.0023393051 -0.19263136 -0.18275735 0.2998531 0.08550011 0.23840497
-0.20470226 -0.226521 -0.15255065 -0.08989355 0.23378381 0.24430715 -0.18717322 -0.23822778
-0.049772404 0.17243032 0.18223217 -0.21814643 -0.099639215 0.2063463 -0.121438004 -0.12693034
0.047069587 0.26694 -0.2591745 0.31000203 0.30186966 -0.13967493 0.039350875 -0.07328182
-0.25763726 -0.2711389 0.27673265 0.041574076 0.047237188 0.055103123 0.30894545 -0.15372676
-0.031232726 -0.0796209 0.1753159 0.16864182 -0.026551858 0.056874763 0.2975915 0.2027591
-0.06279965 -0.16048335 0.059144564 0.34422886 0.2945573 0.27742022 0.086246334 -0.29062685
0.1693911 -0.10706457 0.009593851 -0.19571741 -0.146562 0.082015194 0.27752286 -0.017396329
0.014864643 0.23746966 -0.18458688 -0.0049991882 -0.24776204 0.22239375 0.2795197 -0.13760625
-0.13604783 -0.19901589 0.13778146 -0.091986924 0.2768018 -0.22659113 0.24590021 0.22990169
-0.14762333 -0.004692332 -0.21516754 -0.081424646 -0.07693119 -0.20945254 0.2825118 0.12039148
-0.11636825 0.17957143 -0.29448074 -0.30389842 -0.26656565 0.09280933 -0.026321791 -0.29419816
-0.23350626 -0.19008295 0.2148042 0.3463921 -0.21188638 0.1445559 0.16508162 0.1747215
-0.19125703 -0.12079168 0.20110989 -0.16741003 0.0050227386 0.2407777 0.07261917 -0.123925574
00000000: 4f68 e0bc 75f3 3ebe 3c2b 913e c5a2 373e
00000010: 0a7b 4a3e 74e2 e43d 1996 4e3e 996c ad3e
00000020: c2b9 d63d b9cb 1ebe f434 1bbe 04b1 6a3c
00000030: 09b8 fdbd 4aab 7e3c d2e6 e83c b1a3 2b3e
00000040: eba1 243e 38f6 59be 074f 19bb 2841 45be
00000050: be24 3bbe 5886 993e af1a af3d 6f20 743e
00000060: 789d 51be 1ff5 67be 3d36 1cbe 1c1a b8bd
00000070: 0665 6f3e a72b 7a3e 56aa 3fbe fcf1 73be
00000080: 26de 4bbd 9391 303e 129b 3a3e c761 5fbe
00000090: a50f ccbd 724c 533e 7db4 f8bd 07fa 01be
000000a0: 0acc 403d 5cac 883e 85b2 84be 96b8 9e3e
000000b0: a98e 9a3e f206 0fbe 622e 213d c714 96bd
000000c0: 08e9 83be b8d2 8abe e7af 8d3e 9449 2a3d
000000d0: c87b 413d d0b3 613d 192e 9e3e 8c6a 1dbe
000000e0: c6db ffbc 4810 a3bd 0386 333e 71b0 2c3e
000000f0: 4883 d9bc 83f5 683d ea5d 983e 15a0 4f3e
00000100: 1a9d 80bd bf55 24be 9241 723d c43e b03e
00000110: 37d0 963e 060a 8e3e eba1 b03d 0bcd 94be
00000120: dc74 2d3e ab44 dbbd 872f 1d3c 256a 48be
00000130: 5914 16be 95f7 a73d 7a17 8e3e bf82 8ebc
00000140: d58a 733c 3f2b 733e 5804 3dbe 3bd0 a3bb
00000150: 55b5 7dbe 30bb 633e 351d 8f3e a7e8 0cbe
00000160: 1f50 0bbe d2ca 4bbe 9516 0d3e a463 bcbd
00000170: f7b8 8d3e 8107 68be 44cd 7b3e 596b 6b3e
00000180: 922a 17be 22c2 99bb e154 5cbe f7c1 a6bd
00000190: 1a8e 9dbd ba7a 56be 63a5 903e cf8f f63d
000001a0: 7a52 eebd 93e1 373e 2ec6 96be 9398 9bbe
000001b0: 4b7b 88be d112 be3d cca0 d7bc 24a1 96be
000001c0: 441c 6fbe 1ba5 42be a2f5 5b3e 4e5a b13e
000001d0: bef8 58be 7606 143e 280b 293e 31ea 323e
000001e0: e2d8 43be a161 f7bd c0ef 4d3e 896d 2bbe
000001f0: c995 a43b 6e8e 763e 5cb9 943d b1cc fdbd

fc2.weight f4 [128, 128]
0.03225824 -0.06289807 -0.047814336 -0.05917646 0.014459793 0.08408794 0.046886146 0.037810665
0.044965904 -0.05359216 0.013708315 -0.043457456 0.0599217 0.011814868 -0.04842069 -0.06385338
-0.036215626 -0.0043949997 0.022617538 -0.06325498 0.05397926 -0.054827347 0.06150655 0.054007433
-0.046233837 -0.030798724 0.04955342 -0.073400654 -0.08317608 -0.04715968 -0.004707919 -0.025079714
0.03443306 0.05524379 -0.0061040544 -0.0030025626 -0.0140815675 -0.077555254 0.0024221267 -0.038827427
-0.0047547333 0.072911665 0.08142763 0.023271024 0.005549992 0.031919137 0.036673944 -0.03194629
0.06841779 0.024640976 0.032750703 0.050422013 -0.036287107 0.08555322 -0.06699047 -0.02231781
0.039965402 -0.065481946 -0.073048644 0.054375324 0.010009254 0.014034205 -0.06897874 -0.0320802
0.029883169 0.04888638 -0.08179646 0.050531384 0.07095721 0.04045835 -0.03892741 -0.0108503895
0.009490996 -0.03404007 0.062313598 0.00086948945 -0.008142276 -0.05954135 0.08458057 -0.030009262
-0.06285773 0.035466783 0.0520691 -0.05652436 0.020324212 0.07759414 0.032722045 -0.039684903
0.05525274 -0.007436864 -0.00648189 0.04063166 0.02395278 -0.029214382 0.027407136 0.02836977
-0.052091658 -0.066306956 -0.025057176 -0.04585991 0.053236306 0.015002097 -0.077176325 -0.055792797
-0.07371654 -0.049738295 -0.026516078 0.0819098 -0.053842273 0.077069364 0.02732672 -0.040133618
0.023135617 -0.034165584 0.07509612 0.07889653 -0.06971008 -0.047229115 -0.022199746 0.051132765
0.08555391 0.028050108 -0.041237563 -0.08316458 -0.08172087 -0.055328116 -0.06776189 -0.04929529
0.07510492 0.017796602 0.06817101 0.051929254 -0.009575946 -0.027965771 -0.0057480866 -0.006691626
-0.02542105 -0.042355843 0.09266948 0.014192266 -0.010999938 -0.011421415 0.05808082 -0.0245259
-0.052542664 0.02529663 0.03502637 0.051500455 0.08529501 0.033978883 -0.035567492 0.029600061
-0.07133652 0.009159289 0.006314242 0.10156513 -0.021808092 -0.016871896 0.078715995 0.01583868
0.006479566 0.05034847 0.066547364 -0.06599068 0.017053911 0.041872162 0.08917312 0.045793194
-0.031432584 -0.02785846 -0.05120315 -0.0117083 0.060926914 0.07118882 0.0001716398 -0.059684303
-0.027660893 0.039447658 0.020936204 0.023702482 0.007442164 -0.04587875 0.025936585 0.049444802
0.092134245 0.04694552 0.06618644 0.031927567 -0.04281889 -0.026749106 0.009817191 -0.019236794
-0.04474672 -0.056532346 0.04697498 0.055540383 -0.02445852 0.093758285 -0.02515772 -0.0589721
0.05482893 -0.012488624 0.0063048694 -0.0017649562 0.06911496 0.07536621 -0.053296346 -0.069354706
-0.08464806 0.06759588 0.010031982 0.01171203 0.051257595 0.026560502 0.09132782 -0.033889122
0.010394033 0.055778675 0.10217961 -0.03389945 0.07354098 -0.067743294 -0.049257644 0.044953603
0.08827288 0.08698921 0.039844815 -0.047193322 -0.057660047 0.07902003 -0.016803222 0.04991068
-0.061248105 -0.08385268 0.0042637964 0.06502048 -0.04558526 0.04802002 -0.02086345 0.014907256
0.10184969 -0.01361496 0.030265 0.053484593 0.09029822 -0.05409522 0.08719028 0.033733893
-0.055204477 -0.033851486 0.051260322 -0.05345035 -0.034884136 -0.0393787 0.02668698 -0.038277145
00000000: 3721 043d b4d0 80bd f7d8 43bd 0463 72bd
00000010: c5e8 6c3c 4c36 ac3d b00b 403d 5bdf 1a3d
00000020: 2b2e 383d 7483 5bbd d798 603c 7200 32bd
00000030: 7570 753d 2693 413c c654 46bd 90c5 82bd
00000040: d656 14bd ee03 90bb 6a48 b93c d48b 81bd
00000050: 5b19 5d3d a492 60bd 4bee 7b3d e636 5d3d
00000060: b15f 3dbd 9b4d fcbc 87f8 4a3d 1553 96bd
00000070: 3858 aabd 822a 41bd e344 9abb f973 cdbc
00000080: ae09 0d3d 5047 623d 8504 c8bb a4c6 44bb
00000090: 60b6 66bc 4ad5 9ebd 8bbc 1e3b 8209 1fbd
000000a0: 98cd 9bbb b652 953d 87c3 a63d e0a2 be3c
000000b0: b5dc b53b a4bd 023d 6b37 163d 1dda 02bd
000000c0: a01e 8c3d dfdb c93c 9a25 063d 5087 4e3d
000000d0: caa1 14bd 8736 af3d 4d32 89bd d7d3 b6bc
000000e0: c3b2 233d 661b 86bd 879a 95bd a9b8 5e3d
000000f0: dbfd 233c b9ef 653c ba44 8dbd 8766 03bd
00000100: 8ccd f43c 163d 483d e784 a7bd fff9 4e3d
00000110: 0452 913d a8b7 253d 5972 1fbd d5c5 31bc
00000120: 1f80 1b3c 9a6d 0bbd 8b3c 7f3d 73ee 633a
00000130: 2e67 05bc a1e1 73bd 9438 ad3d fcd5 f5bc
00000140: 8ebb 80bd 9e45 113d 6946 553d 1686 67bd
00000150: f67e a63c ade9 9e3d 8d07 063d a38c 22bd
00000160: b250 623d f0b0 f3bb 0966 d4bb 626d 263d
00000170: 9f38 c43c 0053 efbc ee84 e03c b867 e83c
00000180: 105e 55bd f1cb 87bd b544 cdbc 9ad7 3bbd
00000190: 500e 5a3d 5bcb 753c 9f0e 9ebd fd86 64bd
000001a0: b3f8 96bd 62ba 4bbd 3f38 d9bc 53c0 a73d
000001b0: b789 5cbd 8bd6 9d3d 49dc df3c 2663 24bd
000001c0: e886 bd3c 36f1 0bbd ffcb 993d 8194 a13d
000001d0: 29c4 8ebd 5173 41bd 3edc b5bc 9770 513d
000001e0: e336 af3d 57c9 e53c b8e8 28bd 3152 aabd
000001f0: 465d a7bd bc9f 62bd bfc6 8abd dce9 49bd
00000200: 9cd0 993d 2eca 913c 3e9d 8b3d c5b3 543d
00000210: 6ee4 1cbc 7918 e5bc 725a bcbb 6d45 dbbb
00000220: ce3f d0bc 527d 2dbd 7fc9 bd3d ae86 683c
00000230: 1539 34bc e320 3bbc 27e6 6d3d 8aea c8bc
00000240: fa36 57bd e13a cf3c d077 0f3d 24f2 523d
00000250: 26af ae3d 712d 0b3d 38af 11bd d47b f23c
00000260: e218 92bd d810 163c b3e7 ce3b 6101 d03d
00000270: e2a6 b2bc ee36 8abc da35 a13d 1fc0 813c
00000280: 8a52 d43b 333a 4e3d fc49 883d 1f26 87bd
00000290: a5b4 8b3c 2582 2b3d 66a0 b63d a591 3b3d
000002a0: 74bf 00bd 6d37 e4bc 65ba 51bd 2bd4 3fbc
000002b0: 808e 793d 72cb 913d 35fa 3339 8777 74bd
000002c0: 1999 e2bc de93 213d 6782 ab3c b52b c23c
000002d0: 65dd f33b 5beb 3bbd f678 d43c a286 4a3d
000002e0: e1b0 bc3d f249 403d c28c 873d 7bc6 023d
000002f0: dc62 2fbd f120 dbbc 49d8 203c 7b96 9dbc
00000300: 5648 37bd 768e 67bd d668 403d 507e 633d
00000310: 3c5d c8bc 5804 c03d 9017 cebc bb8c 71bd
00000320: 4d94 603d 169d 4cbc 1499 ce3b 1a56 e7ba
00000330: 258c 8d3d 9959 9a3d 454d 5abd d709 8ebd
00000340: f65b adbd b56f 8a3d 2f5d 243c d0e3 3f3c
00000350: 7cf3 513d 6995 d93c 150a bb3d 52cf 0abd
00000360: bc4b 2a3c 2e78 643d 8b43 d13d 26da 0abd
00000370: a79c 963d ffbc 8abd 62c2 49bd 4521 383d
00000380: 69c8 b43d 6627 b23d 5134 233d c94d 41bd
00000390: f12c 6cbd 41d5 a13d e9a6 89bc 246f 4c3d
000003a0: 4bdf 7abd f4ba abbd 51b7 8b3b 7529 853d
000003b0: 9cb7 3abd a4b0 443d d3e9 aabc 903d 743c
000003c0: 9296 d03d 4811 5fbc 4eee f73c a912 5b3d
000003d0: 46ee b83d f392 5dbd d190 b23d 8d2c 0a3d
000003e0: 171e 62bd dba7 0abd 58f6 513d c1ee 5abd
000003f0: abe2 0ebd 8f4b 21bd a79e da3c 7fc8 1cbd

fc2.bias f4 [128]
0.037626892 0.087978244 0.05141252 0.07013818 0.11859205 0.06545575 0.029200597 -0.018274015
-0.08069731 -0.007169292 0.05875967 0.05732331 0.06969958 -0.01468404 -0.05336029 0.062139556
-0.037949085 0.11541612 0.016104659 -0.056208786 0.002454917 0.008677772 -0.045625947 0.041007876
-0.01793693 0.0030776467 0.052737243 0.078148924 0.1141342 -0.011852863 0.018261947 -0.07506544
-0.087165214 0.022646608 -0.037094094 -0.0649486 0.049902868 0.034860272 -0.080564015 -0.04063165
0.08375749 -0.034421626 0.08643156 0.080649085 -0.03927006 -0.017873194 0.05473017 0.11092147
-0.043152824 -0.07334808 0.07659824 0.0848031 -0.08167732 -0.06724302 -0.04175855 0.084432885
0.01103319 -0.05014067 0.00875095 -0.039962642 -0.029519832 0.0035711762 -0.027464287 -0.061537076
0.0697548 0.07395175 -0.01984146 0.07337349 -0.039162338 -0.05169542 0.0915663 0.04531636
-0.053295046 0.012704667 -0.04490501 0.0336996 -0.053506486 0.067229785 0.028209833 0.100752145
-0.056567945 0.098668195 -0.072131306 0.06833521 -0.07811997 0.0387045 0.062940925 -0.0772345
0.002153971 0.040447667 0.069427356 0.021514205 0.020643692 0.015381969 0.049123824 -0.010564242
-0.025302365 -0.03428564 0.004716264 0.085677445 0.04390256 -0.034824096 -0.06278642 -0.06482747
0.06976351 0.027790187 0.07280022 0.029108824 0.07945007 -0.084025495 -0.06974023 -0.05170673
0.02566553 0.097097926 0.088534765 0.07391767 0.029901935 0.064775325 0.026257318 -0.0699047
0.025698215 0.011604966 0.067491874 0.029118171 0.043569878 0.020088537 -0.05343296 0.06328943
00000000: a81e 1a3d f02d b43d ef95 523d 9ba4 8f3d
00000010: 64e0 f23d aa0d 863d 1736 ef3c 63b3 95bc
00000020: a244 a5bd 61ec eabb fbad 703d d9cb 6a3d
00000030: a7be 8e3d 5495 70bc 5290 5abd 0c86 7e3d
00000040: 8070 1bbd 495f ec3d ebed 833c 2f3b 66bd
00000050: ace2 203b 372d 0e3c 46e2 3abd e0f7 273d
00000060: 78f0 92bc 58b2 493b 0203 583d 8b0c a03d
00000070: 31bf e93d 8332 42bc 149a 953c e9bb 99bd
00000080: ad83 b2bd 6185 b93c faef 17bd c603 85bd
00000090: f366 4c3d a5c9 0e3d bffe a4bd 5f6d 26bd
000000a0: 0c89 ab3d b1fd 0cbd 0803 b13d 592b a53d
000000b0: a4d9 20bd ce6a 92bc be2c 603d cc2a e33d
000000c0: 04c1 30bd 8537 96bd 8adf 9c3d 3fad ad3d
000000d0: 7046 a7bd b5b6 89bd 030b 2bbd 26eb ac3d
000000e0: 8ec4 343c 4e60 4dbd 2560 0f3c deaf 23bd
000000f0: 93d3 f1bc 650a 6a3b c9fc e0bc 4d0e 7cbd
00000100: 9bdb 8e3d 0474 973d 8f8a a2bc d744 963d
00000110: b068 20bd 94be 53bd 1d87 bb3d a69d 393d
00000120: e84b 5abd 3c27 503c 51ee 37bd 9708 0a3d
00000130: 9e29 5bbd c5af 893d 4f18 e73c 2457 ce3d
00000140: cab3 67bd 8d12 ca3d 94b9 93bd 55f3 8b3d
00000150: 5dfd 9fbd 9c88 1e3d 2ce7 803d 1f2d 9ebd
00000160: a329 0d3b 74ac 253d ee2f 8e3d 8f3e b03c
00000170: f61c a93c a704 7c3c 1036 493d a415 2dbc
00000180: e846 cfbc 196f 0cbd e48a 9a3b a877 af3d
00000190: 2cd3 333d b6a3 0ebd 2b96 80bd 44c4 84bd
000001a0: 2ce0 8e3d 3fa8 e33c 4818 953d a175 ee3c
000001b0: b8b6 a23d 8f15 acbd f7d3 8ebd 70ca 53bd
000001c0: 8440 d23c 47db c63d b751 b53d 2662 973d
000001d0: e7f4 f43c eda8 843d 9619 d73c 322a 8fbd
000001e0: 1085 d23c c122 3e3c 2e39 8a3d 3b89 ee3c
000001f0: 5476 323d b790 a43c 85dc 5abd e49d 813d

fc3.weight f4 [3, 128]
-0.023207719 -0.051683836 0.07319189 0.023385081 -0.08444039 -0.10350446 -0.014931866 0.0152686415
0.04933847 -0.101203755 0.07456854 -0.05891811 0.007481691 -0.043014064 -0.08381143 -0.016906884
-0.008903279 -0.10842487 -0.07347397 0.07289411 -0.013177844 0.0631421 -0.09380426 -0.11993635
0.024846526 -0.07774282 0.079808384 -0.013413571 -0.0716144 -0.04390887 0.079318106 0.008283394
-0.08603263 -0.06983457 0.06484288 0.025225088 -0.021565825 -0.06776384 0.031492587 -0.0692842
0.07583807 0.048802637 -0.07641009 -0.005698643 -0.10205882 0.029584387 0.0039336076 -0.11946866
-0.03386124 0.06923043 0.00057319715 0.056879304 -0.017443685 -0.04529074 0.062602475 -0.021102102
0.01633844 0.03273315 0.072441295 -0.07817738 0.0399185 0.025567142 -0.0189576 0.011672801
-0.037820082 0.031206775 -0.0102104535 -0.10957674 0.024884978 0.06935078 -0.057886977 0.056782868
-0.077142976 0.062017944 -0.0066754916 -0.025577648 0.045957156 0.05360644 0.06235259 -0.058626514
0.03637017 -0.10811487 -0.043192353 -0.025068471 -0.03116455 -0.05607254 -0.048088003 0.027384177
-0.06348232 0.07827582 0.07393399 0.035119597 0.011075551 -0.10158978 0.03263609 0.07151138
-0.06127549 -0.062806405 0.0028888187 0.018174887 -0.08640579 -0.06827167 0.020530926 -0.005798835
-0.084880926 0.031920217 0.06329729 -0.024594704 -0.00076814735 0.058442105 0.029798327 -0.022439972
-0.07653701 0.041228395 -0.0874969 0.07127688 -0.0792592 -0.015031441 0.06749641 -0.012243227
0.055126272 0.05617724 -0.019377192 -0.0121724205 0.050339956 0.035359893 0.00057250995 -0.04179884
-0.04864808 0.020575235 0.0057835556 0.018010471 -0.11097594 0.00494792 0.03470745 0.019175243
-0.00048814964 -0.061751608 -0.052817017 0.04143673 -0.05077093 -0.03662388 -0.06611029 0.02471379
0.032131817 4.8068276e-05 0.025560925 -0.012231795 0.012565925 -0.0058327233 0.025359562 -0.04303074
-0.04200888 -0.08019806 -0.05396196 -0.09910988 -0.04566558 -0.07291178 0.04573872 -0.040491287
0.057028245 -0.0061722687 -0.048170254 -0.008170665 -0.022037512 -0.044662874 0.010177726 -0.06387934
0.03298599 0.045078762 -0.045816902 -0.09952041 0.041200373 -0.11252227 -0.08181353 -0.034129154
0.034154397 -0.09112334 -0.024357622 -0.098381095 0.052309528 -0.038530827 -0.030178966 -0.11151185
0.013535303 -0.039242677 0.06034491 0.05956651 -0.06814954 -0.026372641 0.0880005 0.078502856
-0.0224042 0.045702398 0.008923004 0.0021715038 0.056961674 -0.062214855 -0.11632956 -0.092952274
-0.016354641 0.029255714 -0.018465957 -0.059696678 -0.014060009 -0.06970917 -0.018794872 0.0022651479
0.057425223 0.027538968 0.061848067 -0.018618317 0.087097734 0.061772842 0.02732141 0.08805911
0.04504426 -0.009801418 0.0412187 -0.057051186 -0.02462942 -0.06482088 -0.014138329 0.07881854
-0.019518806 -0.05440257 0.01987676 -0.108244576 -0.091621615 0.034594964 0.0338974 0.027542416
0.0104068415 0.023257922 -0.086158596 -0.044160664 -0.07846122 0.040313143 0.08509934 -0.07588097
-0.1061152 -0.06158948 -0.09255749 0.052012518 -0.029720314 -0.063363 0.058318406 -0.0109782005
0.05379681 0.034897715 0.053043388 -0.005277175 0.041923426 -0.098812744 -0.08219103 -0.08267869
00000000: 1d1e bebc 6eb2 53bd a1e5 953d 1292 bf3c
00000010: 15ef acbd 25fa d3bd c9a4 74bc 5329 7a3c
00000020: 2317 4a3d ea43 cfbd 64b7 983d 1e54 71bd
00000030: f928 f53b 842f 30bd 54a5 abbd 4e80 8abc
00000040: 0fdf 11bc dc0d debd 8579 96bd 8249 953d
00000050: e2e7 57bc a550 813d 731c c0bd 30a1 f5bd
00000060: f18a cb3c a137 9fbd 9472 a33d 98c4 5bbc
00000070: 92aa 92bd cad9 33bd 8871 a23d 13b7 073c
00000080: e031 b0bd 6d05 8fbd 58cc 843d d8a4 ce3c
00000090: d0aa b0bc c5c7 8abd 5ffe 003d e0e4 8dbd
000000a0: fd50 9b3d 46e5 473d e57c 9cbd afbb babb
000000b0: 3704 d1bd f55a f23c 7ee5 803b fcab f4bd
000000c0: 15b2 0abd afc8 8d3d 9c42 163a 46fa 683d
000000d0: 0fe6 8ebc c882 39bd ba35 803d 51de acbc
000000e0: 31d8 853c 3213 063d 1a5c 943d 761b a0bd
000000f0: 9581 233d 2f72 d13c f84c 9bbc 473f 3f3c
00000100: 3be9 1abd 5aa5 ff3c bf49 27bc c569 e0bd
00000110: 95db cb3c c807 8e3d e51a 6dbd 2795 683d
00000120: 23fd 9dbd 8706 7e3d 15be dabb 3788 d1bc
00000130: 923d 3c3d 6d92 5b3d 6e65 7f3d 5b22 70bd
00000140: e3f8 143d 546b ddbd 77ea 30bd 655c cdbc
00000150: cc4c ffbc 52ac 65bd edf7 44bd c854 e03c
00000160: 0503 82bd 134f a03d b46a 973d 91d9 0f3d
00000170: 3a76 353c 4d0e d0bd 6cad 053d 8f74 923d
00000180: 02fc 7abd a5a0 80bd 5652 3d3b 80e3 943c
00000190: 85f5 b0bd 04d2 8bbd 7930 a83c 2704 bebb
000001a0: 0dd6 adbd c6be 023d 02a2 813d d57a c9bc
000001b0: 7f5d 49ba fd60 6f3d 9f1b f43c 08d4 b7bc
000001c0: 70bf 9cbd 1bdf 283d 9331 b3bd 9df9 913d
000001d0: a652 a2bd 6f46 76bc 8f3b 8a3d d197 48bc
000001e0: 16cc 613d 1b1a 663d ebbc 9ebc d56e 47bc
000001f0: 4531 4e3d 89d5 103d 7e14 163a 4335 2bbd
00000200: 3643 47bd 658d a83c fb83 bd3b b28a 933c
00000210: 5b47 e3bd 2922 a23b 6629 0e3d 6615 9d3c
00000220: 56ee ffb9 41ef 7cbd a856 58bd 90b9 293d
00000230: 2ef5 4fbd ec02 16bd d564 87bd 9374 ca3c
00000240: a79c 033d eb9c 4938 2565 d13c de67 48bc
00000250: 4fe1 4d3c 6e20 bfbb dbbe cf3c 0041 30bd
00000260: 8111 2cbd e13e a4bd 3707 5dbd 1ffa cabd
00000270: d50b 3bbd c552 95bd 8658 3b3d 31da 25bd
00000280: 7396 693d be40 cabb 2c4e 45bd 41de 05bc
00000290: 0388 b4bc 6bf0 36bd 7ac0 263c 2cd3 82bd
000002a0: 511c 073d 82a4 383d 81aa 3bbd 5bd1 cbbd
000002b0: b9c1 283d 1372 e6bd da8d a7bd 03cb 0bbd
000002c0: 7be5 0b3d e09e babd a389 c7bc 077c c9bd
000002d0: 8442 563d 80d2 1dbd e139 f7bc 5360 e4bd
000002e0: 2dc3 5d3c eebc 20bd 392c 773d 03fc 733d
000002f0: fc91 8bbd 700b d8bc 9b39 b43d 1bc6 a03d
00000300: 0389 b7bc 7032 3b3d cb31 123c ca4f 0e3b
00000310: a550 693d 01d5 7ebd 313e eebd c35d bebd
00000320: 2bfa 85bc aea9 ef3c eb45 97bc 8184 74bd
00000330: f45b 66bc aec3 8ebd b4f7 99bc e072 143b
00000340: b636 6b3d 6799 e13c 6654 7d3d 7185 98bc
00000350: 4c60 b23d 8505 7d3d 26d1 df3c 5658 b43d
00000360: 5480 383d 2096 20bc f1d4 283d 81ae 69bd
00000370: a3c3 c9bc cfc0 84bd 73a4 67bc 9d6b a13d
00000380: e7e5 9fbc 3bd5 5ebd 96d4 a23c 55af ddbd
00000390: 1da4 bbbd 73b3 0d3d 00d8 0a3d a2a0 e13c
000003a0: 7581 2a3c 6687 be3c eb73 b0bd d0e1 34bd
000003b0: 47b0 a0bd 651f 253d 9048 ae3d 7b67 9bbd
000003c0: ed52 d9bd 4045 7cbd c88e bdbd 140b 553d
000003d0: 0478 f3bc 76c4 81bd 48df 6e3d e9dd 33bc
000003e0: 0b5a 5c3d e8f0 0e3d 0644 593d 27ec acbb
000003f0: e6b7 2b3d 565e cabd c553 a8bd 7253 a9bd

fc3.bias f4 [3]
0.05521 -0.008897279 -0.09622304
00000000: e223 623d e5c5 11bc 9610 c5bd

fc1.weight f4 [128, 10]
-0.008709619 0.2681692 -0.097069345 0.083703205 -0.05324278 0.258745 -0.18529913 0.19030586
-0.21580084 0.11435954 0.26046413 -0.06330724 0.034797046 0.25800782 -0.08020449 0.06273986
-0.2524296 -0.22402234 -0.22925666 -0.08430331 0.1264468 0.05173458 0.0582028 -0.34184185
-0.050487272 -0.14864117 0.13566065 0.10994228 -0.028287949 -0.008831393 -0.11346817 -0.16481139
-0.20545347 0.15718342 -0.1381086 0.1866692 -0.18369217 -0.16767642 0.11763575 0.25506413
0.10563135 -0.23928526 -0.3198702 0.2289008 0.20652659 0.2438999 -0.24995568 0.278487
-0.05981985 -0.14234522 0.18398874 0.11458215 0.20027095 -0.00012443874 -0.07296536 0.064372
-0.09910896 -0.0634238 -0.09895183 -0.019873219 -0.026559904 0.05125175 0.011820142 0.08295624
-0.10337887 -0.25686648 0.30375767 -0.25242552 0.27329057 -0.18268898 0.021150388 -0.07724239
-0.13729005 0.13920243 0.10341869 -0.2690275 -0.2290022 -0.19314823 0.3153861 -0.09613451
0.08153425 0.0371599 -0.2742702 0.19338559 -0.0922931 0.088959135 -0.0011786362 0.0481466
0.1435272 0.048139784 0.11867581 0.26494747 -0.17906241 -0.060531776 0.3060641 0.03719825
0.024778653 -0.29390845 -0.2590446 0.091641314 -0.14317645 -0.023499086 -0.037357856 -0.22978511
0.03705966 -0.27266318 0.28307495 0.17993946 0.31989485 0.22616436 -0.27292138 -0.23634085
-0.2685793 -0.29244864 -0.067621805 -0.06378333 0.08415367 0.2358205 0.09705147 0.31988594
-0.1731053 0.2504007 0.03626268 -0.018783126 0.21133575 -0.028322801 0.22898248 -0.24745499
-0.27483886 -0.13106818 0.17156 -0.09230879 0.11668209 -0.3024016 -0.13675067 -0.07235379
-0.12719585 -0.1526903 0.24371438 -0.19750507 0.08778461 -0.20667376 -0.07157124 -0.06517521
-0.21452686 -0.22334538 0.3435073 -0.14208654 0.20192422 0.29058096 -0.014378667 -0.23490758
0.14553884 0.15096894 -0.29347348 0.21867085 -0.26724648 0.14133964 -0.26755425 -0.10647247
0.21533896 0.11280291 0.2954474 0.23267226 0.27752665 0.16246879 -0.19335613 0.055210203
-0.24975497 0.1254858 -0.05672943 -0.10026985 -0.14462198 0.020179557 -0.24558288 -0.25587484
-0.09144219 0.25930852 -0.1029522 -0.2869437 -0.07437935 0.24134497 0.28731957 -0.29074064
0.093933575 -0.30832464 -0.23345089 -0.27199438 -0.20937997 -0.05177579 0.018149095 -0.07753012
0.20212215 -0.07139044 -0.17064954 0.035712637 -0.042249575 -0.25385016 -0.27199647 0.15040158
-0.3191879 -0.078980334 -0.26433995 -0.076939076 -0.27459887 0.040984694 -0.039851706 -0.07495325
0.2913313 0.20873806 -0.33849925 -0.31624627 -0.25938556 0.19634986 0.14994933 0.062912025
-0.18542475 0.13641067 -0.0025589983 0.102127954 -0.16486096 0.17504233 0.2815477 0.11280605
0.13494198 -0.06864251 -0.26693448 0.07983119 -0.0028748852 -0.2650592 0.09584777 0.038335524
0.09807428 -0.08090874 0.1422565 -0.018795764 0.26066273 0.1379984 -0.059371423 -0.20233683
-0.17157897 0.115844704 0.033903997 0.032969594 0.15868767 -0.10302228 -0.1017112 -0.0898948
-0.29770204 0.2368599 0.09868773 0.29480278 0.06574803 0.28977194 -0.012803205 0.305516
00000000: cab2 0ebc 794d 893e 4bcc c6bd 966c ab3d
00000010: 1a15 5abd 3a7a 843e 0ebf 3dbe 8adf 423e
00000020: e5fa 5cbe 5635 ea3d 8e5b 853e 3aa7 81bd
00000030: 5987 0e3d 9a19 843e 4042 a4bd c17d 803d
00000040: 743e 81be 1d66 65be 42c2 6abe 37a7 acbd
00000050: 457b 013e a4e7 533d 0f66 6e3d e505 afbe
00000060: becb 4ebd 6435 18be a0ea 0a3e 6b29 e13d
00000070: 21bc e7bc 8cb1 10bc 0062 e8bd 51c4 28be
00000080: 6562 52be b1f4 203e 576c 0dbe 3626 3f3e
00000090: cd19 3cbe 5eb3 2bbe 03eb f03d c497 823e
000000a0: 4055 d83d 3207 75be 07c6 a3be f964 6a3e
000000b0: b57b 533e e5c0 793e 62f4 7fbe d995 8e3e
000000c0: a905 75bd f2c2 11be 8b67 3c3e 0caa ea3d
000000d0: d413 4d3e c57b 02b9 dd6e 95bd 78d5 833d
000000e0: a3f9 cabd 56e4 81bd 42a7 cabd 29cd a2bc
000000f0: 2894 d9bc 5bed 513d 45a9 413c f6e4 a93d
00000100: 4db8 d3bd 0184 83be 2086 9b3e eb3d 81be
00000110: beec 8b3e d212 3bbe 9443 ad3c 4231 9ebd
00000120: c395 0cbe 158b 0e3e 2ecd d33d f9bd 89be
00000130: 8d7f 6abe a6c8 45be 497a a13e 2ce2 c4bd
00000140: 6efb a63d fb34 183d 256d 8cbe df06 463e
00000150: 2a04 bdbd 3530 b63d 787c 9aba 5f35 453d
00000160: cbf8 123e 392e 453d 4e0c f33d 32a7 873e
00000170: 235c 37be 2bf0 77bd 6fb4 9c3e 315d 183d
00000180: 9afc ca3c 2b7b 96be 7ea1 84be 71ae bb3d
00000190: d99c 12be 2881 c0bc 8d04 19bd ca4c 6bbe
000001a0: dfcb 173d 829a 8bbe 33ef 903e 0d42 383e
000001b0: 42c9 a33e a197 673e 5abc 8bbe 5603 72be
000001c0: 3a83 89be d4bb 95be 4d7d 8abd d6a0 82bd
000001d0: c258 ac3d ee7a 713e ecc2 c63d 17c8 a33e
000001e0: 8442 31be 8534 803e 2d88 143d 12df 99bc
000001f0: 6668 583e 3805 e8bc 627a 6a3e d764 7dbe
00000200: aeb7 8cbe bd36 06be 6dad 2f3e 640c bdbd
00000210: 05f7 ee3d 62d4 9abe 5e08 0cbe 392e 94bd
00000220: a13f 02be d95a 1cbe 4390 793e c53e 4abe
00000230: 6bc8 b33d 49a2 53be f193 92bd 957a 85bd
00000240: eeac 5bbe a7b4 64be 30e0 af3e 227f 11be
00000250: 39c5 4e3e 07c7 943e 8094 6bbc 9d8b 70be
00000260: 2208 153e 9a97 1a3e 2842 96be 40eb 5f3e
00000270: 88d4 88be 57bb 103e dffc 88be 3d0e dabd
00000280: d181 5c3e 3605 e73d e244 973e a341 6e3e
00000290: f917 8e3e 385e 263e 26ff 45be 1824 623d
000002a0: c4bf 7fbe 597f 003e 1e5d 68bd 475a cdbd
000002b0: c917 14be 994f a53c 147a 7bbe 0702 83be
000002c0: 0b46 bbbd 16c4 843e 9ad8 d2bd 49ea 92be
000002d0: 3354 98bd 2323 773e 8d1b 933e f5db 94be
000002e0: 3f60 c03d badc 9dbe c00d 6fbe d942 8bbe
000002f0: b467 56be da12 54bd 69ad 943c 1dc8 9ebd
00000300: 1cf9 4e3e 2735 92bd c1be 2ebe 6a47 123d
00000310: e40d 2dbd a6f8 81be 1f43 8bbe df02 1a3e
00000320: 996c a3be 71c0 a1bd 9157 87be 3c92 9dbd
00000330: 3998 8cbe 91df 273d 8b3b 23bd 1781 99bd
00000340: 6029 953e 6ebf 553e c64f adbe 08eb a1be
00000350: 2fce 84be f00f 493e 518c 193e 05d8 803d
00000360: fcdf 3dbe 3daf 0b3e deb4 27bb 7628 d13d
00000370: 50d1 28be 4c3e 333e 0527 903e dc06 e73d
00000380: 3b2e 0a3e 7294 8cbd a3ab 88be 897e a33d
00000390: 9268 3cbb d7b5 87be d64b c43d b605 1d3d
000003a0: 2bdb c83d 7bb3 a5bd b0ab 113e 93f9 99bc
000003b0: 9675 853e 744f 0d3e 732f 73bd 6331 4fbe
000003c0: 66b2 2fbe fd3f ed3d ebde 0a3d 200b 073d
000003d0: 057f 223e 58fd d2bd f64d d0bd c41a b8bd
000003e0: 676c 98be 678b 723e cb1c ca3d 64f0 963e
000003f0: e7a6 863d fd5c 943e 89c4 51bc 986c 9c3e

fc1.bias f4 [128]
-0.027393488 -0.18647559 0.28098583 0.1767431 0.19518645 0.11176005 0.19919954 0.33616722
0.10240576 -0.15507402 -0.15403923 0.011793535 -0.123886175 0.013232967 0.0257558 0.16765274
0.16077392 -0.215166 -0.0023393051 -0.19263136 -0.18538818 0.29723635 0.085430205 0.23596099
-0.20470226 -0.226521 -0.15503626 -0.09252639 0.23126005 0.24183103 -0.18717322 -0.23822778
-0.05223497 0.17043613 0.18226984 -0.21814643 -0.102206536 0.20394154 -0.12402385 -0.12693034
0.044488963 0.26446733 -0.2591745 0.3074602 0.2993464 -0.14225696 0.03681371 -0.07575375
-0.26014405 -0.2711389 0.27673265 0.041574076 0.047237188 0.052583832 0.30642888 -0.1562206
-0.03384057 -0.076946534 0.1753159 0.16609748 -0.026551858 0.05446895 0.29503292 0.20025264
-0.06279965 -0.16048335 0.056544933 0.34170678 0.29215083 0.27494633 0.08396201 -0.29062685
0.16664347 -0.10947889 0.0070892973 -0.1980176 -0.146562 0.07948627 0.2750013 -0.019915959
0.014864643 0.23685588 -0.18458688 -0.0049991882 -0.25036559 0.22144793 0.27698243 -0.14009376
-0.13850738 -0.20146097 0.13521248 -0.091986924 0.27420536 -0.22905676 0.24337605 0.23020622
-0.14762333 -0.004692332 -0.21714142 -0.08386579 -0.07693119 -0.20945254 0.2800031 0.11798933
-0.11636825 0.17957143 -0.29448074 -0.30389842 -0.2690097 0.09280933 -0.026321791 -0.29419816
-0.2360658 -0.19008295 0.21240836 0.34392917 -0.21438618 0.14340535 0.16255558 0.1747215
-0.19125703 -0.12079168 0.19869973 -0.16741003 0.002467942 0.23831698 0.070241265 -0.123925574
00000000: 4f68 e0bc 75f3 3ebe 60dd 8f3e 25fc 343e
00000010: f5de 473e 74e2 e43d f7fa 4b3e 1c1e ac3e
00000020: 1cba d13d b9cb 1ebe 76bc 1dbe ac39 413c
00000030: 09b8 fdbd 16cf 583c d4fd d23c 29ad 2b3e
00000040: eba1 243e 7a54 5cbe 074f 19bb 2841 45be
00000050: 66d6 3dbe 5d2f 983e 08f6 ae3d c29f 713e
00000060: 789d 51be 1ff5 67be d3c1 1ebe 7a7e bdbd
00000070: 6fcf 6c3e 8ea2 773e 56aa 3fbe fcf1 73be
00000080: 56f4 55bd cf86 2e3e f2a4 3a3e c761 5fbe
00000090: a951 d1bd 0dd6 503e 3700 febd 07fa 01be
000000a0: 0f3a 363d 4368 873e 85b2 84be 6c6b 9d3e
000000b0: ee43 993e cfab 11be f9c9 163d c824 9bbd
000000c0: 9a31 85be b8d2 8abe e7af 8d3e 9449 2a3d
000000d0: c87b 413d 2562 573d 3fe4 9c3e 4bf8 1fbe
000000e0: 699c 0abd 2596 9dbd 0386 333e 7515 2a3e
000000f0: 4883 d9bc d51a 5f3d 8e0e 973e 070f 4d3e
00000100: 1a9d 80bd bf55 24be a99b 673d 31f4 ae3e
00000110: cb94 953e c4c5 8c3e 46f4 ab3d 0bcd 94be
00000120: 96a4 2a3e 7836 e0bd 564d e83b 20c5 4abe
00000130: 5914 16be b3c9 a23d f8cc 8c3e cb26 a3bc
00000140: d58a 733c 598a 723e 5804 3dbe 3bd0 a3bb
00000150: eb2f 80be 3fc3 623e a4d0 8d3e bd74 0fbe
00000160: e1d4 0dbe c94b 4ebe 2475 0a3e a463 bcbd
00000170: a564 8c3e db8d 6abe 9237 793e 2ebb 6b3e
00000180: 922a 17be 22c2 99bb 525a 5ebe d4c1 abbd
00000190: 1a8e 9dbd ba7a 56be 915c 8f3e 64a4 f13d
000001a0: 7a52 eebd 93e1 373e 2ec6 96be 9398 9bbe
000001b0: a4bb 89be d112 be3d cca0 d7bc 24a1 96be
000001c0: 3cbb 71be 1ba5 42be 9481 593e 7c17 b03e
000001d0: 0d88 5bbe dad8 123e f874 263e 31ea 323e
000001e0: e2d8 43be a161 f7bd f177 4b3e 896d 2bbe
000001f0: 32bd 213b 5e09 743e a7da 8f3d b1cc fdbd

fc2.weight f4 [128, 128]
0.03225824 -0.06289807 -0.047814336 -0.05917646 0.014459793 0.08408794 0.046886146 0.037810665
0.044965904 -0.05359216 0.013708315 -0.043457456 0.0599217 0.011814868 -0.04842069 -0.06385338
-0.036215626 -0.0043949997 0.022617538 -0.06325498 0.05397926 -0.054827347 0.06150655 0.054007433
-0.046233837 -0.030798724 0.04955342 -0.073400654 -0.08317608 -0.04715968 -0.004707919 -0.025079714
0.03443306 0.05524379 -0.0061040544 -0.0030025626 -0.0140815675 -0.077555254 0.0024221267 -0.038827427
-0.0047547333 0.072911665 0.08142763 0.023271024 0.005549992 0.031919137 0.036673944 -0.03194629
0.06841779 0.024640976 0.032750703 0.050422013 -0.036287107 0.08555322 -0.06699047 -0.02231781
0.039965402 -0.065481946 -0.073048644 0.054375324 0.010009254 0.014034205 -0.06897874 -0.0320802
0.029883169 0.04888638 -0.08179646 0.050531384 0.07095721 0.04045835 -0.03892741 -0.0108503895
0.009490996 -0.03404007 0.062313598 0.00086948945 -0.008142276 -0.05954135 0.08458057 -0.030009262
-0.06285773 0.035466783 0.0520691 -0.05652436 0.020324212 0.07759414 0.032722045 -0.039684903
0.05525274 -0.007436864 -0.00648189 0.04063166 0.02395278 -0.029214382 0.027407136 0.02836977
-0.052091658 -0.066306956 -0.025057176 -0.04585991 0.053236306 0.015002097 -0.077176325 -0.055792797
-0.07371654 -0.049738295 -0.026516078 0.0819098 -0.053842273 0.077069364 0.02732672 -0.040133618
0.023135617 -0.034165584 0.07509612 0.07889653 -0.06971008 -0.047229115 -0.022199746 0.051132765
0.08555391 0.028050108 -0.041237563 -0.08316458 -0.08172087 -0.055328116 -0.06776189 -0.04929529
0.07510492 0.017796602 0.06546959 0.049156014 -0.011966421 -0.027965771 -0.008297273 -0.009283333
-0.027878195 -0.042355843 0.09021806 0.011735449 -0.010999938 -0.013745497 0.05554378 -0.024583692
-0.052542664 0.023059346 0.03502637 0.051500455 0.0828243 0.031502854 -0.036001254 0.027065586
-0.07133652 0.009159289 0.0035666078 0.09889965 -0.024293462 -0.019312967 0.078715995 0.01583868
0.0040169004 0.048050936 0.066508256 -0.06599068 0.014364344 0.039337564 0.086387485 0.045793194
-0.03418784 -0.03060131 -0.05120315 -0.014205639 0.058489837 0.06866461 -0.002451223 -0.06240079
-0.030286735 0.039447658 0.020936204 0.023702482 0.007442164 -0.04855087 0.023542965 0.04696652
0.08961137 0.04446636 0.06618644 0.029466277 -0.04281889 -0.02912957 0.0070457356 -0.021683557
-0.04474672 -0.056532346 0.04453746 0.05295615 -0.026941165 0.091308214 -0.02750997 -0.0589721
0.052015983 -0.014920295 0.0038526184 -0.0038065768 0.06911496 0.07289395 -0.055770066 -0.07181534
-0.08464806 0.066628926 0.010031982 0.01171203 0.048750415 0.024732068 0.088784814 -0.036311023
0.007871918 0.053299155 0.099690646 -0.03389945 0.07081326 -0.07019072 -0.051970378 0.04346257
0.08827288 0.08698921 0.03756233 -0.04960593 -0.057660047 0.07902003 -0.019317668 0.04742964
-0.061248105 -0.08385268 0.0042637964 0.06502048 -0.04807716 0.04802002 -0.02086345 0.014907256
0.09934054 -0.01361496 0.027459372 0.051025752 0.087927565 -0.05635183 0.08463874 0.033733893
-0.055204477 -0.033851486 0.048727106 -0.05345035 -0.037360735 -0.042084076 0.024293264 -0.038277145
00000000: 3721 043d b4d0 80bd f7d8 43bd 0463 72bd
00000010: c5e8 6c3c 4c36 ac3d b00b 403d 5bdf 1a3d
00000020: 2b2e 383d 7483 5bbd d798 603c 7200 32bd
00000030: 7570 753d 2693 413c c654 46bd 90c5 82bd
00000040: d656 14bd ee03 90bb 6a48 b93c d48b 81bd
00000050: 5b19 5d3d a492 60bd 4bee 7b3d e636 5d3d
00000060: b15f 3dbd 9b4d fcbc 87f8 4a3d 1553 96bd
00000070: 3858 aabd 822a 41bd e344 9abb f973 cdbc
00000080: ae09 0d3d 5047 623d 8504 c8bb a4c6 44bb
00000090: 60b6 66bc 4ad5 9ebd 8bbc 1e3b 8209 1fbd
000000a0: 98cd 9bbb b652 953d 87c3 a63d e0a2 be3c
000000b0: b5dc b53b a4bd 023d 6b37 163d 1dda 02bd
000000c0: a01e 8c3d dfdb c93c 9a25 063d 5087 4e3d
000000d0: caa1 14bd 8736 af3d 4d32 89bd d7d3 b6bc
000000e0: c3b2 233d 661b 86bd 879a 95bd a9b8 5e3d
000000f0: dbfd 233c b9ef 653c ba44 8dbd 8766 03bd
00000100: 8ccd f43c 163d 483d e784 a7bd fff9 4e3d
00000110: 0452 913d a8b7 253d 5972 1fbd d5c5 31bc
00000120: 1f80 1b3c 9a6d 0bbd 8b3c 7f3d 73ee 633a
00000130: 2e67 05bc a1e1 73bd 9438 ad3d fcd5 f5bc
00000140: 8ebb 80bd 9e45 113d 6946 553d 1686 67bd
00000150: f67e a63c ade9 9e3d 8d07 063d a38c 22bd
00000160: b250 623d f0b0 f3bb 0966 d4bb 626d 263d
00000170: 9f38 c43c 0053 efbc ee84 e03c b867 e83c
00000180: 105e 55bd f1cb 87bd b544 cdbc 9ad7 3bbd
00000190: 500e 5a3d 5bcb 753c 9f0e 9ebd fd86 64bd
000001a0: b3f8 96bd 62ba 4bbd 3f38 d9bc 53c0 a73d
000001b0: b789 5cbd 8bd6 9d3d 49dc df3c 2663 24bd
000001c0: e886 bd3c 36f1 0bbd ffcb 993d 8194 a13d
000001d0: 29c4 8ebd 5173 41bd 3edc b5bc 9770 513d
000001e0: e336 af3d 57c9 e53c b8e8 28bd 3152 aabd
000001f0: 465d a7bd bc9f 62bd bfc6 8abd dce9 49bd
00000200: 9cd0 993d 2eca 913c ec14 863d d157 493d
00000210: cf0e 44bc 7918 e5bc 49f1 07bc 1f19 18bc
00000220: d060 e4bc 527d 2dbd 3fc4 b83d 0a46 403c
00000230: 1539 34bc cb34 61bc e081 633d bd63 c9bc
00000240: fa36 57bd f4e6 bc3c d077 0f3d 24f2 523d
00000250: c99f a93d 2309 013d 0d76 13bd a6b8 dd3c
00000260: e218 92bd d810 163c c0bd 693b e68b ca3d
00000270: 1503 c7bc 3a36 9ebc da35 a13d 1fc0 813c
00000280: 34a0 833b 0fd1 443d 7b35 883d 1f26 87bd
00000290: 6d58 6b3c 6d20 213d eceb b03d a591 3b3d
000002a0: 8c08 0cbd 99af fabc 65ba 51bd c5be 68bc
000002b0: 0a93 6f3d 08a0 8c3d b3a4 20bb f997 7fbd
000002c0: e31b f8bc de93 213d 6782 ab3c b52b c23c
000002d0: 65dd f33b 47dd 46bd 2ddd c03c f75f 403d
000002e0: 2a86 b73d 5c22 363d c28c 873d 4363 f13c
000002f0: dc62 2fbd 23a1 eebc eadf e63b b7a1 b1bc
00000300: 5648 37bd 768e 67bd e96c 363d 8ce8 583d
00000310: b8b3 dcbc cdff ba3d 975c e1bc bb8c 71bd
00000320: b60e 553d 4174 74bc 367c 7c3b c377 79bb
00000330: 258c 8d3d 6c49 953d 276f 64bd ec13 93bd
00000340: f65b adbd bf74 883d 2f5d 243c d0e3 3f3c
00000350: 84ae 473d e89a ca3c d0d4 b53d deba 14bd
00000360: 38f9 003c 3750 5a3d 9c2a cc3d 26da 0abd
00000370: 8b06 913d 27c0 8fbd e4de 54bd cf05 323d
00000380: 69c8 b43d 6627 b23d f5da 193d 962f 4bbd
00000390: f12c 6cbd 41d5 a13d 1640 9ebc 9545 423d
000003a0: 4bdf 7abd f4ba abbd 51b7 8b3b 7529 853d
000003b0: 8eec 44bd a4b0 443d d3e9 aabc 903d 743c
000003c0: 0e73 cb3d 4811 5fbc 7af2 e03c 6100 513d
000003d0: 5e13 b43d 2dd1 66bd 1357 ad3d 8d2c 0a3d
000003e0: 171e 62bd dba7 0abd 1396 473d c1ee 5abd
000003f0: 9207 19bd 5a60 2cbd ab02 c73c 7fc8 1cbd

fc2.bias f4 [128]
0.037626892 0.085604735 0.05148599 0.07027248 0.11648235 0.0630625 0.029383658 -0.01816759
-0.080657005 -0.009360345 0.05875967 0.05749576 0.069823764 -0.017066143 -0.05336029 0.062181275
-0.037949085 0.11317365 0.016104659 -0.056208786 0.002454917 0.008677772 -0.045471407 0.038809266
-0.01793693 0.003453844 0.052737243 0.07644451 0.111861415 -0.014026067 0.018299505 -0.07506544
-0.087165214 0.022646608 -0.037094094 -0.06481388 0.049902868 0.03254787 -0.080564015 -0.042870034
0.08375749 -0.034421626 0.0841595 0.07896957 -0.040683907 -0.019203763 0.05473017 0.10870998
-0.043089185 -0.073223084 0.07659824 0.08267111 -0.08167732 -0.06724302 -0.041720536 0.08231772
0.01106701 -0.05014067 0.00875095 -0.039962642 -0.029519832 0.0035711762 -0.027464287 -0.061537076
0.0697548 0.07274217 -0.01984146 0.07110062 -0.03912499 -0.051655877 0.08944181 0.044174567
-0.053295046 0.012755833 -0.04490501 0.0336996 -0.053506486 0.067229785 0.028245814 0.09837076
-0.056519624 0.096409544 -0.072131306 0.06833521 -0.07811997 0.038796335 0.062940925 -0.0772345
-0.0004371073 0.040447667 0.069427356 0.021514205 0.018158073 0.0132446615 0.050899968 -0.010486103
-0.025302365 -0.03654755 0.004716264 0.08349792 0.041747205 -0.034824096 -0.06275261 -0.066739455
0.06766875 0.027937239 0.07280022 0.02675971 0.07945007 -0.083924666 -0.06974023 -0.05170673
0.023529029 0.0947292 0.086390615 0.073965855 0.029901935 0.064775325 0.026360948 -0.0699047
0.025812019 0.011604966 0.067491874 0.029118171 0.04361165 0.01819561 -0.055722453 0.06328943
00000000: a81e 1a3d 8951 af3d f9e2 523d 05eb 8f3d
00000010: 4c8e ee3d e926 813d ffb5 f03c 33d4 94bc
00000020: 802f a5bd 225c 19bc fbad 703d ad80 6b3d
00000030: c3ff 8e3d 4cce 8bbc 5290 5abd cbb1 7e3d
00000040: 8070 1bbd 96c7 e73d ebed 833c 2f3b 66bd
00000050: ace2 203b 372d 0e3c 3a40 3abd 77f6 1e3d
00000060: 78f0 92bc e359 623b 0203 583d f08e 9c3d
00000070: 9917 e53d 97cd 65bc d8e8 953c e9bb 99bd
00000080: ad83 b2bd 6185 b93c faef 17bd 24bd 84bd
00000090: f366 4c3d ea50 053d bffe a4bd 7d98 2fbd
000000a0: 0c89 ab3d b1fd 0cbd d15b ac3d ccba a13d
000000b0: 2ba4 26bd 3651 9dbc be2c 603d 57a3 de3d
000000c0: 497e 30bd fcf5 95bd 8adf 9c3d 794f a93d
000000d0: 7046 a7bd b5b6 89bd 27e3 2abd 3196 a83d
000000e0: 6852 353c 4e60 4dbd 2560 0f3c deaf 23bd
000000f0: 93d3 f1bc 650a 6a3b c9fc e0bc 4d0e 7cbd
00000100: 9bdb 8e3d d9f9 943d 8f8a a2bc 349d 913d
00000110: 8741 20bd 1d95 53bd 452d b73d 64f0 343d
00000120: e84b 5abd d7fd 503c 51ee 37bd 9708 0a3d
00000130: 9e29 5bbd c5af 893d c463 e73c 9c76 c93d
00000140: 1f81 67bd 5e72 c53d 94b9 93bd 55f3 8b3d
00000150: 5dfd 9fbd e8e8 1e3d 2ce7 803d 1f2d 9ebd
00000160: 8c2b e5b9 74ac 253d ee2f 8e3d 8f3e b03c
00000170: 3dc0 943c 2300 593c 7c7c 503d e7cd 2bbc
00000180: e846 cfbc e2b2 15bd e48a 9a3b f500 ab3d
00000190: 1eff 2a3d b6a3 0ebd 7184 80bd b2ae 88bd
000001a0: ea95 8a3d a3dc e43c 4818 953d 2e37 db3c
000001b0: b8b6 a23d b2e0 abbd f7d3 8ebd 70ca 53bd
000001c0: f3bf c03c 6201 c23d 90ed b03d 697b 973d
000001d0: e7f4 f43c eda8 843d eaf2 d73c 322a 8fbd
000001e0: ba73 d33c c122 3e3c 2e39 8a3d 3b89 ee3c
000001f0: 21a2 323d f60e 953c 3a3d 64bd e49d 813d

fc3.weight f4 [3, 128]
-0.023207719 -0.04928904 0.07324311 0.023457026 -0.08209408 -0.1011126 -0.01485505 0.0153507795
0.049382936 -0.09890645 0.07456854 -0.058788057 0.0075644925 -0.040666252 -0.08381143 -0.01687137
-0.008903279 -0.10612376 -0.07347397 0.07289411 -0.013177844 0.0631421 -0.093686655 -0.11758305
0.024846526 -0.07774282 0.079808384 -0.01112592 -0.0693304 -0.041564275 0.07935558 0.008283394
-0.08603263 -0.06983457 0.06484288 0.02530047 -0.021565825 -0.0653968 0.031492587 -0.06696667
0.07583807 0.048802637 -0.07404991 -0.0033755982 -0.100388356 0.031768043 0.0039336076 -0.11709926
-0.033813786 0.069321126 0.00057319715 0.059260033 -0.017443685 -0.04529074 0.06265084 -0.01875369
0.016372252 0.03273315 0.072441295 -0.07817738 0.0399185 0.025567142 -0.0189576 0.011672801
-0.037820082 0.03324273 -0.0102104535 -0.10728983 0.024920302 0.06939897 -0.055592626 0.058873534
-0.077142976 0.062061124 -0.0066754916 -0.025577648 0.045957156 0.05360644 0.062449023 -0.05626418
0.03641264 -0.10574545 -0.043192353 -0.025068471 -0.03116455 -0.056022566 -0.048088003 0.027384177
-0.06105995 0.07827582 0.07393399 0.035119597 0.013415357 -0.099297434 0.03439717 0.07155885
-0.06127549 -0.060538717 0.0028888187 0.020506276 -0.08405963 -0.06827167 0.020564722 -0.0035033028
-0.08269041 0.031991173 0.06329729 -0.022237558 -0.00076814735 0.058496386 0.029798327 -0.022439972
-0.07418492 0.043570567 -0.08514524 0.07131839 -0.0792592 -0.015031441 0.06755089 -0.012243227
0.05522443 0.05617724 -0.019377192 -0.0121724205 0.05037467 0.03772426 0.0029711283 -0.04179884
-0.04864808 0.022808004 0.005856496 0.01813083 -0.108729035 0.0072557214 0.034840114 0.019295512
-0.00047288017 -0.059573356 -0.052817017 0.041599598 -0.050610036 -0.034375165 -0.06611029 0.024740566
0.032131817 0.0022328994 0.025560925 -0.012231795 0.012565925 -0.0058327233 0.02550357 -0.040774986
-0.04200888 -0.08019806 -0.05396196 -0.096872255 -0.043504324 -0.07063656 0.045703482 -0.040491287
0.057028245 -0.0061722687 -0.048170254 -0.008035999 -0.022037512 -0.042385098 0.010177726 -0.06167104
0.03298599 0.045078762 -0.04354788 -0.09724643 0.04251734 -0.11035163 -0.08181353 -0.03185504
0.034156658 -0.090928726 -0.024357622 -0.09606808 0.052309528 -0.038530827 -0.03014364 -0.10923551
0.013568719 -0.039242677 0.06034491 0.05956651 -0.06814954 -0.026372641 0.0880005 0.078502856
-0.0224042 0.04750832 0.008923004 0.004335531 0.05699366 -0.062140014 -0.114154354 -0.09092337
-0.016354641 0.029272938 -0.018465957 -0.059696678 -0.014060009 -0.06970917 -0.018607475 0.004534572
0.05742947 0.029814498 0.061848067 -0.018618317 0.087097734 0.061808143 0.02732141 0.08805911
0.047358163 -0.009801418 0.0412187 -0.057051186 -0.022390915 -0.06264365 -0.014138329 0.07889658
-0.019518806 -0.052254952 0.01987676 -0.10601375 -0.08937389 0.034594964 0.033930913 0.02953587
0.012290106 0.023378644 -0.086158596 -0.041899834 -0.07846122 0.04039716 0.08509934 -0.07588097
-0.10386 -0.05933307 -0.09030566 0.05201985 -0.029720314 -0.063363 0.0584079 -0.0109782005
0.05391873 0.034897715 0.053043388 -0.005277175 0.041954976 -0.096507005 -0.079875045 -0.08267869
00000000: 1d1e bebc 4ee3 49bd 7c00 963d f328 c03c
00000010: f120 a8bd 1f14 cfbd 9862 73bc d681 7b3c
00000020: c345 4a3d 778f cabd 64b7 983d bfcb 70bd
00000030: 90df f73b a891 26bd 54a5 abbd d435 8abc
00000040: 0fdf 11bc 6a57 d9bd 8579 96bd 8249 953d
00000050: e2e7 57bc a550 813d cade bfbd 62cf f0bd
00000060: f18a cb3c a137 9fbd 9472 a33d 7e49 36bc
00000070: 19fd 8dbd 4d3f 2abd 2e85 a23d 13b7 073c
00000080: e031 b0bd 6d05 8fbd 58cc 843d ee42 cf3c
00000090: d0aa b0bc c2ee 85bd 5ffe 003d d225 89bd
000000a0: fd50 9b3d 46e5 473d 7ba7 97bd 2439 5dbb
000000b0: 6998 cdbd 351f 023d 7ee5 803b bdd1 efbd
000000c0: 5380 0abd 3cf8 8d3d 9c42 163a a6ba 723d
000000d0: 0fe6 8ebc c882 39bd 154f 803d 57a1 99bc
000000e0: 1a1f 863c 3213 063d 1a5c 943d 761b a0bd
000000f0: 9581 233d 2f72 d13c f84c 9bbc 473f 3f3c
00000100: 3be9 1abd 8729 083d bf49 27bc c5ba dbbd
00000110: a925 cc3c 0c21 8e3d 18b5 63bd 6025 713d
00000120: 23fd 9dbd ce33 7e3d 15be dabb 3788 d1bc
00000130: 923d 3c3d 6d92 5b3d 8cca 7f3d 4575 66bd
00000140: 6c25 153d 1291 d8bd 77ea 30bd 655c cdbc
00000150: cc4c ffbc eb77 65bd edf7 44bd c854 e03c
00000160: 001a 7abd 134f a03d b46a 973d 91d9 0f3d
00000170: 16cc 5b3c 745c cbbd 0ce4 0c3d 728d 923d
00000180: 02fc 7abd 72f7 77bd 5652 3d3b c7fc a73c
00000190: 7527 acbd 04d2 8bbd 5977 a83c ab97 65bb
000001a0: 9759 a9bd 2d09 033d 02a2 813d 8a2b b6bc
000001b0: 7f5d 49ba e899 6f3d 9f1b f43c 08d4 b7bc
000001c0: 43ee 97bd 0d77 323d a160 aebd 600f 923d
000001d0: a652 a2bd 6f46 76bc 1f58 8a3d d197 48bc
000001e0: 0333 623d 1b1a 663d ebbc 9ebc d56e 47bc
000001f0: ac55 4e3d c184 1a3d 43b7 423b 4335 2bbd
00000200: 3643 47bd dad7 ba3c d9e7 bf3b 1b87 943c
00000210: 54ad debd 67c1 ed3b 82b4 0e3d 9f11 9e3c
00000220: e7ec f7b9 3103 74bd a856 58bd 5764 2a3d
00000230: 784c 4fbd f9cc 0cbd d564 87bd baac ca3c
00000240: a79c 033d d655 123b 2565 d13c de67 48bc
00000250: 4fe1 4d3c 6e20 bfbb ddec d03c ac03 27bd
00000260: 8111 2cbd e13e a4bd 3707 5dbd f664 c6bd
00000270: 9731 32bd e7a9 90bd 9333 3b3d 31da 25bd
00000280: 7396 693d be40 cabb 2c4e 45bd 6ca9 03bc
00000290: 0388 b4bc ff9b 2dbd 7ac0 263c c69a 7cbd
000002a0: 511c 073d 82a4 383d 435f 32bd 2329 c7bd
000002b0: aa26 2e3d 0900 e2bd da8d a7bd 6e7a 02bd
000002c0: dae7 0b3d d738 babd a389 c7bc 57bf c4bd
000002d0: 8442 563d 80d2 1dbd cbef f6bc deb6 dfbd
000002e0: 554f 5e3c eebc 20bd 392c 773d 03fc 733d
000002f0: fc91 8bbd 700b d8bc 9b39 b43d 1bc6 a03d
00000300: 0389 b7bc 1698 423d cb31 123c 1211 8e3b
00000310: 2f72 693d 8786 7ebd c2c9 e9bd 0836 babd
00000320: 2bfa 85bc cdcd ef3c eb45 97bc 8184 74bd
00000330: f45b 66bc aec3 8ebd b46e 98bc bf96 943b
00000340: 2a3b 6b3d 893d f43c 6654 7d3d 7185 98bc
00000350: 4c60 b23d 892a 7d3d 26d1 df3c 5658 b43d
00000360: a2fa 413d 2096 20bc f1d4 283d 81ae 69bd
00000370: 276d b7bc 504b 80bd 73a4 67bc 8894 a13d
00000380: e7e5 9fbc 4a09 56bd 96d4 a23c bd1d d9bd
00000390: a809 b7bd 73b3 0d3d 24fb 0a3d 35f5 f13c
000003a0: 715c 493c 9284 bf3c eb73 b0bd 299f 2bbd
000003b0: 47b0 a0bd 7e77 253d 9048 ae3d 7b67 9bbd
000003c0: 8db4 d4bd 3c07 73bd 2df2 b8bd c412 553d
000003d0: 0478 f3bc 76c4 81bd 1f3d 6f3d e9dd 33bc
000003e0: e3d9 5c3d e8f0 0e3d 0644 593d 27ec acbb
000003f0: fbd8 2b3d 77a5 c5bd 8795 a3bd 7253 a9bd
