dqn_car_model_episode_700.pth (torch, 307153 bytes, 24 tensors)

fc1.weight f4 [128, 10]
0	0xbdfea7d7	-0.12434357
1	0x3dbc965c	0.09208366
2	0x3e352ff3	0.17694072
3	0xbe4d256c	-0.20033807
4	0xbe5d9c9b	-0.21641771
5	0xbe804727	-0.25054285
6	0xbd7dceef	-0.061964925
7	0xbdabc6e9	-0.083875485
8	0x3e0b5924	0.13608223
9	0xbe84f2c6	-0.2596647
10	0x3ec191e2	0.37806612
11	0x3d43dc7a	0.047817685
12	0x3e9ec1d4	0.31007254
13	0xbd724a26	-0.059152745
14	0x3e4ce53c	0.20009321
15	0x3d2e7ca0	0.04259932
16	0x3e0a8a5b	0.13529341
17	0x3ea269ea	0.3172143
18	0x3e98ef23	0.29869947
19	0xbe725e41	-0.23668768
20	0x3e2a40dd	0.16626306
21	0x3e9790e2	0.29602724
22	0x3dbcb8aa	0.092149094
23	0xbe9c315f	-0.30506417
24	0xbd97d481	-0.07413579
25	0xbe9678e0	-0.29389095
26	0x3e865da4	0.26243317
27	0xbe9b6f3f	-0.30358312
28	0xbe777fd9	-0.24169864
29	0x3e50151f	0.20320557
30	0xbe8beb4d	-0.27327958
31	0xbd9d80e6	-0.07690601
32	0xbe5dcd5d	-0.21660371
33	0x3e7f73f9	0.24946584
34	0xbd8c6bd3	-0.06856503
35	0x3e2028f5	0.15640624
36	0x3c83764d	0.016047621
37	0x3e0360d7	0.1282991
38	0xbe443170	-0.19159484
39	0x3e4582a3	0.19288115
40	0x3df8d0a9	0.12149174
41	0xbd6f0da3	-0.058362614
42	0x3e35d904	0.17758566
43	0x3e431643	0.19051461
44	0x3e202fc9	0.15643229
45	0x3e8ee842	0.27911574
46	0x3e0575bc	0.13033193
47	0x3e813943	0.25239
48	0x3d8908e1	0.06691147
49	0xbead6c96	-0.33871907
50	0xbdac314b	-0.084078394
51	0x3e2a51a8	0.16632712
52	0x3e80aa0d	0.25129738
53	0x3e622cbf	0.22087382
54	0x3e0c0648	0.13674271
55	0x3deb3683	0.11485007
56	0x3e31f66b	0.17379157
57	0x3e43692d	0.1908309
58	0x3e9f4429	0.3110669
59	0x3db9dd23	0.090753816
60	0xbcbec7a1	-0.02328855
61	0xbe8d3806	-0.27581805
62	0x3e360472	0.17775133
63	0xbe957bc8	-0.29196
64	0xbe110d8e	-0.14165327
65	0xbe7b49fd	-0.24539943
66	0x3d0571de	0.032579295
67	0x3c9932f2	0.01870105
68	0x3d5306c7	0.051520135
69	0xbc5281c9	-0.012848326
70	0x3e8f1fca	0.2795394
71	0x3e8a2ce2	0.26987368
72	0x3e1bd0a0	0.15216303
73	0xbc29753b	-0.010342891
74	0x3e1c173b	0.15243237
75	0xbe500e10	-0.20317864
76	0x3e0dba0c	0.13840503
77	0xbe9dbbe5	-0.30807415
78	0x3e4f4323	0.20240454
79	0x3dc5d0b7	0.0965895
80	0xbdaa08cb	-0.083024584
81	0x3da39edc	0.079892844
82	0xbddc2a67	-0.10750275
83	0x3e0c6df8	0.13713825
84	0xbe6e33e1	-0.23261978
85	0xbe1e8286	-0.15479478
86	0xbdb8b6af	-0.09019219
87	0x3e06b1e1	0.13153793
88	0xbe997528	-0.29972196
89	0x3d6a378d	0.057181884
90	0xbe1017ca	-0.14071575
91	0xbe7ffd2a	-0.24998918
92	0x3e64cded	0.2234418
93	0x3e82d5a2	0.25553614
94	0x3e1c9314	0.15290481
95	0xbe825cc1	-0.2546139
96	0xbd56abc9	-0.05240992
97	0x3eabe02c	0.33569467
98	0xbd2fb21c	-0.042894468
99	0x3c273dfb	0.010207648
100	0x3ed34d39	0.41269854
101	0x3e4297bf	0.19003199
102	0x3e1037cd	0.14083786
103	0xbe78293d	-0.24234481
104	0xbe849301	-0.25893405
105	0xbeaf9952	-0.34296662
106	0x3e5507b5	0.20803721
107	0x3e0d37b7	0.13790785
108	0x3e013085	0.12616165
109	0x3b99ed19	0.0046974537
110	0x3e005ec1	0.12536146
111	0x3df97369	0.12180216
112	0xbe0bf4ad	-0.13667555
113	0xbe788446	-0.24269208
114	0xbea01c09	-0.3127139
115	0xbde4dc5e	-0.11174844
116	0xbdefaffc	-0.11703488
117	0x3d144e62	0.036207564
118	0xbe8892ef	-0.266746
119	0xbe89ad28	-0.2688992
120	0x3e3140bd	0.17309852
121	0xbdc0fef3	-0.09423628
122	0xbdbc3718	-0.09190196
123	0xbe82ea7a	-0.25569516
124	0xbd5129d7	-0.051065292
125	0xbda8d089	-0.082429
126	0xbe641295	-0.22272713
127	0x3e1fb38c	0.15595835
128	0x3e716d0a	0.23576751
129	0x3e7db94b	0.24777715
130	0x3d2d8f49	0.042372975
131	0x3e80f99a	0.2519043
132	0xbdb5f452	-0.08884491
133	0xbe7b0d4e	-0.24516794
134	0x3e1cb66f	0.15303968
135	0x3e226365	0.15858229
136	0x3e4539b8	0.19260299
137	0xbe8115a0	-0.2521181
138	0x3e975dfc	0.29563892
139	0x3bae7c1a	0.0053248527
140	0xbcb44541	-0.02200568
141	0xbd8bddc7	-0.0682941
142	0xbd14dd29	-0.036343727
143	0x3e3c567a	0.18392363
144	0x3d0b9798	0.034080118
145	0xbe018b54	-0.12650806
146	0xbdfad373	-0.12247362
147	0xbe90a9eb	-0.28254637
148	0x3dcbee2e	0.099575385
149	0xbea0a788	-0.31377816
150	0x3d8aafdc	0.06771824
151	0x3e39b090	0.1813376
152	0x3cfbf4bd	0.030756349
153	0x3e5b762e	0.214318
154	0x3d53cff8	0.051712006
155	0x3e3011dc	0.17194313
156	0xbe8a965c	-0.2706784
157	0xbe9ef85c	-0.31048858
158	0xbda6a431	-0.08136786
159	0xbe8bc0bc	-0.27295482
160	0xbdaf3096	-0.08554189
161	0x3d7581f4	0.059938386
162	0x3d0e996a	0.034814276
163	0xbe8b4cb4	-0.27206957
164	0x3c59179b	0.013250257
165	0x3e916eae	0.28404754
166	0xbe0a8da6	-0.13530597
167	0x3da386f1	0.079847224
168	0xbdd075e8	-0.10178739
169	0xbe7be893	-0.24600439
170	0x3e592d4a	0.21208683
171	0x3dfce582	0.12348463
172	0x3e37dcb2	0.17955282
173	0xbe8a6b97	-0.2703521
174	0xbe2281f0	-0.1586988
175	0xbe4202fb	-0.1894645
176	0x3e682c8f	0.22673248
177	0x3cf71825	0.03016288
178	0xbe60cd55	-0.21953328
179	0xbced69f3	-0.028981185
180	0x3e9a54c8	0.30142808
181	0xbdb231cb	-0.087009035
182	0x3e907978	0.28217673
183	0x3e9f1ad5	0.3107516
184	0xbe7880a8	-0.24267828
185	0xbea0ea80	-0.3142891
186	0xbdf4eeed	-0.11959634
187	0xbe2bf864	-0.16793972
188	0xbca81596	-0.020518105
189	0xbded86dd	-0.11597989
190	0xbe4002c0	-0.18751049
191	0x3e3695ce	0.17830583
192	0x3e323811	0.174042
193	0x3e8acb48	0.27108216
194	0xbe4cc0d6	-0.19995436
195	0xbe152a82	-0.14566997
196	0xbe96c872	-0.29449803
197	0xbb5b37ad	-0.0033449933
198	0xbe05840d	-0.13038655
199	0x3d54479f	0.051826116
200	0xbcfc73e5	-0.030816982
201	0x3eb0d687	0.3453867
202	0x3e317ee9	0.17333569
203	0xbe830444	-0.25589192
204	0x3def4d19	0.11684627
205	0xbc11b5e5	-0.008893465
206	0x3d3aaaec	0.04557316
207	0x3e3eeb3b	0.18644421
208	0x3cf47ac0	0.029843688
209	0xbe6c7db7	-0.23094831
210	0x3da9c576	0.08289616
211	0x3dfa8eb9	0.122342534
212	0x3e82593e	0.2545871
213	0x3ea8c49f	0.3296251
214	0x3e46f937	0.19431005
215	0x3dc976a2	0.098370805
216	0x3dd21d3e	0.10259484
217	0xbcf88353	-0.030336058
218	0x3e5f5e44	0.21813303
219	0x3d1c3e9c	0.038145646
220	0x3e84d38f	0.25942656
221	0x3e8bcdf0	0.27305555
222	0x3d5e23fb	0.054233532
223	0x3e82e0b0	0.25562048
224	0xbd26bc00	-0.040706635
225	0x3cc224b4	0.023699142
226	0x3e7fb202	0.24970248
227	0x3e73967c	0.23787874
228	0x3e85a6dd	0.2610387
229	0xbdb75f14	-0.089536816
230	0x3e4d36a3	0.20040374
231	0xbe693ca8	-0.22777045
232	0x3e85e415	0.26150575
233	0xbe7b56e6	-0.24544868
234	0x3e501fd8	0.20324647
235	0x3e337387	0.17524539
236	0xbe2a9e75	-0.16662009
237	0x3e319bd2	0.17344597
238	0x3dbd287b	0.09236237
239	0x3e0f7254	0.14008456
240	0x3e6c3941	0.23068716
241	0x3e91df29	0.2849057
242	0x3e927aec	0.28609407
243	0x3e984542	0.2974034
244	0xbd13ba8c	-0.036066577
245	0x3e9bfa01	0.30464175
246	0xbe50c521	-0.20387699
247	0x3c6cee39	0.014461094
248	0xbd50268d	-0.050818015
249	0x3dcf0761	0.10108829
250	0xbda5aab6	-0.08089201
251	0x3e8ba9d8	0.27278018
252	0xbdd06bab	-0.10176786
253	0x3e475f9a	0.19470063
254	0xbe5bd2d3	-0.21467142
255	0x3e100204	0.14063269

fc1.bias f4 [128]
0	0x3e3dfe3c	0.18554014
1	0xbd20441b	-0.03912745
2	0x3d8210ca	0.063508585
3	0x3e0192fd	0.12653728
4	0x3e6bb11d	0.23016782
5	0xbc4cf3d5	-0.012509306
6	0xbddd06a0	-0.10792279
7	0x3d782ac0	0.060587645
8	0xbd1303cf	-0.035892304
9	0x3e5dff14	0.21679336
10	0x3e83265e	0.2561521
11	0x3cfc5a68	0.030804828
12	0x3dc8f27b	0.098118745
13	0x3e8c352b	0.27384314
14	0x3da856b6	0.08219664
15	0xbc985c02	-0.01859856
16	0xbe876942	-0.26447493
17	0x3e72beed	0.23705645
18	0x3e9ab1f2	0.30213886
19	0xbd0dbc0d	-0.034603167
20	0x3df3eaf0	0.11910045
21	0xbe132575	-0.14369757
22	0xbe4919b2	-0.19638708
23	0xbd7ea186	-0.06216576
24	0x3e0f27b7	0.13979994
25	0x3df7a8c8	0.12092739
26	0x3e4f7d5b	0.20262663
27	0x3d909659	0.070599265
28	0x3e24fd98	0.16112363
29	0x3e5d8870	0.21634078
30	0x3e105d96	0.140982
31	0x3e603af3	0.21897487
32	0x3e137de9	0.144035
33	0xbcf8cc5b	-0.030370882
34	0xbbdb0005	-0.006683352
35	0x3e364d42	0.17802909
36	0x3de10162	0.10986592
37	0x3e8ce560	0.2751875
38	0x3e0759eb	0.13217895
39	0x3e0abf1c	0.13549465
40	0x3d36c48b	0.04462103
41	0xbdcbafdd	-0.09945653
42	0x3e05e47b	0.1307544
43	0xbe685728	-0.22689497
44	0x3e8009cf	0.25007483
45	0x3e0f22aa	0.13978067
46	0x3e9903fc	0.29885852
47	0x3d365d8a	0.0445228
48	0xbd136bc5	-0.03599145
49	0xbe846cf6	-0.2586438
50	0xbe945efa	-0.2897871
51	0x3db4a03f	0.08819627
52	0xbd86728c	-0.06564817
53	0x3db803fd	0.08985136
54	0x3c96ab68	0.01839228
55	0x3e854010	0.26025438
56	0x3e6e7823	0.23288016
57	0xbdbbffa7	-0.09179621
58	0xbe492b27	-0.19645368
59	0x3e363c99	0.17796554
60	0x3dd5e87d	0.10444734
61	0xbe4a36b4	-0.1974743
62	0x3e592e64	0.21209103
63	0x3e8c8120	0.27442265
64	0xbe35d129	-0.1775557
65	0xbc6eabf3	-0.014567363
66	0x3da6043d	0.08106277
67	0x3e83e58c	0.25761068
68	0xbe86eab5	-0.26350942
69	0x3e970ade	0.29500479
70	0xbe4afd9c	-0.19823307
71	0x3e3084d7	0.17238174
72	0xbe88cf8d	-0.2672085
73	0x3e8e42ab	0.2778524
74	0x3ea4d1e7	0.32191393
75	0x3e0e80a8	0.13916266
76	0xbc39cba3	-0.011340055
77	0x3de6ccd8	0.112695396
78	0xbdc024b8	-0.093820035
79	0x3e2d3de3	0.16918139
80	0xbe9919e4	-0.29902565
81	0xbe023341	-0.12714864
82	0x3cdba3e0	0.02681154
83	0xbe8a9f6f	-0.27074763
84	0x3e59a7db	0.21255438
85	0xbe2c036d	-0.16798182
86	0x3dfdcbf3	0.12392416
87	0x3c76e814	0.01506998
88	0xbe5320f5	-0.20618041
89	0x3dce3a05	0.1006966
90	0xbe2ec1de	-0.17066142
91	0xbdb051d5	-0.08609358
92	0x3e5de5d1	0.21669699
93	0xbe47a6d7	-0.19497238
94	0xbe422583	-0.18959622
95	0xbe32ce9c	-0.17461628
96	0x3e9b5012	0.30334526
97	0xbe95dc50	-0.29269648
98	0xbe02bc2d	-0.12767096
99	0x3e962cbe	0.2933101
100	0xbdf50fbc	-0.11965892
101	0xbe8995af	-0.26872012
102	0x3e6b4a1e	0.22977492
103	0x3e10d5a8	0.14144003
104	0xbe4277e0	-0.18991041
105	0xbea062b1	-0.31325296
106	0x3e4274c8	0.18989861
107	0xbda714fd	-0.081583
108	0x3e26cefb	0.16289894
109	0xbd9a7459	-0.07541723
110	0xbe27124d	-0.16315575
111	0x3e9bb870	0.30414152
112	0x3e308023	0.1723638
113	0xbd7f516f	-0.06233352
114	0x3ea7a76e	0.32744926
115	0xbe680a24	-0.22660118
116	0xbe911073	-0.28332862
117	0x3d30739f	0.043079015
118	0xbe62ad96	-0.2213653
119	0xbdccf19b	-0.1000702
120	0xbe9368e8	-0.28790975
121	0x3e576fe8	0.21038783
122	0x3cf3f337	0.02977906
123	0xbe6c55d0	-0.2307961
124	0x3e5368a2	0.20645383
125	0x3dbf81e1	0.09350944
126	0x3e86f5d6	0.26359433
127	0x3e92c3a0	0.28664875

fc2.weight f4 [128, 128]
0	0x3b893a37	0.004187848
1	0xbd5f8062	-0.054565795
2	0xbccb99f2	-0.02485368
3	0xbd2887b3	-0.041145038
4	0xbd9a1bb9	-0.07524819
5	0xbda2bdbf	-0.079463474
6	0xbd2d44f9	-0.042302106
7	0xbca301ee	-0.019898381
8	0xbd1934ed	-0.03740399
9	0xbd3d4900	-0.046212196
10	0xbda5ca6c	-0.080952495
11	0x3cb4895c	0.022038154
12	0xbd9feede	-0.07809232
13	0x3cc969eb	0.024586638
14	0x3cd71777	0.026256306
15	0xbb9f3767	-0.0048588994
16	0xbd603912	-0.054741926
17	0xbd070994	-0.03296812
18	0xbce9cf98	-0.028541371
19	0xbdb37fa7	-0.08764582
20	0x3d84c264	0.064823896
21	0xbda3adec	-0.07992157
22	0x3c758d9d	0.0149873765
23	0xbd524344	-0.05133368
24	0x3bea3d65	0.007148432
25	0xbd91ec64	-0.07125166
26	0x3d9066bf	0.07050847
27	0x3d22ff1a	0.039794065
28	0x3ce4819e	0.027893838
29	0xbcbd954a	-0.023142476
30	0xbc8c1606	-0.017100345
31	0x3d8c0fa2	0.06838919
32	0xbcb3526f	-0.021889893
33	0x3b8512a3	0.0040610596
34	0xbd15575d	-0.03646027
35	0x3d839bd3	0.064262055
36	0xbcb34d3d	-0.021887416
37	0x3c2e11b1	0.010624335
38	0x3d871e78	0.06597608
39	0x3d61200d	0.054962207
40	0x3d4f047e	0.050541393
41	0xbd8de625	-0.06928662
42	0xbd1b4e56	-0.037916504
43	0xbc5fa078	-0.013649099
44	0x3cafebb8	0.021474704
45	0x3d88ef6a	0.066862896
46	0x3d24de55	0.040251095
47	0xbc72a24b	-0.0148092015
48	0x3c478121	0.012176783
49	0x3c87d892	0.016582761
50	0x3d475ca3	0.04867233
51	0xbd2fe8c8	-0.042946607
52	0xbdabdc6c	-0.083916515
53	0xbda6d858	-0.08146733
54	0x3cfa8fc7	0.030586137
55	0xbd65c031	-0.05609149
56	0xbd21c4e4	-0.03949441
57	0x3d25c522	0.040471204
58	0x3da8de52	0.08245529
59	0x3d3dc34f	0.04632884
60	0x3d898aa3	0.06715896
61	0x3b1bcb1f	0.0023772193
62	0x3ceac233	0.028657055
63	0xbd84d3a0	-0.06485677
64	0x3d842e8d	0.06454191
65	0xbc05cf64	-0.008167122
66	0xbda756f3	-0.08170881
67	0x3c8c2bf2	0.017110799
68	0x3d2b0f14	0.041762426
69	0x3da72f44	0.08163312
70	0xbc7b3439	-0.015332275
71	0x3c389c96	0.011267802
72	0xbcfdd816	-0.030986827
73	0x3d37ef4a	0.04490594
74	0x3b4c5e4d	0.0031184137
75	0x3d832f5e	0.06405519
76	0x3c94ec2b	0.01817902
77	0x3bd09abc	0.006366102
78	0xbcfe3621	-0.03103167
79	0xbd80124f	-0.06253492
80	0xbd14c5f7	-0.036321606
81	0xbcb14097	-0.021637244
82	0xbd11f8bd	-0.035637606
83	0xbccde280	-0.025132418
84	0xbdaa6368	-0.083197415
85	0x3b8a9c63	0.0042300685
86	0x3d3adab1	0.045618717
87	0x3d4d2d9a	0.050092317
88	0xbd357dfa	-0.044309594
89	0x3c19982d	0.00937466
90	0x3da56240	0.0807538
91	0xbd2ebd79	-0.042661164
92	0xbd4ddc91	-0.050259177
93	0x3d293198	0.041307062
94	0xbdad6f74	-0.084685236
95	0x3d874108	0.066042006
96	0xbd43c4a0	-0.047794938
97	0x3d18fc9c	0.037350282
98	0xbc48402e	-0.012222333
99	0x3d8dc076	0.06921475
100	0x3c6f129c	0.014591839
101	0xbce4b0a4	-0.02791626
102	0x3bd0c146	0.0063706962
103	0x3d89f83a	0.067367986
104	0x3d640ecd	0.055678178
105	0xbaccd107	-0.001562626
106	0xbd874751	-0.066053994
107	0x3d329bca	0.043605603
108	0xbd4c8be3	-0.049938094
109	0xbd92b382	-0.07163145
110	0xbd3b29e6	-0.045694254
111	0x3c1a9420	0.00943473
112	0x3d1f68b9	0.03891823
113	0x3d65f1ab	0.056138676
114	0xbdac00cc	-0.083985895
115	0xbd18e22c	-0.03732507
116	0x3ce1e649	0.027575629
117	0xbd0233d5	-0.031787712
118	0x3d85ec25	0.065391816
119	0x3da8de42	0.08245517
120	0xbd0a2c5d	-0.033733714
121	0x3bd69c2a	0.006549378
122	0x3d8ac35d	0.06775544
123	0x3d7e54f2	0.06209273
124	0x3d115e91	0.035490576
125	0x3d61e791	0.05515248
126	0xbbb0f31e	-0.0054000756
127	0x3b61104c	0.003434199
128	0xbc13e2b2	-0.009026216
129	0x3ce49366	0.027902316
130	0xbaf1fa71	-0.0018461478
131	0x39fc5ab0	0.00048132753
132	0xbc667254	-0.014065344
133	0xbdacce1d	-0.084377505
134	0xbda799be	-0.08183621
135	0xbcdf502b	-0.027259907
136	0xbd67e2c0	-0.05661273
137	0xbdcd6d53	-0.100306176
138	0xbd819587	-0.06327348
139	0x3d10abe6	0.035320185
140	0x3c141cf8	0.00904011
141	0xbccac8d7	-0.024753971
142	0x3d45ef4b	0.04832391
143	0x3d833c33	0.064079665
144	0xbc8eeb13	-0.017446076
145	0x3d638123	0.055543076
146	0xbd38cf00	-0.045119286
147	0x3bd2109e	0.0064106723
148	0xbd5815af	-0.052755054
149	0x3cf168c0	0.029468894
150	0xbd06fbb3	-0.032954883
151	0x3d0d85c1	0.034551386
152	0x3c8e4356	0.017366093
153	0xbdc23d04	-0.09484294
154	0x3c5fce56	0.013660034
155	0x3bb9f224	0.0056746174
156	0xbdae342d	-0.085060455
157	0x3d5ebecf	0.054381188
158	0x3b752350	0.003740508
159	0xbce12576	-0.027483683
160	0xbca8ef3f	-0.020621894
161	0x3ca10116	0.019653838
162	0xbc74f5f1	-0.014951215
163	0xbd7c8fb6	-0.06166049
164	0xbd7b75ad	-0.06139152
165	0xbdb85b6b	-0.090018116
166	0xbb86c1b5	-0.004112447
167	0x3d78c3c8	0.060733587
168	0xbc91cf2c	-0.017798983
169	0xbdaf2a77	-0.085530214
170	0x3ceb6d3b	0.028738609
171	0x3d6cdb1d	0.05782615
172	0xbd8e93ca	-0.06961782
173	0xbdbccd9f	-0.092189066
174	0x3d813be1	0.06310249
175	0x3d064612	0.032781668
176	0x3be43474	0.0069642607
177	0x3d4cb6bb	0.049978953
178	0x3d3b2588	0.04569009
179	0x3d090d91	0.033460204
180	0x3d9715f4	0.07377234
181	0x3c4cc10d	0.012497199
182	0x3d3a433d	0.04547428
183	0x3d8e2d88	0.06942278
184	0x3d9cdfea	0.07659896
185	0xbbff3b24	-0.0077890325
186	0x3d370025	0.044677872
187	0x3d9a86e1	0.07545257
188	0x3d3801a4	0.04492344
189	0xbbfbd3cc	-0.0076851603
190	0x3be0192c	0.006838938
191	0xbd2fb52b	-0.042897385
192	0x3c5bc537	0.013413719
193	0xbc0997c6	-0.008398002
194	0x3cc32144	0.023819573
195	0xbd2671e1	-0.040635947
196	0x3d069578	0.03285739
197	0xbdb94448	-0.09046227
198	0x3db29c67	0.08721238
199	0x3c72b8b0	0.014814541
200	0x3cfdfb38	0.03100358
201	0xbdb418e0	-0.08793807
202	0x3d96e464	0.07367781
203	0xbd54d49f	-0.051960584
204	0xbbc960bb	-0.0061455644
205	0x3d58a4a9	0.052891407
206	0xbd1c7db3	-0.038205814
207	0xbd0a6714	-0.03378971
208	0xbd3815a0	-0.0449425
209	0xbd2570ef	-0.040390905
210	0xbd0444db	-0.03229223
211	0xbc3ec6c2	-0.011644067
212	0xbdb1ff67	-0.08691292
213	0x3d6d0979	0.057870362
214	0xbdb6d5c6	-0.08927493
215	0xbd80e777	-0.062941484
216	0x3b460749	0.0030216745
217	0x3d354ce8	0.044262797
218	0x3d794814	0.060859755
219	0xbdba1be6	-0.090873525
220	0xbd0913b7	-0.033466067
221	0x3c64e166	0.013969755
222	0xbd8dc745	-0.06922773
223	0xbd4a0a93	-0.04932649
224	0x3c894cb8	0.016760215
225	0xbd1b5363	-0.03792132
226	0x3d4b78aa	0.04967562
227	0x3d0f7465	0.03502311
228	0x3d8ab67e	0.06773089
229	0x3b89e0a6	0.0042076884
230	0xbd8b15b1	-0.06791247
231	0xbce916ff	-0.028453348
232	0xbdcdb4e4	-0.10044268
233	0xbc99fcea	-0.018797357
234	0xbd8a6c50	-0.0675894
235	0xbd8f2898	-0.069901645
236	0xbdaa8ffb	-0.08328243
237	0x3d94f024	0.07272366
238	0xbc799ee0	-0.015235633
239	0x3d2a111f	0.041520234
240	0xbdae480e	-0.08509837
241	0xbced3141	-0.02895415
242	0xbb35bad0	-0.0027729757
243	0xbcd64739	-0.026157008
244	0x3da22d8f	0.07918846
245	0xbc0d4c49	-0.008624145
246	0x3be12e1a	0.006871951
247	0x3cc175cd	0.023615742
248	0xbc017c0f	-0.007903113
249	0xbda7ddc9	-0.08196599
250	0xbc3e0dcc	-0.011599969
251	0x3cb0b9c5	0.021572957
252	0x3cd132ad	0.02553686
253	0xbd92045f	-0.0712974
254	0xbdb3ff32	-0.08788909
255	0xbdac5b26	-0.08415823

fc2.bias f4 [128]
0	0xbd35c9e1	-0.04438198
1	0x3d50da93	0.0509897
2	0x3d7d1027	0.061782982
3	0xbc616187	-0.0137561625
4	0xbb895745	-0.0041913115
5	0x3dc1870c	0.09449586
6	0xbbb034e7	-0.0053774
7	0xbbd519f6	-0.006503339
8	0xbda701b2	-0.0815462
9	0x3dedae31	0.1160549
10	0x3db18615	0.08668152
11	0x3d18aa5c	0.037271842
12	0xbbe16cb5	-0.006879414
13	0xbd041497	-0.0322462
14	0xbd53ab51	-0.051677052
15	0xbdab4662	-0.08363034
16	0xbdb1c1bd	-0.08679531
17	0xbd97ec12	-0.07418074
18	0xbdb15671	-0.086590655
19	0x3d7d68c8	0.061867505
20	0x3c63ac3f	0.013896047
21	0xbd438ad5	-0.047739822
22	0xbd473e57	-0.048643436
23	0x3de36432	0.11103095
24	0x3d85940f	0.065223806
25	0x3c07e952	0.008295374
26	0x3dc6f324	0.09714344
27	0x3ce71542	0.028208379
28	0x3dcecb06	0.100973174
29	0x3d64a37e	0.05581998
30	0xbb921987	-0.0044586095
31	0x3e088630	0.13332438
32	0x3d6b6caa	0.057476677
33	0xbda1d8c3	-0.07902672
34	0xbb026b49	-0.0019900373
35	0xbce48171	-0.027893754
36	0x3dc84b6b	0.0978001
37	0x3cdcb46d	0.026941502
38	0xbd4597de	-0.048240535
39	0x3daa0707	0.083021216
40	0xbb667054	-0.0035162168
41	0xbac04dbe	-0.0014671606
42	0x3d8e418c	0.06946096
43	0xbd0498d9	-0.03237233
44	0xbbe38293	-0.006943056
45	0x3d6ea9a1	0.05826724
46	0xbd0ec3f3	-0.03485484
47	0xbd3ce4a1	-0.046116475
48	0xbcf46f8c	-0.029838346
49	0x3d0baeae	0.034102134
50	0xbd7dbc60	-0.061947227
51	0xbcb8f4a5	-0.022577593
52	0xbd3bc181	-0.045838837
53	0xbdae152d	-0.08500133
54	0xbd8591f5	-0.0652198
55	0x3c72fe04	0.01483107
56	0xbd7a6279	-0.061129067
57	0xbcadd0f5	-0.021217803
58	0xbcd86ad2	-0.026418123
59	0x3d8dd333	0.06925049
60	0x3a35f070	0.000694043
61	0x3cd50efc	0.026008122
62	0x3cd86bac	0.02641853
63	0xbd0f2429	-0.034946594
64	0x3d9dd050	0.07705748
65	0x3c0bdfcc	0.008537244
66	0x3ca925bf	0.020647882
67	0x3d4067e8	0.046974093
68	0x3c776c8c	0.015101563
69	0xbc300538	-0.010743432
70	0x3d981fe5	0.074279584
71	0x3cae1d67	0.021254255
72	0x3db2e50e	0.08735095
73	0x3c7b02ac	0.015320461
74	0xbd71cb36	-0.059031688
75	0x3d072b2a	0.03300015
76	0xbd5d3f4d	-0.054015446
77	0xbb806acf	-0.0039189826
78	0xbd0767f1	-0.03305811
79	0x3d25dcdc	0.04049383
80	0xbcb6a6a7	-0.022296263
81	0xbb17056b	-0.0023044
82	0x3d3c3595	0.045949537
83	0xbda5f0f0	-0.08102596
84	0xbd335fec	-0.04379265
85	0xba4f8cfa	-0.00079174305
86	0xbdb10c28	-0.08644897
87	0xbd875e53	-0.06609788
88	0xbd782bad	-0.060588527
89	0x3d1f2c66	0.0388607
90	0x3d61ee02	0.055158623
91	0xbdbaa2b3	-0.09113064
92	0x3c0f166e	0.008733375
93	0x3ca4832c	0.020082079
94	0x3d83bc9d	0.064324595
95	0xbdb0d931	-0.08635176
96	0x3cf56ddb	0.02995961
97	0xbccc1de2	-0.024916593
98	0xbc10ce1e	-0.008838205
99	0xbce88bf4	-0.028387047
100	0x3d0aab75	0.03385492
101	0xbd2d7d8d	-0.042356063
102	0xbd2d2fd1	-0.04228193
103	0xbd9dfe3e	-0.077145085
104	0x3d6f724e	0.05845862
105	0xbcb34657	-0.021884127
106	0x3d208196	0.039186083
107	0x3dedf976	0.116198465
108	0xbd4445d3	-0.047918152
109	0x3d854859	0.0650794
110	0x3d24d8ac	0.040245697
111	0x3b6fe0cd	0.0036602498
112	0x3c92e9fe	0.017933842
113	0x3d075262	0.03303755
114	0x3c69396c	0.014234882
115	0x3e0385cc	0.12844008
116	0x3d9f3fee	0.077758655
117	0xbb84b537	-0.004049923
118	0xbd5e8381	-0.05432463
119	0x3d1dda64	0.03853835
120	0x3d7d8c2d	0.06190126
121	0xbd0d914a	-0.034562387
122	0xbc58d617	-0.013234637
123	0xbd492ba6	-0.049113892
124	0xbc41c1ba	-0.011825973
125	0xbda1f47d	-0.079079606
126	0xbd93e608	-0.07221609
127	0x3d955685	0.07291893

fc3.weight f4 [5, 128]
0	0x3d941293	0.07230105
1	0xbd0938f3	-0.033501577
2	0xbdb41638	-0.087933004
3	0x3db1e71a	0.08686657
4	0xbd846613	-0.064647816
5	0xbc9c1b37	-0.019055946
6	0xbd482706	-0.04886534
7	0x3c4b18e8	0.012396075
8	0xbd3c5821	-0.045982484
9	0xbca478d3	-0.020077145
10	0xbdb7c254	-0.08972612
11	0xbdb62d83	-0.088953994
12	0x3cfcb8c5	0.030849824
13	0xbd999413	-0.07498946
14	0x3cd315ce	0.025767233
15	0x3d20bf84	0.039245144
16	0x3d7a23a2	0.06106914
17	0x3c5b1a46	0.013372963
18	0xbc0558ba	-0.00813883
19	0xbc8a0324	-0.0168472
20	0xbd2f0ca6	-0.042736672
21	0xbdaf6c1b	-0.08565541
22	0x3d3683e7	0.044559386
23	0xbde8b41a	-0.11362477
24	0x3d6e1f0a	0.05813507
25	0x3d82f961	0.063952215
26	0x3cf5ca7c	0.030003779
27	0x3d4b0193	0.04956205
28	0xbe060524	-0.13087898
29	0xbda23414	-0.07920089
30	0xbd787252	-0.0606559
31	0xbd3d2e67	-0.04618683
32	0xbdae1df0	-0.08501804
33	0x3c515a68	0.012777902
34	0xbb83b4b5	-0.0040193447
35	0xbda06f98	-0.07833785
36	0xbdeac003	-0.114624046
37	0xbdc9b1ee	-0.098483905
38	0x3cd1ea0a	0.025624294
39	0xbd91b86b	-0.07115253
40	0xbd645575	-0.05574556
41	0xbda734cf	-0.08164369
42	0x3daae90f	0.08345234
43	0xbd9289cb	-0.07155188
44	0x3cfef7b4	0.031123973
45	0xbd8c9013	-0.068634175
46	0xbd0bf368	-0.034167677
47	0x3d72156d	0.059102464
48	0xbd7af134	-0.061265185
49	0xbe0452bd	-0.12922187
50	0xbcc79427	-0.024362637
51	0x3c34692b	0.011011402
52	0xbc7dd169	-0.015491822
53	0x3d9fa3f4	0.077949435
54	0x3ccf758e	0.02532461
55	0xbdf5b9c4	-0.119983226
56	0x3cda2809	0.026630418
57	0xbe067893	-0.13131933
58	0xbd952576	-0.07282536
59	0x3da6c22b	0.08142503
60	0xbdbe1750	-0.0928179
61	0x3ccaf7a7	0.024776293
62	0x3ce9c981	0.028538467
63	0xbb485893	-0.0030570372
64	0xbd962edc	-0.073331565
65	0xbdff8e22	-0.124782816
66	0x3c760a99	0.015017175
67	0x3da14b08	0.07875639
68	0xbd139b82	-0.036036976
69	0x3d843681	0.06455708
70	0xbd1c9815	-0.038230974
71	0x3d8de8c1	0.0692916
72	0xbdc7e3c2	-0.09760238
73	0xbc68b5fe	-0.014203547
74	0x3d9b64ef	0.07587611
75	0x3d6e6723	0.058203828
76	0x3d3e2307	0.046420123
77	0x3d82cb27	0.063864045
78	0x3c0b1a62	0.008490177
79	0x3d5422e4	0.051791087
80	0xbcfa4166	-0.030548763
81	0x3daf1fbe	0.08550976
82	0xbcc32bfc	-0.023824684
83	0xbb9465ee	-0.0045287525
84	0xbce76c09	-0.028249757
85	0xbd2ee203	-0.04269601
86	0xbcbd7803	-0.023128515
87	0x3d6645bf	0.05621886
88	0xbd291ce1	-0.041287307
89	0xbc366773	-0.011133063
90	0x3ca1cc05	0.019750604
91	0xbd76445a	-0.06012378
92	0x3cf78c31	0.030218216
93	0x3c1acde0	0.0094484985
94	0x3ccbd848	0.024883404
95	0x3b813264	0.0039427746
96	0xbdab9959	-0.08378858
97	0x3d87b5b7	0.06626456
98	0x3d8457fb	0.064620934
99	0xbd311549	-0.04323319
100	0x3ba339b4	0.004981244
101	0xbdfeb040	-0.12435961
102	0x3da73632	0.08164634
103	0x3cb1d66e	0.021708693
104	0xbdea737e	-0.1144781
105	0x3aea8d2b	0.0017894855
106	0x3d54686b	0.051857393
107	0xbd718b98	-0.058971018
108	0xbdaa2780	-0.08308315
109	0xbd4b720b	-0.049669307
110	0xbd34ff18	-0.04418859
111	0x3d1fd9a9	0.039025936
112	0xbd528ad9	-0.051401947
113	0x3d82b4af	0.06382119
114	0xbdf02d70	-0.117274165
115	0xbdce9ff6	-0.10089104
116	0xbd9be9c9	-0.0761295
117	0xbd713cf2	-0.058896013
118	0x3d5832ac	0.0527827
119	0xbd9e6bcb	-0.077354036
120	0xbbf5610b	-0.007488375
121	0x3d739ceb	0.05947582
122	0xbda9b596	-0.08286588
123	0x3d4814e4	0.048848048
124	0x3da995c8	0.08280522
125	0xbd077649	-0.03307179
126	0xbd49c486	-0.049259685
127	0xbcedb4b1	-0.029016824
128	0xbcfd325b	-0.0309078
129	0x3c80cd59	0.015722917
130	0x3d3225ff	0.043493267
131	0x3d13f00e	0.036117606
132	0xbd774fd9	-0.060378883
133	0x3c8b9c82	0.017042402
134	0xbd53d78e	-0.05171924
135	0xbd1bfd91	-0.038083617
136	0x3d422842	0.047401674
137	0xbdb82b71	-0.08992661
138	0xbd880a66	-0.06642608
139	0xbdcc6686	-0.09980492
140	0x3d598028	0.053100735
141	0x3d593880	0.0530324
142	0x3c096dd5	0.008388002
143	0xbd4a037e	-0.049319737
144	0xbd813857	-0.06309574
145	0xbd9b8277	-0.075932436
146	0x3d2de358	0.04245314
147	0xbdb0abed	-0.08626542
148	0x3d50599b	0.050866704
149	0xbc9e435a	-0.019319225
150	0xbda13da1	-0.07873083
151	0xbde58963	-0.11207845
152	0xbcda8019	-0.02667241
153	0x3d44f9a7	0.04808965
154	0xbd61e08b	-0.05514578
155	0x3d52a5da	0.0514277
156	0xbd890aa7	-0.06691485
157	0x3dad6ec1	0.0846839
158	0x3da3f231	0.08005179
159	0xbdb089d9	-0.08620042
160	0xbc0b11cf	-0.008488133
161	0xbbf851df	-0.007578119
162	0x3d8600c5	0.065431155
163	0xbcf79a22	-0.030224863
164	0x3cbb1945	0.022839198
165	0xbd4e8614	-0.050420836
166	0x3d83f94d	0.06444035
167	0x3bff976b	0.007800033
168	0x3bd42e43	0.0064752414
169	0x3d8b9f2e	0.068174705
170	0x3d941f67	0.07232552
171	0x3d9a8dba	0.075465634
172	0xbda26c71	-0.0793084
173	0x3d65d567	0.05611172
174	0xbde512dc	-0.11185238
175	0x3d861ab8	0.06548065
176	0xbd4dc8d0	-0.050240338
177	0x3c3d35f3	0.011548507
178	0xbd763996	-0.060113512
179	0xbd8ac026	-0.06774931
180	0xbd7630ba	-0.060105063
181	0xbd150296	-0.03637942
182	0xbd985bc4	-0.07439378
183	0xbce86fcb	-0.02837362
184	0xbd8a9ee4	-0.06768587
185	0xbd165bb8	-0.036708564
186	0x3ca07ae0	0.019589841
187	0xbd77c106	-0.060486816
188	0xbc05d78b	-0.008169065
189	0xbd850063	-0.064942144
190	0xbd67c7aa	-0.0565869
191	0xbd04680c	-0.03232579
192	0xbc7939c2	-0.015211524
193	0xbd6e95c0	-0.05824828
194	0x3c752409	0.014962205
195	0xbd9e8be6	-0.07741527
196	0xbd85ffc1	-0.06542922
197	0x3cea2d49	0.028586047
198	0x3cae3495	0.021265307
199	0x3c1a93f3	0.009434688
200	0xbc66bcb4	-0.014083076
201	0x3c744362	0.014908643
202	0x3d52491f	0.051339265
203	0xbd0a9ab5	-0.033838946
204	0xbd37c97c	-0.044869885
205	0x3d836be8	0.06417066
206	0xbc4e7523	-0.01260117
207	0xbca3dad6	-0.02000181
208	0xbcb3eb1f	-0.0219627
209	0xbbd26b65	-0.006421494
210	0xbcd4f8a0	-0.02599746
211	0xbd971c33	-0.073784254
212	0xbbc9bd0c	-0.0061565693
213	0xbdab820c	-0.08374414
214	0x3d813399	0.063086696
215	0xbc9ee479	-0.019396054
216	0x3cb6386e	0.022243705
217	0xbd1fd62f	-0.03902262
218	0xbc0f4c19	-0.00874617
219	0x3cc0f660	0.02355498
220	0x3d256865	0.04038276
221	0x3cc43478	0.0239508
222	0x3d360df6	0.044446908
223	0x3d66c213	0.056337427
224	0xbd89bb53	-0.067251824
225	0x3d0f4fdb	0.034988265
226	0x3d8d356b	0.06894954
227	0xbd89ab27	-0.06722098
228	0xbdb88513	-0.09009757
229	0xbd885743	-0.06657269
230	0xbcd59798	-0.026073262
231	0xbccbba35	-0.024869064
232	0xbdb5c052	-0.08874573
233	0x3d51d8b3	0.05123205
234	0xbd987a48	-0.07445198
235	0xbdf1dcce	-0.11809693
236	0x3d2ecc80	0.042675495
237	0xbd31561d	-0.043295015
238	0xbbe892d5	-0.007097582
239	0xbd8051f7	-0.062656336
240	0x3c26a63a	0.010171467
241	0xbd1116f7	-0.03542229
242	0xbdcf5e45	-0.10125402
243	0xbc73a90e	-0.014871849
244	0xbd1fdc7a	-0.039028622
245	0xbda83ab6	-0.08214323
246	0xbc39ecfe	-0.011348007
247	0xbd676e71	-0.05650181
248	0xbdbed61d	-0.093181826
249	0x3bb47962	0.005507634
250	0xbd8377be	-0.064193234
251	0xbd479b12	-0.04873187
252	0xbc9b57dd	-0.018962795
253	0xbd941c8c	-0.072320074
254	0xbd9a7c9a	-0.07543297
255	0x3d31c330	0.043399036

fc3.bias f4 [5]
0	0xbb007dc0	-0.0019606203
1	0x3d219435	0.039447982
2	0x3c5e5247	0.013569421
3	0x3c0b5a6f	0.008505448
4	0x3c408f63	0.011752936

fc1.weight f4 [128, 10]
0	0xbdff9ddc	-0.12481281
1	0x3dbcb7d8	0.09214753
2	0x3e35360a	0.17696396
3	0xbe4d0082	-0.20019725
4	0xbe5d79dc	-0.21628517
5	0xbe8047c4	-0.25054753
6	0xbd7db653	-0.061941456
7	0xbdabba99	-0.083852
8	0x3e0b5f4a	0.13610569
9	0xbe84f5d1	-0.25968793
10	0x3ec148c4	0.37750828
11	0x3d4425dd	0.04788767
12	0x3e9ec4c1	0.31009486
13	0xbd71a517	-0.058995333
14	0x3e4d0d28	0.2002455
15	0x3d2e781d	0.042595018
16	0x3e0a904b	0.13531606
17	0x3ea26ce3	0.317237
18	0x3e98f21a	0.2987221
19	0xbe72641c	-0.23671001
20	0x3e2a40dd	0.16626306
21	0x3e9790e2	0.29602724
22	0x3dbcb8aa	0.092149094
23	0xbe9c315f	-0.30506417
24	0xbd97d481	-0.07413579
25	0xbe9678e0	-0.29389095
26	0x3e865da4	0.26243317
27	0xbe9b6f3f	-0.30358312
28	0xbe777fd9	-0.24169864
29	0x3e50151f	0.20320557
30	0xbe8beb4d	-0.27327958
31	0xbd9d80e6	-0.07690601
32	0xbe5dcd5d	-0.21660371
33	0x3e7f73f9	0.24946584
34	0xbd8c6bd3	-0.06856503
35	0x3e2028f5	0.15640624
36	0x3c83764d	0.016047621
37	0x3e0360d7	0.1282991
38	0xbe443170	-0.19159484
39	0x3e4582a3	0.19288115
40	0x3df7cf55	0.12100092
41	0xbd6ec937	-0.058297362
42	0x3e35de9f	0.17760704
43	0x3e433992	0.1906493
44	0x3e20536f	0.15656827
45	0x3e8ee71d	0.279107
46	0x3e057b67	0.13035356
47	0x3e813c19	0.25241163
48	0x3d891434	0.066933066
49	0xbead6f63	-0.33874044
50	0xbdad22a9	-0.084538765
51	0x3e2a61db	0.16638891
52	0x3e80ace5	0.25131908
53	0x3e624d36	0.22099766
54	0x3e0c26e7	0.13686715
55	0x3deb311d	0.11483977
56	0x3e31fc2a	0.17381349
57	0x3e436eed	0.19085284
58	0x3e9f4707	0.31108877
59	0x3db9d1c2	0.09073211
60	0xbcc2cbe0	-0.023778856
61	0xbe8d2f8c	-0.27575338
62	0x3e3609e5	0.17777212
63	0xbe9568d4	-0.2918154
64	0xbe10e8f3	-0.14151363
65	0xbe7b4b0a	-0.24540344
66	0x3d0587f8	0.032600373
67	0x3c995f2f	0.018722145
68	0x3d531cda	0.051541187
69	0xbc52d909	-0.012869128
70	0x3e8f1fca	0.2795394
71	0x3e8a2ce2	0.26987368
72	0x3e1bd0a0	0.15216303
73	0xbc29753b	-0.010342891
74	0x3e1c173b	0.15243237
75	0xbe500e10	-0.20317864
76	0x3e0dba0c	0.13840503
77	0xbe9dbbe5	-0.30807415
78	0x3e4f4323	0.20240454
79	0x3dc5d0b7	0.0965895
80	0xbdaa08cb	-0.083024584
81	0x3da39edc	0.079892844
82	0xbddc2a67	-0.10750275
83	0x3e0c6df8	0.13713825
84	0xbe6e33e1	-0.23261978
85	0xbe1e8286	-0.15479478
86	0xbdb8b6af	-0.09019219
87	0x3e06b1e1	0.13153793
88	0xbe997528	-0.29972196
89	0x3d6a378d	0.057181884
90	0xbe108b64	-0.14115673
91	0xbe7fed49	-0.24992861
92	0x3e64d39d	0.22346349
93	0x3e82e548	0.25565553
94	0x3e1cb2a8	0.15302527
95	0xbe825e30	-0.25462484
96	0xbd5694cf	-0.05238801
97	0x3eabe30c	0.3357166
98	0xbd2f9b28	-0.042872578
99	0x3c26e2f8	0.0101859495
100	0x3ed30f9b	0.41222844
101	0x3e42a7dd	0.19009347
102	0x3e103d52	0.14085892
103	0xbe78082a	-0.24221864
104	0xbe84829b	-0.25880894
105	0xbeaf9a74	-0.34297526
106	0x3e550d4a	0.2080585
107	0x3e0d3d4d	0.13792916
108	0x3e013618	0.12618291
109	0x3b993c50	0.0046763793
110	0x3e005ec1	0.12536146
111	0x3df97369	0.12180216
112	0xbe0bf4ad	-0.13667555
113	0xbe788446	-0.24269208
114	0xbea01c09	-0.3127139
115	0xbde4dc5e	-0.11174844
116	0xbdefaffc	-0.11703488
117	0x3d144e62	0.036207564
118	0xbe8892ef	-0.266746
119	0xbe89ad28	-0.2688992
120	0x3e30d3f9	0.17268361
121	0xbdc0ded2	-0.094174996
122	0xbdbc2af6	-0.09187882
123	0xbe82db08	-0.25557733
124	0xbd50ad2a	-0.050946392
125	0xbda8d6f6	-0.082441255
126	0xbe640c77	-0.2227038
127	0x3e1fb9aa	0.15598169
128	0x3e717327	0.23579083
129	0x3e7db33a	0.24775401
130	0x3d2b8a56	0.041879974
131	0x3e81021d	0.25196925
132	0xbdb5e933	-0.0888237
133	0xbe7ae9ac	-0.24503201
134	0x3e1cda53	0.15317659
135	0x3e226138	0.15857399
136	0x3e453f5a	0.19262448
137	0xbe8112ce	-0.2520966
138	0x3e9760cc	0.29566038
139	0x3badca25	0.0053036385
140	0xbcb44541	-0.02200568
141	0xbd8bddc7	-0.0682941
142	0xbd14dd29	-0.036343727
143	0x3e3c567a	0.18392363
144	0x3d0b9798	0.034080118
145	0xbe018b54	-0.12650806
146	0xbdfad373	-0.12247362
147	0xbe90a9eb	-0.28254637
148	0x3dcbee2e	0.099575385
149	0xbea0a788	-0.31377816
150	0x3d8aafdc	0.06771824
151	0x3e39b090	0.1813376
152	0x3cfbf4bd	0.030756349
153	0x3e5b762e	0.214318
154	0x3d53cff8	0.051712006
155	0x3e3011dc	0.17194313
156	0xbe8a965c	-0.2706784
157	0xbe9ef85c	-0.31048858
158	0xbda6a431	-0.08136786
159	0xbe8bc0bc	-0.27295482
160	0xbdaf3096	-0.08554189
161	0x3d7581f4	0.059938386
162	0x3d0e996a	0.034814276
163	0xbe8b4cb4	-0.27206957
164	0x3c59179b	0.013250257
165	0x3e916eae	0.28404754
166	0xbe0a8da6	-0.13530597
167	0x3da386f1	0.079847224
168	0xbdd075e8	-0.10178739
169	0xbe7be893	-0.24600439
170	0x3e592d4a	0.21208683
171	0x3dfce582	0.12348463
172	0x3e37dcb2	0.17955282
173	0xbe8a6b97	-0.2703521
174	0xbe2281f0	-0.1586988
175	0xbe4202fb	-0.1894645
176	0x3e682c8f	0.22673248
177	0x3cf71825	0.03016288
178	0xbe60cd55	-0.21953328
179	0xbced69f3	-0.028981185
180	0x3e9a54c8	0.30142808
181	0xbdb231cb	-0.087009035
182	0x3e907978	0.28217673
183	0x3e9f1ad5	0.3107516
184	0xbe7880a8	-0.24267828
185	0xbea0ea80	-0.3142891
186	0xbdf4eeed	-0.11959634
187	0xbe2bf864	-0.16793972
188	0xbca81596	-0.020518105
189	0xbded86dd	-0.11597989
190	0xbe4002c0	-0.18751049
191	0x3e3695ce	0.17830583
192	0x3e323811	0.174042
193	0x3e8acb48	0.27108216
194	0xbe4cc0d6	-0.19995436
195	0xbe152a82	-0.14566997
196	0xbe96c872	-0.29449803
197	0xbb5b37ad	-0.0033449933
198	0xbe05840d	-0.13038655
199	0x3d54479f	0.051826116
200	0xbd005585	-0.031331558
201	0x3eb0df33	0.34545287
202	0x3e31848c	0.17335719
203	0xbe82f21a	-0.25575334
204	0x3def96e6	0.116987035
205	0xbc11dbe9	-0.008902528
206	0x3d3ac1c6	0.045594953
207	0x3e3ef0f1	0.186466
208	0x3cf4a863	0.02986545
209	0xbe6c835a	-0.23096982
210	0x3da8cd90	0.08242333
211	0x3dfaaf41	0.12240458
212	0x3e825c15	0.25460878
213	0x3ea8d50a	0.32975036
214	0x3e471a4f	0.1944363
215	0x3dc9711e	0.098360285
216	0x3dd228bb	0.10261675
217	0xbcf85557	-0.03031413
218	0x3e5f6401	0.21815492
219	0x3d1c27e0	0.038123965
220	0x3e84ac8c	0.25912893
221	0x3e8bd500	0.27310944
222	0x3d5e3d08	0.054257423
223	0x3e82ec12	0.25570732
224	0xbd265b07	-0.040614154
225	0x3cc1fd77	0.023680432
226	0x3e7fb84d	0.24972649
227	0x3e739cc7	0.23790275
228	0x3e85aa02	0.26106268
229	0xbdb76b9a	-0.0895607
230	0x3e4cba43	0.19992928
231	0xbe692bee	-0.22770664
232	0x3e85e6fe	0.26152796
233	0xbe7b33d3	-0.24531488
234	0x3e504241	0.20337774
235	0x3e337171	0.17523743
236	0xbe2a9894	-0.16659766
237	0x3e31a1b5	0.17346843
238	0x3dbd343b	0.09238478
239	0x3e0f6c84	0.14006239
240	0x3e6c3941	0.23068716
241	0x3e91df29	0.2849057
242	0x3e927aec	0.28609407
243	0x3e984542	0.2974034
244	0xbd13ba8c	-0.036066577
245	0x3e9bfa01	0.30464175
246	0xbe50c521	-0.20387699
247	0x3c6cee39	0.014461094
248	0xbd50268d	-0.050818015
249	0x3dcf0761	0.10108829
250	0xbda6b312	-0.08139624
251	0x3e8bb225	0.2728435
252	0xbdd06111	-0.10174764
253	0x3e478270	0.19483352
254	0xbe5bafb6	-0.21453747
255	0x3e0ffffb	0.14062493

fc1.bias f4 [128]
0	0x3e3e0463	0.18556361
1	0xbd202c5c	-0.039104804
2	0x3d8210ca	0.063508585
3	0x3e0192fd	0.12653728
4	0x3e6bb6c8	0.23018944
5	0xbc4c97e4	-0.012487385
6	0xbddcfb94	-0.10790172
7	0x3d782ac0	0.060587645
8	0xbd1303cf	-0.035892304
9	0x3e5e04d2	0.21681526
10	0x3e832929	0.2561734
11	0x3cfc5a68	0.030804828
12	0x3dc8feb6	0.09814207
13	0x3e8c37fb	0.2738646
14	0x3da856b6	0.08219664
15	0xbc985c02	-0.01859856
16	0xbe876942	-0.26447493
17	0x3e72beed	0.23705645
18	0x3e9ab1f2	0.30213886
19	0xbd0dbc0d	-0.034603167
20	0x3df3f65c	0.11912224
21	0xbe131fb7	-0.14367567
22	0xbe491367	-0.19636308
23	0xbd7e8a02	-0.062143333
24	0x3e0f27b7	0.13979994
25	0x3df7b386	0.12094788
26	0x3e4f8341	0.20264913
27	0x3d90a1c6	0.07062106
28	0x3e24fd98	0.16112363
29	0x3e5d8df6	0.21636185
30	0x3e10630b	0.14100282
31	0x3e6040ac	0.2189967
32	0x3e137de9	0.144035
33	0xbcf8a15f	-0.030350385
34	0xbbdb0005	-0.006683352
35	0x3e364d42	0.17802909
36	0x3de10162	0.10986592
37	0x3e8ce831	0.27520898
38	0x3e0759eb	0.13217895
39	0x3e0abf1c	0.13549465
40	0x3d36dce2	0.044644244
41	0xbdcba4ce	-0.099435434
42	0x3e05e47b	0.1307544
43	0xbe685167	-0.22687303
44	0x3e800ca2	0.25009638
45	0x3e0f2830	0.13980174
46	0x3e9906b6	0.29887933
47	0x3d365d8a	0.0445228
48	0xbd136bc5	-0.03599145
49	0xbe846cf6	-0.2586438
50	0xbe945efa	-0.2897871
51	0x3db4a03f	0.08819627
52	0xbd8666eb	-0.06562599
53	0x3db80f53	0.08987298
54	0x3c96ab68	0.01839228
55	0x3e8542e4	0.26027596
56	0x3e6e7823	0.23288016
57	0xbdbbffa7	-0.09179621
58	0xbe492b27	-0.19645368
59	0x3e363c99	0.17796554
60	0x3dd5e87d	0.10444734
61	0xbe4a312f	-0.19745325
62	0x3e59340b	0.21211259
63	0x3e8c83e2	0.2744437
64	0xbe35d129	-0.1775557
65	0xbc6eabf3	-0.014567363
66	0x3da60f87	0.0810843
67	0x3e83e58c	0.25761068
68	0xbe86eab5	-0.26350942
69	0x3e970d93	0.29502544
70	0xbe4afd9c	-0.19823307
71	0x3e308a27	0.17240201
72	0xbe88cf8d	-0.2672085
73	0x3e8e455f	0.277873
74	0x3ea4d49e	0.32193464
75	0x3e0e86d5	0.13918622
76	0xbc3972de	-0.01131889
77	0x3de6ccd8	0.112695396
78	0xbdc0196a	-0.09379847
79	0x3e2d3de3	0.16918139
80	0xbe9916b5	-0.29900137
81	0xbe022d7a	-0.1271266
82	0x3cdbd1f7	0.026833517
83	0xbe8a9f6f	-0.27074763
84	0x3e59a7db	0.21255438
85	0xbe2c036d	-0.16798182
86	0x3dfdd78a	0.123946264
87	0x3c76e814	0.01506998
88	0xbe531b1d	-0.20615812
89	0x3dce4578	0.10071844
90	0xbe2ebc0a	-0.17063919
91	0xbdb0470a	-0.086072996
92	0x3e5deb76	0.21671852
93	0xbe47a0ab	-0.19494884
94	0xbe421f75	-0.18957312
95	0xbe32ce9c	-0.17461628
96	0x3e9b52cf	0.30336615
97	0xbe95dc50	-0.29269648
98	0xbe02b619	-0.12764777
99	0x3e962f9c	0.29333198
100	0xbdf50fbc	-0.11965892
101	0xbe8995af	-0.26872012
102	0x3e6b4ff6	0.22979721
103	0x3e10d5a8	0.14144003
104	0xbe427230	-0.18988872
105	0xbea062b1	-0.31325296
106	0x3e4274c8	0.18989861
107	0xbda7092c	-0.08156046
108	0x3e26d472	0.16291979
109	0xbd9a7459	-0.07541723
110	0xbe27124d	-0.16315575
111	0x3e9bbb63	0.30416402
112	0x3e308023	0.1723638
113	0xbd7f38b8	-0.06230995
114	0x3ea7aa24	0.32746994
115	0xbe680a24	-0.22660118
116	0xbe911073	-0.28332862
117	0x3d3089fc	0.043100342
118	0xbe62a7c0	-0.22134304
119	0xbdccf19b	-0.1000702
120	0xbe9368e8	-0.28790975
121	0x3e57756d	0.21040888
122	0x3cf4220e	0.029801395
123	0xbe6c5068	-0.23077548
124	0x3e5368a2	0.20645383
125	0x3dbf81e1	0.09350944
126	0x3e86f5d6	0.26359433
127	0x3e92c3a0	0.28664875

fc2.weight f4 [128, 128]
0	0x3b893a37	0.004187848
1	0xbd5f8062	-0.054565795
2	0xbccb99f2	-0.02485368
3	0xbd2887b3	-0.041145038
4	0xbd9a1bb9	-0.07524819
5	0xbda2bdbf	-0.079463474
6	0xbd2d44f9	-0.042302106
7	0xbca301ee	-0.019898381
8	0xbd1934ed	-0.03740399
9	0xbd3d4900	-0.046212196
10	0xbda5ca6c	-0.080952495
11	0x3cb4895c	0.022038154
12	0xbd9feede	-0.07809232
13	0x3cc969eb	0.024586638
14	0x3cd71777	0.026256306
15	0xbb9f3767	-0.0048588994
16	0xbd603912	-0.054741926
17	0xbd070994	-0.03296812
18	0xbce9cf98	-0.028541371
19	0xbdb37fa7	-0.08764582
20	0x3d84c264	0.064823896
21	0xbda3adec	-0.07992157
22	0x3c758d9d	0.0149873765
23	0xbd524344	-0.05133368
24	0x3bea3d65	0.007148432
25	0xbd91ec64	-0.07125166
26	0x3d9066bf	0.07050847
27	0x3d22ff1a	0.039794065
28	0x3ce4819e	0.027893838
29	0xbcbd954a	-0.023142476
30	0xbc8c1606	-0.017100345
31	0x3d8c0fa2	0.06838919
32	0xbcb3526f	-0.021889893
33	0x3b8512a3	0.0040610596
34	0xbd15575d	-0.03646027
35	0x3d839bd3	0.064262055
36	0xbcb34d3d	-0.021887416
37	0x3c2e11b1	0.010624335
38	0x3d871e78	0.06597608
39	0x3d61200d	0.054962207
40	0x3d4f047e	0.050541393
41	0xbd8de625	-0.06928662
42	0xbd1b4e56	-0.037916504
43	0xbc5fa078	-0.013649099
44	0x3cafebb8	0.021474704
45	0x3d88ef6a	0.066862896
46	0x3d24de55	0.040251095
47	0xbc72a24b	-0.0148092015
48	0x3c478121	0.012176783
49	0x3c87d892	0.016582761
50	0x3d475ca3	0.04867233
51	0xbd2fe8c8	-0.042946607
52	0xbdabdc6c	-0.083916515
53	0xbda6d858	-0.08146733
54	0x3cfa8fc7	0.030586137
55	0xbd65c031	-0.05609149
56	0xbd21c4e4	-0.03949441
57	0x3d25c522	0.040471204
58	0x3da8de52	0.08245529
59	0x3d3dc34f	0.04632884
60	0x3d898aa3	0.06715896
61	0x3b1bcb1f	0.0023772193
62	0x3ceac233	0.028657055
63	0xbd84d3a0	-0.06485677
64	0x3d842e8d	0.06454191
65	0xbc05cf64	-0.008167122
66	0xbda756f3	-0.08170881
67	0x3c8c2bf2	0.017110799
68	0x3d2b0f14	0.041762426
69	0x3da72f44	0.08163312
70	0xbc7b3439	-0.015332275
71	0x3c389c96	0.011267802
72	0xbcfdd816	-0.030986827
73	0x3d37ef4a	0.04490594
74	0x3b4c5e4d	0.0031184137
75	0x3d832f5e	0.06405519
76	0x3c94ec2b	0.01817902
77	0x3bd09abc	0.006366102
78	0xbcfe3621	-0.03103167
79	0xbd80124f	-0.06253492
80	0xbd14c5f7	-0.036321606
81	0xbcb14097	-0.021637244
82	0xbd11f8bd	-0.035637606
83	0xbccde280	-0.025132418
84	0xbdaa6368	-0.083197415
85	0x3b8a9c63	0.0042300685
86	0x3d3adab1	0.045618717
87	0x3d4d2d9a	0.050092317
88	0xbd357dfa	-0.044309594
89	0x3c19982d	0.00937466
90	0x3da56240	0.0807538
91	0xbd2ebd79	-0.042661164
92	0xbd4ddc91	-0.050259177
93	0x3d293198	0.041307062
94	0xbdad6f74	-0.084685236
95	0x3d874108	0.066042006
96	0xbd43c4a0	-0.047794938
97	0x3d18fc9c	0.037350282
98	0xbc48402e	-0.012222333
99	0x3d8dc076	0.06921475
100	0x3c6f129c	0.014591839
101	0xbce4b0a4	-0.02791626
102	0x3bd0c146	0.0063706962
103	0x3d89f83a	0.067367986
104	0x3d640ecd	0.055678178
105	0xbaccd107	-0.001562626
106	0xbd874751	-0.066053994
107	0x3d329bca	0.043605603
108	0xbd4c8be3	-0.049938094
109	0xbd92b382	-0.07163145
110	0xbd3b29e6	-0.045694254
111	0x3c1a9420	0.00943473
112	0x3d1f68b9	0.03891823
113	0x3d65f1ab	0.056138676
114	0xbdac00cc	-0.083985895
115	0xbd18e22c	-0.03732507
116	0x3ce1e649	0.027575629
117	0xbd0233d5	-0.031787712
118	0x3d85ec25	0.065391816
119	0x3da8de42	0.08245517
120	0xbd0a2c5d	-0.033733714
121	0x3bd69c2a	0.006549378
122	0x3d8ac35d	0.06775544
123	0x3d7e54f2	0.06209273
124	0x3d115e91	0.035490576
125	0x3d61e791	0.05515248
126	0xbbb0f31e	-0.0054000756
127	0x3b61104c	0.003434199
128	0xbc13e2b2	-0.009026216
129	0x3ce49366	0.027902316
130	0xbaf1fa71	-0.0018461478
131	0x39fc5ab0	0.00048132753
132	0xbc667254	-0.014065344
133	0xbdacce1d	-0.084377505
134	0xbda799be	-0.08183621
135	0xbcdf502b	-0.027259907
136	0xbd67e2c0	-0.05661273
137	0xbdcd6d53	-0.100306176
138	0xbd819587	-0.06327348
139	0x3d10abe6	0.035320185
140	0x3c141cf8	0.00904011
141	0xbccac8d7	-0.024753971
142	0x3d45ef4b	0.04832391
143	0x3d833c33	0.064079665
144	0xbc8eeb13	-0.017446076
145	0x3d638123	0.055543076
146	0xbd38cf00	-0.045119286
147	0x3bd2109e	0.0064106723
148	0xbd5815af	-0.052755054
149	0x3cf168c0	0.029468894
150	0xbd06fbb3	-0.032954883
151	0x3d0d85c1	0.034551386
152	0x3c8e4356	0.017366093
153	0xbdc23d04	-0.09484294
154	0x3c5fce56	0.013660034
155	0x3bb9f224	0.0056746174
156	0xbdae342d	-0.085060455
157	0x3d5ebecf	0.054381188
158	0x3b752350	0.003740508
159	0xbce12576	-0.027483683
160	0xbca8ef3f	-0.020621894
161	0x3ca10116	0.019653838
162	0xbc74f5f1	-0.014951215
163	0xbd7c8fb6	-0.06166049
164	0xbd7b75ad	-0.06139152
165	0xbdb85b6b	-0.090018116
166	0xbb86c1b5	-0.004112447
167	0x3d78c3c8	0.060733587
168	0xbc91cf2c	-0.017798983
169	0xbdaf2a77	-0.085530214
170	0x3ceb6d3b	0.028738609
171	0x3d6cdb1d	0.05782615
172	0xbd8e93ca	-0.06961782
173	0xbdbccd9f	-0.092189066
174	0x3d813be1	0.06310249
175	0x3d064612	0.032781668
176	0x3be43474	0.0069642607
177	0x3d4cb6bb	0.049978953
178	0x3d3b2588	0.04569009
179	0x3d090d91	0.033460204
180	0x3d9715f4	0.07377234
181	0x3c4cc10d	0.012497199
182	0x3d3a433d	0.04547428
183	0x3d8e2d88	0.06942278
184	0x3d9cdfea	0.07659896
185	0xbbff3b24	-0.0077890325
186	0x3d370025	0.044677872
187	0x3d9a86e1	0.07545257
188	0x3d3801a4	0.04492344
189	0xbbfbd3cc	-0.0076851603
190	0x3be0192c	0.006838938
191	0xbd2fb52b	-0.042897385
192	0x3c5bc537	0.013413719
193	0xbc0997c6	-0.008398002
194	0x3cc32144	0.023819573
195	0xbd2671e1	-0.040635947
196	0x3d069578	0.03285739
197	0xbdb94448	-0.09046227
198	0x3db29c67	0.08721238
199	0x3c72b8b0	0.014814541
200	0x3cfdfb38	0.03100358
201	0xbdb418e0	-0.08793807
202	0x3d96e464	0.07367781
203	0xbd54d49f	-0.051960584
204	0xbbc960bb	-0.0061455644
205	0x3d58a4a9	0.052891407
206	0xbd1c7db3	-0.038205814
207	0xbd0a6714	-0.03378971
208	0xbd3815a0	-0.0449425
209	0xbd2570ef	-0.040390905
210	0xbd0444db	-0.03229223
211	0xbc3ec6c2	-0.011644067
212	0xbdb1ff67	-0.08691292
213	0x3d6d0979	0.057870362
214	0xbdb6d5c6	-0.08927493
215	0xbd80e777	-0.062941484
216	0x3b460749	0.0030216745
217	0x3d354ce8	0.044262797
218	0x3d794814	0.060859755
219	0xbdba1be6	-0.090873525
220	0xbd0913b7	-0.033466067
221	0x3c64e166	0.013969755
222	0xbd8dc745	-0.06922773
223	0xbd4a0a93	-0.04932649
224	0x3c894cb8	0.016760215
225	0xbd1b5363	-0.03792132
226	0x3d4b78aa	0.04967562
227	0x3d0f7465	0.03502311
228	0x3d8ab67e	0.06773089
229	0x3b89e0a6	0.0042076884
230	0xbd8b15b1	-0.06791247
231	0xbce916ff	-0.028453348
232	0xbdcdb4e4	-0.10044268
233	0xbc99fcea	-0.018797357
234	0xbd8a6c50	-0.0675894
235	0xbd8f2898	-0.069901645
236	0xbdaa8ffb	-0.08328243
237	0x3d94f024	0.07272366
238	0xbc799ee0	-0.015235633
239	0x3d2a111f	0.041520234
240	0xbdae480e	-0.08509837
241	0xbced3141	-0.02895415
242	0xbb35bad0	-0.0027729757
243	0xbcd64739	-0.026157008
244	0x3da22d8f	0.07918846
245	0xbc0d4c49	-0.008624145
246	0x3be12e1a	0.006871951
247	0x3cc175cd	0.023615742
248	0xbc017c0f	-0.007903113
249	0xbda7ddc9	-0.08196599
250	0xbc3e0dcc	-0.011599969
251	0x3cb0b9c5	0.021572957
252	0x3cd132ad	0.02553686
253	0xbd92045f	-0.0712974
254	0xbdb3ff32	-0.08788909
255	0xbdac5b26	-0.08415823

fc2.bias f4 [128]
0	0xbd35c9e1	-0.04438198
1	0x3d50da93	0.0509897
2	0x3d7d1027	0.061782982
3	0xbc616187	-0.0137561625
4	0xbb88a641	-0.0041702096
5	0x3dc18bc3	0.094504856
6	0xbbb034e7	-0.0053774
7	0xbbd519f6	-0.006503339
8	0xbda701b2	-0.0815462
9	0x3dedba15	0.11607758
10	0x3db190b8	0.08670181
11	0x3d18bbd3	0.037288498
12	0xbbe16cb5	-0.006879414
13	0xbd041497	-0.0322462
14	0xbd53ab51	-0.051677052
15	0xbdab4662	-0.08363034
16	0xbdb1c1bd	-0.08679531
17	0xbd97ec12	-0.07418074
18	0xbdb15671	-0.086590655
19	0x3d7d68c8	0.061867505
20	0x3c63ac3f	0.013896047
21	0xbd438ad5	-0.047739822
22	0xbd473e57	-0.048643436
23	0x3de36fb0	0.11105287
24	0x3d85940f	0.065223806
25	0x3c07e952	0.008295374
26	0x3dc6fc08	0.0971604
27	0x3ce71542	0.028208379
28	0x3dced2fc	0.10098836
29	0x3d64a37e	0.05581998
30	0xbb921987	-0.0044586095
31	0x3e088b9d	0.13334508
32	0x3d6b6caa	0.057476677
33	0xbda1d8c3	-0.07902672
34	0xbb026b49	-0.0019900373
35	0xbce48171	-0.027893754
36	0x3dc85056	0.09780948
37	0x3cdcd1cd	0.02695551
38	0xbd4597de	-0.048240535
39	0x3daa0707	0.083021216
40	0xbb667054	-0.0035162168
41	0xbac04dbe	-0.0014671606
42	0x3d8e418c	0.06946096
43	0xbd0498d9	-0.03237233
44	0xbbe2fa24	-0.0069267917
45	0x3d6ea9a1	0.05826724
46	0xbd0eab45	-0.034831304
47	0xbd3ce4a1	-0.046116475
48	0xbcf46f8c	-0.029838346
49	0x3d0bbe7b	0.034117203
50	0xbd7dbc60	-0.061947227
51	0xbcb8cd87	-0.02255894
52	0xbd3bc181	-0.045838837
53	0xbdae152d	-0.08500133
54	0xbd8591f5	-0.0652198
55	0x3c7345a9	0.014848151
56	0xbd7a6279	-0.061129067
57	0xbcadaa4f	-0.021199374
58	0xbcd86ad2	-0.026418123
59	0x3d8dd333	0.06925049
60	0x3a397907	0.00070752244
61	0x3cd53be1	0.026029529
62	0x3cd88a63	0.026433175
63	0xbd0f2429	-0.034946594
64	0x3d9dd050	0.07705748
65	0x3c0c245b	0.00855359
66	0x3ca925bf	0.020647882
67	0x3d4067e8	0.046974093
68	0x3c776c8c	0.015101563
69	0xbc300538	-0.010743432
70	0x3d981fe5	0.074279584
71	0x3cae1d67	0.021254255
72	0x3db2ee3a	0.08736844
73	0x3c7b02ac	0.015320461
74	0xbd71cb36	-0.059031688
75	0x3d072b2a	0.03300015
76	0xbd5d3f4d	-0.054015446
77	0xbb806acf	-0.0039189826
78	0xbd0767f1	-0.03305811
79	0x3d25dcdc	0.04049383
80	0xbcb6a6a7	-0.022296263
81	0xbb17056b	-0.0023044
82	0x3d3c3595	0.045949537
83	0xbda5f0f0	-0.08102596
84	0xbd335fec	-0.04379265
85	0xba4b3662	-0.0007751939
86	0xbdb10c28	-0.08644897
87	0xbd875e53	-0.06609788
88	0xbd782bad	-0.060588527
89	0x3d1f3f45	0.038878698
90	0x3d61ee02	0.055158623
91	0xbdbaa2b3	-0.09113064
92	0x3c0f166e	0.008733375
93	0x3ca4832c	0.020082079
94	0x3d83bc9d	0.064324595
95	0xbdb0d931	-0.08635176
96	0x3cf56ddb	0.02995961
97	0xbccc1de2	-0.024916593
98	0xbc10ce1e	-0.008838205
99	0xbce85db5	-0.028364995
100	0x3d0ac606	0.033880256
101	0xbd2d68e3	-0.042336356
102	0xbd2d2fd1	-0.04228193
103	0xbd9dfe3e	-0.077145085
104	0x3d6f8db7	0.05848476
105	0xbcb34657	-0.021884127
106	0x3d208196	0.039186083
107	0x3dee0489	0.11621959
108	0xbd4445d3	-0.047918152
109	0x3d85529a	0.065098956
110	0x3d24d8ac	0.040245697
111	0x3b6fe0cd	0.0036602498
112	0x3c92e9fe	0.017933842
113	0x3d075262	0.03303755
114	0x3c698280	0.014252305
115	0x3e038a58	0.12845743
116	0x3d9f3fee	0.077758655
117	0xbb840c33	-0.0040297746
118	0xbd5e8381	-0.05432463
119	0x3d1dda64	0.03853835
120	0x3d7da381	0.061923508
121	0xbd0d914a	-0.034562387
122	0xbc58d617	-0.013234637
123	0xbd492ba6	-0.049113892
124	0xbc41c1ba	-0.011825973
125	0xbda1f47d	-0.079079606
126	0xbd93e608	-0.07221609
127	0x3d955685	0.07291893
