dqn_car_model_episode_500.pth (torch, 307153 bytes, 24 tensors)

fc1.weight f4 [128, 10]
00000000: bb57 1fbe 2bb7 c33d 9129 353e 8082 43be
00000010: 4d4c 55be a16c 80be d5dc 7dbd 62cd abbd
00000020: 2e55 0b3e 93ef 84be 531e ae3e 5b04 543d
00000030: 2abe 9e3e b812 47bd 3e84 563e dcb5 2d3d
00000040: de86 0a3e 5468 a23e 20ed 983e de56 72be
00000050: dd40 2a3e e290 973e aab8 bc3d 5f31 9cbe
00000060: 81d4 97bd e078 96be a45d 863e 3f6f 9bbe
00000070: d97f 77be 1f15 503e 4deb 8bbe e680 9dbd
00000080: 5dcd 5dbe f973 7f3e d36b 8cbd f528 203e
00000090: 4d76 833c d760 033e 7031 44be a382 453e
000000a0: da95 b43d 12ed 5fbd 00d1 353e b68c 4c3e
000000b0: 3dd2 283e 7fb2 8e3e 7170 053e be36 813e
000000c0: 36fd 883d 9268 adbe 851d ecbd fede 2d3e
000000d0: f2a5 803e dfef 6a3e dae7 133e 762d ea3d
000000e0: 6bf0 313e 6563 433e ea40 9f3e 91ed b93d
000000f0: 66a3 66bd 145d 8bbe a2fe 353e ce85 90be
00000100: c63c 08be 727d 7bbe 5568 053d e121 993c
00000110: 1dfb 523d 1825 52bc ca1f 8f3e e22c 8a3e
00000120: a0d0 1b3e 3b75 29bc 3b17 1c3e 100e 50be
00000130: 0cba 0d3e e5bb 9dbe 2343 4f3e b7d0 c53d
00000140: cb08 aabd dc9e a33d 672a dcbd f86d 0c3e
00000150: e133 6ebe 8682 1ebe afb6 b8bd e1b1 063e
00000160: 2875 99be 8d37 6a3d 6abb 2ebe 1982 7cbe
00000170: 00c6 643e a414 873e 0535 243e c0a4 82be
00000180: 65c3 56bd 53dd ab3e aacb 2fbd e3bc 273c
00000190: ce0f c33e 3a1e 463e ad2f 103e 364e 6fbe
000001a0: 289d 80be 14d1 afbe 0102 553e 4132 0d3e
000001b0: 542a 013e b1ef 9a3b c15e 003e 6973 f93d
000001c0: adf4 0bbe 4684 78be 091c a0be 5edc e4bd
000001d0: fcaf efbd 624e 143d ef92 88be 28ad 89be
000001e0: 5599 143e 4f09 babd 6e46 bcbd 6368 7dbe
000001f0: cc10 33bd d822 aabd 9b18 64be b4ad 1f3e
00000200: 8766 713e f6c0 7d3e 27b3 0f3c 27dd 823e
00000210: f602 b6bd 6586 71be f565 253e 58fe 213e
00000220: 5d35 453e ad17 81be 895b 973e 5366 af3b
00000230: 4145 b4bc c7dd 8bbd 29dd 14bd 7a56 3c3e
00000240: 9897 0b3d 548b 01be 73d3 fabd eba9 90be
00000250: 2eee cb3d 88a7 a0be dcaf 8a3d 90b0 393e
00000260: bdf4 fb3c 2e76 5b3e f8cf 533d dc11 303e
00000270: 5c96 8abe 5cf8 9ebe 31a4 a6bd bcc0 8bbe
00000280: 9630 afbd f481 753d 6a99 0e3d b44c 8bbe
00000290: 9b17 593c ae6e 913e a68d 0abe f186 a33d
000002a0: e875 d0bd 93e8 7bbe 4a2d 593e 82e5 fc3d
000002b0: b2dc 373e 976b 8abe f081 22be fb02 42be
000002c0: 8f2c 683e 2518 f73c 55cd 60be f369 edbc
000002d0: c854 9a3e cb31 b2bd 7879 903e d51a 9f3e
000002e0: a880 78be 80ea a0be edee f4bd 64f8 2bbe
000002f0: 9615 a8bc dd86 edbd c002 40be ce95 363e
00000300: 1138 323e 48cb 8a3e d6c0 4cbe 822a 15be
00000310: 72c8 96be ad37 5bbb 0d84 05be 9f47 543d
00000320: 14ac 87bd ecc7 b23e 1877 313e 144d 7cbe
00000330: 5c92 003e 7b26 18bc b698 3a3d eee6 3e3e
00000340: e451 f43c e675 6cbe 71a5 4f3d 90dc 003e
00000350: b654 823e 5d32 ad3e f9f2 4e3e 9c82 c83d
00000360: d20f d23d 1db7 f8bc 1357 5f3e ca62 1c3d
00000370: 7dc2 743e 2953 8d3e 6000 5e3d 682a 863e
00000380: 7c60 0fbd 7042 ba3c 1fa9 7f3e ca8d 733e
00000390: 36a2 853e 404d b7bd 1a5e 2c3e 2f96 65be
000003a0: d6e0 853e 4bfe 71be 816f 583e 2400 333e
000003b0: 48a2 2abe 4e98 313e d91f bd3d d478 0f3e
000003c0: 4139 6c3e 29df 913e ec7a 923e 4245 983e
000003d0: 8cba 13bd 01fa 9b3e 21c5 50be 39ee 6c3c
000003e0: 8d26 50bd 6107 cf3d 692d ecbd 6383 8d3e
000003f0: a679 d0bd 20ae 503e 614f 53be 259f 0f3e
-0.1556081 0.09556421 0.17691638 -0.1909275 -0.20829888 -0.25082877 -0.06197818 -0.08388783
0.13606712 -0.2596403 0.3400751 0.051761966 0.3100446 -0.048601836 0.20948884 0.042409763
0.1352801 0.3172022 0.29868412 -0.2366595 0.16626306 0.29602724 0.092149094 -0.30506417
-0.07413579 -0.29389095 0.26243317 -0.30358312 -0.24169864 0.20320557 -0.27327958 -0.07690601
-0.21660371 0.24946584 -0.06856503 0.15640624 0.016047621 0.1282991 -0.19159484 0.19288115
0.088176444 -0.054669447 0.17755508 0.19975552 0.1648645 0.27870557 0.13031174 0.25237077
0.06688921 -0.33868843 -0.11529068 0.16979596 0.25126606 0.22943066 0.14443913 0.11434452
0.17376868 0.19080885 0.31104213 0.09078515 -0.056308173 -0.2721945 0.17772916 -0.28227085
-0.13304433 -0.24559572 0.032570202 0.018692913 0.05150901 -0.012826227 0.2795394 0.26987368
0.15216303 -0.010342891 0.15243237 -0.20317864 0.13840503 -0.30807415 0.20240454 0.0965895
-0.083024584 0.079892844 -0.10750275 0.13713825 -0.23261978 -0.15479478 -0.09019219 0.13153793
-0.29972196 0.057181884 -0.1706368 -0.24659003 0.22341156 0.26382935 0.1603585 -0.2551632
-0.052432436 0.33567294 -0.04291884 0.010237905 0.38097996 0.19347468 0.14080687 -0.23369679
-0.251199 -0.343392 0.20801546 0.13788702 0.12613803 0.0047282805 0.12536146 0.12180216
-0.13667555 -0.24269208 -0.3127139 -0.11174844 -0.11703488 0.036207564 -0.266746 -0.2688992
0.14511617 -0.09083807 -0.09193121 -0.24746852 -0.04371719 -0.08307427 -0.22275011 0.15593606
0.23574267 0.2478064 0.008770741 0.2555935 -0.088872835 -0.23586424 0.16152175 0.1581968
0.19258638 -0.25213376 0.29562023 0.005352774 -0.02200568 -0.0682941 -0.036343727 0.18392363
0.034080118 -0.12650806 -0.12247362 -0.28254637 0.099575385 -0.31377816 0.06771824 0.1813376
0.030756349 0.214318 0.051712006 0.17194313 -0.2706784 -0.31048858 -0.08136786 -0.27295482
-0.08554189 0.059938386 0.034814276 -0.27206957 0.013250257 0.28404754 -0.13530597 0.079847224
-0.10178739 -0.24600439 0.21208683 0.12348463 0.17955282 -0.2703521 -0.1586988 -0.1894645
0.22673248 0.03016288 -0.21953328 -0.028981185 0.30142808 -0.087009035 0.28217673 0.3107516
-0.24267828 -0.3142891 -0.11959634 -0.16793972 -0.020518105 -0.11597989 -0.18751049 0.17830583
0.174042 0.27108216 -0.19995436 -0.14566997 -0.29449803 -0.0033449933 -0.13038655 0.051826116
-0.06624618 0.34918153 0.17330587 -0.24638778 0.12555832 -0.009286518 0.045555793 0.1864278
0.029824205 -0.2309185 0.050694887 0.12584138 0.25455254 0.33827487 0.20209874 0.09790537
0.10256924 -0.030360753 0.2181056 0.03818015 0.23902316 0.2760251 0.054199576 0.26204228
-0.035004124 0.022736758 0.24966858 0.23784557 0.2610032 -0.08950281 0.16832772 -0.22420572
0.261481 -0.23632161 0.21136285 0.17480522 -0.16663468 0.17343256 0.0923459 0.14010936
0.23068716 0.2849057 0.28609407 0.2974034 -0.036066577 0.30464175 -0.20387699 0.014461094
-0.050818015 0.10108829 -0.11532099 0.27639303 -0.101794526 0.20378923 -0.2063575 0.14025553

fc1.bias f4 [128]
00000000: b1fa 3d3e 7a52 20bd ca10 823d fd92 013e
00000010: c0ab 6b3e fc54 4dbc 900b ddbd c02a 783d
00000020: cf03 13bd 1ef9 5d3e 7a23 833e 685a fc3c
00000030: 46e6 c83d ec32 8c3e b656 a83d 025c 98bc
00000040: 4269 87be edbe 723e f2b1 9a3e 0dbc 0dbd
00000050: a8e1 f33d 3c2c 13be 9622 49be 0db1 7ebd
00000060: b727 0f3e a8a0 f73d cf79 4f3e ea8b 903d
00000070: 98fd 243e 5a82 5d3e 0658 103e 7437 603e
00000080: e97d 133e 56ee f8bc 0500 dbbb 424d 363e
00000090: 6201 e13d b7e1 8c3e eb59 073e 1cbf 0a3e
000000a0: b0a9 363d 8fbe cbbd 7be4 053e bd5a 68be
000000b0: 8c06 803e d81e 0f3e 3302 993e 8a5d 363d
000000c0: c56b 13bd f66c 84be fa5e 94be 3fa0 b43d
000000d0: bb7c 86bd 9bfb b73d 68ab 963c e23e 853e
000000e0: 2378 6e3e a7ff bbbd 272b 49be 993c 363e
000000f0: 7de8 d53d 7e3b 4abe 6e29 593e f27d 8c3e
00000100: 29d1 35be f3ab 6ebc 96f8 a53d 8ce5 833e
00000110: b5ea 86be b709 973e 9cfd 4abe ba7f 303e
00000120: 8dcf 88be 8040 8e3e b4cf a43e 8b7b 0e3e
00000130: 8429 3abc d8cc e63d ee2c c0bd e33d 2d3e
00000140: b11c 99be 1738 02be 6674 db3c 6f9f 8abe
00000150: dba7 593e 6d03 2cbe 86be fd3d 14e8 763c
00000160: 0228 53be 5731 ce3d 33c3 2ebe c761 b0bd
00000170: 4be1 5d3e 8aae 47be 162b 42be 9cce 32be
00000180: ae4d 9b3e 50dc 95be b9c2 02be ec28 963e
00000190: bc0f f5bd af95 89be 6a42 6b3e a8d5 103e
000001a0: cf7e 42be b162 a0be c874 423e e91f a7bd
000001b0: 35cc 263e 5974 9abd 4d12 27be 04b5 9b3e
000001c0: 2380 303e b855 7fbd 46a4 a73e 240a 68be
000001d0: 7310 91be 9654 303d 2bb1 62be 9bf1 ccbd
000001e0: e868 93be 676b 573e ccc0 f33c f959 6cbe
000001f0: a268 533e e181 bf3d d6f5 863e a0c3 923e
0.18552662 -0.039141156 0.063508585 0.12653728 0.23014736 -0.012532469 -0.10793221 0.060587645
-0.035892304 0.21677062 0.25613004 0.030804828 0.09809546 0.273826 0.08219664 -0.01859856
-0.26447493 0.23705645 0.30213886 -0.034603167 0.11908275 -0.14372343 -0.196421 -0.062180568
0.13979994 0.120911896 0.2026131 0.070579365 0.16112363 0.21631756 0.14096078 0.21896154
0.144035 -0.030387085 -0.006683352 0.17802909 0.10986592 0.27515957 0.13217895 0.13549465
0.04459542 -0.099484555 0.1307544 -0.22690864 0.25004995 0.1397661 0.2988449 0.0445228
-0.03599145 -0.2586438 -0.2897871 0.08819627 -0.06566759 0.08983537 0.01839228 0.26024538
0.23288016 -0.09179621 -0.19645368 0.17796554 0.10444734 -0.19749257 0.2120721 0.2743984
-0.1775557 -0.014567363 0.08104055 0.25761068 -0.26350942 0.294996 -0.19823307 0.17236224
-0.2672085 0.27783585 0.32189715 0.13914315 -0.011362437 0.112695396 -0.0938357 0.16918139
-0.29904702 -0.12716709 0.026788902 -0.27074763 0.21255438 -0.16798182 0.12389855 0.01506998
-0.2062073 0.100680046 -0.1706665 -0.086123995 0.21667974 -0.19500175 -0.18961748 -0.17461628
0.30332702 -0.29269648 -0.12769593 0.29328096 -0.11965892 -0.26872012 0.22974554 0.14144003
-0.18993686 -0.31325296 0.18989861 -0.08160383 0.16288836 -0.07541723 -0.16315575 0.3041154
0.1723638 -0.062337607 0.32742518 -0.22660118 -0.28332862 0.043049417 -0.22137897 -0.1000702
-0.28790975 0.21037064 0.029755019 -0.23081197 0.20645383 0.09350944 0.26359433 0.28664875

fc2.weight f4 [128, 128]
00000000: 373a 893b 6280 5fbd f299 cbbc b387 28bd
00000010: b91b 9abd bfbd a2bd f944 2dbd ee01 a3bc
00000020: ed34 19bd 0049 3dbd 6cca a5bd 5c89 b43c
00000030: deee 9fbd eb69 c93c 7717 d73c 6737 9fbb
00000040: 1239 60bd 9409 07bd 98cf e9bc a77f b3bd
00000050: 64c2 843d ecad a3bd 9d8d 753c 4443 52bd
00000060: 653d ea3b 64ec 91bd bf66 903d 1aff 223d
00000070: 9e81 e43c 4a95 bdbc 0616 8cbc a20f 8c3d
00000080: 6f52 b3bc a312 853b 5d57 15bd d39b 833d
00000090: 3d4d b3bc b111 2e3c 781e 873d 0d20 613d
000000a0: 7e04 4f3d 25e6 8dbd 564e 1bbd 78a0 5fbc
000000b0: b8eb af3c 6aef 883d 55de 243d 4ba2 72bc
000000c0: 2181 473c 92d8 873c a35c 473d c8e8 2fbd
000000d0: 6cdc abbd 58d8 a6bd c78f fa3c 31c0 65bd
000000e0: e4c4 21bd 22c5 253d 52de a83d 4fc3 3d3d
000000f0: a38a 893d 1fcb 1b3b 33c2 ea3c a0d3 84bd
00000100: 8d2e 843d 64cf 05bc f356 a7bd f22b 8c3c
00000110: 140f 2b3d 442f a73d 3934 7bbc 969c 383c
00000120: 16d8 fdbc 4aef 373d 4d5e 4c3b 5e2f 833d
00000130: 2bec 943c bc9a d03b 2136 febc 4f12 80bd
00000140: f7c5 14bd 9740 b1bc bdf8 11bd 80e2 cdbc
00000150: 6863 aabd 639c 8a3b b1da 3a3d 9a2d 4d3d
00000160: fa7d 35bd 2d98 193c 4062 a53d 79bd 2ebd
00000170: 91dc 4dbd 9831 293d 746f adbd 0841 873d
00000180: a0c4 43bd 9cfc 183d 2e40 48bc 76c0 8d3d
00000190: 9c12 6f3c a4b0 e4bc 46c1 d03b 3af8 893d
000001a0: cd0e 643d 07d1 ccba 5147 87bd ca9b 323d
000001b0: e38b 4cbd 82b3 92bd e629 3bbd 2094 1a3c
000001c0: b968 1f3d abf1 653d cc00 acbd 2ce2 18bd
000001d0: 49e6 e13c d533 02bd 25ec 853d 42de a83d
000001e0: 5d2c 0abd 2a9c d63b 5dc3 8a3d f254 7e3d
000001f0: 915e 113d 91e7 613d 1ef3 b0bb 4c10 613b
00000200: b2e2 13bc 6693 e43c 71fa f1ba b05a fc39
00000210: 5472 66bc 1dce acbd be99 a7bd 2b50 dfbc
00000220: c0e2 67bd 536d cdbd 8795 81bd e6ab 103d
00000230: f81c 143c d7c8 cabc 4bef 453d 333c 833d
00000240: 13eb 8ebc 2381 633d 00cf 38bd 9e10 d23b
00000250: af15 58bd c068 f13c b3fb 06bd c185 0d3d
00000260: 5643 8e3c 043d c2bd 56ce 5f3c 24f2 b93b
00000270: 2d34 aebd cfbe 5e3d 5023 753b 7625 e1bc
00000280: 3fef a8bc 1601 a13c f1f5 74bc b68f 7cbd
00000290: ad75 7bbd 6b5b b8bd b5c1 86bb c8c3 783d
000002a0: 2ccf 91bc 772a afbd 3b6d eb3c 1ddb 6c3d
000002b0: ca93 8ebd 9fcd bcbd e13b 813d 1246 063d
000002c0: 7434 e43b bbb6 4c3d 8825 3b3d 910d 093d
000002d0: f415 973d 0dc1 4c3c 3d43 3a3d 882d 8e3d
000002e0: eadf 9c3d 243b ffbb 2500 373d e186 9a3d
000002f0: a401 383d ccd3 fbbb 2c19 e03b 2bb5 2fbd
00000300: 37c5 5b3c c697 09bc 4421 c33c e171 26bd
00000310: 7895 063d 4844 b9bd 679c b23d b0b8 723c
00000320: 38fb fd3c e018 b4bd 64e4 963d 9fd4 54bd
00000330: bb60 c9bb a9a4 583d b37d 1cbd 1467 0abd
00000340: a015 38bd ef70 25bd db44 04bd c2c6 3ebc
00000350: 67ff b1bd 7909 6d3d c6d5 b6bd 77e7 80bd
00000360: 4907 463b e84c 353d 1448 793d e61b babd
00000370: b713 09bd 66e1 643c 45c7 8dbd 930a 4abd
00000380: b84c 893c 6353 1bbd aa78 4b3d 6574 0f3d
00000390: 7eb6 8a3d a6e0 893b b115 8bbd ff16 e9bc
000003a0: e4b4 cdbd eafc 99bc 506c 8abd 9828 8fbd
000003b0: fb8f aabd 24f0 943d e09e 79bc 1f11 2a3d
000003c0: 0e48 aebd 4131 edbc d0ba 35bb 3947 d6bc
000003d0: 8f2d a23d 494c 0dbc 1a2e e13b cd75 c13c
000003e0: 0f7c 01bc c9dd a7bd cc0d 3ebc c5b9 b03c
000003f0: ad32 d13c 5f04 92bd 32ff b3bd 265b acbd
0.004187848 -0.054565795 -0.02485368 -0.041145038 -0.07524819 -0.079463474 -0.042302106 -0.019898381
-0.03740399 -0.046212196 -0.080952495 0.022038154 -0.07809232 0.024586638 0.026256306 -0.0048588994
-0.054741926 -0.03296812 -0.028541371 -0.08764582 0.064823896 -0.07992157 0.0149873765 -0.05133368
0.007148432 -0.07125166 0.07050847 0.039794065 0.027893838 -0.023142476 -0.017100345 0.06838919
-0.021889893 0.0040610596 -0.03646027 0.064262055 -0.021887416 0.010624335 0.06597608 0.054962207
0.050541393 -0.06928662 -0.037916504 -0.013649099 0.021474704 0.066862896 0.040251095 -0.0148092015
0.012176783 0.016582761 0.04867233 -0.042946607 -0.083916515 -0.08146733 0.030586137 -0.05609149
-0.03949441 0.040471204 0.08245529 0.04632884 0.06715896 0.0023772193 0.028657055 -0.06485677
0.06454191 -0.008167122 -0.08170881 0.017110799 0.041762426 0.08163312 -0.015332275 0.011267802
-0.030986827 0.04490594 0.0031184137 0.06405519 0.01817902 0.006366102 -0.03103167 -0.06253492
-0.036321606 -0.021637244 -0.035637606 -0.025132418 -0.083197415 0.0042300685 0.045618717 0.050092317
-0.044309594 0.00937466 0.0807538 -0.042661164 -0.050259177 0.041307062 -0.084685236 0.066042006
-0.047794938 0.037350282 -0.012222333 0.06921475 0.014591839 -0.02791626 0.0063706962 0.067367986
0.055678178 -0.001562626 -0.066053994 0.043605603 -0.049938094 -0.07163145 -0.045694254 0.00943473
0.03891823 0.056138676 -0.083985895 -0.03732507 0.027575629 -0.031787712 0.065391816 0.08245517
-0.033733714 0.006549378 0.06775544 0.06209273 0.035490576 0.05515248 -0.0054000756 0.003434199
-0.009026216 0.027902316 -0.0018461478 0.00048132753 -0.014065344 -0.084377505 -0.08183621 -0.027259907
-0.05661273 -0.100306176 -0.06327348 0.035320185 0.00904011 -0.024753971 0.04832391 0.064079665
-0.017446076 0.055543076 -0.045119286 0.0064106723 -0.052755054 0.029468894 -0.032954883 0.034551386
0.017366093 -0.09484294 0.013660034 0.0056746174 -0.085060455 0.054381188 0.003740508 -0.027483683
-0.020621894 0.019653838 -0.014951215 -0.06166049 -0.06139152 -0.090018116 -0.004112447 0.060733587
-0.017798983 -0.085530214 0.028738609 0.05782615 -0.06961782 -0.092189066 0.06310249 0.032781668
0.0069642607 0.049978953 0.04569009 0.033460204 0.07377234 0.012497199 0.04547428 0.06942278
0.07659896 -0.0077890325 0.044677872 0.07545257 0.04492344 -0.0076851603 0.006838938 -0.042897385
0.013413719 -0.008398002 0.023819573 -0.040635947 0.03285739 -0.09046227 0.08721238 0.014814541
0.03100358 -0.08793807 0.07367781 -0.051960584 -0.0061455644 0.052891407 -0.038205814 -0.03378971
-0.0449425 -0.040390905 -0.03229223 -0.011644067 -0.08691292 0.057870362 -0.08927493 -0.062941484
0.0030216745 0.044262797 0.060859755 -0.090873525 -0.033466067 0.013969755 -0.06922773 -0.04932649
0.016760215 -0.03792132 0.04967562 0.03502311 0.06773089 0.0042076884 -0.06791247 -0.028453348
-0.10044268 -0.018797357 -0.0675894 -0.069901645 -0.08328243 0.07272366 -0.015235633 0.041520234
-0.08509837 -0.02895415 -0.0027729757 -0.026157008 0.07918846 -0.008624145 0.006871951 0.023615742
-0.007903113 -0.08196599 -0.011599969 0.021572957 0.02553686 -0.0712974 -0.08788909 -0.08415823

fc2.bias f4 [128]
00000000: e1c9 35bd 93da 503d 2710 7d3d 8761 61bc
00000010: 2fe8 89bb 359b c13d e734 b0bb f619 d5bb
00000020: b201 a7bd 9e9a ed3d f884 b13d 90c4 183d
00000030: b56c e1bb 9714 04bd 51ab 53bd 6246 abbd
00000040: bdc1 b1bd 12ec 97bd 7156 b1bd c868 7d3d
00000050: 3fac 633c d58a 43bd 573e 47bd 9865 e33d
00000060: 0f94 853d 52e9 073c f20e c73d 4215 e73c
00000070: a6c0 ce3d 7ea3 643d 8719 92bb b580 083e
00000080: aa6c 6b3d c3d8 a1bd 496b 02bb 7181 e4bc
00000090: 4059 c83d 1176 dc3c de97 45bd 0707 aa3d
000000a0: 5470 66bb be4d c0ba 8c41 8e3d d998 04bd
000000b0: 5c81 e4bb a1a9 6e3d 4ddb 0ebd a1e4 3cbd
000000c0: 8c6f f4bc 316d 0b3d 60bc 7dbd 1689 b9bc
000000d0: 81c1 3bbd 2d15 aebd f591 85bd 8548 723c
000000e0: 7962 7abd ab06 aebc d26a d8bc 33d3 8d3d
000000f0: 64cc 3e3a 5855 d43c f135 d83c 2924 0fbd
00000100: 50d0 9d3d 9213 0c3c bf25 a93c e867 403d
00000110: 8c6c 773c 3805 30bc e51f 983d 671d ae3c
00000120: 29d9 b23d ac02 7b3c 36cb 71bd 2a2b 073d
00000130: 4d3f 5dbd cf6a 80bb f167 07bd dcdc 253d
00000140: a7a6 b6bc 6b05 17bb 9535 3c3d f0f0 a5bd
00000150: ec5f 33bd 2d7a 51ba 280c b1bd 535e 87bd
00000160: ad2b 78bd 243c 1f3d 02ee 613d b3a2 babd
00000170: 6e16 0f3c 2c83 a43c 9dbc 833d 31d9 b0bd
00000180: db6d f53c e21d ccbc 1ece 10bc f61e e9bc
00000190: e392 0a3d d19e 2dbd d12f 2dbd 3efe 9dbd
000001a0: 1b3b 6f3d 5746 b3bc 9681 203d 94f0 ed3d
000001b0: d345 44bd 3d31 853d acd8 243d cde0 6f3b
000001c0: fee9 923c 6252 073d cbc1 683c fa89 033e
000001d0: ee3f 9f3d e9a3 84bb 8183 5ebd 64da 1d3d
000001e0: 798d 7d3d 4a91 0dbd 17d6 58bc a62b 49bd
000001f0: bac1 41bc 7df4 a1bd 08e6 93bd 8556 953d
-0.04438198 0.0509897 0.061782982 -0.0137561625 -0.0042085866 0.094534315 -0.0053774 -0.006503339
-0.0815462 0.116017565 0.0866794 0.03729683 -0.006879414 -0.0322462 -0.051677052 -0.08363034
-0.08679531 -0.07418074 -0.086590655 0.061867505 0.013896047 -0.047739822 -0.048643436 0.11103362
0.065223806 0.008295374 0.097196475 0.028208379 0.100953385 0.05581998 -0.0044586095 0.13330348
0.057476677 -0.07902672 -0.0019900373 -0.027893754 0.09782648 0.026911767 -0.048240535 0.083021216
-0.0035162168 -0.0014671606 0.06946096 -0.03237233 -0.0069734287 0.05826724 -0.03487711 -0.046116475
-0.029838346 0.03403968 -0.061947227 -0.022648375 -0.045838837 -0.08500133 -0.0652198 0.014787798
-0.061129067 -0.021243414 -0.026418123 0.06925049 0.00072783814 0.025919601 0.026392909 -0.034946594
0.07705748 0.008549588 0.020647882 0.046974093 0.015101563 -0.010743432 0.074279584 0.021254255
0.08732826 0.015320461 -0.059031688 0.03300015 -0.054015446 -0.0039189826 -0.03305811 0.04049383
-0.022296263 -0.0023044 0.045949537 -0.08102596 -0.04379265 -0.0007990923 -0.08644897 -0.06609788
-0.060588527 0.038875714 0.055158623 -0.09113064 0.008733375 0.020082079 0.064324595 -0.08635176
0.02995961 -0.024916593 -0.008838205 -0.028457146 0.03383149 -0.042387787 -0.04228193 -0.077145085
0.058405977 -0.021884127 0.039186083 0.11618152 -0.047918152 0.06503532 0.040245697 0.0036602498
0.017933842 0.03303755 0.01420636 0.12845603 0.077758655 -0.00404786 -0.05432463 0.03853835
0.061902497 -0.034562387 -0.013234637 -0.049113892 -0.011825973 -0.079079606 -0.07221609 0.07291893

fc3.weight f4 [5, 128]
00000000: 9312 943d f338 09bd 3816 b4bd 1ae7 b13d
00000010: e261 84bd 950b 9cbc 0627 48bd e818 4b3c
00000020: 2158 3cbd 1067 a4bc 45be b7bd 8a29 b6bd
00000030: c5b8 fc3c 1394 99bd ce15 d33c 84bf 203d
00000040: a223 7a3d 461a 5b3c ba58 05bc 2403 8abc
00000050: a60c 2fbd 1b6c afbd e783 363d f2af e8bd
00000060: 0a1f 6e3d 61f9 823d bed9 f53c 9301 4b3d
00000070: eb02 06be 1434 a2bd 5272 78bd fd25 3dbd
00000080: f01d aebd 685a 513c b5b4 83bb 986f a0bd
00000090: 6cbc eabd f2ad c9bd 0aea d13c 6bb8 91bd
000000a0: 7555 64bd cf34 a7bd 0fe9 aa3d cb89 92bd
000000b0: ae08 ff3c 1390 8cbd 04eb 0bbd 6d15 723d
000000c0: 34f1 7abd 9b50 04be 2794 c7bc b08d 343c
000000d0: 69d1 7dbc f4a3 9f3d 8e75 cf3c 3cb5 f5bd
000000e0: 0928 da3c 7776 06be 7625 95bd 2bc2 a63d
000000f0: 1715 bebd 9208 cb3c f4d9 e93c 9358 48bb
00000100: dc2e 96bd 2d8a ffbd 990a 763c 084b a13d
00000110: 829b 13bd 8136 843d 1598 1cbd c1e8 8d3d
00000120: 1ee0 c7bd feb5 68bc ef64 9b3d 2367 6e3d
00000130: 0723 3e3d 27cb 823d 621a 0b3c e422 543d
00000140: 6641 fabc be1f af3d fc2b c3bc ee65 94bb
00000150: 096c e7bc 5cd9 2ebd 0378 bdbc bf45 663d
00000160: e11c 29bd d644 36bc 05cc a13c 5a44 76bd
00000170: 318c f73c e0cd 1a3c 48d8 cb3c 6432 813b
00000180: 5999 abbd b7b5 873d fb57 843d 870c 31bd
00000190: 217d a33b 12ac febd 3236 a73d 6ed6 b13c
000001a0: 006f eabd 2b8d ea3a 6b68 543d 4183 71bd
000001b0: 8027 aabd 496a 4bbd 18ff 34bd a9d9 1f3d
000001c0: d98a 52bd afb4 823d 2e29 f0bd 4a9c cebd
000001d0: c9e9 9bbd 0635 71bd ac32 583d cb6b 9ebd
000001e0: 0b1c f5bb eb9c 733d 96b5 a9bd e414 483d
000001f0: c895 a93d 4976 07bd 86c4 49bd b1b4 edbc
00000200: 5b32 fdbc 59cd 803c ff25 323d 0ef0 133d
00000210: 4a43 77bd 2ab3 8b3c 8ed7 53bd 91fd 1bbd
00000220: 4228 423d e924 b8bd 5404 88bd b560 ccbd
00000230: 2880 593d 8038 593d d56d 093c 7e03 4abd
00000240: 5738 81bd 7782 9bbd 58e3 2d3d edab b0bd
00000250: 9b59 503d 5a43 9ebc a13d a1bd 2783 e5bd
00000260: 1980 dabc a7f9 443d a6d5 61bd daa5 523d
00000270: e803 89bd c16e ad3d 31f2 a33d 9a83 b0bd
00000280: cf11 0bbc df51 f8bb c500 863d 229a f7bc
00000290: 292f bb3c 857a 4ebd 4df9 833d 6b97 ff3b
000002a0: 432e d43b 2e9f 8b3d 671f 943d ba8d 9a3d
000002b0: 4266 a2bd 67d5 653d a30c e5bd b81a 863d
000002c0: d0c8 4dbd 9b69 3d3c 9639 76bd 73b9 8abd
000002d0: ba30 76bd 9602 15bd c45b 98bd a254 e8bc
000002e0: e49e 8abd 0f4f 16bd e07a a03c 06c1 77bd
000002f0: d7bc 05bc 1dfa 84bd 9cbb 67bd 0c68 04bd
00000300: c239 79bc 0f8a 6ebd 0924 753c e68b 9ebd
00000310: c1ff 85bd 492d ea3c 9534 ae3c f393 1a3c
00000320: 1693 66bc 6243 743c 1f49 523d b59a 0abd
00000330: 7cc9 37bd e86b 833d 2375 4ebc d6da a3bc
00000340: 1feb b3bc 656b d2bb a0f8 d4bc 331c 97bd
00000350: 0cbd c9bb c97b abbd 9933 813d 79e4 9ebc
00000360: 6e38 b63c 72c9 1fbd 194c 0fbc 60f6 c03c
00000370: 6568 253d 7834 c43c f60d 363d 13c2 663d
00000380: 53bb 89bd db4f 0f3d 6b35 8d3d a2a4 89bd
00000390: 0b7f b8bd 0651 88bd 9897 d5bc 35ba cbbc
000003a0: 8fb9 b5bd b3d8 513d 487a 98bd 9ad6 f1bd
000003b0: 80cc 2e3d 004b 31bd d592 e8bb f751 80bd
000003c0: 3aa6 263c f716 11bd f457 cfbd 437d 73bc
000003d0: 7adc 1fbd e434 a8bd feec 39bc 716e 67bd
000003e0: c0cf bebd 6279 b43b be77 83bd 129b 47bd
000003f0: dd57 9bbc 8c1c 94bd 9a7c 9abd 30c3 313d
0.07230105 -0.033501577 -0.087933004 0.08686657 -0.06463982 -0.019048491 -0.04886534 0.012396075
-0.045982484 -0.020068675 -0.08971838 -0.08894642 0.030849824 -0.07498946 0.025767233 0.039245144
0.06106914 0.013372963 -0.00813883 -0.0168472 -0.042736672 -0.08565541 0.044559386 -0.11361684
0.05813507 0.063952215 0.030011054 0.04956205 -0.1308705 -0.07920089 -0.0606559 -0.046178807
-0.08501804 0.012777902 -0.0040193447 -0.07833785 -0.1146172 -0.098476306 0.025624294 -0.07115253
-0.05574556 -0.08164369 0.08345234 -0.07155188 0.031132068 -0.068634175 -0.034159675 0.059102464
-0.061265185 -0.12921374 -0.024362637 0.011020109 -0.015491822 0.077949435 0.02532461 -0.11997458
0.026630418 -0.13131128 -0.07282536 0.08142503 -0.09281366 0.02478436 0.028546311 -0.0030570372
-0.073331565 -0.12477527 0.015017175 0.07875639 -0.036036976 0.06455708 -0.038230974 0.0692916
-0.09759544 -0.014203547 0.07587611 0.058203828 0.046420123 0.063864045 0.008490177 0.051791087
-0.030548763 0.08550976 -0.023824684 -0.0045287525 -0.028249757 -0.04268776 -0.023128515 0.05621886
-0.041287307 -0.01112481 0.019750604 -0.06012378 0.030218216 0.0094484985 0.024883404 0.0039427746
-0.08378858 0.06626456 0.064620934 -0.043224838 0.0049892818 -0.124351636 0.08164634 0.021708693
-0.11446953 0.0017894855 0.051857393 -0.058963064 -0.08308315 -0.04966191 -0.04418859 0.039025936
-0.051401947 0.06382119 -0.117266044 -0.100884035 -0.0761295 -0.058888458 0.0527827 -0.077354036
-0.0074801496 0.05947582 -0.08286588 0.048848048 0.08280522 -0.03307179 -0.049259685 -0.029016824
-0.0309078 0.015722917 0.043493267 0.036117606 -0.060366906 0.017053206 -0.05171924 -0.038083617
0.047401674 -0.08991415 -0.066414505 -0.09979383 0.053100735 0.0530324 0.008388002 -0.049319737
-0.06309574 -0.075932436 0.04245314 -0.08626542 0.050866704 -0.019319225 -0.07873083 -0.11206656
-0.02667241 0.04808965 -0.05513539 0.0514277 -0.06690198 0.0846839 0.08005179 -0.08618851
-0.008488133 -0.007578119 0.065431155 -0.030224863 0.022849636 -0.050409812 0.06444035 0.007800033
0.0064752414 0.068174705 0.07232552 0.075465634 -0.079296604 0.05611172 -0.11184051 0.06548065
-0.050240338 0.011560823 -0.060113512 -0.06773653 -0.060105063 -0.03637942 -0.07439378 -0.028360669
-0.06768587 -0.03669649 0.019589841 -0.060486816 -0.008162699 -0.06493018 -0.056575403 -0.03232579
-0.015211524 -0.05823713 0.014962205 -0.07741527 -0.06542922 0.028586047 0.021265307 0.009434688
-0.014073154 0.014908643 0.051339265 -0.033838946 -0.044869885 0.06417066 -0.01260117 -0.02000181
-0.0219627 -0.006421494 -0.02599746 -0.073784254 -0.0061565693 -0.083732195 0.063086696 -0.019396054
0.022243705 -0.039010473 -0.00874617 0.02355498 0.04038276 0.0239508 0.044446908 0.056337427
-0.067251824 0.034988265 0.06894954 -0.06720854 -0.090086065 -0.06656079 -0.026073262 -0.024869064
-0.08873283 0.05123205 -0.07445198 -0.1180851 0.042675495 -0.043284416 -0.007097582 -0.062656336
0.010171467 -0.03542229 -0.101241976 -0.014861408 -0.039028622 -0.08213213 -0.011348007 -0.05650181
-0.09316969 0.005507634 -0.064193234 -0.04873187 -0.018962795 -0.072320074 -0.07543297 0.043399036

fc3.bias f4 [5]
00000000: 580c 00bb f19d 213d e1f6 5d3c cc82 0a3c
00000010: df0f 433c
-0.0019538607 0.039457265 0.01354763 0.008454036 0.011905639

fc1.weight f4 [128, 10]
00000000: 85de 1fbe acd6 c33d 1129 353e e857 43be
00000010: 112a 55be 216d 80be bdde 7dbd 53ce abbd
00000020: b254 0b3e 52ef 84be cccb ad3e 584b 543d
00000030: ecbd 9e3e 8d55 46bd f7ab 563e 2eb2 2d3d
00000040: 6b86 0a3e 1a68 a23e e6ec 983e 6156 72be
00000050: dd40 2a3e e290 973e aab8 bc3d 5f31 9cbe
00000060: 81d4 97bd e078 96be a45d 863e 3f6f 9bbe
00000070: d97f 77be 1f15 503e 4deb 8bbe e680 9dbd
00000080: 5dcd 5dbe f973 7f3e d36b 8cbd f528 203e
00000090: 4d76 833c d760 033e 7031 44be a382 453e
000000a0: d974 b33d 7ea8 5fbd 06d1 353e 45b7 4c3e
000000b0: 21f6 283e bab1 8e3e 7c70 053e c336 813e
000000c0: 46fd 883d 9568 adbe 8e2c edbd 37ef 2d3e
000000d0: 02a6 803e 8717 6b3e a208 143e eb29 ea3d
000000e0: 8cf0 313e 8863 433e fa40 9f3e 52ed b93d
000000f0: 5ddc 68bd ef54 8bbe 1dfe 353e 0970 90be
00000100: 7718 08be 467e 7bbe 6266 053d 021e 993c
00000110: 20f9 523d c71c 52bc ca1f 8f3e e22c 8a3e
00000120: a0d0 1b3e 3b75 29bc 3b17 1c3e 100e 50be
00000130: 0cba 0d3e e5bb 9dbe 2343 4f3e b7d0 c53d
00000140: cb08 aabd dc9e a33d 672a dcbd f86d 0c3e
00000150: e133 6ebe 8682 1ebe afb6 b8bd e1b1 063e
00000160: 2875 99be 8d37 6a3d 8b3d 2fbe 3772 7cbe
00000170: 0bc6 643e e527 873e bd54 243e a9a5 82be
00000180: 32c3 56bd 5add ab3e 80cb 2fbd 33bc 273c
00000190: 1ecb c23e 442e 463e ba2f 103e 3f26 6fbe
000001a0: b38c 80be d9d1 afbe 1002 553e 5332 0d3e
000001b0: 622a 013e 25ee 9a3b c15e 003e 6973 f93d
000001c0: adf4 0bbe 4684 78be 091c a0be 5edc e4bd
000001d0: fcaf efbd 624e 143d ef92 88be 28ad 89be
000001e0: 601f 143e 52e9 b9bd 4d46 bcbd c841 7dbe
000001f0: aa93 32bd e826 aabd 8b18 64be c6ad 1f3e
00000200: 9666 713e e5c0 7d3e 6d96 063c 9ee5 823e
00000210: 4703 b6bd f65b 71be f489 253e e8fc 213e
00000220: 3a35 453e be17 81be 775b 973e 606b af3b
00000230: 4145 b4bc c7dd 8bbd 29dd 14bd 7a56 3c3e
00000240: 9897 0b3d 548b 01be 73d3 fabd eba9 90be
00000250: 2eee cb3d 88a7 a0be dcaf 8a3d 90b0 393e
00000260: bdf4 fb3c 2e76 5b3e f8cf 533d dc11 303e
00000270: 5c96 8abe 5cf8 9ebe 31a4 a6bd bcc0 8bbe
00000280: 9630 afbd f481 753d 6a99 0e3d b44c 8bbe
00000290: 9b17 593c ae6e 913e a68d 0abe f186 a33d
000002a0: e875 d0bd 93e8 7bbe 4a2d 593e 82e5 fc3d
000002b0: b2dc 373e 976b 8abe f081 22be fb02 42be
000002c0: 8f2c 683e 2518 f73c 55cd 60be f369 edbc
000002d0: c854 9a3e cb31 b2bd 7879 903e d51a 9f3e
000002e0: a880 78be 80ea a0be edee f4bd 64f8 2bbe
000002f0: 9615 a8bc dd86 edbd c002 40be ce95 363e
00000300: 1138 323e 48cb 8a3e d6c0 4cbe 822a 15be
00000310: 72c8 96be ad37 5bbb 0d84 05be 9f47 543d
00000320: 1ce0 88bd 9cd0 b23e 0877 313e 0a22 7cbe
00000330: 54b7 003e 153f 18bc 9598 3a3d e7e6 3e3e
00000340: 8f51 f43c d675 6cbe 7878 4d3d 22ed 003e
00000350: 0555 823e 6646 ad3e 4e14 4f3e d17e c83d
00000360: 1511 d23d 09b2 f8bc b257 5f3e 5160 1c3d
00000370: 0c68 743e 7e5a 8d3e b003 5e3d 243a 863e
00000380: 35fe 0ebd b02a ba3c eca9 7f3e 988e 733e
00000390: 9ca2 853e e84e b7bd 6cd2 2b3e 1086 65be
000003a0: 7ee0 853e b7d4 71be bf91 583e d2fe 323e
000003b0: f4a2 2abe a497 313e 7d1e bd3d 8479 0f3e
000003c0: 4139 6c3e 29df 913e ec7a 923e 4245 983e
000003d0: 8cba 13bd 01fa 9b3e 21c5 50be 39ee 6c3c
000003e0: 8d26 50bd 6107 cf3d 3159 edbd 938b 8d3e
000003f0: a87a d0bd 62d7 503e 382c 53be dd9d 0f3e
-0.15612228 0.0956243 0.17691447 -0.19076502 -0.20816828 -0.2508326 -0.061979998 -0.083889626
0.13606527 -0.25963837 0.33944547 0.051829666 0.31004274 -0.04842143 0.20964037 0.042406254
0.13527839 0.31720048 0.2986824 -0.23665763 0.16626306 0.29602724 0.092149094 -0.30506417
-0.07413579 -0.29389095 0.26243317 -0.30358312 -0.24169864 0.20320557 -0.27327958 -0.07690601
-0.21660371 0.24946584 -0.06856503 0.15640624 0.016047621 0.1282991 -0.19159484 0.19288115
0.08762521 -0.054604046 0.17755517 0.19991787 0.1650014 0.2786997 0.1303119 0.25237092
0.06688933 -0.33868852 -0.11580764 0.16985784 0.25126654 0.22958194 0.14456418 0.114337765
0.17376918 0.19080937 0.3110426 0.090784684 -0.05685078 -0.27213237 0.17772718 -0.28210476
-0.13290583 -0.24559888 0.032568343 0.018691067 0.051507115 -0.012824244 0.2795394 0.26987368
0.15216303 -0.010342891 0.15243237 -0.20317864 0.13840503 -0.30807415 0.20240454 0.0965895
-0.083024584 0.079892844 -0.10750275 0.13713825 -0.23261978 -0.15479478 -0.09019219 0.13153793
-0.29972196 0.057181884 -0.1711332 -0.24652945 0.22341172 0.26397625 0.1604795 -0.25517014
-0.052432247 0.33567315 -0.042918682 0.010237741 0.3804559 0.19353586 0.14080706 -0.23354433
-0.25107345 -0.3433979 0.20801568 0.13788728 0.12613824 0.004728096 0.12536146 0.12180216
-0.13667555 -0.24269208 -0.3127139 -0.11174844 -0.11703488 0.036207564 -0.266746 -0.2688992
0.14465094 -0.090777054 -0.09193096 -0.24732125 -0.043597855 -0.08308202 -0.22274987 0.15593633
0.2357429 0.24780615 0.008214575 0.2556581 -0.08887344 -0.23570237 0.16165906 0.15819132
0.19258586 -0.25213426 0.2956197 0.0053533763 -0.02200568 -0.0682941 -0.036343727 0.18392363
0.034080118 -0.12650806 -0.12247362 -0.28254637 0.099575385 -0.31377816 0.06771824 0.1813376
0.030756349 0.214318 0.051712006 0.17194313 -0.2706784 -0.31048858 -0.08136786 -0.27295482
-0.08554189 0.059938386 0.034814276 -0.27206957 0.013250257 0.28404754 -0.13530597 0.079847224
-0.10178739 -0.24600439 0.21208683 0.12348463 0.17955282 -0.2703521 -0.1586988 -0.1894645
0.22673248 0.03016288 -0.21953328 -0.028981185 0.30142808 -0.087009035 0.28217673 0.3107516
-0.24267828 -0.3142891 -0.11959634 -0.16793972 -0.020518105 -0.11597989 -0.18751049 0.17830583
0.174042 0.27108216 -0.19995436 -0.14566997 -0.29449803 -0.0033449933 -0.13038655 0.051826116
-0.066833705 0.3492478 0.17330563 -0.2462236 0.12569934 -0.009292384 0.04555567 0.1864277
0.029824046 -0.23091826 0.050163716 0.12590459 0.2545549 0.33842772 0.2022259 0.09789813
0.102571644 -0.030358331 0.21810797 0.038177792 0.23867816 0.27608103 0.054202735 0.26216233
-0.0349104 0.022725433 0.24967164 0.23784864 0.26100624 -0.08950597 0.16779488 -0.22414422
0.26147836 -0.236163 0.21149348 0.17480019 -0.16663724 0.17343003 0.09234331 0.14011198
0.23068716 0.2849057 0.28609407 0.2974034 -0.036066577 0.30464175 -0.20387699 0.014461094
-0.050818015 0.10108829 -0.115892775 0.2764555 -0.10179645 0.20394662 -0.20622337 0.14025064

fc1.bias f4 [128]
00000000: 36fa 3d3e 4754 20bd ca10 823d fd92 013e
00000010: c9ab 6b3e e152 4dbc 8a0c ddbd c02a 783d
00000020: cf03 13bd 2af9 5d3e 8223 833e 685a fc3c
00000030: 65e6 c83d da32 8c3e b656 a83d 025c 98bc
00000040: 4269 87be edbe 723e f2b1 9a3e 0dbc 0dbd
00000050: 97e1 f33d 9a2b 13be c921 49be bdb3 7ebd
00000060: b727 0f3e b39f f73d 2f79 4f3e 618c 903d
00000070: 98fd 243e e682 5d3e 0958 103e 8c36 603e
00000080: e97d 133e 3ff1 f8bc 0500 dbbb 424d 363e
00000090: 6201 e13d 15e2 8c3e eb59 073e 1cbf 0a3e
000000a0: a2ab 363d e8bc cbbd 7be4 053e 845b 68be
000000b0: de06 803e 711e 0f3e db01 993e 8a5d 363d
000000c0: c56b 13bd f66c 84be fa5e 94be 3fa0 b43d
000000d0: fb7c 86bd 9cfa b73d 68ab 963c 6a3e 853e
000000e0: 2378 6e3e a7ff bbbd 272b 49be 993c 363e
000000f0: 7de8 d53d ee3b 4abe b529 593e 3f7e 8c3e
00000100: 29d1 35be f3ab 6ebc 22f9 a53d 8ce5 833e
00000110: b5ea 86be 5409 973e 9cfd 4abe 9f7f 303e
00000120: 8dcf 88be 8740 8e3e a2cf a43e 2f7b 0e3e
00000130: 3e27 3abc d8cc e63d ab2d c0bd e33d 2d3e
00000140: 9f1c 99be c637 02be ac74 db3c 6f9f 8abe
00000150: dba7 593e 6d03 2cbe 46c0 fd3d 14e8 763c
00000160: 3327 53be ca30 ce3d a3c4 2ebe ea5e b0bd
00000170: e2e0 5d3e 06ad 47be b22a 42be 9cce 32be
00000180: 8e4d 9b3e 50dc 95be c5c2 02be 7929 963e
00000190: bc0f f5bd af95 89be 5a43 6b3e a8d5 103e
000001a0: 067e 42be b162 a0be c874 423e 4b1f a7bd
000001b0: 03cb 263e 5974 9abd 4d12 27be 64b5 9b3e
000001c0: 2380 303e 0c5b 7fbd 78a4 a73e 240a 68be
000001d0: 7310 91be b958 303d 14b2 62be 9bf1 ccbd
000001e0: e868 93be 7e6b 573e bcc3 f33c 295a 6cbe
000001f0: a268 533e e181 bf3d d6f5 863e a0c3 923e
0.18552479 -0.039142873 0.063508585 0.12653728 0.2301475 -0.012531967 -0.10793407 0.060587645
-0.035892304 0.2167708 0.25613028 0.030804828 0.09809569 0.27382547 0.08219664 -0.01859856
-0.26447493 0.23705645 0.30213886 -0.034603167 0.11908262 -0.14372101 -0.19641794 -0.06218313
0.13979994 0.12091007 0.20261072 0.07058025 0.16112363 0.21631965 0.14096083 0.21895808
0.144035 -0.030388473 -0.006683352 0.17802909 0.10986592 0.27516237 0.13217895 0.13549465
0.044597276 -0.099481404 0.1307544 -0.2269116 0.2500524 0.13976456 0.29884228 0.0445228
-0.03599145 -0.2586438 -0.2897871 0.08819627 -0.06566807 0.08983347 0.01839228 0.2602418
0.23288016 -0.09179621 -0.19645368 0.17796554 0.10444734 -0.19749424 0.21207316 0.27440068
-0.1775557 -0.014567363 0.08104159 0.25761068 -0.26350942 0.29499304 -0.19823307 0.17236184
-0.2672085 0.27783605 0.3218966 0.13914178 -0.011361895 0.112695396 -0.093837105 0.16918139
-0.2990465 -0.12716588 0.026789032 -0.27074763 0.21255438 -0.16798182 0.12390189 0.01506998
-0.20620422 0.100678995 -0.17067198 -0.086118534 0.21667817 -0.19499597 -0.189616 -0.17461628
0.30332607 -0.29269648 -0.12769611 0.29328516 -0.11965892 -0.26872012 0.22974911 0.14144003
-0.18993387 -0.31325296 0.18989861 -0.081602655 0.1628838 -0.07541723 -0.16315575 0.30411828
0.1723638 -0.06234269 0.32742667 -0.22660118 -0.28332862 0.043053363 -0.22138244 -0.1000702
-0.28790975 0.21037099 0.02975642 -0.23081268 0.20645383 0.09350944 0.26359433 0.28664875

fc2.weight f4 [128, 128]
00000000: 373a 893b 6280 5fbd f299 cbbc b387 28bd
00000010: b91b 9abd bfbd a2bd f944 2dbd ee01 a3bc
00000020: ed34 19bd 0049 3dbd 6cca a5bd 5c89 b43c
00000030: deee 9fbd eb69 c93c 7717 d73c 6737 9fbb
00000040: 1239 60bd 9409 07bd 98cf e9bc a77f b3bd
00000050: 64c2 843d ecad a3bd 9d8d 753c 4443 52bd
00000060: 653d ea3b 64ec 91bd bf66 903d 1aff 223d
00000070: 9e81 e43c 4a95 bdbc 0616 8cbc a20f 8c3d
00000080: 6f52 b3bc a312 853b 5d57 15bd d39b 833d
00000090: 3d4d b3bc b111 2e3c 781e 873d 0d20 613d
000000a0: 7e04 4f3d 25e6 8dbd 564e 1bbd 78a0 5fbc
000000b0: b8eb af3c 6aef 883d 55de 243d 4ba2 72bc
000000c0: 2181 473c 92d8 873c a35c 473d c8e8 2fbd
000000d0: 6cdc abbd 58d8 a6bd c78f fa3c 31c0 65bd
000000e0: e4c4 21bd 22c5 253d 52de a83d 4fc3 3d3d
000000f0: a38a 893d 1fcb 1b3b 33c2 ea3c a0d3 84bd
00000100: 8d2e 843d 64cf 05bc f356 a7bd f22b 8c3c
00000110: 140f 2b3d 442f a73d 3934 7bbc 969c 383c
00000120: 16d8 fdbc 4aef 373d 4d5e 4c3b 5e2f 833d
00000130: 2bec 943c bc9a d03b 2136 febc 4f12 80bd
00000140: f7c5 14bd 9740 b1bc bdf8 11bd 80e2 cdbc
00000150: 6863 aabd 639c 8a3b b1da 3a3d 9a2d 4d3d
00000160: fa7d 35bd 2d98 193c 4062 a53d 79bd 2ebd
00000170: 91dc 4dbd 9831 293d 746f adbd 0841 873d
00000180: a0c4 43bd 9cfc 183d 2e40 48bc 76c0 8d3d
00000190: 9c12 6f3c a4b0 e4bc 46c1 d03b 3af8 893d
000001a0: cd0e 643d 07d1 ccba 5147 87bd ca9b 323d
000001b0: e38b 4cbd 82b3 92bd e629 3bbd 2094 1a3c
000001c0: b968 1f3d abf1 653d cc00 acbd 2ce2 18bd
000001d0: 49e6 e13c d533 02bd 25ec 853d 42de a83d
000001e0: 5d2c 0abd 2a9c d63b 5dc3 8a3d f254 7e3d
000001f0: 915e 113d 91e7 613d 1ef3 b0bb 4c10 613b
00000200: b2e2 13bc 6693 e43c 71fa f1ba b05a fc39
00000210: 5472 66bc 1dce acbd be99 a7bd 2b50 dfbc
00000220: c0e2 67bd 536d cdbd 8795 81bd e6ab 103d
00000230: f81c 143c d7c8 cabc 4bef 453d 333c 833d
00000240: 13eb 8ebc 2381 633d 00cf 38bd 9e10 d23b
00000250: af15 58bd c068 f13c b3fb 06bd c185 0d3d
00000260: 5643 8e3c 043d c2bd 56ce 5f3c 24f2 b93b
00000270: 2d34 aebd cfbe 5e3d 5023 753b 7625 e1bc
00000280: 3fef a8bc 1601 a13c f1f5 74bc b68f 7cbd
00000290: ad75 7bbd 6b5b b8bd b5c1 86bb c8c3 783d
000002a0: 2ccf 91bc 772a afbd 3b6d eb3c 1ddb 6c3d
000002b0: ca93 8ebd 9fcd bcbd e13b 813d 1246 063d
000002c0: 7434 e43b bbb6 4c3d 8825 3b3d 910d 093d
000002d0: f415 973d 0dc1 4c3c 3d43 3a3d 882d 8e3d
000002e0: eadf 9c3d 243b ffbb 2500 373d e186 9a3d
000002f0: a401 383d ccd3 fbbb 2c19 e03b 2bb5 2fbd
00000300: 37c5 5b3c c697 09bc 4421 c33c e171 26bd
00000310: 7895 063d 4844 b9bd 679c b23d b0b8 723c
00000320: 38fb fd3c e018 b4bd 64e4 963d 9fd4 54bd
00000330: bb60 c9bb a9a4 583d b37d 1cbd 1467 0abd
00000340: a015 38bd ef70 25bd db44 04bd c2c6 3ebc
00000350: 67ff b1bd 7909 6d3d c6d5 b6bd 77e7 80bd
00000360: 4907 463b e84c 353d 1448 793d e61b babd
00000370: b713 09bd 66e1 643c 45c7 8dbd 930a 4abd
00000380: b84c 893c 6353 1bbd aa78 4b3d 6574 0f3d
00000390: 7eb6 8a3d a6e0 893b b115 8bbd ff16 e9bc
000003a0: e4b4 cdbd eafc 99bc 506c 8abd 9828 8fbd
000003b0: fb8f aabd 24f0 943d e09e 79bc 1f11 2a3d
000003c0: 0e48 aebd 4131 edbc d0ba 35bb 3947 d6bc
000003d0: 8f2d a23d 494c 0dbc 1a2e e13b cd75 c13c
000003e0: 0f7c 01bc c9dd a7bd cc0d 3ebc c5b9 b03c
000003f0: ad32 d13c 5f04 92bd 32ff b3bd 265b acbd
0.004187848 -0.054565795 -0.02485368 -0.041145038 -0.07524819 -0.079463474 -0.042302106 -0.019898381
-0.03740399 -0.046212196 -0.080952495 0.022038154 -0.07809232 0.024586638 0.026256306 -0.0048588994
-0.054741926 -0.03296812 -0.028541371 -0.08764582 0.064823896 -0.07992157 0.0149873765 -0.05133368
0.007148432 -0.07125166 0.07050847 0.039794065 0.027893838 -0.023142476 -0.017100345 0.06838919
-0.021889893 0.0040610596 -0.03646027 0.064262055 -0.021887416 0.010624335 0.06597608 0.054962207
0.050541393 -0.06928662 -0.037916504 -0.013649099 0.021474704 0.066862896 0.040251095 -0.0148092015
0.012176783 0.016582761 0.04867233 -0.042946607 -0.083916515 -0.08146733 0.030586137 -0.05609149
-0.03949441 0.040471204 0.08245529 0.04632884 0.06715896 0.0023772193 0.028657055 -0.06485677
0.06454191 -0.008167122 -0.08170881 0.017110799 0.041762426 0.08163312 -0.015332275 0.011267802
-0.030986827 0.04490594 0.0031184137 0.06405519 0.01817902 0.006366102 -0.03103167 -0.06253492
-0.036321606 -0.021637244 -0.035637606 -0.025132418 -0.083197415 0.0042300685 0.045618717 0.050092317
-0.044309594 0.00937466 0.0807538 -0.042661164 -0.050259177 0.041307062 -0.084685236 0.066042006
-0.047794938 0.037350282 -0.012222333 0.06921475 0.014591839 -0.02791626 0.0063706962 0.067367986
0.055678178 -0.001562626 -0.066053994 0.043605603 -0.049938094 -0.07163145 -0.045694254 0.00943473
0.03891823 0.056138676 -0.083985895 -0.03732507 0.027575629 -0.031787712 0.065391816 0.08245517
-0.033733714 0.006549378 0.06775544 0.06209273 0.035490576 0.05515248 -0.0054000756 0.003434199
-0.009026216 0.027902316 -0.0018461478 0.00048132753 -0.014065344 -0.084377505 -0.08183621 -0.027259907
-0.05661273 -0.100306176 -0.06327348 0.035320185 0.00904011 -0.024753971 0.04832391 0.064079665
-0.017446076 0.055543076 -0.045119286 0.0064106723 -0.052755054 0.029468894 -0.032954883 0.034551386
0.017366093 -0.09484294 0.013660034 0.0056746174 -0.085060455 0.054381188 0.003740508 -0.027483683
-0.020621894 0.019653838 -0.014951215 -0.06166049 -0.06139152 -0.090018116 -0.004112447 0.060733587
-0.017798983 -0.085530214 0.028738609 0.05782615 -0.06961782 -0.092189066 0.06310249 0.032781668
0.0069642607 0.049978953 0.04569009 0.033460204 0.07377234 0.012497199 0.04547428 0.06942278
0.07659896 -0.0077890325 0.044677872 0.07545257 0.04492344 -0.0076851603 0.006838938 -0.042897385
0.013413719 -0.008398002 0.023819573 -0.040635947 0.03285739 -0.09046227 0.08721238 0.014814541
0.03100358 -0.08793807 0.07367781 -0.051960584 -0.0061455644 0.052891407 -0.038205814 -0.03378971
-0.0449425 -0.040390905 -0.03229223 -0.011644067 -0.08691292 0.057870362 -0.08927493 -0.062941484
0.0030216745 0.044262797 0.060859755 -0.090873525 -0.033466067 0.013969755 -0.06922773 -0.04932649
0.016760215 -0.03792132 0.04967562 0.03502311 0.06773089 0.0042076884 -0.06791247 -0.028453348
-0.10044268 -0.018797357 -0.0675894 -0.069901645 -0.08328243 0.07272366 -0.015235633 0.041520234
-0.08509837 -0.02895415 -0.0027729757 -0.026157008 0.07918846 -0.008624145 0.006871951 0.023615742
-0.007903113 -0.08196599 -0.011599969 0.021572957 0.02553686 -0.0712974 -0.08788909 -0.08415823

fc2.bias f4 [128]
00000000: e1c9 35bd 93da 503d 2710 7d3d 8761 61bc
00000010: a6e8 89bb 4791 c13d e734 b0bb f619 d5bb
00000020: b201 a7bd e99d ed3d 3a80 b13d 23b1 183d
00000030: b56c e1bb 9714 04bd 51ab 53bd 6246 abbd
00000040: bdc1 b1bd 12ec 97bd 7156 b1bd c868 7d3d
00000050: 3fac 633c d58a 43bd 573e 47bd 2e61 e33d
00000060: 0f94 853d 52e9 073c 3a06 c73d 4215 e73c
00000070: 27c0 ce3d 7ea3 643d 8719 92bb 2380 083e
00000080: aa6c 6b3d c3d8 a1bd 496b 02bb 7181 e4bc
00000090: 7d54 c83d 7881 dc3c de97 45bd 0707 aa3d
000000a0: 5470 66bb be4d c0ba 8c41 8e3d d998 04bd
000000b0: 5a3d e4bb a1a9 6e3d 5ddd 0ebd a1e4 3cbd
000000c0: 8c6f f4bc 4380 0b3d 60bc 7dbd 015a b9bc
000000d0: 81c1 3bbd 2d15 aebd f591 85bd a959 723c
000000e0: 7962 7abd 5e00 aebc d26a d8bc 33d3 8d3d
000000f0: a91d 3a3a e3a7 d43c a546 d83c 2924 0fbd
00000100: 50d0 9d3d 45d2 0b3c bf25 a93c e867 403d
00000110: 8c6c 773c 3805 30bc e51f 983d 671d ae3c
00000120: 3edc b23d ac02 7b3c 36cb 71bd 2a2b 073d
00000130: 4d3f 5dbd cf6a 80bb f167 07bd dcdc 253d
00000140: a7a6 b6bc 6b05 17bb 9535 3c3d f0f0 a5bd
00000150: ec5f 33bd b582 52ba 280c b1bd 535e 87bd
00000160: ad2b 78bd ea2b 1f3d 02ee 613d b3a2 babd
00000170: 6e16 0f3c 2c83 a43c 9dbc 833d 31d9 b0bd
00000180: db6d f53c e21d ccbc 1ece 10bc 57f5 e8bc
00000190: 2b94 0a3d f19b 2dbd d12f 2dbd 3efe 9dbd
000001a0: fb3f 6f3d 5746 b3bc 9681 203d 7bee ed3d
000001b0: d345 44bd aa36 853d acd8 243d cde0 6f3b
000001c0: fee9 923c 6252 073d 81c8 683c 4f86 033e
000001d0: ee3f 9f3d a204 85bb 8183 5ebd 64da 1d3d
000001e0: 0581 7d3d 4a91 0dbd 17d6 58bc a62b 49bd
000001f0: bac1 41bc 7df4 a1bd 08e6 93bd 8556 953d
-0.04438198 0.0509897 0.061782982 -0.0137561625 -0.004208642 0.094515376 -0.0053774 -0.006503339
-0.0815462 0.116023846 0.086670354 0.037278306 -0.006879414 -0.0322462 -0.051677052 -0.08363034
-0.08679531 -0.07418074 -0.086590655 0.061867505 0.013896047 -0.047739822 -0.048643436 0.1110252
0.065223806 0.008295374 0.097179845 0.028208379 0.10095244 0.05581998 -0.0044586095 0.1333013
0.057476677 -0.07902672 -0.0019900373 -0.027893754 0.0978174 0.026917204 -0.048240535 0.083021216
-0.0035162168 -0.0014671606 0.06946096 -0.03237233 -0.0069653215 0.05826724 -0.034879077 -0.046116475
-0.029838346 0.034057867 -0.061947227 -0.022625925 -0.045838837 -0.08500133 -0.0652198 0.014791884
-0.061129067 -0.02124041 -0.026418123 0.06925049 0.00070997566 0.02595896 0.026400873 -0.034946594
0.07705748 0.008534019 0.020647882 0.046974093 0.015101563 -0.010743432 0.074279584 0.021254255
0.08733414 0.015320461 -0.059031688 0.03300015 -0.054015446 -0.0039189826 -0.03305811 0.04049383
-0.022296263 -0.0023044 0.045949537 -0.08102596 -0.04379265 -0.0008030341 -0.08644897 -0.06609788
-0.060588527 0.03886024 0.055158623 -0.09113064 0.008733375 0.020082079 0.064324595 -0.08635176
0.02995961 -0.024916593 -0.008838205 -0.0284373 0.03383271 -0.042385045 -0.04228193 -0.077145085
0.058410626 -0.021884127 0.039186083 0.11617752 -0.047918152 0.06504567 0.040245697 0.0036602498
0.017933842 0.03303755 0.01420796 0.12844203 0.077758655 -0.00405939 -0.05432463 0.03853835
0.06189062 -0.034562387 -0.013234637 -0.049113892 -0.011825973 -0.079079606 -0.07221609 0.07291893
