dqn_car_model_episode_200.pth (torch, 303441 bytes, 24 tensors)

fc1.weight f4 [128, 10]
00000000: 037d 15be 8f67 a53e 83fc 5abe 8c93 eabd
00000010: 3104 083e 9e11 503f 8ed1 e8be 1c98 a33e
00000020: 4e73 b2bd 2db1 6c3e 6931 6a3e 8fb0 c2bd
00000030: 63c7 853d 8d00 6c3e 3af3 52bd f3e0 fd3c
00000040: 3780 91be cfe6 44be 1ba1 85be ed2a ebbd
00000050: 0301 0f3e ef44 d63d a5c9 acbd e820 58be
00000060: 21b2 f4bd 4330 1cbe 04c6 0b3e ea24 fd3d
00000070: aa05 94bc 30f3 083e dcd7 da3d 7b89 dfbd
00000080: c6ab 48be 4efc 773e 895b a8be a98f 363d
00000090: cc85 33be ac97 26be d4ee 303e d678 7b3e
000000a0: f656 933d b247 55be 98e9 aebe 54b3 6d3e
000000b0: fffd 06be 9e3e 57bd f0c0 52be da47 c23e
000000c0: d7fe 573c a0f8 f6bd bc6c 903e 9978 c73e
000000d0: aaaf 0bbe 2ea9 193f 5c75 2abf 2d83 94be
000000e0: 29c4 c83e b88c 96be 421a 7d3e 1a35 a23e
000000f0: cf0d f9bd f656 363e 2371 0b3e d825 a03f
00000100: 5770 9ebe 478c 1ebf 5b42 c33e 9fb7 1abe
00000110: 8010 933e 7234 9dbe 41f3 9d3c 4891 0ebe
00000120: ebc0 a6bd e439 893f a0f8 43b9 97bd 14bf
00000130: d654 22be 8f0d 03be 93cf c93e a8a6 1bbe
00000140: 1973 d33d 9596 603d 0fe7 46be 0873 963e
00000150: 67c8 dd3e 65a7 72bc d50d 73bd 2347 373d
00000160: b4c3 0e3e 62a0 02bd ff33 963e 2aca 0e3f
00000170: 097c e1be dae0 15be eaf2 ac3d 661a 29bd
00000180: a894 d83e 0a1a 2b3d ae6b 88be dbb9 b43e
00000190: 61de 21be 2223 8f3c 40b5 2f3d 76a9 7f3e
000001a0: ca7e 673e b1d4 97be 26bd 8b3e c2e4 7e3e
000001b0: e5ac bb3e 1669 153e cd55 e0be 0907 babe
000001c0: 9791 c4bd f958 debe 04e8 6d3e 867f 0cbe
000001d0: db22 6dbe 5a7c 2f3e a7e9 4e3c b5d2 163e
000001e0: 8daf ce3e 5c32 133f 2506 dcbe 94b9 eabe
000001f0: 8770 33be fb18 f13d 774b 333f 1a6b 69be
00000200: 42b9 133d f17b ab3e 8cb2 043e 01f2 403e
00000210: 603f 6e3e 654e 6b40 c1c9 a23d cc87 aabf
00000220: 8fd2 89bd b384 f83d 89dd d5be 1d81 a0be
00000230: 24cf a8bd bcaa 00be 2e08 0ebe 1574 3e3f
00000240: 7b70 69bf 045b 5ebf 2476 023f 5a6c 92bc
00000250: c744 683e 6326 b73e eb2b 943e 1a6e 98be
00000260: e897 7f3c 8b36 24bf fdc3 8abf 19fb 3d3f
00000270: 0b05 2bbf a7b6 d43d bf6d 7ebd 9c3c c03c
00000280: f7bf 463e 8f27 9bbd f1a6 e73e f636 1e3e
00000290: da64 d03e ed0f 2a3d abcf c0be 383f 5bbd
000002a0: 7e18 a4be 7713 01bd bd15 51be 6454 1dbe
000002b0: 6347 38bd b4f0 413e be25 373e 808a 14bf
000002c0: 9214 39be f0ea 9f3e f8f0 b5bd 34ed c5be
000002d0: f25a fcbd 8522 453e ce3b a63e 2b9e 9abe
000002e0: 4cfb ff3d 9332 99be 7275 90be f7f7 a3be
000002f0: 2b76 24be 5b8a b6bd 69ad 943c 1dc8 9ebd
00000300: 1cf9 4e3e 2735 92bd c1be 2ebe 6a47 123d
00000310: e40d 2dbd a6f8 81be 1f43 8bbe df02 1a3e
00000320: ac63 afbe 6c7f 1fbe 6e3c acbe d9cf 69bd
00000330: 25fd 89be 3872 29be c112 f7bd cbd3 72bd
00000340: 4fb0 a43e 6dc4 8f3e 34b3 89be 6f55 c5be
00000350: 630b 9fbe 6136 053f 08c7 703d 41e1 853e
00000360: 4057 f5be ea69 7b3d d563 a8bc d80e 1d3e
00000370: 7673 d3be e830 0dbc 4904 123f aee7 a83d
00000380: 5633 983e 33ed 82bc 3c54 04bf bfeb 253e
00000390: 8e5d 573d c4cb 0dbf 7b5c 363e 1d52 1f3e
000003a0: f7c1 623e 68e5 a5be de47 513f 6b19 0abe
000003b0: f8ff 5a3e 4e79 e03d 3243 eebd 90c2 a6be
000003c0: 66b2 2fbe fd3f ed3d ebde 0a3d 200b 073d
000003d0: 057f 223e 58fd d2bd f64d d0bd c41a b8bd
000003e0: 676c 98be 678b 723e 63f6 ba3e 9bf0 af3e
000003f0: b957 fabd 6e2b 1bbd e8c4 b53e da4c 483e
-0.1459847 0.3230557 -0.21385388 -0.114539236 0.13282849 0.8127688 -0.45472378 0.31951988
-0.08713399 0.23114462 0.22870411 -0.09506332 0.065321706 0.23047085 -0.05150149 0.030991053
-0.28418133 -0.19228671 -0.26099476 -0.11482797 0.1396523 0.10462367 -0.08436898 -0.21106303
-0.11948038 -0.15252785 0.13649756 0.123605564 -0.018069107 0.13374019 0.10685703 -0.10914894
-0.19596776 0.2421734 -0.32882336 0.0445706 -0.17531508 -0.16268796 0.17278606 0.24557814
0.07194321 -0.20828131 -0.34162593 0.2321294 -0.1318283 -0.05254995 -0.20581412 0.37945443
0.013183317 -0.1205914 0.28207958 0.38959196 -0.1364123 0.6002377 -0.66585326 -0.2900633
0.39212158 -0.29404235 0.24717048 0.31681138 -0.12160837 0.1780661 0.13617377 1.2511549
-0.30945083 -0.61932796 0.38136563 -0.15109108 0.28723526 -0.30704075 0.019281032 -0.13922608
-0.08142265 1.0720792 -0.00018689269 -0.5810179 -0.15852675 -0.12798141 0.3941618 -0.15200293
0.103246875 0.054831106 -0.1942408 0.29384637 0.43316957 -0.014810418 -0.059339363 0.044745576
0.13941842 -0.031891234 0.29336545 0.5577723 -0.44039944 -0.14636555 0.0844477 -0.04128494
0.42300916 0.04177288 -0.26644653 0.35298046 -0.15807487 0.017472807 0.042897463 0.24966988
0.2260696 -0.29654458 0.27292746 0.24891952 0.36655346 0.14590868 -0.4381546 -0.36333492
-0.095980816 -0.43427256 0.23233038 -0.13720521 -0.23157828 0.1713728 0.012628949 0.14728816
0.4036831 0.5749872 -0.42973438 -0.4584471 -0.17523395 0.11772343 0.70037025 -0.22794762
0.036065347 0.33492997 0.12958735 0.18842317 0.23266363 3.6766598 0.07948638 -1.3322692
-0.06729614 0.12134685 -0.4177058 -0.31348506 -0.08242634 -0.1256513 -0.13870308 0.7439588
-0.91187257 -0.8685763 0.5096152 -0.017873932 0.22682486 0.35771474 0.28939757 -0.297715
0.015600182 -0.64145726 -1.0841061 0.7421127 -0.6680457 0.10386401 -0.06211638 0.0234664
0.19409166 -0.075759046 0.45244554 0.15450653 0.40701944 0.041519094 -0.37658438 -0.053527087
-0.32049936 -0.031512704 -0.20418449 -0.15364224 -0.044989955 0.18939477 0.17885491 -0.58023834
-0.18074253 0.3123393 -0.08883852 -0.38657534 -0.12322034 0.1925145 0.32467502 -0.30198798
0.12499103 -0.29921398 -0.28214604 -0.3202512 -0.16060703 -0.08913108 0.018149095 -0.07753012
0.20212215 -0.07139044 -0.17064954 0.035712637 -0.042249575 -0.25385016 -0.27199647 0.15040158
-0.3425573 -0.15575951 -0.33639854 -0.057082985 -0.26950946 -0.16547477 -0.12064124 -0.059284013
0.32165763 0.28079548 -0.26894534 -0.38541743 -0.31063375 0.520361 0.05878356 0.26148418
-0.4791813 0.061380304 -0.020555416 0.15337694 -0.41299027 -0.008617617 0.5703779 0.082473144
0.29726666 -0.015982246 -0.5169103 0.16203211 0.052579455 -0.55389047 0.17808716 0.15558667
0.22144304 -0.32401586 0.81750286 -0.13486259 0.21386707 0.10960637 -0.1163391 -0.32570314
-0.17157897 0.115844704 0.033903997 0.032969594 0.15868767 -0.10302228 -0.1017112 -0.0898948
-0.29770204 0.2368599 0.36516103 0.34363255 -0.12223763 -0.037883215 0.3550179 0.19560567

fc1.bias f4 [128]
00000000: 799c b83d da77 5fbe 7792 bb3e 61b1 8f3e
00000010: 16fe a53e 8ebe e03e 61e5 953e b772 df3e
00000020: 8d8a 0e3e aa97 da3d 84d7 81bd b5ab f7bd
00000030: 92d0 ab3e 2c12 da3b 762c 0e3e 8838 893e
00000040: 8b79 a2bc ae0c 6abe f11d 51bd 2841 45be
00000050: 641b 32be d1be 573e 2dd0 793d 8b76 8c3e
00000060: 789d 51be 0ea6 94bd d725 353d d61e 54bd
00000070: 656b ac3e dbec a03e 1be3 4bbd 0fee 94be
00000080: bb4d cf3c f55f 953e fa6c 073f aa2c 953d
00000090: 9802 c33c aa66 a23d e375 48be c31d 893e
000000a0: dfc5 093e adc8 933e 85b2 84be bf30 be3e
000000b0: 8863 d93e d743 06bc 0fac 7cbd d01e 7cbe
000000c0: 625d a9be 5dfb 22be d491 703d 28d8 41bd
000000d0: c87b 413d 2c50 303e 2aa2 af3e 5e9f 67be
000000e0: 0ef2 0abe ee2b 373e 82b5 ae3e 59ec 943e
000000f0: 4883 d9bc c3d4 cc3d 0cbc 9b3e be0c 873e
00000100: aac2 4e3e bf55 24be b0fc 183e b76b c73e
00000110: a88b be3e 451e a53e 9de2 4a3d 0bcd 94be
00000120: 9c68 513e 3d14 81be b343 73bd 0000 51bc
00000130: 5914 16be df2f eb3d 8a05 a73e 60be 1c3d
00000140: b7e2 9c3e 2880 b63e f509 c43e 3bd0 a3bb
00000150: 1e85 bdbe 3702 e13e 3661 cf3e 240b ddbc
00000160: 69ba a0be 89cc 8abe 572f 913d a463 bcbd
00000170: 5a10 c43e 4b7f 30be 93b6 aa3e 7b23 ac3e
00000180: 922a 17be cb9f 353e 913d 72be d380 e3bc
00000190: d745 41be ec0e 9fbd 382c aa3e d35f 8a3e
000001a0: 659e 8e3e 3325 9b3d 123d 3dbe 7ba3 a4be
000001b0: 4ce8 80be 590d db3e 610a 3f3e 24a1 96be
000001c0: b7db 85be 1ba5 42be ca59 b03e 6973 cd3e
000001d0: 6607 94be e4e1 ac3c 6a46 6d3e 6f34 d33e
000001e0: 8a77 0abe a161 f7bd 4811 883e 896d 2bbe
000001f0: 1714 4a3d e332 9f3e 8f59 a6bc 3b5a 263e
0.0901422 -0.21823063 0.3663518 0.28065017 0.32420415 0.43895382 0.29276565 0.43642208
0.1392004 0.10673459 -0.063399345 -0.120932974 0.33557564 0.0066549983 0.13884148 0.26800942
-0.019833347 -0.228564 -0.051053945 -0.19263136 -0.17393261 0.21068884 0.060989548 0.2743419
-0.20470226 -0.07258235 0.04422554 -0.05178722 0.33675686 0.31430706 -0.04977713 -0.29087874
0.02530562 0.29174772 0.5290066 0.072839096 0.023804948 0.07929738 -0.1957622 0.2678052
0.13454388 0.2886404 -0.2591745 0.37146565 0.4245875 -0.008194885 -0.061687525 -0.24621129
-0.33079058 -0.159162 0.058732823 -0.047325283 0.047237188 0.17218083 0.3430341 -0.22619388
-0.13568899 0.17887852 0.34122854 0.2908657 -0.026551858 0.100015186 0.30416906 0.2637691
0.20191446 -0.16048335 0.14940143 0.38949367 0.37215924 0.32249656 0.04953252 -0.29062685
0.20450062 -0.25210753 -0.059390735 -0.012756348 -0.146562 0.1148374 0.32621413 0.038267493
0.3064172 0.3564465 0.38288847 -0.0049991882 -0.37015623 0.43947002 0.40503854 -0.026982851
-0.3139222 -0.27109173 0.070891075 -0.091986924 0.38293725 -0.17236058 0.33342418 0.3362082
-0.14762333 0.17736737 -0.23656298 -0.02777139 -0.18874298 -0.07766518 0.3323686 0.27026233
0.2785522 0.075754546 -0.18480328 -0.32155976 -0.25177228 0.4278362 0.18656303 -0.29419816
-0.26144192 -0.19008295 0.34443504 0.40127113 -0.28911895 0.021103807 0.23171392 0.4125094
-0.13522163 -0.12079168 0.26575685 -0.16741003 0.049335565 0.3109351 -0.020306377 0.16245358

fc2.weight f4 [128, 128]
00000000: 613f e3bc b4d0 80bd 7443 d8bd b9fe ebbd
00000010: d4a6 45bd eea0 b53d 9083 8ebc 9234 ee3b
00000020: f11f 233a 4a81 58bd ef46 9cbd d6fd ccbd
00000030: 47ee 893d dfde f9bb 1573 06be 5320 f2bd
00000040: d656 14bd ad68 febc 6a48 b93c d48b 81bd
00000050: 2f6d 373b e4f0 d5bd f203 ff3c 306b dabb
00000060: b15f 3dbd 96cc 1abd c2ba 983c c4e1 04be
00000070: ffd4 eabd 8b23 f6bd 6995 3abd f973 cdbc
00000080: 3abb 44bd 849a ff3b aced 1e3b 3c8b 033b
00000090: 7afb 03bd f683 f9bd 8047 99bd 6c3b a2bc
000000a0: e9cb 7ebd 9178 32bc 87c3 a63d b83f 1bbd
000000b0: 763f 79bd 5116 7abd c971 a83b 930d bebd
000000c0: 6bb1 c43b 4617 133c 7cd6 aa3c 5087 4e3d
000000d0: caa1 14bd a263 213d b40f 01be fcc3 abbd
000000e0: 69ea 04bc a14b 3fbd 8e3a 7dbd af5a 09bd
000000f0: dbfd 233c 0a0f e5bc cd24 22be ad97 b1bd
00000100: bb62 e83c 163d 483d 44c9 f7bd 2468 a73c
00000110: 0401 5bbc 31bb 13bd c1fd b3bd d5c5 31bc
00000120: 9dcc c0bb e2c0 b4bd cef8 5f3c cafa 1dbd
00000130: 2e67 05bc e237 d9bd b0df 4c3c 6e6d afbd
00000140: eafc 6dbd 5fa8 8ab8 09d3 153d 1686 67bd
00000150: 0e60 15bd 27b5 df3b 73bd 68bd c7da d7bd
00000160: 5c49 613c a262 adbd 792e 67bd 626d 263d
00000170: d10f bbba 3e0b f8bd 8106 86bd 67f3 fabc
00000180: 105e 55bd 0954 bdbd 3690 acbd 8d67 f1bd
00000190: 500e 5a3d 892c 47bd 9647 ebbd f08a 1abe
000001a0: 22d9 0cbd 62ba 4bbd 0638 23bd 53c0 a73d
000001b0: b62e 0cbe acbc 863d a6c4 60bc 2663 24bd
000001c0: 3bf9 0fbd 36f1 0bbd 7cae 15bc 098c 0ebb
000001d0: 1dd5 e3bd c650 bebd 9e14 90bd 57cf b53c
000001e0: 35c3 183e 57c9 e53c 9961 dcbd 3152 aabd
000001f0: 7087 27be 2127 fbbd cc73 f4bd 7381 90bd
00000200: d5c3 b23e 14a6 4a3d efee e63d 6886 9b3d
00000210: 2ad0 4d3d 65eb d83e 4d90 c23c a484 583d
00000220: d42c 5f3c da27 9abd 3c0d 053e ea31 273d
00000230: 002a 9fbd 033b 393e 28d0 d73d 02b4 883e
00000240: b7c9 44bc 3f6a 673e 5e65 173c 24f2 523d
00000250: 6321 0d3e 0481 8a3d 2716 be3e 87b5 9b3d
00000260: e218 92bd 906e 68be bca8 213f 0b6e 083e
00000270: 7f0a e23c bf4b 533d 9344 f93e 3e53 b63c
00000280: 6e1d 733d cc4c d13d 6508 103e 39e1 69be
00000290: 4d4d 8ebe 8e40 753d f657 e43e f675 9dbe
000002a0: 12db 523c fd19 1a3b 65ba 51bd fbfd 343d
000002b0: 61d2 f93d 311d ea3d ef5f c93c 155d 61bd
000002c0: 9e26 d3bd b1a9 b9b9 6ac3 52bd 7572 673c
000002d0: 65dd f33b 6150 bc3c db21 ad3d d258 943d
000002e0: ca94 053d 3d05 103f 7617 873d 4411 ad3d
000002f0: dc62 2fbd 2d6e aa3c 4a0e 353d 4041 b63c
00000300: 093a 9b3b 768e 67bd d058 ce3d f1ae af3d
00000310: 79dd 103d 9b6a 103e ec40 e3bc bb8c 71bd
00000320: 81d9 c83d 0bc4 253c eda5 3c3d d971 bf3d
00000330: 258c 8d3d a76d f13d f5a6 fb3b 37c2 d0bc
00000340: 1f75 b2bd 767c 3e3e d1fa e13e d0e3 3f3c
00000350: a6b0 1a3d 552f a33d 8182 203e aab5 ea3c
00000360: c1cf f53c 06e0 963d efcb 203e 26da 0abd
00000370: e03f fd3d 7d9a 1abd c8aa 0cbb 49fb ea3e
00000380: 69c8 b43d 87d3 19be 34cc 333d 870b 513c
00000390: 346a 5d3f 6e0b 9d3e ca53 c43c fdc9 c33d
000003a0: 39d4 543e 0ddd 99bd b919 59be f1e8 233d
000003b0: 190f c0bb da2a c4be 082c b53d 903d 743c
000003c0: cfb8 023e 4811 5fbc 30c5 c73d 9eac c93d
000003d0: 8dfb 3f3d 40a2 e9bc 7aff 083e 9ea6 303e
000003e0: 1cbd 1d3f dba7 0abd 3ce8 8f3d c1ee 5abd
000003f0: 936c a43b e9ae f9bc ce7e e23c ae7d 99be
-0.027740182 -0.06289807 -0.10559741 -0.11523194 -0.048254803 0.088685855 -0.017396718 0.0072694505
0.0006222716 -0.052857675 -0.07630717 -0.10009353 0.06734901 -0.0076254453 -0.13129838 -0.118225716
-0.036215626 -0.031055773 0.022617538 -0.06325498 0.0027988662 -0.10446337 0.031129811 -0.00666561
-0.046233837 -0.037792765 0.01864374 -0.12976748 -0.11466407 -0.12018498 -0.045552645 -0.025079714
-0.048030116 0.007800402 0.002425055 0.0020072004 -0.03222225 -0.12183373 -0.07484341 -0.019803725
-0.062206183 -0.010893003 0.08142763 -0.037902564 -0.060851537 -0.06105644 0.0051405174 -0.09279933
0.006002595 0.008977717 0.020854227 0.050422013 -0.036287107 0.039401658 -0.12603647 -0.083869904
-0.008112528 -0.046702985 -0.06182342 -0.03353375 0.010009254 -0.027961273 -0.15834351 -0.08671508
0.02836739 0.04888638 -0.12098935 0.0204354 -0.013366941 -0.03606719 -0.08788634 -0.0108503895
-0.005883767 -0.08825852 0.0136701595 -0.03856925 -0.008142276 -0.10606362 0.012504503 -0.08565794
-0.058102526 -6.611714e-05 0.036578212 -0.05652436 -0.036468558 0.006827015 -0.056821298 -0.10539775
0.0137504 -0.08466078 -0.056440804 0.04063166 -0.0014271681 -0.12111519 -0.06544209 -0.030633641
-0.052091658 -0.09244544 -0.084259436 -0.11787329 0.053236306 -0.048626456 -0.11488263 -0.15092063
-0.03438676 -0.049738295 -0.03984835 0.0819098 -0.13689694 0.06578955 -0.01371876 -0.040133618
-0.035149794 -0.034165584 -0.009135839 -0.0021750948 -0.111246325 -0.0929275 -0.070351824 0.022193594
0.14918216 0.028050108 -0.10760803 -0.08316458 -0.16360259 -0.122633226 -0.11936149 -0.070559405
0.34915033 0.04947479 0.11276042 0.07593995 0.05024735 0.42367092 0.023750449 0.05286087
0.013621528 -0.07527132 0.1299333 0.040819086 -0.07771683 0.18088917 0.105377495 0.26699835
-0.012010983 0.22599123 0.009240476 0.051500455 0.13782267 0.06762889 0.37126276 0.07602983
-0.07133652 -0.22698426 0.63148093 0.13323228 0.027592896 0.05158591 0.4868513 0.02225649
0.05935424 0.10219726 0.14065702 -0.22839822 -0.2779335 0.059876017 0.4459836 -0.3075406
0.012869613 0.0023514025 -0.05120315 0.044187527 0.1219833 0.11431349 0.024581878 -0.05502041
-0.103101 -0.0003541238 -0.051455893 0.01412641 0.007442164 0.022987546 0.08453723 0.07243504
0.0326126 0.56257993 0.06596272 0.08450559 -0.04281889 0.020804489 0.04420308 0.02224791
0.004737143 -0.056532346 0.100755334 0.08578289 0.035367463 0.14103167 -0.027740918 -0.0589721
0.098071106 0.010117541 0.046056677 0.093478866 0.06911496 0.11788493 0.007679815 -0.025483234
-0.08713745 0.18602166 0.4413667 0.01171203 0.03776612 0.07968012 0.15674783 0.028651077
0.030006291 0.07366948 0.15702794 -0.03389945 0.12365699 -0.037744988 -0.0021464098 0.4589484
0.08827288 -0.15022098 0.043895915 0.012759096 0.8649018 0.30672783 0.023965735 0.095600106
0.20784082 -0.07512865 -0.21201219 0.040017072 -0.005861175 -0.38313943 0.08846289 0.014907256
0.12765811 -0.01361496 0.097544074 0.09847377 0.046870757 -0.02851975 0.13378707 0.1725106
0.61616683 -0.033851486 0.07026717 -0.05345035 0.005017826 -0.030478911 0.027648356 -0.29978698

fc2.bias f4 [128]
00000000: 903e 9dbb 9f28 283e 3df1 513d 23f6 1c3d
00000010: 9dcd 483e 7fc7 133e 5b01 ec3c dffa 47bd
00000020: c165 b8bc 5f63 a13d 7e09 5e3c 128d e83c
00000030: 02b3 dc3a 8114 863d 5290 5abd b7d3 4a3d
00000040: 34ab 89bd f82e 503e db07 58bb 36cd c7bd
00000050: f77a fcbd ef7b b6bc a47b 9a3e 888e fd3d
00000060: 45e7 0bbd c2f5 e9bc 9690 0a3c 4e67 0d3e
00000070: 308a 3c3e 3352 813d d0e5 783c cdb9 bebd
00000080: ad83 b2bd 2c3c 753b faef 17bd ab97 89bd
00000090: bd96 253c 3e98 e43d 752a e4bd 3e9e 1d3d
000000a0: a444 8bbd e187 87bd 0ba4 2f3e 099a 0f3e
000000b0: f9cf a33b f3bc 123d 6e50 df3c 7fa1 423e
000000c0: 90df 433e bc5f a3bd 8adf 9c3d 6c91 243e
000000d0: 7c90 cebd 55e5 d4bd 10c3 8fbd 24b5 253e
000000e0: fb44 aabc 4e60 4dbd 91da 06bd e12a 72bd
000000f0: e625 55bd 650a 6a3b c9fc e0bc bfa0 bbbd
00000100: 14f4 3d3d 9c28 f03d 3de9 3abd 4004 1e3e
00000110: 62bc 20bd 8e5b 90bd e96a 2d3e edaa b33d
00000120: da7d abbd 92e5 2b3e 51ee 37bd 9708 0a3d
00000130: 7ba6 b4bd a587 3c3d ac86 a53c cfd2 3f3e
00000140: 982a ab3d 9950 3e3e 4dfb cdbd 0742 283e
00000150: 529a aebd c1ba 1d3d fed8 993c 0f77 ddbd
00000160: 4465 883d 594c 863c 529f 523d 4955 1bbc
00000170: 1325 d33d 376e b53d 23f8 643e 57af e4bc
00000180: e846 cfbc 5b6e 243d f32f a7bc a39a 253e
00000190: b8b4 033e a5e3 8dbd f79b c1bd 866d 80bb
000001a0: 97fd 163e c908 dc3c 4818 953d 2035 e13d
000001b0: 16f2 1b3e 6a4c d0bd 5df9 aabd 9714 c6bd
000001c0: 3849 dc3d 437d 283e aab7 293e 849f 933d
000001d0: 339e 2a3c 9934 4c3d e5dd d13c 322a 8fbd
000001e0: bdeb cb3c 2b0e 32bd fe12 343d 7436 24bb
000001f0: 8b0a 263d 13a4 a03d d3bc af3c 5d59 103d
-0.004798718 0.16421746 0.051255453 0.03832067 0.19609685 0.1443157 0.02880924 -0.048823234
-0.022509458 0.07880282 0.013552068 0.02838758 0.0016838016 0.065468796 -0.05336029 0.049518313
-0.067221075 0.20330417 -0.0032963667 -0.09755938 -0.12328141 -0.022275893 0.30172455 0.12380701
-0.034156103 -0.02855957 0.008457324 0.13808939 0.1841209 0.063145064 0.01519151 -0.093127824
-0.087165214 0.0037419898 -0.037094094 -0.067183815 0.01010674 0.111618504 -0.111409105 0.03848099
-0.068002015 -0.06617714 0.17152421 0.14023603 0.0049991575 0.035824727 0.027260032 0.19006918
0.19128251 -0.07977244 0.07659824 0.16071099 -0.10086152 -0.10395304 -0.07019627 0.16182381
-0.020784846 -0.05014067 -0.032923285 -0.059122924 -0.052038096 0.0035711762 -0.027464287 -0.09161519
0.04637535 0.117264956 -0.04563259 0.15431309 -0.039242156 -0.07048713 0.16935314 0.08772836
-0.08373614 0.16786793 -0.04490501 0.0336996 -0.08820816 0.0460278 0.020205818 0.18732761
0.083577335 0.18585433 -0.100576974 0.16431437 -0.08525528 0.03850818 0.018780228 -0.10813724
0.0665994 0.016393827 0.05142147 -0.009480783 0.10309806 0.088589124 0.22360282 -0.02791564
-0.025302365 0.040144306 -0.020408606 0.1617227 0.12861907 -0.069281854 -0.09453576 -0.003919306
0.14745174 0.026859658 0.07280022 0.10996461 0.15229067 -0.10170825 -0.083483435 -0.09671896
0.10756153 0.16454034 0.16573969 0.072081596 0.010413694 0.04985485 0.025618503 -0.0699047
0.024892682 -0.043470543 0.043963425 -0.002505687 0.0405374 0.07843795 0.021452343 0.035241473

fc3.weight f4 [3, 128]
00000000: e2e3 a7bd 86c9 a2bd 38ac 953d 12fb bcbb
00000010: eac9 11be 962e 07be 9055 77bc cb48 773c
00000020: 1e12 61bf fc04 23be 0573 493d 894a a6bd
00000030: b4d4 a2ba 1dd9 cdbd 54a5 abbd ccfc 10bc
00000040: 3416 793c c119 20be 8579 96bd 091e 2b3d
00000050: c1cf 91bf a550 813d be62 273f ec9c 2bbe
00000060: 4621 aebd 36fe d2bc 5636 183d f4ab 83bd
00000070: 1f6c f5bd bc6d c8bd 8d47 a23d 13b7 073c
00000080: e031 b0bd a56b 5ebd 58cc 843d 31f8 c63c
00000090: e3b4 20bf 7886 fbbd 5ffe 003d 111d 01be
000000a0: 8de2 44bf 46e5 473d 6cec 03be 813d 7ebd
000000b0: 11a2 1cbd 3435 0cbd c9da bcbc f7f7 21be
000000c0: d71f 1c3f a980 673d 9c42 163a 6d0e c7bc
000000d0: 0fe6 8ebc a10c 533d a6c5 fb3c ed01 adbd
000000e0: 9b40 853c 3213 063d 3c26 553d a359 7bbd
000000f0: ab9d 9abb 2f72 d13c f84c 9bbc 5a4a 93bc
00000100: de12 17bc 97a0 ba3e bf49 27bc 0e91 1dbe
00000110: 3a3d cb3c 2187 8d3d 09ec fabd 73ad 7f39
00000120: b19b 77bd 5798 fe3e 15be dabb 3788 d1bc
00000130: 1fe0 8b3d 837e 0d3d 5564 623d bad8 e9bd
00000140: 773d c13e c6a6 19be 572c 99bd b8ee b6be
00000150: 38f3 27bd 551c 66bd b28a 1bbd c854 e03c
00000160: 5eb1 6fbd 8496 5e3d 749a 253d aa1c bc3b
00000170: 960d 6dbd 9353 1ebe ed91 ccbe ae36 8f3d
00000180: 02fc 7abd ae3b eebd f221 ee39 a4cb 60bd
00000190: f5e0 11be 2a9b d1bc f998 a73c 81b5 0cbd
000001a0: 095e d0bd c21b 023d 02a2 813d 87eb b3bd
000001b0: 1887 1bbf 4fe7 6e3d c6aa 2c3d 101b 30bd
000001c0: 3f24 0fbe df72 0bbd a674 15be dcc9 913d
000001d0: a652 a2bd 2a76 a53c 85fe 893d d197 48bc
000001e0: 0df0 603d 27a8 d63d ebbc 9ebc d56e 47bc
000001f0: 9ea6 3c3d 2d06 febc 4791 80bd 1b7d d23a
00000200: 0696 533c eeab 05bd e567 b83b 126f 913c
00000210: 671d 25be bddd 64bd 0000 0d3d 2efa 9a3c
00000220: acb9 49bf 7993 00be ecd3 c7bc ac55 4ebd
00000230: e28f 73bd 28ca c4bd d564 87bd a2a7 6e3c
00000240: a79c 033d b4d9 8abd 2565 d13c 6ff9 a0bc
00000250: 6e6a 5ebf 6e20 bfbb b3b0 293f cf04 cebd
00000260: 976f 49be 6282 c53a 3707 5dbd c7fc f2bd
00000270: 9f15 cebd a3b3 f8bd 3288 a03c 3d03 b9bc
00000280: 7396 693d 9315 563c 2c4e 45bd 4646 08bc
00000290: ba0b f9be c0eb d8bd 7ac0 263c a841 f8bd
000002a0: 780a 68bf 82a4 383d 426d d2bd dbe8 fcbd
000002b0: 3e55 c73b 5159 f4bd 0e78 6cbd 134e b8bd
000002c0: 948d 193f 4b15 6abd a389 c7bc 78d7 0fbe
000002d0: 48fe 123d 7fc3 cebc cc00 7ebd 98e7 23be
000002e0: 0998 5c3c eebc 20bd 8dd6 943d 03fc 733d
000002f0: 4fae 8fbd 700b d8bc 9b39 b43d 1bc6 a03d
00000300: 326d 0b3c 8d7d ab3e d613 1b3b f455 82bd
00000310: f308 693d c77c 7fbd 4b68 2fbe ab96 b8bd
00000320: 2bfa 85bc 1a87 043f eb45 97bc 8184 74bd
00000330: f452 1d3b b3d6 34bd d32c abbc e53c 7ebd
00000340: 6e79 b93e 525e 14bd 0c56 fc3c 869c bbbe
00000350: d639 9e3d 64b6 7c3d 4791 c53b 5658 b43d
00000360: 22ea 293b 2096 20bc 9413 8e3c 81ae 69bd
00000370: 2190 b4bd c48f febd 5672 ccbe 18e0 2f3d
00000380: e7e5 9fbc 5db7 e2bd 1b40 b33b eb20 27be
00000390: 53f4 15be 0075 20bc f78c 0a3d bae1 63bc
000003a0: 73ad 2abd 296a bc3c eb73 b0bd 0813 d2bd
000003b0: d385 41bf a5a6 0b3d fda0 553d 3574 03bd
000003c0: 19af 27be 7120 e9bd 4001 1abe abfa 543d
000003d0: 0478 f3bc 5858 84bd ab16 6e3d e9dd 33bc
000003e0: be48 5b3d e762 913d b6b6 ae3c 27ec acbb
000003f0: 2b09 053d 3774 f7bd 78b4 fabd e8f9 c3bc
-0.08197762 -0.07948594 0.07308239 -0.0057672346 -0.1423718 -0.13201365 -0.015096083 0.015093039
-0.8791827 -0.1591987 0.049181957 -0.08119685 -0.001242301 -0.10051177 -0.08381143 -0.008849334
0.015203048 -0.15634824 -0.07347397 0.04177669 -1.1391526 0.0631421 0.65385044 -0.1675908
-0.0850244 -0.025755983 0.037161194 -0.06429282 -0.11983513 -0.09786555 0.079238035 0.008283394
-0.08603263 -0.054301877 0.06484288 0.024288269 -0.6277601 -0.12281507 0.031492587 -0.12608744
-0.7690819 0.048802637 -0.12883157 -0.062070373 -0.038240496 -0.034230426 -0.023053544 -0.15817247
0.60986084 0.056519184 0.00057319715 -0.024298871 -0.017443685 0.051525716 0.030733895 -0.08447633
0.016266158 0.03273315 0.052038416 -0.06136478 -0.0047185025 0.025567142 -0.0189576 -0.01797979
-0.009220807 0.36450645 -0.0102104535 -0.15387365 0.024809469 0.069105394 -0.122520514 0.0002438331
-0.060451213 0.497256 -0.0066754916 -0.025577648 0.06829857 0.03454448 0.055271465 -0.114182904
0.37742206 -0.15005025 -0.0747916 -0.35729003 -0.041003436 -0.056179363 -0.037974067 0.027384177
-0.05851876 0.05434276 0.0404305 0.0057407217 -0.057874285 -0.15461569 -0.39955083 0.06992851
-0.06127549 -0.11632477 0.0004542019 -0.054881707 -0.1424597 -0.025586683 0.020458685 -0.034352783
-0.10174186 0.031764753 0.06329729 -0.08785158 -0.6075301 0.05832606 0.04215505 -0.04299456
-0.1397867 -0.034045096 -0.14595279 0.0711858 -0.0792592 0.020197947 0.06737999 -0.012243227
0.05491643 0.10481291 -0.019377192 -0.0121724205 0.046057336 -0.031008804 -0.062777095 0.0016059013
0.012914186 -0.032634668 0.0056276196 0.017753158 -0.16124497 -0.05587553 0.034423828 0.018918123
-0.7879894 -0.12556256 -0.024393044 -0.05037467 -0.05946339 -0.09608871 -0.06611029 0.014566334
0.032131817 -0.06779805 0.025560925 -0.01965019 -0.8688115 -0.0058327233 0.66285247 -0.10059511
-0.19671474 0.0015068764 -0.05396196 -0.1186462 -0.10062718 -0.12143638 0.019596193 -0.022584552
0.057028245 0.013066667 -0.048170254 -0.008317536 -0.4864176 -0.10591841 0.010177726 -0.12121898
-0.90640974 0.045078762 -0.102747455 -0.12349101 0.0060831597 -0.11931098 -0.05773168 -0.089992665
0.59981656 -0.057149213 -0.024357622 -0.14047039 0.035887033 -0.025239704 -0.06201248 -0.16006315
0.013463982 -0.039242677 0.07267485 0.05956651 -0.070156686 -0.026372641 0.0880005 0.078502856
0.008509921 0.33494225 0.0023662946 -0.063640505 0.0568933 -0.062374856 -0.17129628 -0.09013113
-0.016354641 0.5176865 -0.018465957 -0.059696678 0.0024005743 -0.044150066 -0.020895397 -0.062069792
0.36225456 -0.036222763 0.03080275 -0.36642855 0.07725875 0.06169738 0.0060292813 0.08805911
0.0025926908 -0.009801418 0.01734332 -0.057051186 -0.08816553 -0.12429765 -0.3993098 0.04293832
-0.019518806 -0.1107013 0.0054702885 -0.16321151 -0.14643984 -0.00979352 0.03382584 -0.013908798
-0.04166932 0.02299984 -0.086158596 -0.10257536 -0.75594825 0.03409447 0.052155484 -0.032093246
-0.16375388 -0.11383141 -0.1503954 0.051996868 -0.029720314 -0.06462163 0.058127087 -0.0109782005
0.05353617 0.07098942 0.021327358 -0.005277175 0.032479446 -0.12082713 -0.12241453 -0.023922876

fc3.bias f4 [3]
00000000: e132 c8bc 6964 27bd e075 2fbe
-0.024438323 -0.040867243 -0.1713481

fc1.weight f4 [128, 10]
00000000: 666a 15be 4074 a53e 36fb 5abe 57c4 eabd
00000010: e8f0 073e e10d 503f 02d0 e8be 1096 a33e
00000020: 877f b2bd e0af 6c3e 6931 6a3e 8fb0 c2bd
00000030: 63c7 853d 8d00 6c3e 3af3 52bd f3e0 fd3c
00000040: 3780 91be cfe6 44be 1ba1 85be ed2a ebbd
00000050: 72ff 0e3e 0f4c d63d 27bc acbd 9826 58be
00000060: ca42 f5bd b40c 1cbe 31d0 0b3e 323c fd3d
00000070: 0ece 93bc 70ec 083e c408 db3d 0a36 dfbd
00000080: 18b8 48be 12f7 773e ad62 a8be 4c85 363d
00000090: 1d77 33be 4d93 26be 50ef 303e 2885 7b3e
000000a0: c18c 933d a22d 55be f1e8 aebe 57a7 6d3e
000000b0: f60f 07be 0263 57bd 1fbe 52be af44 c23e
000000c0: 249b 573c 3afb f6bd 3076 903e e176 c73e
000000d0: 09c1 0bbe e5a9 193f 4479 2abf 657e 94be
000000e0: 15cd c83e 5786 96be 1f30 7d3e c93d a23e
000000f0: 9644 f8bd 83a7 363e 7ba4 0b3e d51f a03f
00000100: fe8a 9ebe ce95 1ebf 7217 c33e 851e 1bbe
00000110: b6e1 923e 1e4e 9dbe fd7d 9f3c f65f 0ebe
00000120: a4bf a6bd 4139 893f 8fe4 91b9 9dbe 14bf
00000130: c553 22be 7b1b 03be 9cc8 c93e 4ba7 1bbe
00000140: f05a d33d 2d69 603d dae1 46be ea91 963e
00000150: dfa2 dd3e 659b 6ebc 4ca3 72bd bfb1 373d
00000160: a1dd 0e3e 34b5 02bd 4f1e 963e 0bc5 0e3f
00000170: 2d79 e1be bddf 15be e0fa ac3d 30d3 28bd
00000180: bd90 d83e c948 2b3d 1768 88be ffb6 b43e
00000190: 10be 21be 4b28 903c 96ca 2f3d f197 7f3e
000001a0: f965 673e 56db 97be d9bc 8b3e ffd9 7e3e
000001b0: 43a7 bb3e c163 153e 256a e0be 2b13 babe
000001c0: d8b1 c4bd 6555 debe 699e 6d3e 5477 0cbe
000001d0: eded 6cbe d8aa 2f3e e09c 513c d5e2 163e
000001e0: f4a2 ce3e 7430 133f 9ffd dbbe 0ebd eabe
000001f0: e064 33be c002 f13d 3e47 333f 7276 69be
00000200: fc6b 133d 6b73 ab3e 59c4 043e 48f5 403e
00000210: 3a3f 6e3e d950 6b40 79c1 a23d be82 aabf
00000220: 19d3 89bd f041 f83d d0e3 d5be 0a81 a0be
00000230: f689 a8bd 688b 00be 0402 0ebe 0b72 3e3f
00000240: b176 69bf b95c 5ebf 1f75 023f 35e1 92bc
00000250: fa36 683e 4e23 b73e 153f 943e fb56 98be
00000260: eaf0 7e3c 8032 24bf 15c4 8abf 76fc 3d3f
00000270: e401 2bbf 8fab d43d 8e8e 7ebd 1b90 c03c
00000280: f7bf 463e 8f27 9bbd f1a6 e73e f636 1e3e
00000290: da64 d03e ed0f 2a3d abcf c0be 383f 5bbd
000002a0: 7e18 a4be 7713 01bd 1d1d 51be a05d 1dbe
000002b0: bff7 37bd 39d6 413e eef8 363e ad8f 14bf
000002c0: df16 39be 04eb 9f3e 01ef b5bd 28f7 c5be
000002d0: f25a fcbd 8522 453e ce3b a63e 2b9e 9abe
000002e0: 4cfb ff3d 9332 99be 7275 90be f7f7 a3be
000002f0: 2b76 24be 5b8a b6bd 69ad 943c 1dc8 9ebd
00000300: 1cf9 4e3e 2735 92bd c1be 2ebe 6a47 123d
00000310: e40d 2dbd a6f8 81be 1f43 8bbe df02 1a3e
00000320: 7a6f afbe 5aa3 1fbe 253c acbe 9dc1 69bd
00000330: bc0d 8abe 5a68 29be c1f9 f6bd 4693 72bd
00000340: 65ba a43e 24c4 8f3e d2bc 89be 945f c5be
00000350: ae09 9fbe 3b36 053f d7f2 6f3d ebe6 853e
00000360: 4948 f5be adc6 7b3d e0a7 a7bc 6d0b 1d3e
00000370: 2670 d3be 22b5 0cbc b409 123f 22af a83d
00000380: 7020 983e 3962 83bc da56 04bf 91e2 253e
00000390: 3537 573d 2fd1 0dbf 863e 363e 1445 1f3e
000003a0: 0cca 623e 31da a5be 8546 513f 81f9 09be
000003b0: 870c 5b3e 32af e03d 9d0e eebd 9bc6 a6be
000003c0: 66b2 2fbe fd3f ed3d ebde 0a3d 200b 073d
000003d0: 057f 223e 58fd d2bd f64d d0bd c41a b8bd
000003e0: 676c 98be 678b 723e a9ed ba3e 6ae8 af3e
000003f0: 7754 fabd 10fc 1abd d5c0 b53e 6757 483e
-0.14591369 0.32315254 -0.21384892 -0.1146323 0.13275492 0.8127118 -0.45471197 0.31950426
-0.0871573 0.23113966 0.22870411 -0.09506332 0.065321706 0.23047085 -0.05150149 0.030991053
-0.28418133 -0.19228671 -0.26099476 -0.11482797 0.13964632 0.10463726 -0.08434325 -0.21108472
-0.1197563 -0.15239221 0.13653637 0.12364997 -0.01804259 0.13371444 0.10695031 -0.10898979
-0.19601476 0.24215344 -0.32887784 0.044560716 -0.17525907 -0.16267128 0.1727879 0.24562514
0.07204581 -0.20818189 -0.34162095 0.23208366 -0.13189682 -0.052584656 -0.20580338 0.37943026
0.013159547 -0.120596364 0.2821517 0.38957885 -0.13647856 0.60024863 -0.66591287 -0.2900268
0.39218965 -0.29399368 0.24725388 0.31687763 -0.12122457 0.17837338 0.13636963 1.2509714
-0.30965418 -0.61947334 0.38103825 -0.15148361 0.2868783 -0.3072366 0.019469256 -0.13903794
-0.08142021 1.0720598 -0.00027826845 -0.5810335 -0.15852268 -0.12803452 0.39410865 -0.15200536
0.10320079 0.054787803 -0.19422093 0.294082 0.43288323 -0.014563416 -0.059237763 0.044847246
0.13951732 -0.03191109 0.2932 0.55769414 -0.44037762 -0.1463613 0.08446288 -0.04121703
0.42297927 0.04181746 -0.26641914 0.35295865 -0.1579516 0.017597338 0.04291781 0.24960305
0.22597493 -0.29659528 0.27292517 0.24887846 0.36651048 0.14588834 -0.43830982 -0.3634275
-0.096042335 -0.43424526 0.2320496 -0.13717395 -0.23137636 0.17155015 0.01279375 0.14734967
0.40358698 0.5749581 -0.42966935 -0.45847362 -0.1751895 0.11768103 0.7003058 -0.2279909
0.035991654 0.33486494 0.12965526 0.18843567 0.23266307 3.6768095 0.07947058 -1.3321149
-0.06729717 0.121219516 -0.4177537 -0.3134845 -0.08229439 -0.1255318 -0.13867956 0.74392766
-0.91196734 -0.86860234 0.5095996 -0.017929653 0.22677222 0.35769123 0.28954378 -0.2975386
0.015560368 -0.64139557 -1.084109 0.7421335 -0.6679976 0.10384285 -0.06214767 0.023506215
0.19409166 -0.075759046 0.45244554 0.15450653 0.40701944 0.041519094 -0.37658438 -0.053527087
-0.32049936 -0.031512704 -0.20421262 -0.15367746 -0.044914003 0.18929376 0.17868397 -0.5803173
-0.18075131 0.3123399 -0.08883477 -0.38665128 -0.12322034 0.1925145 0.32467502 -0.30198798
0.12499103 -0.29921398 -0.28214604 -0.3202512 -0.16060703 -0.08913108 0.018149095 -0.07753012
0.20212215 -0.07139044 -0.17064954 0.035712637 -0.042249575 -0.25385016 -0.27199647 0.15040158
-0.34264737 -0.15589657 -0.33639637 -0.05706941 -0.26963603 -0.16543713 -0.120593555 -0.059222482
0.32173458 0.2807933 -0.2690187 -0.38549483 -0.31062073 0.52035874 0.0585812 0.2615274
-0.47906712 0.06146877 -0.020465791 0.1533639 -0.412965 -0.008588107 0.57046056 0.08236529
0.29712248 -0.016038047 -0.51695025 0.1619971 0.052542884 -0.55397314 0.17797288 0.15553695
0.22147387 -0.3239303 0.8174823 -0.13474084 0.21391498 0.10970916 -0.11623881 -0.325734
-0.17157897 0.115844704 0.033903997 0.032969594 0.15868767 -0.10302228 -0.1017112 -0.0898948
-0.29770204 0.2368599 0.36509445 0.34357005 -0.12223142 -0.03783804 0.35498682 0.19564591

fc1.bias f4 [128]
00000000: ab9e b83d da77 5fbe d098 bb3e 91b7 8f3e
00000010: c3fe a53e 1ac7 e03e f2bc 953e de72 df3e
00000020: f8a7 0e3e bb8c da3d c2db 81bd 8851 f7bd
00000030: 37c8 ab3e ef0e da3b e127 0e3e cb3d 893e
00000040: 8b79 a2bc 6a11 6abe f11d 51bd 2841 45be
00000050: 950f 32be 27d9 573e 24a5 793d 017e 8c3e
00000060: 789d 51be b4a9 94bd 5613 353d 3114 54bd
00000070: 3674 ac3e 54ec a03e 1776 4cbd 0fee 94be
00000080: b072 cf3c 925e 953e 796b 073f 2439 953d
00000090: 9fa3 c13c dc62 a23d e375 48be 950f 893e
000000a0: 46c5 093e 03d7 933e 85b2 84be 473c be3e
000000b0: 4363 d93e ff21 06bc 9375 7cbd 1532 7cbe
000000c0: 625d a9be f8e7 22be 309f 713d 28d8 41bd
000000d0: c87b 413d a846 303e 2db9 af3e 9e93 67be
000000e0: 4611 0bbe b62b 373e c6b0 ae3e daec 943e
000000f0: 4883 d9bc 19db cc3d dfab 9b3e 1224 873e
00000100: 74be 4e3e bf55 24be 5601 193e 2a78 c73e
00000110: 778e be3e f81d a53e 8b56 4a3d 0bcd 94be
00000120: 7c1c 523e 7b07 81be 6d61 73bd d59d 51bc
00000130: 5914 16be 647a eb3d 9209 a73e 4ef5 1c3d
00000140: 10dd 9c3e 8c78 b63e 0408 c43e 3bd0 a3bb
00000150: 1e85 bdbe 35ea e03e 1f62 cf3e e906 ddbc
00000160: 41a0 a0be a6be 8abe 1d63 913d a463 bcbd
00000170: f614 c43e b680 30be d5b7 aa3e b020 ac3e
00000180: 922a 17be 5aa4 353e 913d 72be 0e72 e3bc
00000190: b717 41be 6b0f 9fbd 3a38 aa3e 4461 8a3e
000001a0: 81a1 8e3e 3325 9b3d a13a 3dbe 7ba3 a4be
000001b0: b3e4 80be d20c db3e 9812 3f3e 24a1 96be
000001c0: 11d9 85be 1ba5 42be 3f56 b03e 6f76 cd3e
000001d0: 20c2 93be 4446 b03c d746 6d3e 4334 d33e
000001e0: 3cf2 0abe a161 f7bd c510 883e 896d 2bbe
000001f0: 1613 4a3d 4c2e 9f3e 8f59 a6bc bc57 263e
0.090146385 -0.21823063 0.36640024 0.28069738 0.3242093 0.43901902 0.29245716 0.43642324
0.13931262 0.106713735 -0.063407436 -0.12076098 0.3355119 0.0066546123 0.138824 0.26804957
-0.019833347 -0.22858205 -0.051053945 -0.19263136 -0.17388757 0.21078931 0.060948506 0.27439883
-0.20470226 -0.07258931 0.044207893 -0.05177707 0.33682412 0.31430304 -0.049917307 -0.29087874
0.025323242 0.29173714 0.52898365 0.07286289 0.02363759 0.07929012 -0.1957622 0.267697
0.1345416 0.28874978 -0.2591745 0.37155363 0.42458543 -0.008186816 -0.061635565 -0.2462848
-0.33079058 -0.15908802 0.058989704 -0.047325283 0.047237188 0.17214453 0.34320965 -0.22614905
-0.13580808 0.17887768 0.34119242 0.29086953 -0.026551858 0.10002727 0.30404565 0.26394707
0.2018984 -0.16048335 0.14941916 0.38958865 0.37218067 0.32249427 0.04939894 -0.29062685
0.20518678 -0.2520102 -0.059419084 -0.012793978 -0.146562 0.114979535 0.3262449 0.03831988
0.30637407 0.35638845 0.38287365 -0.0049991882 -0.37015623 0.43928686 0.40504548 -0.026980834
-0.31372264 -0.27098578 0.070989825 -0.091986924 0.38297242 -0.172366 0.33343378 0.3361869
-0.14762333 0.17738476 -0.23656298 -0.027764346 -0.18856703 -0.077666126 0.33246022 0.27027333
0.27857593 0.075754546 -0.18479396 -0.32155976 -0.25174484 0.4278322 0.18659437 -0.29419816
-0.2614217 -0.19008295 0.344408 0.4012942 -0.28859043 0.02151788 0.23171555 0.4125081
-0.13568968 -0.12079168 0.26575294 -0.16741003 0.049334608 0.3109001 -0.020306377 0.16244406

fc2.weight f4 [128, 128]
00000000: 613f e3bc b4d0 80bd 7443 d8bd b9fe ebbd
00000010: d4a6 45bd eea0 b53d 9083 8ebc 9234 ee3b
00000020: f11f 233a 4a81 58bd ef46 9cbd d6fd ccbd
00000030: 47ee 893d dfde f9bb 1573 06be 5320 f2bd
00000040: d656 14bd ad68 febc 6a48 b93c d48b 81bd
00000050: 2f6d 373b e4f0 d5bd f203 ff3c 306b dabb
00000060: b15f 3dbd 96cc 1abd c2ba 983c c4e1 04be
00000070: ffd4 eabd 8b23 f6bd 6995 3abd f973 cdbc
00000080: 3abb 44bd 849a ff3b aced 1e3b 3c8b 033b
00000090: 7afb 03bd f683 f9bd 8047 99bd 6c3b a2bc
000000a0: e9cb 7ebd 9178 32bc 87c3 a63d b83f 1bbd
000000b0: 763f 79bd 5116 7abd c971 a83b 930d bebd
000000c0: 6bb1 c43b 4617 133c 7cd6 aa3c 5087 4e3d
000000d0: caa1 14bd a263 213d b40f 01be fcc3 abbd
000000e0: 69ea 04bc a14b 3fbd 8e3a 7dbd af5a 09bd
000000f0: dbfd 233c 0a0f e5bc cd24 22be ad97 b1bd
00000100: bb62 e83c 163d 483d 44c9 f7bd 2468 a73c
00000110: 0401 5bbc 31bb 13bd c1fd b3bd d5c5 31bc
00000120: 9dcc c0bb e2c0 b4bd cef8 5f3c cafa 1dbd
00000130: 2e67 05bc e237 d9bd b0df 4c3c 6e6d afbd
00000140: eafc 6dbd 5fa8 8ab8 09d3 153d 1686 67bd
00000150: 0e60 15bd 27b5 df3b 73bd 68bd c7da d7bd
00000160: 5c49 613c a262 adbd 792e 67bd 626d 263d
00000170: d10f bbba 3e0b f8bd 8106 86bd 67f3 fabc
00000180: 105e 55bd 0954 bdbd 3690 acbd 8d67 f1bd
00000190: 500e 5a3d 892c 47bd 9647 ebbd f08a 1abe
000001a0: 22d9 0cbd 62ba 4bbd 0638 23bd 53c0 a73d
000001b0: b62e 0cbe acbc 863d a6c4 60bc 2663 24bd
000001c0: 3bf9 0fbd 36f1 0bbd 7cae 15bc 098c 0ebb
000001d0: 1dd5 e3bd c650 bebd 9e14 90bd 57cf b53c
000001e0: 35c3 183e 57c9 e53c 9961 dcbd 3152 aabd
000001f0: 7087 27be 2127 fbbd cc73 f4bd 7381 90bd
00000200: 0ebf b23e 14a6 4a3d a3f5 e63d 3e80 9b3d
00000210: 43af 4d3d aef5 d83e 66a4 c23c 616c 583d
00000220: cd17 5f3c 8a03 9abd 0906 053e 5202 273d
00000230: 4b0a 9fbd f73a 393e 41cb d73d baad 883e
00000240: b7c9 44bc 8d62 673e 5e65 173c 24f2 523d
00000250: b716 0d3e 5c6f 8a3d 5311 be3e dfc9 9b3d
00000260: e218 92bd 0667 68be a2a9 213f c464 083e
00000270: effc e13c ef29 533d 7629 f93e 3e53 b63c
00000280: 2406 733d 0867 d13d 4218 103e 4fdd 69be
00000290: d921 8ebe 51fe 743d f657 e43e e26a 9dbe
000002a0: 6537 533c d322 1a3b 65ba 51bd 3af7 343d
000002b0: b1c0 f93d 5710 ea3d b7fc c83c c640 61bd
000002c0: 9e26 d3bd 724e d1b9 ea13 53bd 7572 673c
000002d0: 65dd f33b 5da9 bc3c 2719 ad3d a440 943d
000002e0: a881 053d a803 103f 6e09 873d e201 ad3d
000002f0: dc62 2fbd 646f aa3c 7305 353d 492a b63c
00000300: 0923 9b3b 768e 67bd d85f ce3d c1a9 af3d
00000310: f5cc 103d b262 103e 3bf9 e3bc bb8c 71bd
00000320: e503 ca3d 2f17 253c 577b 3c3d 439d bf3d
00000330: 258c 8d3d a96d f13d 4ad9 fa3b 77f3 d0bc
00000340: 8855 b2bd 3a8c 3e3e f603 e23e d0e3 3f3c
00000350: a6b0 1a3d 7036 a33d 047b 203e 9a72 ea3c
00000360: d417 f63c 1bc4 963d dec1 203e 26da 0abd
00000370: eb46 fd3d a0ad 1abd ffb7 0dbb b706 eb3e
00000380: 69c8 b43d bfca 19be 34cc 333d 618a 503c
00000390: 116c 5d3f 7107 9d3e a233 c43c 8ebc c33d
000003a0: 6ed4 543e 0ddd 99bd 6814 59be f1e8 233d
000003b0: 8603 c1bb 9c26 c4be d02c b53d 903d 743c
000003c0: 75ac 023e 4811 5fbc 56c2 c73d 629f c93d
000003d0: 2608 403d 9405 eabc fb06 093e edb1 303e
000003e0: 09ba 1d3f dba7 0abd bde0 8f3d c1ee 5abd
000003f0: 138d a33b 2592 f9bc ce7e e23c c679 99be
-0.027740182 -0.06289807 -0.10559741 -0.11523194 -0.048254803 0.088685855 -0.017396718 0.0072694505
0.0006222716 -0.052857675 -0.07630717 -0.10009353 0.06734901 -0.0076254453 -0.13129838 -0.118225716
-0.036215626 -0.031055773 0.022617538 -0.06325498 0.0027988662 -0.10446337 0.031129811 -0.00666561
-0.046233837 -0.037792765 0.01864374 -0.12976748 -0.11466407 -0.12018498 -0.045552645 -0.025079714
-0.048030116 0.007800402 0.002425055 0.0020072004 -0.03222225 -0.12183373 -0.07484341 -0.019803725
-0.062206183 -0.010893003 0.08142763 -0.037902564 -0.060851537 -0.06105644 0.0051405174 -0.09279933
0.006002595 0.008977717 0.020854227 0.050422013 -0.036287107 0.039401658 -0.12603647 -0.083869904
-0.008112528 -0.046702985 -0.06182342 -0.03353375 0.010009254 -0.027961273 -0.15834351 -0.08671508
0.02836739 0.04888638 -0.12098935 0.0204354 -0.013366941 -0.03606719 -0.08788634 -0.0108503895
-0.005883767 -0.08825852 0.0136701595 -0.03856925 -0.008142276 -0.10606362 0.012504503 -0.08565794
-0.058102526 -6.611714e-05 0.036578212 -0.05652436 -0.036468558 0.006827015 -0.056821298 -0.10539775
0.0137504 -0.08466078 -0.056440804 0.04063166 -0.0014271681 -0.12111519 -0.06544209 -0.030633641
-0.052091658 -0.09244544 -0.084259436 -0.11787329 0.053236306 -0.048626456 -0.11488263 -0.15092063
-0.03438676 -0.049738295 -0.03984835 0.0819098 -0.13689694 0.06578955 -0.01371876 -0.040133618
-0.035149794 -0.034165584 -0.009135839 -0.0021750948 -0.111246325 -0.0929275 -0.070351824 0.022193594
0.14918216 0.028050108 -0.10760803 -0.08316458 -0.16360259 -0.122633226 -0.11936149 -0.070559405
0.34911388 0.04947479 0.1127732 0.0759282 0.05021597 0.4237494 0.023760032 0.052837733
0.013616514 -0.07520206 0.12990583 0.040773697 -0.07765635 0.180889 0.105368145 0.26695043
-0.012010983 0.22596188 0.009240476 0.051500455 0.13778196 0.06759521 0.37122592 0.07606863
-0.07133652 -0.2269555 0.63149464 0.13319689 0.027586428 0.051553663 0.48664445 0.02225649
0.059332028 0.1022473 0.14071754 -0.22838329 -0.277602 0.059812848 0.4459836 -0.30745608
0.012891625 0.0023519292 -0.05120315 0.044181086 0.12194956 0.11428898 0.024534566 -0.054993413
-0.103101 -0.00039922033 -0.051532663 0.01412641 0.007442164 0.023029977 0.08452063 0.07238892
0.032594353 0.5625558 0.065935954 0.08447625 -0.04281889 0.020805068 0.04419465 0.02223696
0.004734401 -0.056532346 0.100768745 0.085773 0.035351712 0.1410015 -0.027828803 -0.0589721
0.09864024 0.010076328 0.046016064 0.09356167 0.06911496 0.11788494 0.0076552974 -0.025506718
-0.0870772 0.1860818 0.44143647 0.01171203 0.03776612 0.079693675 0.15671927 0.0286191
0.030040659 0.07361623 0.15698954 -0.03389945 0.12367042 -0.037763238 -0.0021624563 0.4590356
0.08827288 -0.15018748 0.043895915 0.012728305 0.8649302 0.3066974 0.023950402 0.09557448
0.2078416 -0.07512865 -0.2119919 0.040017072 -0.0058903126 -0.38310707 0.08846438 0.014907256
0.127611 -0.01361496 0.097538635 0.09844853 0.04688277 -0.028567113 0.13381569 0.17255373
0.6161199 -0.033851486 0.07025287 -0.05345035 0.0049911826 -0.030465195 0.027648356 -0.29975718

fc2.bias f4 [128]
00000000: 903e 9dbb 2827 283e 3df1 513d 23f6 1c3d
00000010: 93d2 483e aace 133e 5b01 ec3c dffa 47bd
00000020: 6447 babc 316c a13d 7e09 5e3c 128d e83c
00000030: 02b3 dc3a 3710 863d 5290 5abd b7d3 4a3d
00000040: 34ab 89bd 7d2e 503e db07 58bb 36cd c7bd
00000050: f77a fcbd ef7b b6bc 287f 9a3e 1796 fd3d
00000060: 45e7 0bbd c2f5 e9bc 9690 0a3c a06d 0d3e
00000070: 2091 3c3e 9b5d 813d d0e5 783c cdb9 bebd
00000080: ad83 b2bd 2c3c 753b faef 17bd ab97 89bd
00000090: bd96 253c 029d e43d 752a e4bd 85aa 1d3d
000000a0: a444 8bbd e187 87bd 35a5 2f3e 07a0 0f3e
000000b0: d8c7 a53b 8cbd 123d 6e50 df3c 24ac 423e
000000c0: 11d9 433e bc5f a3bd 8adf 9c3d 0383 243e
000000d0: 7c90 cebd 55e5 d4bd 10c3 8fbd e4b4 253e
000000e0: fb44 aabc 4e60 4dbd 91da 06bd e12a 72bd
000000f0: e625 55bd 650a 6a3b c9fc e0bc bfa0 bbbd
00000100: 14f4 3d3d 7a14 f03d 3de9 3abd 1808 1e3e
00000110: 62bc 20bd 8e5b 90bd f969 2d3e 218e b33d
00000120: da7d abbd 76e5 2b3e 51ee 37bd 9708 0a3d
00000130: 7ba6 b4bd a587 3c3d ac86 a53c c6ce 3f3e
00000140: 7427 ab3d 9c4e 3e3e 4dfb cdbd 7427 283e
00000150: 529a aebd c1ba 1d3d fed8 993c 0f77 ddbd
00000160: 7b5f 883d 594c 863c 529f 523d 4955 1bbc
00000170: 2e09 d33d de84 b53d a003 653e 57af e4bc
00000180: e846 cfbc 7187 243d f32f a7bc a08f 253e
00000190: 79b6 033e a5e3 8dbd f79b c1bd 10e2 81bb
000001a0: bb07 173e c908 dc3c 4818 953d 0828 e13d
000001b0: 1134 1c3e 6a4c d0bd 5df9 aabd 9714 c6bd
000001c0: 314b dc3d d36c 283e 65bd 293e 849f 933d
000001d0: 339e 2a3c 9934 4c3d e5dd d13c 322a 8fbd
000001e0: bdeb cb3c 2b0e 32bd fe12 343d 7436 24bb
000001f0: 8b0a 263d 8597 a03d dfab af3c 5d59 103d
-0.004798718 0.16421187 0.051255453 0.03832067 0.19611578 0.14434305 0.02880924 -0.048823234
-0.02273912 0.07881964 0.013552068 0.02838758 0.0016838016 0.065460615 -0.05336029 0.049518313
-0.067221075 0.20330234 -0.0032963667 -0.09755938 -0.12328141 -0.022275893 0.30175138 0.12382143
-0.034156103 -0.02855957 0.008457324 0.1381135 0.18414736 0.06316682 0.01519151 -0.093127824
-0.087165214 0.0037419898 -0.037094094 -0.067183815 0.01010674 0.11162759 -0.111409105 0.0384927
-0.068002015 -0.06617714 0.17152865 0.1402589 0.0050592236 0.035825297 0.027260032 0.19010979
0.19125773 -0.07977244 0.07659824 0.16065602 -0.10086152 -0.10395304 -0.07019627 0.16182286
-0.020784846 -0.05014067 -0.032923285 -0.059122924 -0.052038096 0.0035711762 -0.027464287 -0.09161519
0.04637535 0.117226556 -0.04563259 0.15432775 -0.039242156 -0.07048713 0.16934957 0.08767343
-0.08373614 0.16786751 -0.04490501 0.0336996 -0.08820816 0.0460278 0.020205818 0.18731222
0.083571345 0.18584675 -0.100576974 0.164213 -0.08525528 0.03850818 0.018780228 -0.10813724
0.066588365 0.016393827 0.05142147 -0.009480783 0.10304485 0.08863233 0.22364664 -0.02791564
-0.025302365 0.04016823 -0.020408606 0.1616807 0.12862577 -0.069281854 -0.09453576 -0.0039637163
0.14749043 0.026859658 0.07280022 0.109939635 0.15254237 -0.10170825 -0.083483435 -0.09671896
0.10756529 0.16447763 0.16576155 0.072081596 0.010413694 0.04985485 0.025618503 -0.0699047
0.024892682 -0.043470543 0.043963425 -0.002505687 0.0405374 0.078414 0.02144426 0.035241473

fc3.weight f4 [3, 128]
00000000: e2e3 a7bd eb0f a3bd 38ac 953d 12fb bcbb
00000010: f6eb 11be c251 07be 9055 77bc cb48 773c
00000020: b363 61bf 4f27 23be 0573 493d 894a a6bd
00000030: b4d4 a2ba 611d cebd 54a5 abbd ccfc 10bc
00000040: 3416 793c 3f3c 20be 8579 96bd 091e 2b3d
00000050: c1cf 91bf a550 813d c75e 273f 54bf 2bbe
00000060: 4621 aebd 36fe d2bc 5636 183d 21ee 83bd
00000070: b6b0 f5bd 57af c8bd 8d47 a23d 13b7 073c
00000080: e031 b0bd a56b 5ebd 58cc 843d 31f8 c63c
00000090: e3b4 20bf 5eca fbbd 5ffe 003d 343f 01be
000000a0: 8de2 44bf 46e5 473d d00e 04be dfbf 7ebd
000000b0: bf25 1dbd 0fbf 0cbd c9da bcbc 9c1a 22be
000000c0: f11a 1c3f a980 673d 9c42 163a bf20 c8bc
000000d0: 0fe6 8ebc a10c 533d a6c5 fb3c c044 adbd
000000e0: 9b40 853c 3213 063d 3c26 553d a359 7bbd
000000f0: ab9d 9abb 2f72 d13c f84c 9bbc 5a4a 93bc
00000100: de12 17bc d19a ba3e bf49 27bc c3b3 1dbe
00000110: 3a3d cb3c 2187 8d3d 4430 fbbd a3b6 f838
00000120: b19b 77bd 9a8c fe3e 15be dabb 3788 d1bc
00000130: 1fe0 8b3d 837e 0d3d 5564 623d 821e eabd
00000140: 4f33 c13e dcc9 19be 572c 99bd 85fe b6be
00000150: 38f3 27bd 551c 66bd b28a 1bbd c854 e03c
00000160: 3d3f 70bd 8496 5e3d 749a 253d aa1c bc3b
00000170: 1697 6dbd a575 1ebe a19e ccbe ae36 8f3d
00000180: 02fc 7abd 0981 eebd f221 ee39 8653 61bd
00000190: 1c03 12be 2a9b d1bc f998 a73c 6645 0dbd
000001a0: 7fa3 d0bd c21b 023d 02a2 813d 9d30 b4bd
000001b0: 469e 1bbf 4fe7 6e3d c6aa 2c3d 101b 30bd
000001c0: 5746 0fbe f2fb 0bbd 1f97 15be dcc9 913d
000001d0: a652 a2bd 2a76 a53c 85fe 893d d197 48bc
000001e0: 0df0 603d 27a8 d63d ebbc 9ebc d56e 47bc
000001f0: 9ea6 3c3d a60c ffbc 26d4 80bd 1b7d d23a
00000200: 0696 533c e6a3 05bd e567 b83b 126f 913c
00000210: b919 25be 82d2 64bd 0000 0d3d 2efa 9a3c
00000220: 15b7 49bf c88f 00be ecd3 c7bc ac55 4ebd
00000230: e28f 73bd 69c3 c4bd d564 87bd a2a7 6e3c
00000240: a79c 033d 7dd2 8abd 2565 d13c 6ff9 a0bc
00000250: 6e6a 5ebf 6e20 bfbb 1eae 293f 85fd cdbd
00000260: 976f 49be 6282 c53a 3707 5dbd 6df6 f2bd
00000270: ea0e cebd e0ab f8bd 3288 a03c 3d03 b9bc
00000280: 7396 693d 9315 563c 2c4e 45bd 4646 08bc
00000290: ba0b f9be 3ee4 d8bd 7ac0 263c ba3a f8bd
000002a0: 780a 68bf 82a4 383d 2d66 d2bd c6e1 fcbd
000002b0: 4a78 c73b 3654 f4bd 0e78 6cbd c247 b8bd
000002c0: 608a 193f 4b15 6abd a389 c7bc 74d4 0fbe
000002d0: 48fe 123d 7fc3 cebc cc00 7ebd 2ce4 23be
000002e0: 0998 5c3c eebc 20bd 8dd6 943d 03fc 733d
000002f0: 4fae 8fbd 700b d8bc 9b39 b43d 1bc6 a03d
00000300: 326d 0b3c cc75 ab3e d613 1b3b be4e 82bd
00000310: f308 693d c77c 7fbd a264 2fbe c892 b8bd
00000320: 2bfa 85bc 1586 043f eb45 97bc 8184 74bd
00000330: f452 1d3b b3d6 34bd d32c abbc 0430 7ebd
00000340: ee76 b93e b451 14bd 0c56 fc3c ec9c bbbe
00000350: d639 9e3d 64b6 7c3d 4791 c53b 5658 b43d
00000360: aa37 2a3b 2096 20bc 9413 8e3c 81ae 69bd
00000370: 1689 b4bd e687 febd fa71 ccbe 18e0 2f3d
00000380: e7e5 9fbc ebb0 e2bd 1b40 b33b 4b1d 27be
00000390: def0 15be 0075 20bc f78c 0a3d 0fc5 63bc
000003a0: 59a2 2abd 296a bc3c eb73 b0bd 7f0c d2bd
000003b0: 3283 41bf a5a6 0b3d fda0 553d 3574 03bd
000003c0: 3fab 27be 4a1a e9bd 82fd 19be abfa 543d
000003d0: 0478 f3bc 5858 84bd ab16 6e3d e9dd 33bc
000003e0: be48 5b3d e762 913d b6b6 ae3c 27ec acbb
000003f0: 2b09 053d 966e f7bd ebad fabd e8f9 c3bc
-0.08197762 -0.079620205 0.07308239 -0.0057672346 -0.14250168 -0.13214782 -0.015096083 0.015093039
-0.88042754 -0.15932964 0.049181957 -0.08119685 -0.001242301 -0.10064197 -0.08381143 -0.008849334
0.015203048 -0.15647982 -0.07347397 0.04177669 -1.1391526 0.0631421 0.65378994 -0.16772205
-0.0850244 -0.025755983 0.037161194 -0.06441904 -0.119965956 -0.097990684 0.079238035 0.008283394
-0.08603263 -0.054301877 0.06484288 0.024288269 -0.6277601 -0.12294458 0.031492587 -0.12621766
-0.7690819 0.048802637 -0.12896276 -0.0621947 -0.038366076 -0.034361895 -0.023053544 -0.15830463
0.6097861 0.056519184 0.00057319715 -0.024429677 -0.017443685 0.051525716 0.030733895 -0.08460379
0.016266158 0.03273315 0.052038416 -0.06136478 -0.0047185025 0.025567142 -0.0189576 -0.01797979
-0.009220807 0.3644624 -0.0102104535 -0.15400605 0.024809469 0.069105394 -0.12265065 0.0001185958
-0.060451213 0.49716645 -0.0066754916 -0.025577648 0.06829857 0.03454448 0.055271465 -0.114316
0.37734458 -0.1501841 -0.0747916 -0.35741058 -0.041003436 -0.056179363 -0.037974067 0.027384177
-0.05865406 0.05434276 0.0404305 0.0057407217 -0.058005415 -0.15474565 -0.39964774 0.06992851
-0.06127549 -0.11645705 0.0004542019 -0.055011295 -0.14258999 -0.025586683 0.020458685 -0.03449001
-0.101874344 0.031764753 0.06329729 -0.08798335 -0.6078838 0.05832606 0.04215505 -0.04299456
-0.13991676 -0.03417582 -0.1460843 0.0711858 -0.0792592 0.020197947 0.06737999 -0.012243227
0.05491643 0.10481291 -0.019377192 -0.0121724205 0.046057336 -0.031133961 -0.06290464 0.0016059013
0.012914186 -0.03262701 0.0056276196 0.017753158 -0.16123094 -0.05586482 0.034423828 0.018918123
-0.78794986 -0.12554848 -0.024393044 -0.05037467 -0.05946339 -0.09607584 -0.06611029 0.014566334
0.032131817 -0.06778429 0.025560925 -0.01965019 -0.8688115 -0.0058327233 0.66281307 -0.10058121
-0.19671474 0.0015068764 -0.05396196 -0.11863408 -0.100614384 -0.121421576 0.019596193 -0.022584552
0.057028245 0.013066667 -0.048170254 -0.008317536 -0.4864176 -0.10590409 0.010177726 -0.12120576
-0.90640974 0.045078762 -0.10273395 -0.1234775 0.0060873376 -0.119301245 -0.05773168 -0.08998062
0.5997677 -0.057149213 -0.024357622 -0.14045888 0.035887033 -0.025239704 -0.06201248 -0.1600501
0.013463982 -0.039242677 0.07267485 0.05956651 -0.070156686 -0.026372641 0.0880005 0.078502856
0.008509921 0.3348831 0.0023662946 -0.06362675 0.0568933 -0.062374856 -0.17128232 -0.09012371
-0.016354641 0.5176709 -0.018465957 -0.059696678 0.0024005743 -0.044150066 -0.020895397 -0.06205751
0.3622355 -0.03621073 0.03080275 -0.3664316 0.07725875 0.06169738 0.0060292813 0.08805911
0.002597312 -0.009801418 0.01734332 -0.057051186 -0.088152096 -0.12428264 -0.39930707 0.04293832
-0.019518806 -0.11068901 0.0054702885 -0.16319768 -0.14642665 -0.00979352 0.03382584 -0.013901963
-0.041658733 0.02299984 -0.086158596 -0.1025629 -0.75590813 0.03409447 0.052155484 -0.032093246
-0.16373919 -0.11381967 -0.15038112 0.051996868 -0.029720314 -0.06462163 0.058127087 -0.0109782005
0.05353617 0.07098942 0.021327358 -0.005277175 0.032479446 -0.120816395 -0.122402035 -0.023922876

fc3.bias f4 [3]
00000000: 9221 c9bc 455d 27bd 7c4d 2fbe
-0.02455214 -0.040860433 -0.17119402
