dqn_car_model_episode_100.pth (torch, 303441 bytes, 24 tensors)

fc1.weight f4 [128, 10]
-0.24753499 0.22375298 -0.20668143 -0.099822074 0.18591423 0.7214275 -0.4650704 0.32883775
-0.07734294 0.22397186 0.22870411 -0.09506332 0.065321706 0.23047085 -0.05150149 0.030991053
-0.28418133 -0.19228671 -0.26099476 -0.11482797 0.065566584 0.05063531 0.08082522 -0.10973453
-0.26413202 -0.31899613 0.1326241 0.17069398 0.008015301 -0.031453304 -0.12585351 -0.22662272
-0.1416159 0.23551005 -0.25503725 -0.0029978575 -0.21882968 -0.12604786 0.1769493 0.19122629
0.033721596 -0.20078397 -0.3130747 0.2510108 -0.02013616 0.016223934 -0.23504306 0.36761922
-0.013672498 -0.1491408 0.43897852 0.26133767 -0.08043703 0.035073992 -0.43340397 -0.3754643
0.32195258 -0.5005417 0.16704765 0.2608353 -0.12318815 0.0907159 -0.014693849 0.75128007
-0.4551644 -0.6517135 0.3794156 -0.16152324 0.30839992 -0.15617508 0.1071046 -0.023543995
-0.14606786 0.7780181 -0.01860914 -0.46118268 -0.14488314 -0.13197528 0.3785632 -0.08735782
0.06568579 0.009838874 -0.14459442 0.23960288 0.18061677 -0.036920868 -0.049018286 0.0832848
0.18126565 -0.081536934 0.23056969 0.36890432 -0.27778077 -0.3019867 0.015768867 0.0789937
0.17043611 -0.13579533 -0.3675104 0.1903598 -0.1718926 -0.0015595144 0.0511171 0.19223759
0.2819872 -0.39099264 0.28184155 0.23729986 0.35854316 0.13768902 -0.27542537 -0.26209518
-0.18160436 -0.19856566 -0.15752076 -0.17376892 0.017292682 0.25976315 0.12572992 0.23291166
0.22145908 0.3643578 -0.06340159 -0.48007733 -0.023660863 0.026143165 0.2915766 -0.5517172
-0.40626618 -0.031403705 0.38665017 0.07192669 0.16000725 1.4457124 -0.26649496 -1.2767674
-0.03366876 -0.21830961 0.06212058 -0.24082987 -0.04682924 -0.09146342 -0.16135907 0.47330642
-0.9052853 -0.84745896 0.53666794 -0.009257247 0.23467991 0.38036942 0.07175862 -0.14847048
0.097041115 -0.08668734 -0.60731995 0.6175839 -0.7238395 0.12054829 -0.21396549 -0.0579744
0.19409166 -0.075759046 0.45244554 0.15450653 0.40701944 0.041519094 -0.37658438 -0.053527087
-0.32049936 -0.031512704 -0.11232824 -0.12844071 0.062115267 0.38572636 -0.1292868 -0.4798661
-0.20160677 0.26938218 -0.10296893 -0.49368182 -0.12322034 0.1925145 0.32467502 -0.30198798
0.12499103 -0.29921398 -0.28214604 -0.3202512 -0.16060703 -0.08913108 0.018149095 -0.07753012
0.20212215 -0.07139044 -0.17064954 0.035712637 -0.042249575 -0.25385016 -0.27199647 0.15040158
-0.36280826 -0.11996283 -0.18193065 -0.061880182 -0.42940083 -0.20717956 -0.059636697 -0.023053816
0.3404513 0.12632829 -0.33024314 -0.36429372 -0.19775765 0.23809674 -0.20123905 -0.063584715
-0.25881857 0.15665948 0.0368072 0.040501345 -0.3224907 0.061976418 0.60244894 0.03816885
0.15923873 -0.099950746 -0.50637513 0.12553592 0.020277474 -0.5859615 0.040346947 0.055343952
0.2348415 0.15586814 0.61470234 -0.2595022 0.24554351 0.19074532 -0.045271866 -0.3391017
-0.17157897 0.115844704 0.033903997 0.032969594 0.15868767 -0.10302228 -0.1017112 -0.0898948
-0.29770204 0.2368599 0.30553403 0.3472098 -0.088843964 0.10711189 0.16833618 0.19932795
00000000: d079 7dbe 801f 653e 4ca4 53be 846f ccbd
00000010: 4d60 3e3e 79af 383f b51d eebe 6c5d a83e
00000020: fa65 9ebd e158 653e 6931 6a3e 8fb0 c2bd
00000030: 63c7 853d 8d00 6c3e 3af3 52bd f3e0 fd3c
00000040: 3780 91be cfe6 44be 1ba1 85be ed2a ebbd
00000050: c647 863d f966 4f3d b187 a53d 7fbc e0bd
00000060: 503c 87be 7653 a3be 9dce 073e 67ca 2e3e
00000070: 9c52 033c 2ed5 00bd bedf 00be c90f 68be
00000080: c203 11be 8c29 713e 3e94 82be b477 44bb
00000090: e314 60be b112 01be 3332 353e d3d0 433e
000000a0: a81f 0a3d 509a 4dbe 544b a0be 7d84 803e
000000b0: 97f4 a4bc 0ee8 843c 21af 70be 9638 bc3e
000000c0: 9d02 60bc 5eb8 18be cbc1 e03e 0dce 853e
000000d0: 2bbc a4bd bfa9 0f3d 20e7 ddbe db3c c0be
000000e0: f8d6 a43e 8023 00bf 8a0e 2b3e 348c 853e
000000f0: 124a fcbd 42c9 b93d 78be 70bc e453 403f
00000100: 4f0b e9be b2d6 26bf c342 c23e 5966 25be
00000110: 98e6 9d3e 5cec 1fbe a859 db3d 56df c0bc
00000120: d092 15be 322c 473f 3272 98bc 2320 ecbe
00000130: 3f5c 14be 8724 07be 09d3 c13e a8e8 b2bd
00000140: 4586 863d 3b33 213c 8f10 14be 755a 753e
00000150: 9af3 383e 563a 17bd 66c7 48bd 3991 aa3d
00000160: b49d 393e d6fc a6bd 761a 6c3e 07e1 bc3e
00000170: 4839 8ebe 009e 9abe b62d 813c 73c7 a13d
00000180: ce86 2e3e ee0d 0bbe 532a bcbe aeed 423e
00000190: 9d04 30be 9f68 ccba 2a60 513d eed9 443e
000001a0: a060 903e 3030 c8be 894d 903e bcfe 723e
000001b0: f892 b73e 5afe 0c3e 8e04 8dbe 5731 86be
000001c0: 7ef6 39be cc54 4bbe 1f4d 21be 7bf0 31be
000001d0: 62a9 8d3c adff 843e 58bf 003e 6580 6e3e
000001e0: 2bc6 623e 1b8d ba3e b1d8 81bd b2cc f5be
000001f0: 6dd4 c1bc 312a d63c 8749 953e 573d 0dbf
00000200: 1f02 d0be 2ca1 00bd 03f7 c53e 4d4e 933d
00000210: f1d8 233e 1b0d b93f 0772 88be 1d6d a3bf
00000220: 41e8 09bd 8e8c 5fbe 2672 7e3d 1b9c 76be
00000230: 04d0 3fbd 2c51 bbbd 503b 25be 3855 f23e
00000240: c7c0 67bf 12f3 58bf 1263 093f b5ab 17bc
00000250: ee4f 703e c8bf c23e 2ff6 923d a508 18be
00000260: 7ebd c63d 2289 b1bd 5279 1bbf fa19 1e3f
00000270: 8c4d 39bf 06e2 f63d c519 5bbe 9176 6dbd
00000280: f7bf 463e 8f27 9bbd f1a6 e73e f636 1e3e
00000290: da64 d03e ed0f 2a3d abcf c0be 383f 5bbd
000002a0: 7e18 a4be 7713 01bd 590c e6bd f685 03be
000002b0: 946c 7e3d ed7d c53e c263 04be 02b1 f5be
000002c0: 0172 4ebe 76ec 893e 60e1 d2bd ddc3 fcbe
000002d0: f25a fcbd 8522 453e ce3b a63e 2b9e 9abe
000002e0: 4cfb ff3d 9332 99be 7275 90be f7f7 a3be
000002f0: 2b76 24be 5b8a b6bd 69ad 943c 1dc8 9ebd
00000300: 1cf9 4e3e 2735 92bd c1be 2ebe 6a47 123d
00000310: e40d 2dbd a6f8 81be 1f43 8bbe df02 1a3e
00000320: 01c2 b9be 12af f5bd 074c 3abe 1376 7dbd
00000330: 6dda dbbe e126 54be 9c45 74bd 5bdb bcbc
00000340: a24f ae3e 345c 013e a115 a9be b584 babe
00000350: fb80 4abe a2cf 733e 9c11 4ebe b438 82bd
00000360: de83 84be 586b 203e 26c3 163d bde4 253d
00000370: 801d a5be fcda 7d3d 183a 1a3f f156 1c3d
00000380: 7a0f 233e fab2 ccbd cda1 01bf 7d8c 003e
00000390: f21c a63c 9301 16bf d742 253d 57b0 623d
000003a0: 4a7a 703e e69b 1f3e 225d 1d3f 79dd 84be
000003b0: c26f 7b3e be52 433e fe6e 39bd bd9e adbe
000003c0: 66b2 2fbe fd3f ed3d ebde 0a3d 200b 073d
000003d0: 057f 223e 58fd d2bd f64d d0bd c41a b8bd
000003e0: 676c 98be 678b 723e f56e 9c3e 7cc5 b13e
000003f0: d3f3 b5bd 7b5d db3d 5260 2c3e a01c 4c3e

fc1.bias f4 [128]
0.0636735 -0.21823063 0.3464039 0.23596603 0.29707488 0.36298868 0.28774592 0.46703544
0.15143739 -0.05826896 -0.081026316 0.04940458 -0.008087125 0.061466735 0.16476801 0.1843883
-0.019833347 -0.23371223 -0.051053945 -0.19263136 -0.12871091 0.33479434 0.056125652 0.28512824
-0.20470226 -0.09618636 -0.14216381 0.022459492 0.288891 0.28454536 -0.076347604 -0.29087874
-0.0027435098 0.23441721 0.2482115 -0.23261514 0.015241563 0.16727263 -0.15171686 0.01890153
0.104494184 0.32289493 -0.2591745 0.36500955 0.39582705 0.006254285 0.041909665 -0.06077359
-0.19111425 -0.15985793 0.24792916 -0.047325283 0.047237188 0.12617001 0.36331 -0.13318893
-0.01398593 0.14081156 0.3174013 0.28598115 -0.026551858 0.10907808 0.41644892 0.25094458
0.10702491 -0.16048335 0.114411734 0.4033889 0.3531084 0.32427296 0.11179119 -0.29062685
0.26818785 -0.06960352 0.04301925 -0.097006574 -0.146562 0.13067678 0.32290748 0.032517534
0.18621951 0.3018222 -0.011377108 -0.0049991882 -0.20224944 0.41857955 0.40861484 -0.04778685
-0.12764744 -0.11896947 0.18341607 -0.091986924 0.3421301 -0.16735454 0.3375929 0.23359062
-0.14762333 0.13962613 -0.14792004 -0.055919796 -0.0944921 -0.14624722 0.34479293 0.27119595
0.03273674 0.075754546 -0.20025472 -0.32155976 -0.21884814 0.26780057 0.09634203 -0.29419816
-0.18039241 -0.19008295 0.32635343 0.3888493 -0.1497128 0.16898517 0.21689235 0.34736943
-0.17169671 -0.12079168 0.2648832 -0.16741003 0.052053552 0.28538027 0.114706315 0.11181718
00000000: 4167 823d da77 5fbe da5b b13e 14a1 713e
00000010: 331a 983e a7d9 b93e 6f53 933e 451f ef3e
00000020: 6712 1b3e 6fab 6ebd 20f1 a5bd 755c 4a3d
00000030: dc7f 04bc 8bc4 7b3d f2b8 283e 49d0 3c3e
00000040: 8b79 a2bc 4252 6fbe f11d 51bd 2841 45be
00000050: cbcc 03be 2a6a ab3e 03e4 653d 54fc 913e
00000060: 789d 51be 5bfd c4bd 6493 11be f8fc b73c
00000070: 85e9 933e eeaf 913e 225c 9cbd 0fee 94be
00000080: 75cc 33bb 110b 703e 282b 7e3e aa32 6ebe
00000090: c0b7 793c 8449 2b3e aa5b 1bbe 62d7 9a3c
000000a0: 0c01 d63d 7c52 a53e 85b2 84be 88e2 ba3e
000000b0: d8a9 ca3e bff0 cc3b 78a9 2b3d baed 78bd
000000c0: 74b3 43be ccb1 23be 24e1 7d3e 28d8 41bd
000000d0: c87b 413d b632 013e c503 ba3e ae62 08be
000000e0: 3e25 65bc e830 103e 6c82 a23e 1f6c 923e
000000f0: 4883 d9bc 5464 df3d cb38 d53e cf7b 803e
00000100: e02f db3d bf55 24be b350 ea3d fd88 ce3e
00000110: a0ca b43e 1b07 a63e c8f2 e43d 0bcd 94be
00000120: eb4f 893e 4a8c 8ebd f434 303d 62ab c6bd
00000130: 5914 16be 22d0 053e 2154 a53e 1b31 053d
00000140: 54b0 3e3e 7088 9a3e 0d67 3abc 3bd0 a3bb
00000150: 7a1a 4fbe 0f50 d63e f735 d13e 25bc 43bd
00000160: 03b6 02be 44a6 f3bd 6cd1 3b3e a463 bcbd
00000170: ad2b af3e fd5e 2bbe fad8 ac3e 6132 6f3e
00000180: 922a 17be 27fa 0e3e 5a78 17be 280c 65bd
00000190: 1385 c1bd d5c1 15be b388 b03e 32da 8a3e
000001a0: f616 063d 3325 9b3d 930f 4dbe 7ba3 a4be
000001b0: ba19 60be 281d 893e f84e c53d 24a1 96be
000001c0: cab8 38be 1ba5 42be cc17 a73e 4117 c73e
000001d0: 504e 19be 730a 2d3e 0719 5e3e 68da b13e
000001e0: 43d1 2fbe a161 f7bd c59e 873e 896d 2bbe
000001f0: 1b36 553d 5d1d 923e 25eb ea3d 6800 e53d

fc2.weight f4 [128, 128]
-0.004777043 -0.06289807 -0.07800209 -0.11523194 -0.048188858 0.104814425 0.0131951235 0.019788913
0.017504983 -0.03472045 -0.05544778 -0.10009353 0.082180284 0.021735907 -0.089792274 -0.118225716
-0.036215626 -0.031055773 0.022617538 -0.06325498 0.0027988662 -0.10446337 0.031129811 0.022049943
-0.046233837 -0.022284804 0.01864374 -0.12976748 -0.10011715 -0.11082656 -0.013635127 -0.025079714
-0.01851358 0.033418726 0.015199574 0.011801412 -0.026066992 -0.12183373 -0.07484341 -0.010474772
-0.034808613 0.02617043 0.08142763 -0.011162985 -0.060644213 -0.024888862 0.0051405174 -0.09279933
0.006002595 0.031457935 0.020854227 0.050422013 -0.036287107 0.06420789 -0.102751486 -0.083869904
-0.008112528 -0.0639792 -0.04907837 -0.0081872875 0.010009254 -0.009780819 -0.12642528 -0.06452946
0.042586338 0.04888638 -0.102899686 0.034886166 0.020913951 -0.022101337 -0.08788634 -0.0108503895
-0.016464679 -0.08825852 0.0136701595 -0.014247629 -0.008142276 -0.08525682 0.039962295 -0.068657234
-0.047578614 0.02049911 0.043418713 -0.05652436 -0.036468558 0.03714463 -0.022617808 -0.10426291
0.0137504 -0.057025228 -0.056440804 0.04063166 0.01264882 -0.081007324 -0.027852343 0.018853739
-0.052091658 -0.068384185 -0.084259436 -0.099936604 0.053236306 -0.020738034 -0.099865645 -0.11557772
-0.025425512 -0.049738295 -0.022525461 0.0819098 -0.10626742 0.0855414 0.009673467 -0.040133618
-0.035149794 -0.034165584 0.030553622 0.02663228 -0.111246325 -0.0929275 -0.047392502 0.04124012
0.13502897 0.028050108 -0.10595851 -0.08316458 -0.14687455 -0.09455948 -0.11936149 -0.04897104
0.35480273 0.04947479 0.11114146 0.10357249 0.043886162 0.50974715 0.039306607 0.051423956
0.014131342 0.12564163 0.12754308 0.042836193 0.11555167 0.05845717 0.10536231 0.0011978134
-0.012010983 0.05827325 0.009240476 0.051500455 0.12869126 0.06834503 0.29473296 0.054019578
-0.07133652 -0.22728692 0.31632608 0.14309624 0.019658485 0.032915886 0.20307958 0.02225649
0.04941776 0.088692345 0.2940947 -0.14258206 0.030364271 0.08316077 0.25631544 0.32415253
0.002526595 0.004521181 -0.05120315 0.034708317 0.10785425 0.109785646 -0.003214489 -0.014950667
-0.0156412 0.13453627 -0.036274392 0.01412641 0.007442164 0.008412736 0.07457997 0.07310693
0.116636954 0.53374237 0.11027416 0.08023266 -0.04281889 0.019093312 0.06272996 0.014531363
0.15928781 -0.056532346 0.08417971 0.09295192 0.026648024 0.1347547 0.008485402 -0.0589721
0.07254457 0.010987265 0.04197692 0.07830326 0.06911496 0.112045616 0.0030583995 -0.027460214
0.019195328 0.17385627 1.1182005 0.01171203 0.06745155 0.079245955 0.14994325 0.023724293
0.024964102 0.062379528 0.1591088 -0.03389945 0.12195991 -0.034296412 0.012415712 0.2856141
0.08827288 -0.17155185 0.08536165 -0.008089073 0.5567224 0.31106424 0.029589515 0.09036905
0.24475344 -0.07512865 -0.24504326 0.040017072 -0.011292959 -0.28060356 0.073583126 0.014907256
0.13907574 -0.01361496 0.082696505 0.091395825 0.119726464 -0.00906837 0.11873891 0.15268727
0.33652598 -0.033851486 0.07661873 -0.05345035 0.010779815 -0.03124685 0.06463824 -0.3080462
00000000: be88 9cbb b4d0 80bd 8fbf 9fbd b9fe ebbd
00000010: ae61 45bd f2a8 d63d 5c30 583c 5c1c a23c
00000020: 9c66 8f3c 0837 0ebd 361d 63bd d6fd ccbd
00000030: 234e a83d 800f b23c 03e5 b7bd 5320 f2bd
00000040: d656 14bd ad68 febc 6a48 b93c d48b 81bd
00000050: 2f6d 373b e4f0 d5bd f203 ff3c 15a2 b43c
00000060: b15f 3dbd 9f8e b6bc c2ba 983c c4e1 04be
00000070: 380a cdbd 09f9 e2bd de65 5fbc f973 cdbc
00000080: cba9 97bc 13e2 083d a207 793c b65a 413c
00000090: 728a d5bc f683 f9bd 8047 99bd 619e 2bbc
000000a0: 7a93 0ebd 5f63 d63c 87c3 a63d f4e4 36bc
000000b0: 1166 78bd bae3 cbbc c971 a83b 930d bebd
000000c0: 6bb1 c43b 09da 003d 7cd6 aa3c 5087 4e3d
000000d0: caa1 14bd 6d7f 833d 5f6f d2bd fcc3 abbd
000000e0: 69ea 04bc 8707 83bd 6706 49bd f923 06bc
000000f0: dbfd 233c ba3f 20bc a175 01be 0628 84bd
00000100: 036f 2e3d 163d 483d 12bd d2bd cce4 0e3d
00000110: bc53 ab3c dd0d b5bc c1fd b3bd d5c5 31bc
00000120: efe0 86bc e2c0 b4bd cef8 5f3c e36e 69bc
00000130: 2e67 05bc 219b aebd 81af 233d 2a9c 8cbd
00000140: cbe1 42bd c0ed a73c d2d7 313d 1686 67bd
00000150: 0e60 15bd f824 183d fb48 b9bc cb87 d5bd
00000160: 5c49 613c 4993 69bd 792e 67bd 626d 263d
00000170: ff3c 4f3c 2be7 a5bd 992a e4bc 2873 9a3c
00000180: 105e 55bd 020d 8cbd 3690 acbd 90ab ccbd
00000190: 500e 5a3d cfe2 a9bc 5c86 ccbd 03b4 ecbd
000001a0: 2a49 d0bc 62ba 4bbd 5187 b8bc 53c0 a73d
000001b0: bca2 d9bd 5430 af3d 767d 1e3c 2663 24bd
000001c0: 3bf9 0fbd 36f1 0bbd 974b fa3c f02b da3c
000001d0: 1dd5 e3bd c650 bebd a41e 42bd 66eb 283d
000001e0: 0945 0a3e 57c9 e53c c600 d9bd 3152 aabd
000001f0: 4866 16be 67a8 c1bd cc73 f4bd db95 48bd
00000200: b4a8 b53e 14a6 4a3d 229e e33d d01d d43d
00000210: fac1 333d ca7e 023f f7ff 203d eda1 523d
00000220: 2587 673c 33a8 003e a79a 023e 0175 2f3d
00000230: 5ba6 ec3d c970 6f3d 32c8 d73d f3ff 9c3a
00000240: b7c9 44bc eeaf 6e3d 5e65 173c 24f2 523d
00000250: a4c7 033e 7bf8 8b3d 3de7 963e a243 5d3d
00000260: e218 92bd e7bd 68be 7ef5 a13e d287 123e
00000270: d50a a13c cfd2 063d 18f4 4f3e 3e53 b63c
00000280: 476a 4a3d 55a4 b53d 9593 963e 0801 12be
00000290: 7ebe f83c 3250 aa3d c73b 833e 52f7 a53e
000002a0: 3b95 253b 6a26 943b 65ba 51bd 4f2a 0e3d
000002b0: b0e2 dc3d 4cd7 e03d 2daa 52bb a4f3 74bc
000002c0: f921 80bc e0c3 093e 7594 14bd 7572 673c
000002d0: 65dd f33b 92d5 093c 62bd 983d 16b9 953d
000002e0: 5bdf ee3d 57a3 083f 6bd7 e13d 0551 a43d
000002f0: dc62 2fbd 9469 9c3c 9178 803d f414 6e3c
00000300: 581c 233e 768e 67bd 6966 ac3d 945d be3d
00000310: f54c da3c 23fd 093e 5b06 0b3c bb8c 71bd
00000320: 3f92 943d ee03 343c feef 2b3d 765d a03d
00000330: 258c 8d3d 2c78 e53d 6e6f 483b 3ef4 e0bc
00000340: 853f 9d3c 6107 323e 3221 8f3f d0e3 3f3c
00000350: 0a24 8a3d b44b a23d b98a 193e 7359 c23c
00000360: 8481 cc3c ad81 7f3d 6bed 223e 26da 0abd
00000370: 1ec6 f93d 657a 0cbd 456b 4b3c 033c 923e
00000380: 69c8 b43d 4aab 2fbe 17d2 ae3d 0888 04bc
00000390: 5c85 0e3f d043 9f3e b665 f23c 6913 b93d
000003a0: a5a0 7a3e 0ddd 99bd 9fec 7abe f1e8 233d
000003b0: 1a06 39bc 45ab 8fbe c0b2 963d 903d 743c
000003c0: df69 0e3e 4811 5fbc c95c a93d bc2d bb3d
000003d0: 2633 f53d 8093 14bc 632d f33d 0d5a 1c3e
000003e0: 224d ac3e dba7 0abd 48ea 9c3d c1ee 5abd
000003f0: d29d 303c 65f9 ffbc 0e61 843d 3bb8 9dbe

fc2.bias f4 [128]
0.015049594 0.15722099 0.051255453 0.06985111 0.17821595 0.13604926 0.02880924 -0.048823234
-0.0015531993 0.055593986 0.013552068 0.05695464 0.033416014 0.05223158 -0.05336029 0.049518313
-0.067221075 0.18529099 -0.0032963667 -0.09755938 -0.091288045 -0.022275893 0.2159819 0.10550292
-0.0024169877 -0.015068715 0.04021356 0.13491343 0.16922547 0.045876525 0.01519151 -0.093127824
-0.087165214 0.0037419898 -0.037094094 -0.067183815 0.062487695 0.09687251 -0.111409105 0.023473904
0.06687473 -0.06617714 0.15422979 0.13546841 0.026348388 0.036894314 0.027260032 0.1760981
0.08320324 -0.07977244 0.07659824 0.14278106 -0.10086152 -0.10395304 -0.042385586 0.1433492
-0.020784846 -0.05014067 -0.032923285 -0.059122924 -0.052038096 0.0035711762 -0.027464287 -0.09161519
0.04637535 0.13474266 -0.04563259 0.13903403 -0.039242156 -0.07048713 0.15032913 0.09885261
-0.08373614 0.15911 -0.04490501 0.0336996 -0.08820816 0.0460278 0.020205818 0.16846563
0.07441683 0.16759078 -0.100576974 0.16111903 -0.08525528 0.03850818 0.018780228 -0.10813724
0.071182616 0.016393827 0.05142147 -0.009480783 0.087669924 0.07358935 0.20493564 -0.02791564
-0.025302365 0.025607372 -0.020408606 0.14443177 0.10668971 -0.069281854 -0.09453576 0.006823091
0.14345454 0.026859658 0.07280022 0.092783645 0.18230954 -0.10170825 -0.083483435 -0.082912475
0.087261066 0.15528116 0.14732398 0.072081596 0.010413694 0.04985485 0.025618503 -0.0699047
0.024892682 -0.043470543 0.043963425 0.029118171 0.0405374 0.07422963 0.0106474105 0.035241473
00000000: 9392 763c 8afe 203e 3df1 513d 190e 8f3d
00000010: 3e7e 363e 7f50 0b3e 5b01 ec3c dffa 47bd
00000020: b894 cbba 85b6 633d 7e09 5e3c 4549 693d
00000030: 3bdf 083d c8f0 553d 5290 5abd b7d3 4a3d
00000040: 34ab 89bd ecbc 3d3e db07 58bb 36cd c7bd
00000050: 3af5 babd ef7b b6bc 5c2a 5d3e ea11 d83d
00000060: 5366 1ebb c6e2 76bc f9b6 243d bf26 0a3e
00000070: 7149 2d3e 06e9 3b3d d0e5 783c cdb9 bebd
00000080: ad83 b2bd 2c3c 753b faef 17bd ab97 89bd
00000090: 19f3 7f3d 1865 c63d 752a e4bd 584c c03c
000000a0: 9ef5 883d e187 87bd 6aee 1d3e 3bb8 0a3e
000000b0: 93d8 d73c 7e1e 173d 6e50 df3c 0f53 343e
000000c0: 7666 aa3d bc5f a3bd 8adf 9c3d 3335 123e
000000d0: 7c90 cebd 55e5 d4bd 829c 2dbd 22ca 123e
000000e0: fb44 aabc 4e60 4dbd 91da 06bd e12a 72bd
000000f0: e625 55bd 650a 6a3b c9fc e0bc bfa0 bbbd
00000100: 14f4 3d3d fbf9 093e 3de9 3abd f05e 0e3e
00000110: 62bc 20bd 8e5b 90bd e1ef 193e 3d73 ca3d
00000120: da7d abbd bbed 223e 51ee 37bd 9708 0a3d
00000130: 7ba6 b4bd a587 3c3d ac86 a53c 4182 2c3e
00000140: da67 983d eb9c 2b3e 4dfb cdbd 63fc 243e
00000150: 529a aebd c1ba 1d3d fed8 993c 0f77 ddbd
00000160: 31c8 913d 594c 863c 529f 523d 4955 1bbc
00000170: 4a8c b33d 03b6 963d a6da 513e 57af e4bc
00000180: e846 cfbc 8dc6 d13c f32f a7bc ece5 133e
00000190: 2280 da3d a5e3 8dbd f79b c1bd 3c94 df3b
000001a0: bfe5 123e c908 dc3c 4818 953d 5a05 be3d
000001b0: 5aaf 3a3e 6a4c d0bd 5df9 aabd 04ce a9bd
000001c0: eeb5 b23d 0602 1f3e 19dc 163e 849f 933d
000001d0: 339e 2a3c 9934 4c3d e5dd d13c 322a 8fbd
000001e0: bdeb cb3c 2b0e 32bd fe12 343d 3b89 ee3c
000001f0: 8b0a 263d b405 983d 7a72 2e3c 5d59 103d

fc3.weight f4 [3, 128]
-0.08518919 -0.10449947 0.07308239 0.02323128 -0.14009044 -0.15192746 -0.015096083 0.015093039
-0.6272059 -0.15439616 0.049181957 -0.059196137 -0.001242301 -0.1002174 -0.08381143 -0.008849334
0.015203048 -0.16065544 -0.07347397 0.04177669 -0.9161302 0.0631421 0.5644294 -0.1712231
-0.11557537 -0.052389324 0.0673372 -0.07185794 -0.12203598 -0.094528444 0.079238035 0.008283394
-0.08603263 -0.054301877 0.06484288 0.024288269 -0.62729716 -0.122843556 0.031492587 -0.12289551
-0.5279327 0.048802637 -0.13079199 -0.06577929 -0.1356641 -0.034296226 -0.023053544 -0.16995917
0.40417004 0.056519184 0.00057319715 -0.009102526 -0.017443685 0.051525716 0.062496167 -0.080355406
0.016266158 0.03273315 0.052038416 -0.06136478 -0.0047185025 0.025567142 -0.0189576 -0.01797979
-0.009220807 -0.030685717 -0.0102104535 -0.15933038 0.024809469 0.069105394 -0.11547389 -0.010876466
-0.060451213 0.5556112 -0.0066754916 -0.025577648 0.06829857 0.03454448 0.055271465 -0.11606279
0.40656376 -0.16132058 -0.0747916 -0.37595037 -0.041003436 -0.056179363 -0.037974067 0.027384177
-0.11340225 0.05434276 0.0404305 0.0057407217 -0.051509276 -0.15301491 -0.3759109 0.06992851
-0.06127549 -0.11519496 0.0004542019 -0.046747956 -0.1404163 -0.025586683 0.020458685 -0.0673953
-0.13304722 0.031764753 0.06329729 -0.083306134 -0.3415201 0.05832606 0.04215505 -0.037127454
-0.13417538 -0.024948563 -0.14236198 0.0711858 -0.0792592 0.020197947 0.06737999 -0.012243227
0.05491643 0.10481291 -0.019377192 -0.0121724205 0.046057336 -0.02928944 -0.06089422 0.0016059013
0.042751852 -0.037179634 0.0056276196 0.017753158 -0.16321267 -0.054933544 0.034423828 0.018918123
-0.5868761 -0.119305015 -0.024393044 0.041088544 -0.06471673 -0.09712149 -0.06611029 0.014566334
0.032131817 -0.06134607 0.025560925 -0.01965019 -0.8828916 -0.0058327233 0.57170045 -0.09952031
-0.19671474 -0.06378744 -0.05396196 -0.14504746 -0.09870282 -0.12436529 0.019596193 -0.022584552
0.057028245 0.013066667 -0.048170254 -0.008317536 -0.471334 -0.10212139 0.010177726 -0.1179703
-0.632531 0.045078762 -0.10104345 -0.14705335 -0.01584885 -0.14919537 -0.05773168 -0.09335552
0.41015798 -0.057149213 -0.024357622 -0.1473784 0.035887033 -0.025239704 -0.030254489 -0.16354863
0.013463982 -0.039242677 0.07267485 0.05956651 -0.070156686 -0.026372641 0.0880005 0.078502856
0.008509921 -0.011605295 0.0023662946 -0.057414636 0.0568933 -0.062374856 -0.17003609 -0.13324767
-0.016354641 0.57934433 -0.018465957 -0.059696678 0.0024005743 -0.044150066 -0.020895397 -0.057972565
0.36135164 -0.032182537 0.03080275 -0.39345682 0.07725875 0.06169738 0.0060292813 0.08805911
-0.014174017 -0.009801418 0.01734332 -0.057051186 -0.08638715 -0.11983188 -0.35830653 0.04293832
-0.019518806 -0.10989349 0.0054702885 -0.16293065 -0.14557508 -0.00979352 0.03382584 -0.032290317
-0.05106529 0.02299984 -0.086158596 -0.101705596 -0.35076356 0.03409447 0.052155484 -0.020249575
-0.16116892 -0.117704935 -0.1472767 0.051996868 -0.029720314 -0.06462163 0.058127087 -0.0109782005
0.05353617 0.07098942 0.021327358 -0.005277175 0.032479446 -0.14202328 -0.13562393 -0.023922876
00000000: ac77 aebd d103 d6bd 38ac 953d 864f be3c
00000010: de73 0fbe df92 1bbe 9055 77bc cb48 773c
00000020: 9190 20bf 071a 1ebe 0573 493d a677 72bd
00000030: b4d4 a2ba c83e cdbd 54a5 abbd ccfc 10bc
00000040: 3416 793c dc82 24be 8579 96bd 091e 2b3d
00000050: 8287 6abf a550 813d 727e 103f 1c55 2fbe
00000060: c8b2 ecbd 3096 56bd 16e8 893d 412a 93bd
00000070: 00ee f9bd 2198 c1bd 8d47 a23d 13b7 073c
00000080: e031 b0bd a56b 5ebd 58cc 843d 31f8 c63c
00000090: 8c96 20bf 6795 fbbd 5ffe 003d a4b0 fbbd
000000a0: 9926 07bf 46e5 473d 56ee 05be 4bb7 86bd
000000b0: 88eb 0abe 337a 0cbd c9da bcbc c709 2ebe
000000c0: 60ef ce3e a980 673d 9c42 163a c322 15bc
000000d0: 0fe6 8ebc a10c 533d fbfb 7f3d 6091 a4bd
000000e0: 9b40 853c 3213 063d 3c26 553d a359 7bbd
000000f0: ab9d 9abb 2f72 d13c f84c 9bbc 5a4a 93bc
00000100: de12 17bc 9d60 fbbc bf49 27bc 8127 23be
00000110: 3a3d cb3c 2187 8d3d 937d ecbd 3433 32bc
00000120: b19b 77bd 893c 0e3f 15be dabb 3788 d1bc
00000130: 1fe0 8b3d 837e 0d3d 5564 623d 54b2 edbd
00000140: 2029 d03e 3931 25be 572c 99bd 917c c0be
00000150: 38f3 27bd 551c 66bd b28a 1bbd c854 e03c
00000160: 703f e8bd 8496 5e3d 749a 253d aa1c bc3b
00000170: 64fb 52bd f1af 1cbe 6577 c0be ae36 8f3d
00000180: 02fc 7abd 56eb ebbd f221 ee39 c97a 3fbd
00000190: 4ac9 0fbe 2a9b d1bc f998 a73c 8c06 8abd
000001a0: 883d 08be c21b 023d 02a2 813d 689c aabd
000001b0: b9db aebe 4fe7 6e3d c6aa 2c3d f512 18bd
000001c0: 4565 09be ee60 ccbc 57c7 11be dcc9 913d
000001d0: a652 a2bd 2a76 a53c 85fe 893d d197 48bc
000001e0: 0df0 603d 27a8 d63d ebbc 9ebc d56e 47bc
000001f0: 9ea6 3c3d 68f0 efbc 386c 79bd 1b7d d23a
00000200: 911c 2f3d ac49 18bd e567 b83b 126f 913c
00000210: 3921 27be ff01 61bd 0000 0d3d 2efa 9a3c
00000220: 833d 16bf 3056 f4bd ecd3 c7bc 764c 283d
00000230: 348a 84bd a2e7 c6bd d564 87bd a2a7 6e3c
00000240: a79c 033d 0446 7bbd 2565 d13c 6ff9 a0bc
00000250: 2f05 62bf 6e20 bfbb f65a 123f 4ed1 cbbd
00000260: 976f 49be fda2 82bd 3707 5dbd 5287 14be
00000270: b424 cabd 3bb3 febd 3288 a03c 3d03 b9bc
00000280: 7396 693d 9315 563c 2c4e 45bd 4646 08bc
00000290: b152 f1be 0525 d1bd 7ac0 263c 6a9a f1bd
000002a0: 8ded 21bf 82a4 383d deef cebd 2795 16be
000002b0: 73d5 81bc acc6 18be 0e78 6cbd 2e31 bfbd
000002c0: 3a00 d23e 4b15 6abd a389 c7bc 5dea 16be
000002d0: 48fe 123d 7fc3 cebc 43d8 f7bc 4b79 27be
000002e0: 0998 5c3c eebc 20bd 8dd6 943d 03fc 733d
000002f0: 4fae 8fbd 700b d8bc 9b39 b43d 1bc6 a03d
00000300: 326d 0b3c 2324 3ebc d613 1b3b 9c2b 6bbd
00000310: f308 693d c77c 7fbd f11d 2ebe 1472 08be
00000320: 2bfa 85bc e94f 143f eb45 97bc 8184 74bd
00000330: f452 1d3b b3d6 34bd d32c abbc a474 6dbd
00000340: 1503 b93e d6d1 03bd 0c56 fc3c 2c73 c9be
00000350: d639 9e3d 64b6 7c3d 4791 c53b 5658 b43d
00000360: 233a 68bc 2096 20bc 9413 8e3c 81ae 69bd
00000370: bfeb b0bd 6b6a f5bd f473 b7be 18e0 2f3d
00000380: e7e5 9fbc d70f e1bd 1b40 b33b 4bd7 26be
00000390: a211 15be 0075 20bc f78c 0a3d da42 04bd
000003a0: d629 51bd 296a bc3c eb73 b0bd 064b d0bd
000003b0: 4897 b3be a5a6 0b3d fda0 553d 70e2 a5bc
000003c0: 7709 25be 490f f1bd b4cf 16be abfa 543d
000003d0: 0478 f3bc 5858 84bd ab16 6e3d e9dd 33bc
000003e0: be48 5b3d e762 913d b6b6 ae3c 27ec acbb
000003f0: 2b09 053d 8d6e 11be 00e1 0abe e8f9 c3bc

fc3.bias f4 [3]
-0.010075695 -0.04600808 -0.14916864
00000000: 8714 25bc f872 3cbd aabf 18be

fc1.weight f4 [128, 10]
-0.24741124 0.223899 -0.20645238 -0.10003205 0.18599263 0.7211997 -0.46522853 0.32867482
-0.07752002 0.22374281 0.22870411 -0.09506332 0.065321706 0.23047085 -0.05150149 0.030991053
-0.28418133 -0.19228671 -0.26099476 -0.11482797 0.0657353 0.050768565 0.08101835 -0.10987887
-0.26410002 -0.31917462 0.13251355 0.17055364 0.00788433 -0.031646434 -0.12571342 -0.22651936
-0.14141172 0.23531832 -0.25495997 -0.003189427 -0.21897061 -0.1261974 0.17681487 0.19102211
0.033904344 -0.20065099 -0.3129417 0.25085294 -0.020102844 0.016027454 -0.2351174 0.3674897
-0.013795598 -0.1492738 0.43901256 0.26132566 -0.08043446 0.034918983 -0.4334423 -0.37565425
0.32197046 -0.5005849 0.1670602 0.26083273 -0.12300403 0.09082814 -0.014668436 0.7512025
-0.45515096 -0.65183294 0.37938523 -0.16161096 0.3083234 -0.15620048 0.107232854 -0.023470655
-0.14595518 0.777805 -0.018557899 -0.4614073 -0.14495772 -0.1321064 0.37844905 -0.087470494
0.06584916 0.009963106 -0.14438406 0.23942968 0.18067466 -0.03711273 -0.0491485 0.08313389
0.18112653 -0.0817473 0.2305934 0.36891362 -0.27783382 -0.3021098 0.015674625 0.07885572
0.17051439 -0.1357104 -0.36736104 0.19041285 -0.17176607 -0.0014957136 0.05127233 0.19207785
0.28205037 -0.39119974 0.2817398 0.23716484 0.35841855 0.1375338 -0.27529556 -0.26197377
-0.18136443 -0.19874494 -0.15747707 -0.17396365 0.017144276 0.2596138 0.1255827 0.23267174
0.22134316 0.3642924 -0.063321896 -0.4802751 -0.0236092 0.025995823 0.29151946 -0.5516106
-0.4063498 -0.031483397 0.3868216 0.07202467 0.15980384 1.4457729 -0.26671502 -1.2767098
-0.03345509 -0.21807218 0.06250331 -0.24062645 -0.04664272 -0.09136336 -0.16125475 0.47312975
-0.90524024 -0.8476523 0.53659743 -0.009383138 0.23457442 0.3802651 0.07174412 -0.1484742
0.097047165 -0.08667523 -0.60730106 0.6175794 -0.7238462 0.12054925 -0.21396902 -0.05798045
0.19409166 -0.075759046 0.45244554 0.15450653 0.40701944 0.041519094 -0.37658438 -0.053527087
-0.32049936 -0.031512704 -0.11220122 -0.12829608 0.062356845 0.3856667 -0.12923637 -0.4799671
-0.20175089 0.26924807 -0.10311092 -0.4939234 -0.12322034 0.1925145 0.32467502 -0.30198798
0.12499103 -0.29921398 -0.28214604 -0.3202512 -0.16060703 -0.08913108 0.018149095 -0.07753012
0.20212215 -0.07139044 -0.17064954 0.035712637 -0.042249575 -0.25385016 -0.27199647 0.15040158
-0.36266148 -0.1198521 -0.18170568 -0.062082928 -0.42932856 -0.20738445 -0.05977972 -0.023207325
0.34031203 0.12610333 -0.33010748 -0.36417866 -0.19753005 0.23791915 -0.20118736 -0.063773714
-0.2589575 0.15651444 0.036669657 0.04027374 -0.32232326 0.062111672 0.6027157 0.037935983
0.15931584 -0.10018582 -0.5065467 0.12535825 0.020112546 -0.58622825 0.040506706 0.05547583
0.23515797 0.1557588 0.6147384 -0.25965565 0.24537015 0.19056912 -0.045433234 -0.33941817
-0.17157897 0.115844704 0.033903997 0.032969594 0.15868767 -0.10302228 -0.1017112 -0.0898948
-0.29770204 0.2368599 0.30537203 0.34709007 -0.08897123 0.10730974 0.16824001 0.19953969
00000000: 5f59 7dbe c845 653e 4168 53be 9add ccbd
00000010: da74 3e3e 8ba0 383f 6f32 eebe 1148 a83e
00000020: d1c2 9ebd d61c 653e 6931 6a3e 8fb0 c2bd
00000030: 63c7 853d 8d00 6c3e 3af3 52bd f3e0 fd3c
00000040: 3780 91be cfe6 44be 1ba1 85be ed2a ebbd
00000050: 3ba0 863d b3f2 4f3d f3ec a53d 2c08 e1bd
00000060: 1e38 87be db6a a3be a2b1 073e 9da5 2e3e
00000070: 472d 013c b19f 01bd 05bb 00be b1f4 67be
00000080: 3cce 10be 49f7 703e 1d8a 82be b505 51bb
00000090: d539 60be e439 01be f50e 353e 4d9b 433e
000000a0: 48df 0a3d 7477 4dbe e539 a0be cc6f 803e
000000b0: b8ae a4bc 024c 833c 9ec2 70be 9c27 bc3e
000000c0: ef06 62bc 3bdb 18be 41c6 e03e 7acc 853e
000000d0: d2ba a4bd 3507 0f3d 26ec ddbe c155 c0be
000000e0: 50d9 a43e 5526 00bf d411 2b3e de8b 853e
000000f0: 89e9 fbbd 1b04 ba3d e153 70bc cf4e 403f
00000100: 8c09 e9be 86de 26bf c83e c23e 587d 25be
00000110: 91dc 9d3e 05f3 1fbe e69c db3d 8845 c0bc
00000120: 4675 15be 3a1e 473f bc06 98bc 943d ecbe
00000130: cc6f 14be e646 07be 13c4 c13e bb23 b3bd
00000140: eddb 863d 4c3c 233c 6ad9 13be 0e2d 753e
00000150: c702 393e 8503 18bd f04f 49bd 1a42 aa3d
00000160: 3c79 393e 216b a7bd ad20 6c3e 3fe2 bc3e
00000170: 3c40 8ebe 23ae 9abe 1268 803c 1c7f a13d
00000180: 539b 2e3e abf7 0abe bf16 bcbe 96fb 423e
00000190: 72e3 2fbe d20b c4ba ef02 523d 0eb0 443e
000001a0: e868 903e 554b c8be 3340 903e 57db 723e
000001b0: a382 b73e a9d5 0c3e 8af3 8cbe 6d21 86be
000001c0: 99b7 39be cb83 4bbe ab41 21be 8723 32be
000001d0: 2772 8c3c 1aec 843e c098 003e 8041 6e3e
000001e0: c8a7 623e 8984 ba3e e9ae 81bd 9ee6 f5be
000001f0: 1568 c1bc 31f5 d43c 0a42 953e 5a36 0dbf
00000200: 150d d0be bcf4 00bd 7b0d c63e ac81 933d
00000210: 9ea3 233e 160f b93f df8e 88be 3a6b a3bf
00000220: 3408 09bd 504e 5fbe bc01 803d c866 76be
00000230: 700c 3fbd b71c bbbd f71f 25be 103e f23e
00000240: d3bd 67bf beff 58bf 735e 093f bcbb 19bc
00000250: 4734 703e 1bb2 c23e 95ee 923d 9f09 18be
00000260: aac0 c63d c882 b1bd 1578 1bbf af19 1e3f
00000270: fc4d 39bf 86e2 f63d b21a 5bbe e97c 6dbd
00000280: f7bf 463e 8f27 9bbd f1a6 e73e f636 1e3e
00000290: da64 d03e ed0f 2a3d abcf c0be 383f 5bbd
000002a0: 7e18 a4be 7713 01bd c1c9 e5bd 0c60 03be
000002b0: e469 7f3d 1b76 c53e 8a56 04be 3fbe f5be
000002c0: c997 4ebe e2da 893e d12b d3bd 87e3 fcbe
000002d0: f25a fcbd 8522 453e ce3b a63e 2b9e 9abe
000002e0: 4cfb ff3d 9332 99be 7275 90be f7f7 a3be
000002f0: 2b76 24be 5b8a b6bd 69ad 943c 1dc8 9ebd
00000300: 1cf9 4e3e 2735 92bd c1be 2ebe 6a47 123d
00000310: e40d 2dbd a6f8 81be 1f43 8bbe df02 1a3e
00000320: c4ae b9be 0575 f5bd 0e11 3abe ab4a 7ebd
00000330: f4d0 dbbe 975c 54be 94db 74bd 4a1d bebc
00000340: 613d ae3e 3b21 013e d903 a9be a075 babe
00000350: 5145 4abe 14a1 733e 0f04 4ebe cb9b 82bd
00000360: 1496 84be 5245 203e ec32 163d 14f6 243d
00000370: 8e07 a5be cf68 7e3d 934b 1a3f c362 1b3d
00000380: b123 233e 392e cdbd 0bad 01bf ea5d 003e
00000390: 11c3 a43c 0e13 16bf 5cea 253d a03a 633d
000003a0: 40cd 703e 3c7f 1f3e 7f5f 1d3f 96f1 84be
000003b0: 5042 7b3e 8d24 433e 3318 3abd 38c8 adbe
000003c0: 66b2 2fbe fd3f ed3d ebde 0a3d 200b 073d
000003d0: 057f 223e 58fd d2bd f64d d0bd c41a b8bd
000003e0: 676c 98be 678b 723e b959 9c3e cab5 b13e
000003f0: 8c36 b6bd 35c5 db3d 1c47 2c3e 2254 4c3e

fc1.bias f4 [128]
0.06350279 -0.21823063 0.34628037 0.23581238 0.29698142 0.3629853 0.2877021 0.4669372
0.15129529 -0.058216177 -0.08114355 0.04924721 -0.008165176 0.061670575 0.16467676 0.18438278
-0.019833347 -0.23385154 -0.051053945 -0.19263136 -0.1288677 0.33464497 0.055941787 0.28495488
-0.20470226 -0.09605965 -0.14213525 0.022303477 0.2887289 0.2844438 -0.0765132 -0.29087874
-0.0029061872 0.23431145 0.2480522 -0.23256664 0.015216888 0.16717468 -0.15176587 0.018942768
0.10436865 0.32264426 -0.2591745 0.36486626 0.3957265 0.0061603165 0.04197967 -0.06089793
-0.19124559 -0.15997142 0.2480297 -0.047325283 0.047237188 0.12605865 0.36314407 -0.13333772
-0.014101863 0.14065567 0.31742868 0.28585625 -0.026551858 0.10895245 0.4163656 0.2507977
0.10693309 -0.16048335 0.11427497 0.4032562 0.35293153 0.32415536 0.111667916 -0.29062685
0.26810446 -0.06977489 0.042874005 -0.097000904 -0.146562 0.1305277 0.32277784 0.03238378
0.18615794 0.30166653 -0.011348419 -0.0049991882 -0.20240639 0.41856351 0.40851137 -0.047896296
-0.12780537 -0.1192166 0.18324852 -0.091986924 0.3419881 -0.16746828 0.33745858 0.23351511
-0.14762333 0.13970628 -0.1480658 -0.05603618 -0.09445739 -0.146391 0.3446581 0.27109835
0.032644864 0.075754546 -0.20014033 -0.32155976 -0.21902719 0.26781997 0.09613422 -0.29419816
-0.18054707 -0.19008295 0.3262405 0.38867947 -0.14987352 0.1688242 0.21674725 0.34720334
-0.17171273 -0.12079168 0.26477018 -0.16741003 0.051932078 0.28528023 0.114546776 0.11189462
00000000: c00d 823d da77 5fbe a94b b13e cd78 713e
00000010: f30d 983e 36d9 b93e b14d 933e 6512 ef3e
00000020: 27ed 1a3e 1674 6ebd 972e a6bd 71b7 493d
00000030: 3bc7 05bc 499a 7c3d 06a1 283e d7ce 3c3e
00000040: 8b79 a2bc c776 6fbe f11d 51bd 2841 45be
00000050: e5f5 03be 9656 ab3e 3723 653d 9be5 913e
00000060: 789d 51be ecba c4bd e78b 11be c8b5 b63c
00000070: 46d4 933e 9ea2 913e f4b2 9cbd 0fee 94be
00000080: bb75 3ebb 57ef 6f3e 6501 7e3e f325 6ebe
00000090: 4150 793c d72f 2b3e 8368 1bbe dd2d 9b3c
000000a0: 3bbf d53d a131 a53e 85b2 84be c0cf ba3e
000000b0: aa9c ca3e 7bdc c93b e0f2 2b3d 1c70 79bd
000000c0: e2d5 43be 8ccf 23be 7ffb 7d3e 28d8 41bd
000000d0: c87b 413d 8515 013e 05ee b93e af89 08be
000000e0: 800b 67bc 0a08 103e 0386 a23e c05b 923e
000000f0: 4883 d9bc 7622 df3d df2d d53e 8e68 803e
00000100: bcff da3d bf55 24be ff08 ea3d 9977 ce3e
00000110: 71b3 b43e b1f7 a53e 26b2 e43d 0bcd 94be
00000120: fd44 893e 23e6 8ebd a79c 2f3d 69a8 c6bd
00000130: 5914 16be 0ea9 053e 2343 a53e dba4 043d
00000140: 30a0 3e3e 0974 9a3e b8ee 39bc 3bd0 a3bb
00000150: 9f43 4fbe f54d d63e 6728 d13e e82e 44bd
00000160: 69df 02be d527 f4bd 80a5 3b3e a463 bcbd
00000170: 1019 af3e ce7c 2bbe 5fc7 ac3e 961e 6f3e
00000180: 922a 17be 2a0f 0f3e 909e 17be 3286 65bd
00000190: e072 c1bd 86e7 15be 0777 b03e 67cd 8a3e
000001a0: 9fb6 053d 3325 9b3d 96f1 4cbe 7ba3 a4be
000001b0: aa48 60be b31f 893e 05e2 c43d 24a1 96be
000001c0: 55e1 38be 1ba5 42be ff08 a73e ff00 c73e
000001d0: 7278 19be 40e0 2c3e fef2 5d3e a3c4 b13e
000001e0: 76d5 2fbe a161 f7bd f58f 873e 896d 2bbe
000001f0: bbb6 543d 4010 923e 8097 ea3d 0229 e53d

fc2.weight f4 [128, 128]
-0.004777043 -0.06289807 -0.07800209 -0.11523194 -0.048188858 0.104814425 0.0131951235 0.019788913
0.017504983 -0.03472045 -0.05544778 -0.10009353 0.082180284 0.021735907 -0.089792274 -0.118225716
-0.036215626 -0.031055773 0.022617538 -0.06325498 0.0027988662 -0.10446337 0.031129811 0.022049943
-0.046233837 -0.022284804 0.01864374 -0.12976748 -0.10011715 -0.11082656 -0.013635127 -0.025079714
-0.01851358 0.033418726 0.015199574 0.011801412 -0.026066992 -0.12183373 -0.07484341 -0.010474772
-0.034808613 0.02617043 0.08142763 -0.011162985 -0.060644213 -0.024888862 0.0051405174 -0.09279933
0.006002595 0.031457935 0.020854227 0.050422013 -0.036287107 0.06420789 -0.102751486 -0.083869904
-0.008112528 -0.0639792 -0.04907837 -0.0081872875 0.010009254 -0.009780819 -0.12642528 -0.06452946
0.042586338 0.04888638 -0.102899686 0.034886166 0.020913951 -0.022101337 -0.08788634 -0.0108503895
-0.016464679 -0.08825852 0.0136701595 -0.014247629 -0.008142276 -0.08525682 0.039962295 -0.068657234
-0.047578614 0.02049911 0.043418713 -0.05652436 -0.036468558 0.03714463 -0.022617808 -0.10426291
0.0137504 -0.057025228 -0.056440804 0.04063166 0.01264882 -0.081007324 -0.027852343 0.018853739
-0.052091658 -0.068384185 -0.084259436 -0.099936604 0.053236306 -0.020738034 -0.099865645 -0.11557772
-0.025425512 -0.049738295 -0.022525461 0.0819098 -0.10626742 0.0855414 0.009673467 -0.040133618
-0.035149794 -0.034165584 0.030553622 0.02663228 -0.111246325 -0.0929275 -0.047392502 0.04124012
0.13502897 0.028050108 -0.10595851 -0.08316458 -0.14687455 -0.09455948 -0.11936149 -0.04897104
0.35462737 0.04947479 0.11107741 0.10346639 0.043769483 0.50982326 0.03926375 0.051352974
0.014031948 0.12566605 0.12745048 0.04272873 0.11553504 0.058603425 0.10531806 0.0012123171
-0.012010983 0.058262877 0.009240476 0.051500455 0.12859438 0.06823597 0.29463544 0.053956944
-0.07133652 -0.22733866 0.31645668 0.14299712 0.019556224 0.032808088 0.20304202 0.02225649
0.049313527 0.088669166 0.29431048 -0.14262128 0.030396998 0.083077334 0.25629663 0.324107
0.0024621873 0.004451762 -0.05120315 0.03461989 0.10774386 0.109690875 -0.0033005057 -0.015077111
-0.015662227 0.13454601 -0.036422815 0.01412641 0.007442164 0.00837446 0.074472114 0.0730194
0.11658562 0.53361297 0.11025632 0.08013428 -0.04281889 0.019002324 0.06264727 0.014434853
0.15928066 -0.056532346 0.08409461 0.09285601 0.026552347 0.13465816 0.008399037 -0.0589721
0.07249947 0.010873967 0.04186835 0.07833911 0.06911496 0.11195144 0.0029549615 -0.027563913
0.019211257 0.17385699 1.1182655 0.01171203 0.06734556 0.07918676 0.14983943 0.023613557
0.024850374 0.062303063 0.15899315 -0.03389945 0.12187211 -0.03437622 0.012324269 0.2858403
0.08827288 -0.17152761 0.08525969 -0.00819742 0.5565338 0.3109326 0.029492905 0.0902742
0.24470863 -0.07512865 -0.24512632 0.040017072 -0.011399644 -0.28054583 0.07345494 0.014907256
0.13897802 -0.01361496 0.08266485 0.09129051 0.119653165 -0.0091833575 0.118668616 0.15265106
0.33643976 -0.033851486 0.076530725 -0.05345035 0.010688571 -0.03132409 0.06453831 -0.3080316
00000000: be88 9cbb b4d0 80bd 8fbf 9fbd b9fe ebbd
00000010: ae61 45bd f2a8 d63d 5c30 583c 5c1c a23c
00000020: 9c66 8f3c 0837 0ebd 361d 63bd d6fd ccbd
00000030: 234e a83d 800f b23c 03e5 b7bd 5320 f2bd
00000040: d656 14bd ad68 febc 6a48 b93c d48b 81bd
00000050: 2f6d 373b e4f0 d5bd f203 ff3c 15a2 b43c
00000060: b15f 3dbd 9f8e b6bc c2ba 983c c4e1 04be
00000070: 380a cdbd 09f9 e2bd de65 5fbc f973 cdbc
00000080: cba9 97bc 13e2 083d a207 793c b65a 413c
00000090: 728a d5bc f683 f9bd 8047 99bd 619e 2bbc
000000a0: 7a93 0ebd 5f63 d63c 87c3 a63d f4e4 36bc
000000b0: 1166 78bd bae3 cbbc c971 a83b 930d bebd
000000c0: 6bb1 c43b 09da 003d 7cd6 aa3c 5087 4e3d
000000d0: caa1 14bd 6d7f 833d 5f6f d2bd fcc3 abbd
000000e0: 69ea 04bc 8707 83bd 6706 49bd f923 06bc
000000f0: dbfd 233c ba3f 20bc a175 01be 0628 84bd
00000100: 036f 2e3d 163d 483d 12bd d2bd cce4 0e3d
00000110: bc53 ab3c dd0d b5bc c1fd b3bd d5c5 31bc
00000120: efe0 86bc e2c0 b4bd cef8 5f3c e36e 69bc
00000130: 2e67 05bc 219b aebd 81af 233d 2a9c 8cbd
00000140: cbe1 42bd c0ed a73c d2d7 313d 1686 67bd
00000150: 0e60 15bd f824 183d fb48 b9bc cb87 d5bd
00000160: 5c49 613c 4993 69bd 792e 67bd 626d 263d
00000170: ff3c 4f3c 2be7 a5bd 992a e4bc 2873 9a3c
00000180: 105e 55bd 020d 8cbd 3690 acbd 90ab ccbd
00000190: 500e 5a3d cfe2 a9bc 5c86 ccbd 03b4 ecbd
000001a0: 2a49 d0bc 62ba 4bbd 5187 b8bc 53c0 a73d
000001b0: bca2 d9bd 5430 af3d 767d 1e3c 2663 24bd
000001c0: 3bf9 0fbd 36f1 0bbd 974b fa3c f02b da3c
000001d0: 1dd5 e3bd c650 bebd a41e 42bd 66eb 283d
000001e0: 0945 0a3e 57c9 e53c c600 d9bd 3152 aabd
000001f0: 4866 16be 67a8 c1bd cc73 f4bd db95 48bd
00000200: b891 b53e 14a6 4a3d 8e7c e33d 30e6 d33d
00000210: a147 333d c783 023f 07d3 203d 7f57 523d
00000220: 41e6 653c 9aae 003e 6182 023e 5204 2f3d
00000230: a39d ec3d 250a 703d ffb0 d73d 9de6 9e3a
00000240: b7c9 44bc 0ea5 6e3d 5e65 173c 24f2 523d
00000250: 3fae 033e 4dbf 8b3d 75da 963e f501 5d3d
00000260: e218 92bd 77cb 68be 9c06 a23e d66d 123e
00000270: 6034 a03c c661 063d 3fea 4f3e 3e53 b63c
00000280: fbfc 493d 2e98 b53d ddaf 963e 500b 12be
00000290: 2003 f93c 7324 aa3d 5039 833e 5af1 a53e
000002a0: a65c 213b 16e0 913b 65ba 51bd 96cd 0d3d
000002b0: d0a8 dc3d 9ca5 e03d 4c4d 58bb fd05 77bc
000002c0: 124e 80bc 6ec6 093e 1730 15bd 7572 673c
000002d0: 65dd f33b 0835 093c d684 983d 328b 953d
000002e0: 71c4 ee3d dc9a 083f 11ce e13d 711d a43d
000002f0: dc62 2fbd c3aa 9b3c 364d 803d 2980 6c3c
00000300: 781a 233e 768e 67bd cb39 ac3d 4b2b be3d
00000310: 4f84 d93c d4e3 093e 1d9c 093c bb8c 71bd
00000320: 9a7a 943d b928 323c 267e 2b3d 4170 a03d
00000330: 258c 8d3d cc46 e53d 07a8 413b b7cd e1bc
00000340: ed60 9d3c 9107 323e 5323 8f3f d0e3 3f3c
00000350: 78ec 893d ab2c a23d 826f 193e 3871 c13c
00000360: 0393 cb3c 7f31 7f3d 1acf 223e 26da 0abd
00000370: 1698 f93d 14ce 0cbd bbeb 493c a959 923e
00000380: 69c8 b43d efa4 2fbe a29c ae3d 794e 06bc
00000390: 0079 0e3f 8f32 9f3e 1b9b f13c aee1 b83d
000003a0: e694 7a3e 0ddd 99bd 6502 7bbe f1e8 233d
000003b0: 93c5 3abc b4a3 8fbe 8b6f 963d 903d 743c
000003c0: 4150 0e3e 4811 5fbc 304c a93d 85f6 ba3d
000003d0: b80c f53d cb75 16bc 8808 f33d 8f50 1c3e
000003e0: d541 ac3e dba7 0abd 24bc 9c3d c1ee 5abd
000003f0: 1e1f 2f3c b04d 00bd a92c 843d 51b6 9dbe

fc2.bias f4 [128]
0.015049594 0.1571293 0.051255453 0.06985111 0.17806675 0.1359289 0.02880924 -0.048823234
-0.0015939816 0.055459816 0.013552068 0.05695464 0.033416014 0.052121725 -0.05336029 0.049518313
-0.067221075 0.18519427 -0.0032963667 -0.09755938 -0.09119882 -0.022275893 0.21597336 0.10537923
-0.0024169877 -0.015068715 0.04021356 0.1347482 0.16907889 0.04572372 0.01519151 -0.093127824
-0.087165214 0.0037419898 -0.037094094 -0.067183815 0.06224153 0.096744806 -0.111409105 0.023340931
0.0668036 -0.06617714 0.15411048 0.1353066 0.026224032 0.036739964 0.027260032 0.17594822
0.08320589 -0.07977244 0.07659824 0.14268096 -0.10086152 -0.10395304 -0.042385586 0.14320916
-0.020784846 -0.05014067 -0.032923285 -0.059122924 -0.052038096 0.0035711762 -0.027464287 -0.09161519
0.04637535 0.13472857 -0.04563259 0.13891962 -0.039242156 -0.07048713 0.1502 0.098730214
-0.08373614 0.15922216 -0.04490501 0.0336996 -0.08820816 0.0460278 0.020205818 0.16838005
0.07451705 0.16750816 -0.100576974 0.16102555 -0.08525528 0.03850818 0.018780228 -0.10813724
0.07109796 0.016393827 0.05142147 -0.009480783 0.087599434 0.07342446 0.20483571 -0.02791564
-0.025302365 0.025459472 -0.020408606 0.14432947 0.10655749 -0.069281854 -0.09453576 0.006756558
0.14332233 0.026859658 0.07280022 0.09268802 0.18212438 -0.10170825 -0.083483435 -0.082934186
0.087128974 0.15520528 0.14717677 0.072081596 0.010413694 0.04985485 0.025618503 -0.0699047
0.024892682 -0.043470543 0.043963425 0.029118171 0.0405374 0.07410206 0.010516464 0.035241473
00000000: 9392 763c 81e6 203e 3df1 513d 190e 8f3d
00000010: 2157 363e f230 0b3e 5b01 ec3c dffa 47bd
00000020: 26ed d0ba d529 633d 7e09 5e3c 4549 693d
00000030: 3bdf 083d 977d 553d 5290 5abd b7d3 4a3d
00000040: 34ab 89bd 91a3 3d3e db07 58bb 36cd c7bd
00000050: 72c6 babd ef7b b6bc 1f28 5d3e 11d1 d73d
00000060: 5366 1ebb c6e2 76bc f9b6 243d 6ffb 093e
00000070: 0423 2d3e cc48 3b3d d0e5 783c cdb9 bebd
00000080: ad83 b2bd 2c3c 753b faef 17bd ab97 89bd
00000090: f9f0 7e3d 2422 c63d 752a e4bd 7b35 bf3c
000000a0: 53d0 883d e187 87bd 23cf 1d3e d08d 0a3e
000000b0: c8d3 d63c a57c 163d 6e50 df3c c52b 343e
000000c0: da67 aa3d bc5f a3bd 8adf 9c3d f51a 123e
000000d0: 7c90 cebd 55e5 d4bd 829c 2dbd 6ca5 123e
000000e0: fb44 aabc 4e60 4dbd 91da 06bd e12a 72bd
000000f0: e625 55bd 650a 6a3b c9fc e0bc bfa0 bbbd
00000100: 14f4 3d3d 49f6 093e 3de9 3abd f240 0e3e
00000110: 62bc 20bd 8e5b 90bd 07ce 193e 1133 ca3d
00000120: da7d abbd 220b 233e 51ee 37bd 9708 0a3d
00000130: 7ba6 b4bd a587 3c3d ac86 a53c d26b 2c3e
00000140: 659c 983d 4287 2b3e 4dfb cdbd e2e3 243e
00000150: 529a aebd c1ba 1d3d fed8 993c 0f77 ddbd
00000160: cf9b 913d 594c 863c 529f 523d 4955 1bbc
00000170: 5567 b33d 905f 963d 74c0 513e 57af e4bc
00000180: e846 cfbc 6290 d03c f32f a7bc 1bcb 133e
00000190: d03a da3d a5e3 8dbd f79b c1bd 1e66 dd3b
000001a0: 17c3 123e c908 dc3c 4818 953d 37d3 bd3d
000001b0: d07e 3a3e 6a4c d0bd 5df9 aabd 66d9 a9bd
000001c0: ad70 b23d 22ee 1e3e 82b5 163e 849f 933d
000001d0: 339e 2a3c 9934 4c3d e5dd d13c 322a 8fbd
000001e0: bdeb cb3c 2b0e 32bd fe12 343d 3b89 ee3c
000001f0: 8b0a 263d d2c2 973d 3f4d 2c3c 5d59 103d

fc3.weight f4 [3, 128]
-0.08518919 -0.104358084 0.07308239 0.02323128 -0.13994673 -0.15178393 -0.015096083 0.015093039
-0.6272347 -0.15425284 0.049181957 -0.059196137 -0.001242301 -0.10007339 -0.08381143 -0.008849334
0.015203048 -0.16051194 -0.07347397 0.04177669 -0.9161794 0.0631421 0.56452686 -0.17107835
-0.11557537 -0.052389324 0.0673372 -0.07171072 -0.12189273 -0.09438226 0.079238035 0.008283394
-0.08603263 -0.054301877 0.06484288 0.024288269 -0.62729716 -0.122698866 0.031492587 -0.12275323
-0.5279511 0.048802637 -0.1306478 -0.06563033 -0.1355185 -0.034149796 -0.023053544 -0.1698162
0.4042661 0.056519184 0.00057319715 -0.008957851 -0.017443685 0.051525716 0.062496167 -0.08021215
0.016266158 0.03273315 0.052038416 -0.06136478 -0.0047185025 0.025567142 -0.0189576 -0.01797979
-0.009220807 -0.030543864 -0.0102104535 -0.15918496 0.024809469 0.069105394 -0.11532863 -0.010731259
-0.060451213 0.55579466 -0.0066754916 -0.025577648 0.06829857 0.03454448 0.055271465 -0.11592099
0.40675762 -0.16117603 -0.0747916 -0.375765 -0.041003436 -0.056179363 -0.037974067 0.027384177
-0.11326118 0.05434276 0.0404305 0.0057407217 -0.05136604 -0.15286869 -0.37572005 0.06992851
-0.06127549 -0.11505477 0.0004542019 -0.04660321 -0.14027242 -0.025586683 0.020458685 -0.06724884
-0.13290046 0.031764753 0.06329729 -0.08316323 -0.34131497 0.05832606 0.04215505 -0.03712652
-0.13403106 -0.024804853 -0.14221676 0.0711858 -0.0792592 0.020197947 0.06737999 -0.012243227
0.05491643 0.10481291 -0.019377192 -0.0121724205 0.046057336 -0.029143192 -0.060749624 0.0016059013
0.042751852 -0.036999803 0.0056276196 0.017753158 -0.16302557 -0.054748718 0.034423828 0.018918123
-0.58683276 -0.11911609 -0.024393044 0.041088544 -0.06471673 -0.096934974 -0.06611029 0.014566334
0.032131817 -0.0611577 0.025560925 -0.01965019 -0.88291925 -0.0058327233 0.57177794 -0.09933422
-0.19671474 -0.06378744 -0.05396196 -0.1448611 -0.09851628 -0.1241771 0.019596193 -0.022584552
0.057028245 0.013066667 -0.048170254 -0.008317536 -0.4713201 -0.10193713 0.010177726 -0.11778306
-0.63250786 0.045078762 -0.10085507 -0.14687002 -0.015675385 -0.14901538 -0.05773168 -0.09316986
0.41017455 -0.057149213 -0.024357622 -0.14719018 0.035887033 -0.025239704 -0.030254489 -0.1633594
0.013463982 -0.039242677 0.07267485 0.05956651 -0.070156686 -0.026372641 0.0880005 0.078502856
0.008509921 -0.011429735 0.0023662946 -0.057229523 0.0568933 -0.062374856 -0.16984898 -0.13306566
-0.016354641 0.57950747 -0.018465957 -0.059696678 0.0024005743 -0.044150066 -0.020895397 -0.057786457
0.3615156 -0.031996675 0.03080275 -0.39345104 0.07725875 0.06169738 0.0060292813 0.08805911
-0.013998651 -0.009801418 0.01734332 -0.057051186 -0.086197846 -0.11964586 -0.35830534 0.04293832
-0.019518806 -0.10970449 0.0054702885 -0.16274327 -0.14538804 -0.00979352 0.03382584 -0.032115556
-0.050884943 0.02299984 -0.086158596 -0.1015193 -0.3506645 0.03409447 0.052155484 -0.020241182
-0.1609804 -0.11751607 -0.1470894 0.051996868 -0.029720314 -0.06462163 0.058127087 -0.0109782005
0.05353617 0.07098942 0.021327358 -0.005277175 0.032479446 -0.14184111 -0.13543707 -0.023922876
00000000: ac77 aebd b1b9 d5bd 38ac 953d 864f be3c
00000010: 324e 0fbe 3f6d 1bbe 9055 77bc cb48 773c
00000020: 7492 20bf 75f4 1dbe 0573 493d a677 72bd
00000030: b4d4 a2ba 47f3 ccbd 54a5 abbd ccfc 10bc
00000040: 3416 793c 3e5d 24be 8579 96bd 091e 2b3d
00000050: bc8a 6abf a550 813d d584 103f 2a2f 2fbe
00000060: c8b2 ecbd 3096 56bd 16e8 893d 12dd 92bd
00000070: e5a2 f9bd 7d4b c1bd 8d47 a23d 13b7 073c
00000080: e031 b0bd a56b 5ebd 58cc 843d 31f8 c63c
00000090: 8c96 20bf 8b49 fbbd 5ffe 003d 0c66 fbbd
000000a0: ce27 07bf 46e5 473d 89c8 05be 3269 86bd
000000b0: 5dc5 0abe a8e0 0bbd c9da bcbc 4ce4 2dbe
000000c0: f7fb ce3e a980 673d 9c42 163a f3c3 12bc
000000d0: 0fe6 8ebc a10c 533d fbfb 7f3d 4546 a4bd
000000e0: 9b40 853c 3213 063d 3c26 553d a359 7bbd
000000f0: ab9d 9abb 2f72 d13c f84c 9bbc 5a4a 93bc
00000100: de12 17bc 2037 fabc bf49 27bc 6201 23be
00000110: 3a3d cb3c 2187 8d3d 6b31 ecbd 2ad2 2fbc
00000120: b19b 77bd 8f48 0e3f 15be dabb 3788 d1bc
00000130: 1fe0 8b3d 837e 0d3d 5564 623d fc67 edbd
00000140: 8942 d03e 540b 25be 572c 99bd 4564 c0be
00000150: 38f3 27bd 551c 66bd b28a 1bbd c854 e03c
00000160: 7af5 e7bd 8496 5e3d 749a 253d aa1c bc3b
00000170: 3265 52bd 9c89 1cbe 615e c0be ae36 8f3d
00000180: 02fc 7abd d6a1 ebbd f221 ee39 02e3 3ebd
00000190: 93a3 0fbe 2a9b d1bc f998 a73c c3b9 89bd
000001a0: 0f17 08be c21b 023d 02a2 813d 7c51 aabd
000001b0: d6c0 aebe 4fe7 6e3d c6aa 2c3d fa11 18bd
000001c0: 703f 09be 8c33 cbbc 45a1 11be dcc9 913d
000001d0: a652 a2bd 2a76 a53c 85fe 893d d197 48bc
000001e0: 0df0 603d 27a8 d63d ebbc 9ebc d56e 47bc
000001f0: 9ea6 3c3d b4bd eebc 99d4 78bd 1b7d d23a
00000200: 911c 2f3d 1b8d 17bd e567 b83b 126f 913c
00000210: 2df0 26be 3140 60bd 0000 0d3d 2efa 9a3c
00000220: ac3a 16bf 23f3 f3bd ecd3 c7bc 764c 283d
00000230: 348a 84bd d885 c6bd d564 87bd a2a7 6e3c
00000240: a79c 033d 7f80 7abd 2565 d13c 6ff9 a0bc
00000250: ff06 62bf 6e20 bfbb 0a60 123f bd6f cbbd
00000260: 976f 49be fda2 82bd 3707 5dbd 7856 14be
00000270: e7c2 c9bd 9050 febd 3288 a03c 3d03 b9bc
00000280: 7396 693d 9315 563c 2c4e 45bd 4646 08bc
00000290: de50 f1be 6ac4 d0bd 7ac0 263c 3f38 f1bd
000002a0: 09ec 21bf 82a4 383d 1a8d cebd 1865 16be
000002b0: aa69 80bc 7d97 18be 0e78 6cbd d7cf bebd
000002c0: 6602 d23e 4b15 6abd a389 c7bc 06b9 16be
000002d0: 48fe 123d 7fc3 cebc 43d8 f7bc b047 27be
000002e0: 0998 5c3c eebc 20bd 8dd6 943d 03fc 733d
000002f0: 4fae 8fbd 700b d8bc 9b39 b43d 1bc6 a03d
00000300: 326d 0b3c c943 3bbc d613 1b3b 8169 6abd
00000310: f308 693d c77c 7fbd e4ec 2dbe 5d42 08be
00000320: 2bfa 85bc 9a5a 143f eb45 97bc 8184 74bd
00000330: f452 1d3b b3d6 34bd d32c abbc 7eb1 6cbd
00000340: 9318 b93e f20e 03bd 0c56 fc3c 6a72 c9be
00000350: d639 9e3d 64b6 7c3d 4791 c53b 5658 b43d
00000360: 995a 65bc 2096 20bc 9413 8e3c 81ae 69bd
00000370: 7f88 b0bd e308 f5bd cc73 b7be 18e0 2f3d
00000380: e7e5 9fbc bfac e0bd 1b40 b33b 2ca6 26be
00000390: 9ae0 14be 0075 20bc f78c 0a3d 9a8b 03bd
000003a0: bb6c 50bd 296a bc3c eb73 b0bd 5ae9 cfbd
000003b0: 4c8a b3be a5a6 0b3d fda0 553d d6d0 a5bc
000003c0: 0cd8 24be 44ac f0bd 9b9e 16be abfa 543d
000003d0: 0478 f3bc 5858 84bd ab16 6e3d e9dd 33bc
000003e0: be48 5b3d e762 913d b6b6 ae3c 27ec acbb
000003f0: 2b09 053d cc3e 11be 04b0 0abe e8f9 c3bc

fc3.bias f4 [3]
-0.009899611 -0.045826253 -0.14919586
00000000: fa31 22bc 4fb4 3bbd cdc6 18be
