dqn_car_model_episode_300.pth (torch, 307153 bytes, 24 tensors)

fc1.weight f4 [128, 10]
00000000: d1eb 3bbe 6405 cc3d d52d 353e 3a9f 39be
00000010: 165d 4dbe 27e7 80be 98cd 7dbd 41c5 abbd
00000020: 7b58 0b3e acf1 84be 15a9 9c3e e89b 663d
00000030: d9bf 9e3e 866e 1bbd 9696 5f3e ba6b 293d
00000040: 4b8a 0a3e 2d6a a23e 8eee 983e 3f5a 72be
00000050: dd40 2a3e e290 973e aab8 bc3d 5f31 9cbe
00000060: 81d4 97bd e078 96be a45d 863e 3f6f 9bbe
00000070: d97f 77be 1f15 503e 4deb 8bbe e680 9dbd
00000080: 5dcd 5dbe f973 7f3e d36b 8cbd f528 203e
00000090: 4d76 833c d760 033e 7031 44be a382 453e
000000a0: caaa 6d3d c19b 4dbd a6d7 353e fc7f 563e
000000b0: d243 313e 110e 8e3e 2776 053e bc39 813e
000000c0: 8707 893d e26b adbe fe2d 13be 783c 323e
000000d0: 99a9 803e 4a47 743e 35b6 1b3e c296 e73d
000000e0: 6ff6 313e aa69 433e a843 9f3e 02df b93d
000000f0: e20e afbd 8639 89be 6302 363e 3780 8bbe
00000100: 7ad5 ffbd 9875 7cbe 0077 053d 3d41 993c
00000110: a307 533d cf60 52bc ca1f 8f3e e22c 8a3e
00000120: a0d0 1b3e 3b75 29bc 3b17 1c3e 100e 50be
00000130: 0cba 0d3e e5bb 9dbe 2343 4f3e b7d0 c53d
00000140: cb08 aabd dc9e a33d 672a dcbd f86d 0c3e
00000150: e133 6ebe 8682 1ebe afb6 b8bd e1b1 063e
00000160: 2875 99be 8d37 6a3d 64b1 4abe 5535 78be
00000170: 6dcd 643e 2da2 8b3e 9dce 2b3e f04a 83be
00000180: 44ab 56bd 7ce0 ab3e 96b5 2fbd 0a46 273c
00000190: 1058 b43e 2c68 4a3e 1736 103e 2ff1 65be
000001a0: 5572 79be a06d b0be 6407 553e e137 0d3e
000001b0: 2f2f 013e 0523 9a3b c15e 003e 6973 f93d
000001c0: adf4 0bbe 4684 78be 091c a0be 5edc e4bd
000001d0: fcaf efbd 624e 143d ef92 88be 28ad 89be
000001e0: 1963 f43d d24f b1bd f634 bcbd 8539 74be
000001f0: a0a9 14bd 9be2 acbd a611 64be e6b4 1f3e
00000200: fe6c 713e 3db8 7d3e bad0 afbc 541f 853e
00000210: 12f7 b5bd 219e 67be b2cf 2d3e 2ec5 203e
00000220: 8e3a 453e f014 81be df5d 973e aaa8 ae3b
00000230: 4145 b4bc c7dd 8bbd 29dd 14bd 7a56 3c3e
00000240: 9897 0b3d 548b 01be 73d3 fabd eba9 90be
00000250: 2eee cb3d 88a7 a0be dcaf 8a3d 90b0 393e
00000260: bdf4 fb3c 2e76 5b3e f8cf 533d dc11 303e
00000270: 5c96 8abe 5cf8 9ebe 31a4 a6bd bcc0 8bbe
00000280: 9630 afbd f481 753d 6a99 0e3d b44c 8bbe
00000290: 9b17 593c ae6e 913e a68d 0abe f186 a33d
000002a0: e875 d0bd 93e8 7bbe 4a2d 593e 82e5 fc3d
000002b0: b2dc 373e 976b 8abe f081 22be fb02 42be
000002c0: 8f2c 683e 2518 f73c 55cd 60be f369 edbc
000002d0: c854 9a3e cb31 b2bd 7879 903e d51a 9f3e
000002e0: a880 78be 80ea a0be edee f4bd 64f8 2bbe
000002f0: 9615 a8bc dd86 edbd c002 40be ce95 363e
00000300: 1138 323e 48cb 8a3e d6c0 4cbe 822a 15be
00000310: 72c8 96be ad37 5bbb 0d84 05be 9f47 543d
00000320: 6208 c9bd 0818 b53e 187d 313e 0540 72be
00000330: 0e2c 093e c01c 2cbc 39ae 3a3d 9dec 3e3e
00000340: 4f78 f43c e67b 6cbe 33b1 ae3c ac47 053e
00000350: d558 823e b3e8 b13e 47d8 563e 43eb c53d
00000360: c71d d23d 1a7d f8bc 8d5d 5f3e e641 1c3d
00000370: 764d 603e 2163 8f3e 2535 5e3d 550b 8a3e
00000380: 67cd ebbc cea2 ad3c 20b3 7f3e 0f98 733e
00000390: 01a7 853e 9f67 b7bd 21cc 0e3e e93f 61be
000003a0: 3ce3 853e ef41 68be 637c 603e dad2 313e
000003b0: 469e 2abe 8a9c 313e c026 bd3d 0d74 0f3e
000003c0: 4139 6c3e 29df 913e ec7a 923e 4245 983e
000003d0: 8cba 13bd 01fa 9b3e 21c5 50be 39ee 6c3c
000003e0: 8d26 50bd 6107 cf3d 11be 15be 98b4 8f3e
000003f0: a170 d0bd 634d 5a3e 071c 4bbe de6d 0e3e
-0.18351676 0.09961966 0.17693265 -0.18127146 -0.2005504 -0.25176355 -0.061963648 -0.083872326
0.13607971 -0.2596563 0.3059775 0.056301028 0.31005743 -0.0379472 0.21834788 0.0413625
0.13529317 0.3172163 0.29869503 -0.23667239 0.16626306 0.29602724 0.092149094 -0.30506417
-0.07413579 -0.29389095 0.26243317 -0.30358312 -0.24169864 0.20320557 -0.27327958 -0.07690601
-0.21660371 0.24946584 -0.06856503 0.15640624 0.016047621 0.1282991 -0.19159484 0.19288115
0.058024205 -0.050197367 0.17758045 0.2094726 0.17311028 0.27745107 0.13033353 0.2523936
0.06690889 -0.3387137 -0.14373013 0.1740588 0.25129393 0.2385532 0.15206225 0.11308052
0.17379163 0.19083276 0.31106305 0.090757385 -0.085477605 -0.268017 0.17774348 -0.27246258
-0.12491889 -0.24654233 0.03258419 0.018707866 0.051520955 -0.012840464 0.2795394 0.26987368
0.15216303 -0.010342891 0.15243237 -0.20317864 0.13840503 -0.30807415 0.20240454 0.0965895
-0.083024584 0.079892844 -0.10750275 0.13713825 -0.23261978 -0.15479478 -0.09019219 0.13153793
-0.29972196 0.057181884 -0.19794232 -0.24239095 0.22343989 0.27272168 0.16778035 -0.2564311
-0.052409425 0.33569705 -0.042897783 0.01020957 0.35223436 0.19766301 0.14083134 -0.22455285
-0.2436002 -0.34458637 0.208036 0.13790847 0.12615655 0.0047038817 0.12536146 0.12180216
-0.13667555 -0.24269208 -0.3127139 -0.11174844 -0.11703488 0.036207564 -0.266746 -0.2688992
0.11932964 -0.08657803 -0.09189789 -0.23850067 -0.03629458 -0.08441659 -0.22272357 0.15596351
0.23576733 0.24777313 -0.021461833 0.26000464 -0.088850155 -0.22618915 0.1697376 0.15700218
0.19260618 -0.25211287 0.29563805 0.005330165 -0.02200568 -0.0682941 -0.036343727 0.18392363
0.034080118 -0.12650806 -0.12247362 -0.28254637 0.099575385 -0.31377816 0.06771824 0.1813376
0.030756349 0.214318 0.051712006 0.17194313 -0.2706784 -0.31048858 -0.08136786 -0.27295482
-0.08554189 0.059938386 0.034814276 -0.27206957 0.013250257 0.28404754 -0.13530597 0.079847224
-0.10178739 -0.24600439 0.21208683 0.12348463 0.17955282 -0.2703521 -0.1586988 -0.1894645
0.22673248 0.03016288 -0.21953328 -0.028981185 0.30142808 -0.087009035 0.28217673 0.3107516
-0.24267828 -0.3142891 -0.11959634 -0.16793972 -0.020518105 -0.11597989 -0.18751049 0.17830583
0.174042 0.27108216 -0.19995436 -0.14566997 -0.29449803 -0.0033449933 -0.13038655 0.051826116
-0.09816052 0.35369897 0.17332876 -0.23657234 0.13395712 -0.010504901 0.045576308 0.18644948
0.029842524 -0.23094139 0.02132473 0.13015622 0.25458398 0.34747848 0.20980941 0.09664013
0.10259586 -0.03033309 0.2181303 0.038148783 0.21904549 0.28005317 0.0542499 0.2696177
-0.028784467 0.021195795 0.24970675 0.23788475 0.26103976 -0.08955311 0.13945056 -0.21997036
0.2614993 -0.22681402 0.2192245 0.1736559 -0.16661939 0.17344871 0.092359066 0.14009114
0.23068716 0.2849057 0.28609407 0.2974034 -0.036066577 0.30464175 -0.20387699 0.014461094
-0.050818015 0.10108829 -0.14623286 0.2806747 -0.10177732 0.21318583 -0.1983491 0.13909099

fc1.bias f4 [128]
00000000: 76fe 3d3e e744 20bd ca10 823d fd92 013e
00000010: 70b1 6b3e ebf4 4cbc 4604 ddbd c02a 783d
00000020: cf03 13bd 1eff 5d3e 2026 833e 685a fc3c
00000030: 27f4 c83d 8b35 8c3e b656 a83d 025c 98bc
00000040: 4269 87be edbe 723e f2b1 9a3e 0dbc 0dbd
00000050: 63ec f33d 3f25 13be 8918 49be 23a1 7ebd
00000060: b727 0f3e 8ca8 f73d 337d 4f3e 6197 903d
00000070: 98fd 243e 8f88 5d3e 2c5e 103e d83a 603e
00000080: e97d 133e 90cf f8bc 0500 dbbb 424d 363e
00000090: 6201 e13d 84e5 8c3e eb59 073e 1cbf 0a3e
000000a0: cec6 363d 14af cbbd 7be4 053e be56 68be
000000b0: da09 803e ba22 0f3e 1404 993e 8a5d 363d
000000c0: c56b 13bd f66c 84be fa5e 94be 3fa0 b43d
000000d0: bc72 86bd e903 b83d 68ab 963c 3440 853e
000000e0: 2378 6e3e a7ff bbbd 272b 49be 993c 363e
000000f0: 7de8 d53d ea36 4abe eb2e 593e 4181 8c3e
00000100: 29d1 35be f3ab 6ebc 1705 a63d 8ce5 833e
00000110: b5ea 86be 200b 973e 9cfd 4abe 8c84 303e
00000120: 8dcf 88be e242 8e3e ecd1 a43e 0580 0e3e
00000130: 53cc 39bc d8cc e63d 1e25 c0bd e33d 2d3e
00000140: eb18 99be ec31 02be 89a5 db3c 6f9f 8abe
00000150: dba7 593e 6d03 2cbe 08ce fd3d 14e8 763c
00000160: 5c20 53be a43b ce3d 77c2 2ebe c94f b0bd
00000170: 39e6 5d3e 1da5 47be d325 42be 9cce 32be
00000180: f04f 9b3e 50dc 95be d1ba 02be 302d 963e
00000190: bc0f f5bd af95 89be eb4a 6b3e a8d5 103e
000001a0: de76 42be b162 a0be c874 423e 1113 a7bd
000001b0: c0ce 263e 5974 9abd 4d12 27be 9db9 9b3e
000001c0: 2380 303e f14c 7fbd 9ba7 a73e 240a 68be
000001d0: 7310 91be 5975 303d 7aad 62be 9bf1 ccbd
000001e0: e868 93be 3770 573e 8bf6 f33c 3755 6cbe
000001f0: a268 533e e181 bf3d d6f5 863e a0c3 923e
0.185541 -0.03912821 0.063508585 0.12653728 0.23016906 -0.012509565 -0.10791831 0.060587645
-0.035892304 0.2167935 0.25615025 0.030804828 0.09812193 0.273846 0.08219664 -0.01859856
-0.26447493 0.23705645 0.30213886 -0.034603167 0.119103216 -0.14369677 -0.19638266 -0.06216539
0.13979994 0.12092695 0.20262603 0.07060123 0.16112363 0.21634124 0.14098424 0.21897447
0.144035 -0.030372411 -0.006683352 0.17802909 0.10986592 0.27518857 0.13217895 0.13549465
0.04462319 -0.09945503 0.1307544 -0.2268934 0.25007516 0.13978091 0.29885924 0.0445228
-0.03599145 -0.2586438 -0.2897871 0.08819627 -0.065648526 0.08985121 0.01839228 0.26025546
0.23288016 -0.09179621 -0.19645368 0.17796554 0.10444734 -0.1974751 0.21209304 0.27442363
-0.1775557 -0.014567363 0.081064396 0.25761068 -0.26350942 0.29500675 -0.19823307 0.17238063
-0.2672085 0.27785403 0.32191408 0.13916023 -0.011340219 0.112695396 -0.093820795 0.16918139
-0.29901823 -0.12714356 0.026812332 -0.27074763 0.21255438 -0.16798182 0.12392813 0.01506998
-0.20617813 0.10069969 -0.1706637 -0.08608968 0.21669854 -0.1949658 -0.18959741 -0.17461628
0.30334425 -0.29269648 -0.12766577 0.2933135 -0.11965892 -0.26872012 0.22977798 0.14144003
-0.18990657 -0.31325296 0.18989861 -0.081579335 0.16289806 -0.07541723 -0.16315575 0.3041505
0.1723638 -0.062329236 0.3274506 -0.22660118 -0.28332862 0.04308066 -0.22136489 -0.1000702
-0.28790975 0.210389 0.029780647 -0.23079382 0.20645383 0.09350944 0.26359433 0.28664875

fc2.weight f4 [128, 128]
00000000: 373a 893b 6280 5fbd f299 cbbc b387 28bd
00000010: b91b 9abd bfbd a2bd f944 2dbd ee01 a3bc
00000020: ed34 19bd 0049 3dbd 6cca a5bd 5c89 b43c
00000030: deee 9fbd eb69 c93c 7717 d73c 6737 9fbb
00000040: 1239 60bd 9409 07bd 98cf e9bc a77f b3bd
00000050: 64c2 843d ecad a3bd 9d8d 753c 4443 52bd
00000060: 653d ea3b 64ec 91bd bf66 903d 1aff 223d
00000070: 9e81 e43c 4a95 bdbc 0616 8cbc a20f 8c3d
00000080: 6f52 b3bc a312 853b 5d57 15bd d39b 833d
00000090: 3d4d b3bc b111 2e3c 781e 873d 0d20 613d
000000a0: 7e04 4f3d 25e6 8dbd 564e 1bbd 78a0 5fbc
000000b0: b8eb af3c 6aef 883d 55de 243d 4ba2 72bc
000000c0: 2181 473c 92d8 873c a35c 473d c8e8 2fbd
000000d0: 6cdc abbd 58d8 a6bd c78f fa3c 31c0 65bd
000000e0: e4c4 21bd 22c5 253d 52de a83d 4fc3 3d3d
000000f0: a38a 893d 1fcb 1b3b 33c2 ea3c a0d3 84bd
00000100: 8d2e 843d 64cf 05bc f356 a7bd f22b 8c3c
00000110: 140f 2b3d 442f a73d 3934 7bbc 969c 383c
00000120: 16d8 fdbc 4aef 373d 4d5e 4c3b 5e2f 833d
00000130: 2bec 943c bc9a d03b 2136 febc 4f12 80bd
00000140: f7c5 14bd 9740 b1bc bdf8 11bd 80e2 cdbc
00000150: 6863 aabd 639c 8a3b b1da 3a3d 9a2d 4d3d
00000160: fa7d 35bd 2d98 193c 4062 a53d 79bd 2ebd
00000170: 91dc 4dbd 9831 293d 746f adbd 0841 873d
00000180: a0c4 43bd 9cfc 183d 2e40 48bc 76c0 8d3d
00000190: 9c12 6f3c a4b0 e4bc 46c1 d03b 3af8 893d
000001a0: cd0e 643d 07d1 ccba 5147 87bd ca9b 323d
000001b0: e38b 4cbd 82b3 92bd e629 3bbd 2094 1a3c
000001c0: b968 1f3d abf1 653d cc00 acbd 2ce2 18bd
000001d0: 49e6 e13c d533 02bd 25ec 853d 42de a83d
000001e0: 5d2c 0abd 2a9c d63b 5dc3 8a3d f254 7e3d
000001f0: 915e 113d 91e7 613d 1ef3 b0bb 4c10 613b
00000200: b2e2 13bc 6693 e43c 71fa f1ba b05a fc39
00000210: 5472 66bc 1dce acbd be99 a7bd 2b50 dfbc
00000220: c0e2 67bd 536d cdbd 8795 81bd e6ab 103d
00000230: f81c 143c d7c8 cabc 4bef 453d 333c 833d
00000240: 13eb 8ebc 2381 633d 00cf 38bd 9e10 d23b
00000250: af15 58bd c068 f13c b3fb 06bd c185 0d3d
00000260: 5643 8e3c 043d c2bd 56ce 5f3c 24f2 b93b
00000270: 2d34 aebd cfbe 5e3d 5023 753b 7625 e1bc
00000280: 3fef a8bc 1601 a13c f1f5 74bc b68f 7cbd
00000290: ad75 7bbd 6b5b b8bd b5c1 86bb c8c3 783d
000002a0: 2ccf 91bc 772a afbd 3b6d eb3c 1ddb 6c3d
000002b0: ca93 8ebd 9fcd bcbd e13b 813d 1246 063d
000002c0: 7434 e43b bbb6 4c3d 8825 3b3d 910d 093d
000002d0: f415 973d 0dc1 4c3c 3d43 3a3d 882d 8e3d
000002e0: eadf 9c3d 243b ffbb 2500 373d e186 9a3d
000002f0: a401 383d ccd3 fbbb 2c19 e03b 2bb5 2fbd
00000300: 37c5 5b3c c697 09bc 4421 c33c e171 26bd
00000310: 7895 063d 4844 b9bd 679c b23d b0b8 723c
00000320: 38fb fd3c e018 b4bd 64e4 963d 9fd4 54bd
00000330: bb60 c9bb a9a4 583d b37d 1cbd 1467 0abd
00000340: a015 38bd ef70 25bd db44 04bd c2c6 3ebc
00000350: 67ff b1bd 7909 6d3d c6d5 b6bd 77e7 80bd
00000360: 4907 463b e84c 353d 1448 793d e61b babd
00000370: b713 09bd 66e1 643c 45c7 8dbd 930a 4abd
00000380: b84c 893c 6353 1bbd aa78 4b3d 6574 0f3d
00000390: 7eb6 8a3d a6e0 893b b115 8bbd ff16 e9bc
000003a0: e4b4 cdbd eafc 99bc 506c 8abd 9828 8fbd
000003b0: fb8f aabd 24f0 943d e09e 79bc 1f11 2a3d
000003c0: 0e48 aebd 4131 edbc d0ba 35bb 3947 d6bc
000003d0: 8f2d a23d 494c 0dbc 1a2e e13b cd75 c13c
000003e0: 0f7c 01bc c9dd a7bd cc0d 3ebc c5b9 b03c
000003f0: ad32 d13c 5f04 92bd 32ff b3bd 265b acbd
0.004187848 -0.054565795 -0.02485368 -0.041145038 -0.07524819 -0.079463474 -0.042302106 -0.019898381
-0.03740399 -0.046212196 -0.080952495 0.022038154 -0.07809232 0.024586638 0.026256306 -0.0048588994
-0.054741926 -0.03296812 -0.028541371 -0.08764582 0.064823896 -0.07992157 0.0149873765 -0.05133368
0.007148432 -0.07125166 0.07050847 0.039794065 0.027893838 -0.023142476 -0.017100345 0.06838919
-0.021889893 0.0040610596 -0.03646027 0.064262055 -0.021887416 0.010624335 0.06597608 0.054962207
0.050541393 -0.06928662 -0.037916504 -0.013649099 0.021474704 0.066862896 0.040251095 -0.0148092015
0.012176783 0.016582761 0.04867233 -0.042946607 -0.083916515 -0.08146733 0.030586137 -0.05609149
-0.03949441 0.040471204 0.08245529 0.04632884 0.06715896 0.0023772193 0.028657055 -0.06485677
0.06454191 -0.008167122 -0.08170881 0.017110799 0.041762426 0.08163312 -0.015332275 0.011267802
-0.030986827 0.04490594 0.0031184137 0.06405519 0.01817902 0.006366102 -0.03103167 -0.06253492
-0.036321606 -0.021637244 -0.035637606 -0.025132418 -0.083197415 0.0042300685 0.045618717 0.050092317
-0.044309594 0.00937466 0.0807538 -0.042661164 -0.050259177 0.041307062 -0.084685236 0.066042006
-0.047794938 0.037350282 -0.012222333 0.06921475 0.014591839 -0.02791626 0.0063706962 0.067367986
0.055678178 -0.001562626 -0.066053994 0.043605603 -0.049938094 -0.07163145 -0.045694254 0.00943473
0.03891823 0.056138676 -0.083985895 -0.03732507 0.027575629 -0.031787712 0.065391816 0.08245517
-0.033733714 0.006549378 0.06775544 0.06209273 0.035490576 0.05515248 -0.0054000756 0.003434199
-0.009026216 0.027902316 -0.0018461478 0.00048132753 -0.014065344 -0.084377505 -0.08183621 -0.027259907
-0.05661273 -0.100306176 -0.06327348 0.035320185 0.00904011 -0.024753971 0.04832391 0.064079665
-0.017446076 0.055543076 -0.045119286 0.0064106723 -0.052755054 0.029468894 -0.032954883 0.034551386
0.017366093 -0.09484294 0.013660034 0.0056746174 -0.085060455 0.054381188 0.003740508 -0.027483683
-0.020621894 0.019653838 -0.014951215 -0.06166049 -0.06139152 -0.090018116 -0.004112447 0.060733587
-0.017798983 -0.085530214 0.028738609 0.05782615 -0.06961782 -0.092189066 0.06310249 0.032781668
0.0069642607 0.049978953 0.04569009 0.033460204 0.07377234 0.012497199 0.04547428 0.06942278
0.07659896 -0.0077890325 0.044677872 0.07545257 0.04492344 -0.0076851603 0.006838938 -0.042897385
0.013413719 -0.008398002 0.023819573 -0.040635947 0.03285739 -0.09046227 0.08721238 0.014814541
0.03100358 -0.08793807 0.07367781 -0.051960584 -0.0061455644 0.052891407 -0.038205814 -0.03378971
-0.0449425 -0.040390905 -0.03229223 -0.011644067 -0.08691292 0.057870362 -0.08927493 -0.062941484
0.0030216745 0.044262797 0.060859755 -0.090873525 -0.033466067 0.013969755 -0.06922773 -0.04932649
0.016760215 -0.03792132 0.04967562 0.03502311 0.06773089 0.0042076884 -0.06791247 -0.028453348
-0.10044268 -0.018797357 -0.0675894 -0.069901645 -0.08328243 0.07272366 -0.015235633 0.041520234
-0.08509837 -0.02895415 -0.0027729757 -0.026157008 0.07918846 -0.008624145 0.006871951 0.023615742
-0.007903113 -0.08196599 -0.011599969 0.021572957 0.02553686 -0.0712974 -0.08788909 -0.08415823

fc2.bias f4 [128]
00000000: e1c9 35bd 93da 503d 2710 7d3d 8761 61bc
00000010: 7d88 89bb 058a c13d e734 b0bb f619 d5bb
00000020: b201 a7bd 96af ed3d 4381 b13d b79b 183d
00000030: b56c e1bb 9714 04bd 51ab 53bd 6246 abbd
00000040: bdc1 b1bd 12ec 97bd 7156 b1bd c868 7d3d
00000050: 3fac 633c d58a 43bd 573e 47bd d959 e33d
00000060: 0f94 853d 52e9 073c 1eef c63d 4215 e73c
00000070: 69c7 ce3d 7ea3 643d 8719 92bb e885 083e
00000080: aa6c 6b3d c3d8 a1bd 496b 02bb 7181 e4bc
00000090: e440 c83d f3a8 dc3c de97 45bd 0707 aa3d
000000a0: 5470 66bb be4d c0ba 8c41 8e3d d998 04bd
000000b0: 666d e3bb a1a9 6e3d 68c5 0ebd a1e4 3cbd
000000c0: 8c6f f4bc 45ad 0b3d 60bc 7dbd 20de b8bc
000000d0: 81c1 3bbd 2d15 aebd f591 85bd 4007 733c
000000e0: 7962 7abd 37ea adbc d26a d8bc 33d3 8d3d
000000f0: c286 313a 9b23 d53c 6570 d83c 2924 0fbd
00000100: 50d0 9d3d 87b0 0b3c bf25 a93c e867 403d
00000110: 8c6c 773c 3805 30bc e51f 983d 671d ae3c
00000120: f5de b23d ac02 7b3c 36cb 71bd 2a2b 073d
00000130: 4d3f 5dbd cf6a 80bb f167 07bd dcdc 253d
00000140: a7a6 b6bc 6b05 17bb 9535 3c3d f0f0 a5bd
00000150: ec5f 33bd aa2d 51ba 280c b1bd 535e 87bd
00000160: ad2b 78bd ff32 1f3d 02ee 613d b3a2 babd
00000170: 6e16 0f3c 2c83 a43c 9dbc 833d 31d9 b0bd
00000180: db6d f53c e21d ccbc 1ece 10bc 037f e8bc
00000190: 5cb1 0a3d 4886 2dbd d12f 2dbd 3efe 9dbd
000001a0: 7b71 6f3d 5746 b3bc 9681 203d c0f6 ed3d
000001b0: d345 44bd f849 853d acd8 243d cde0 6f3b
000001c0: fee9 923c 6252 073d 431e 693c d282 033e
000001d0: ee3f 9f3d 17e5 84bb 8183 5ebd 64da 1d3d
000001e0: 778e 7d3d 4a91 0dbd 17d6 58bc a62b 49bd
000001f0: bac1 41bc 7df4 a1bd 08e6 93bd 8556 953d
-0.04438198 0.0509897 0.061782982 -0.0137561625 -0.004197179 0.09450153 -0.0053774 -0.006503339
-0.0815462 0.11605756 0.08667233 0.037257876 -0.006879414 -0.0322462 -0.051677052 -0.08363034
-0.08679531 -0.07418074 -0.086590655 0.061867505 0.013896047 -0.047739822 -0.048643436 0.111011215
0.065223806 0.008295374 0.09713577 0.028208379 0.10096628 0.05581998 -0.0044586095 0.13332331
0.057476677 -0.07902672 -0.0019900373 -0.027893754 0.09778002 0.02693603 -0.048240535 0.083021216
-0.0035162168 -0.0014671606 0.06946096 -0.03237233 -0.0069405315 0.05826724 -0.03485623 -0.046116475
-0.029838346 0.03410079 -0.061947227 -0.022566855 -0.045838837 -0.08500133 -0.0652198 0.0148332715
-0.061129067 -0.021229846 -0.026418123 0.06925049 0.00067720946 0.026017955 0.026420781 -0.034946594
0.07705748 0.008525974 0.020647882 0.046974093 0.015101563 -0.010743432 0.074279584 0.021254255
0.08733932 0.015320461 -0.059031688 0.03300015 -0.054015446 -0.0039189826 -0.03305811 0.04049383
-0.022296263 -0.0023044 0.045949537 -0.08102596 -0.04379265 -0.0007979522 -0.08644897 -0.06609788
-0.060588527 0.038866993 0.055158623 -0.09113064 0.008733375 0.020082079 0.064324595 -0.08635176
0.02995961 -0.024916593 -0.008838205 -0.028380876 0.03386055 -0.04236439 -0.04228193 -0.077145085
0.058457833 -0.021884127 0.039186083 0.116193295 -0.047918152 0.06508249 0.040245697 0.0036602498
0.017933842 0.03303755 0.014228406 0.12842873 0.077758655 -0.00405563 -0.05432463 0.03853835
0.061903443 -0.034562387 -0.013234637 -0.049113892 -0.011825973 -0.079079606 -0.07221609 0.07291893

fc3.weight f4 [5, 128]
00000000: 9312 943d f338 09bd 3816 b4bd 1ae7 b13d
00000010: a252 84bd 87d3 9bbc 0627 48bd e818 4b3c
00000020: 2158 3cbd eb27 a4bc 24af b7bd 941a b6bd
00000030: c5b8 fc3c 1394 99bd ce15 d33c 84bf 203d
00000040: a223 7a3d 461a 5b3c ba58 05bc 2403 8abc
00000050: a60c 2fbd 1b6c afbd e783 363d c8a0 e8bd
00000060: 0a1f 6e3d 61f9 823d 0b12 f63c 9301 4b3d
00000070: 16fb 05be 1434 a2bd 5272 78bd 2d07 3dbd
00000080: f01d aebd 685a 513c b5b4 83bb 986f a0bd
00000090: 17af eabd f89e c9bd 0aea d13c 6bb8 91bd
000000a0: 7555 64bd cf34 a7bd 0fe9 aa3d cb89 92bd
000000b0: f845 ff3c 1390 8cbd e7cb 0bbd 6d15 723d
000000c0: 34f1 7abd 0649 04be 2794 c7bc c90c 353c
000000d0: 69d1 7dbc f4a3 9f3d 8e75 cf3c 6aa5 f5bd
000000e0: 0928 da3c e06e 06be 7625 95bd 2bc2 a63d
000000f0: 4108 bebd 1945 cb3c c915 ea3c 9358 48bb
00000100: dc2e 96bd 537b ffbd 990a 763c 084b a13d
00000110: 829b 13bd 8136 843d 1598 1cbd c1e8 8d3d
00000120: b9d1 c7bd feb5 68bc ef64 9b3d 2367 6e3d
00000130: 0723 3e3d 27cb 823d 621a 0b3c e422 543d
00000140: 6641 fabc be1f af3d fc2b c3bc ee65 94bb
00000150: 096c e7bc a7ba 2ebd 0378 bdbc bf45 663d
00000160: e11c 29bd daca 35bc 05cc a13c 5a44 76bd
00000170: 318c f73c e0cd 1a3c 48d8 cb3c 6432 813b
00000180: 5999 abbd b7b5 873d fb57 843d 2ded 30bd
00000190: 5675 a43b cf9c febd 3236 a73d 6ed6 b13c
000001a0: 005f eabd 2b8d ea3a 6b68 543d 9064 71bd
000001b0: 8027 aabd 244c 4bbd 18ff 34bd a9d9 1f3d
000001c0: d98a 52bd afb4 823d a619 f0bd 1e8e cebd
000001d0: c9e9 9bbd 0a17 71bd ac32 583d cb6b 9ebd
000001e0: 4323 f4bb eb9c 733d 96b5 a9bd e414 483d
000001f0: c895 a93d 4976 07bd 86c4 49bd b1b4 edbc
00000200: 5b32 fdbc 59cd 803c ff25 323d 0ef0 133d
00000210: 5532 77bd 97d1 8b3c 8ed7 53bd 91fd 1bbd
00000220: 4228 423d 231c b8bd 17fc 87bd d358 ccbd
00000230: 2880 593d 8038 593d d56d 093c 7e03 4abd
00000240: 5738 81bd 7782 9bbd 58e3 2d3d edab b0bd
00000250: 9b59 503d 5a43 9ebc a13d a1bd ae7a e5bd
00000260: 1980 dabc a7f9 443d 33c6 61bd daa5 523d
00000270: 13fb 88bd c16e ad3d 31f2 a33d 3c7b b0bd
00000280: cf11 0bbc df51 f8bb c500 863d 229a f7bc
00000290: f74c bb3c a66a 4ebd 4df9 833d 6b97 ff3b
000002a0: 432e d43b 2e9f 8b3d 671f 943d ba8d 9a3d
000002b0: dd5d a2bd 67d5 653d 4204 e5bd b81a 863d
000002c0: d0c8 4dbd f1ad 3d3c 9639 76bd 8eb0 8abd
000002d0: ba30 76bd 9602 15bd c45b 98bd 4c31 e8bc
000002e0: e49e 8abd 103e 16bd e07a a03c 06c1 77bd
000002f0: 1d8c 05bc 9af1 84bd 41ab 67bd 0c68 04bd
00000300: c239 79bc 4d7a 6ebd 0924 753c e68b 9ebd
00000310: c1ff 85bd 492d ea3c 9534 ae3c f393 1a3c
00000320: 2457 66bc 6243 743c 1f49 523d b59a 0abd
00000330: 7cc9 37bd e86b 833d 2375 4ebc d6da a3bc
00000340: 1feb b3bc 656b d2bb a0f8 d4bc 331c 97bd
00000350: 0cbd c9bb 5f73 abbd 9933 813d 79e4 9ebc
00000360: 6e38 b63c a7b8 1fbd 194c 0fbc 60f6 c03c
00000370: 6568 253d 7834 c43c f60d 363d 13c2 663d
00000380: 53bb 89bd db4f 0f3d 6b35 8d3d f09b 89bd
00000390: c776 b8bd a248 88bd 9897 d5bc 35ba cbbc
000003a0: c2b0 b5bd b3d8 513d 487a 98bd 61ce f1bd
000003b0: 80cc 2e3d a93b 31bd d592 e8bb f751 80bd
000003c0: 3aa6 263c f716 11bd 8f4f cfbd f540 73bc
000003d0: 7adc 1fbd 102d a8bd feec 39bc 716e 67bd
000003e0: 40c7 bebd 6279 b43b be77 83bd 129b 47bd
000003f0: dd57 9bbc 8c1c 94bd 9a7c 9abd 30c3 313d
0.07230105 -0.033501577 -0.087933004 0.08686657 -0.064610735 -0.019021763 -0.04886534 0.012396075
-0.045982484 -0.020038566 -0.08968952 -0.08891788 0.030849824 -0.07498946 0.025767233 0.039245144
0.06106914 0.013372963 -0.00813883 -0.0168472 -0.042736672 -0.08565541 0.044559386 -0.113587916
0.05813507 0.063952215 0.0300379 0.04956205 -0.13084063 -0.07920089 -0.0606559 -0.04614942
-0.08501804 0.012777902 -0.0040193447 -0.07833785 -0.11459177 -0.09844774 0.025624294 -0.07115253
-0.05574556 -0.08164369 0.08345234 -0.07155188 0.031161293 -0.068634175 -0.034130003 0.059102464
-0.061265185 -0.12918481 -0.024362637 0.0110504115 -0.015491822 0.077949435 0.02532461 -0.11994441
0.026630418 -0.13128233 -0.07282536 0.08142503 -0.09278918 0.024813222 0.028574841 -0.0030570372
-0.073331565 -0.12474694 0.015017175 0.07875639 -0.036036976 0.06455708 -0.038230974 0.0692916
-0.09756798 -0.014203547 0.07587611 0.058203828 0.046420123 0.063864045 0.008490177 0.051791087
-0.030548763 0.08550976 -0.023824684 -0.0045287525 -0.028249757 -0.042658474 -0.023128515 0.05621886
-0.041287307 -0.011095727 0.019750604 -0.06012378 0.030218216 0.0094484985 0.024883404 0.0039427746
-0.08378858 0.06626456 0.064620934 -0.04319494 0.0050188703 -0.124322526 0.08164634 0.021708693
-0.11443901 0.0017894855 0.051857393 -0.058933794 -0.08308315 -0.04963316 -0.04418859 0.039025936
-0.051401947 0.06382119 -0.11723642 -0.100857005 -0.0761295 -0.058859862 0.0527827 -0.077354036
-0.0074504926 0.05947582 -0.08286588 0.048848048 0.08280522 -0.03307179 -0.049259685 -0.029016824
-0.0309078 0.015722917 0.043493267 0.036117606 -0.060350735 0.017067714 -0.05171924 -0.038083617
0.047401674 -0.08989742 -0.06639879 -0.099778794 0.053100735 0.0530324 0.008388002 -0.049319737
-0.06309574 -0.075932436 0.04245314 -0.08626542 0.050866704 -0.019319225 -0.07873083 -0.1120504
-0.02667241 0.04808965 -0.055120658 0.0514277 -0.066885136 0.0846839 0.08005179 -0.08617255
-0.008488133 -0.007578119 0.065431155 -0.030224863 0.022863848 -0.050394677 0.06444035 0.007800033
0.0064752414 0.068174705 0.07232552 0.075465634 -0.07928059 0.05611172 -0.11182453 0.06548065
-0.050240338 0.011577115 -0.060113512 -0.067719564 -0.060105063 -0.03637942 -0.07439378 -0.02834382
-0.06768587 -0.03668028 0.019589841 -0.060486816 -0.008151081 -0.06491394 -0.056559805 -0.03232579
-0.015211524 -0.058222104 0.014962205 -0.07741527 -0.06542922 0.028586047 0.021265307 0.009434688
-0.014058862 0.014908643 0.051339265 -0.033838946 -0.044869885 0.06417066 -0.01260117 -0.02000181
-0.0219627 -0.006421494 -0.02599746 -0.073784254 -0.0061565693 -0.08371615 0.063086696 -0.019396054
0.022243705 -0.038994458 -0.00874617 0.02355498 0.04038276 0.0239508 0.044446908 0.056337427
-0.067251824 0.034988265 0.06894954 -0.06719196 -0.0900703 -0.066544786 -0.026073262 -0.024869064
-0.088716045 0.05123205 -0.07445198 -0.11806942 0.042675495 -0.043269787 -0.007097582 -0.062656336
0.010171467 -0.03542229 -0.101225965 -0.01484703 -0.039028622 -0.0821172 -0.011348007 -0.05650181
-0.09315348 0.005507634 -0.064193234 -0.04873187 -0.018962795 -0.072320074 -0.07543297 0.043399036

fc3.bias f4 [5]
00000000: e44e fdba 10aa 213d 229b 5e3c 4a62 0b3c
00000010: 435a 403c
-0.0019325879 0.039468825 0.013586791 0.008507321 0.01174027

fc1.weight f4 [128, 10]
00000000: 968d 3cbe c93e cc3d 3f32 353e 7365 39be
00000010: 532d 4dbe c7eb 80be fbbb 7dbd 70bc abbd
00000020: df5c 0b3e e0f3 84be 5945 9c3e e71c 673d
00000030: 40c2 9e3e 8d6c 1abd 5acd 5f3e 0142 293d
00000040: 198f 0a3e 956c a23e f4f0 983e 0d5f 72be
00000050: dd40 2a3e e290 973e aab8 bc3d 5f31 9cbe
00000060: 81d4 97bd e078 96be a45d 863e 3f6f 9bbe
00000070: d97f 77be 1f15 503e 4deb 8bbe e680 9dbd
00000080: 5dcd 5dbe f973 7f3e d36b 8cbd f528 203e
00000090: 4d76 833c d760 033e 7031 44be a382 453e
000000a0: d7e8 6a3d 7f1d 4dbd 91db 353e 5cba 563e
000000b0: 2177 313e 6008 8e3e 0d7a 053e b03b 813e
000000c0: 4c0f 893d d86d adbe 86d4 13be 875a 323e
000000d0: 74ab 803e d57d 743e bae5 1b3e 4780 e73d
000000e0: 1efa 313e 5b6d 433e 7f45 9f3e 94d7 b93d
000000f0: fc60 b0bd ba2a 89be c006 363e a962 8bbe
00000100: 3a71 ffbd de7e 7cbe 7288 053d 2c64 993c
00000110: 0819 533d a2a6 52bc ca1f 8f3e e22c 8a3e
00000120: a0d0 1b3e 3b75 29bc 3b17 1c3e 100e 50be
00000130: 0cba 0d3e e5bb 9dbe 2343 4f3e b7d0 c53d
00000140: cb08 aabd dc9e a33d 672a dcbd f86d 0c3e
00000150: e133 6ebe 8682 1ebe afb6 b8bd e1b1 063e
00000160: 2875 99be 8d37 6a3d 4451 4bbe bb17 78be
00000170: 1ed1 643e b0bc 8b3e e6fc 2b3e 7b50 83be
00000180: a19c 56bd 51e2 ab3e 00a7 2fbd fe0a 273c
00000190: 1204 b43e b485 4a3e ca39 103e 6fba 65be
000001a0: 1243 79be 0d73 b0be 110b 553e 8f3b 0d3e
000001b0: d932 013e 9dac 993b c15e 003e 6973 f93d
000001c0: adf4 0bbe 4684 78be 091c a0be 5edc e4bd
000001d0: fcaf efbd 624e 143d ef92 88be 28ad 89be
000001e0: c534 f33d ec13 b1bd a12d bcbd 6204 74be
000001f0: 6af0 13bd b9f9 acbd 050e 64be 87b8 1f3e
00000200: 9c70 713e 92b4 7d3e 3a56 b5bc ef2e 853e
00000210: d0ee b5bd e963 67be c302 2e3e 4cba 203e
00000220: ab3e 453e e112 81be ec5f 973e 8224 ae3b
00000230: 4145 b4bc c7dd 8bbd 29dd 14bd 7a56 3c3e
00000240: 9897 0b3d 548b 01be 73d3 fabd eba9 90be
00000250: 2eee cb3d 88a7 a0be dcaf 8a3d 90b0 393e
00000260: bdf4 fb3c 2e76 5b3e f8cf 533d dc11 303e
00000270: 5c96 8abe 5cf8 9ebe 31a4 a6bd bcc0 8bbe
00000280: 9630 afbd f481 753d 6a99 0e3d b44c 8bbe
00000290: 9b17 593c ae6e 913e a68d 0abe f186 a33d
000002a0: e875 d0bd 93e8 7bbe 4a2d 593e 82e5 fc3d
000002b0: b2dc 373e 976b 8abe f081 22be fb02 42be
000002c0: 8f2c 683e 2518 f73c 55cd 60be f369 edbc
000002d0: c854 9a3e cb31 b2bd 7879 903e d51a 9f3e
000002e0: a880 78be 80ea a0be edee f4bd 64f8 2bbe
000002f0: 9615 a8bc dd86 edbd c002 40be ce95 363e
00000300: 1138 323e 48cb 8a3e d6c0 4cbe 822a 15be
00000310: 72c8 96be ad37 5bbb 0d84 05be 9f47 543d
00000320: 537e cabd 0d28 b53e 6881 313e bc04 72be
00000330: 5760 093e 44ce 2cbc 69bf 3a3d eaf0 3e3e
00000340: 939a f43c 3680 6cbe 474f a93c 2266 053e
00000350: 9b5a 823e 6204 b23e 7f08 573e 42d4 c53d
00000360: d124 d23d e860 f8bc 0f61 5f3e b433 1c3d
00000370: 7cd6 5f3e 3771 8f3e 4b40 5e3d 6f21 8a3e
00000380: 9292 eabc b73f ad3c d7b5 7f3e c89a 733e
00000390: 5ba8 853e 326d b7bd c423 0e3e f521 61be
000003a0: 6ce5 853e 2909 68be 0bad 603e 7dc8 313e
000003b0: eb99 2abe e8a0 313e 732f bd3d ac6f 0f3e
000003c0: 4139 6c3e 29df 913e ec7a 923e 4245 983e
000003d0: 8cba 13bd 01fa 9b3e 21c5 50be 39ee 6c3c
000003e0: 8d26 50bd 6107 cf3d b572 16be c0c3 8f3e
000003f0: 3968 d0bd dd85 5a3e 5cea 4abe 5e63 0e3e
-0.18413386 0.09972913 0.17694949 -0.18105106 -0.20036821 -0.25179884 -0.06194685 -0.08385551
0.13609646 -0.25967312 0.30521658 0.056424048 0.31007576 -0.03770118 0.21855679 0.04132271
0.1353115 0.31723467 0.29871333 -0.23669071 0.16626306 0.29602724 0.092149094 -0.30506417
-0.07413579 -0.29389095 0.26243317 -0.30358312 -0.24169864 0.20320557 -0.27327958 -0.07690601
-0.21660371 0.24946584 -0.06856503 0.15640624 0.016047621 0.1282991 -0.19159484 0.19288115
0.05735096 -0.050076958 0.17759539 0.20969528 0.173306 0.27740765 0.1303484 0.2524085
0.06692371 -0.33872867 -0.1443654 0.17417346 0.25130808 0.23876126 0.15224352 0.11303764
0.17380568 0.19084685 0.3110771 0.090743214 -0.08612248 -0.2679041 0.17776012 -0.2722371
-0.12472768 -0.24657771 0.032600828 0.018724523 0.051537544 -0.012857111 0.2795394 0.26987368
0.15216303 -0.010342891 0.15243237 -0.20317864 0.13840503 -0.30807415 0.20240454 0.0965895
-0.083024584 0.079892844 -0.10750275 0.13713825 -0.23261978 -0.15479478 -0.09019219 0.13153793
-0.29972196 0.057181884 -0.19855219 -0.24227802 0.22345397 0.27292395 0.16795692 -0.2564734
-0.052395467 0.33571103 -0.042883873 0.010195492 0.35159355 0.19777566 0.14084545 -0.224344
-0.24341992 -0.34462777 0.20805003 0.13792251 0.12617053 0.0046897666 0.12536146 0.12180216
-0.13667555 -0.24269208 -0.3127139 -0.11174844 -0.11703488 0.036207564 -0.266746 -0.2688992
0.11875299 -0.08646378 -0.091883905 -0.23829797 -0.03611795 -0.08446068 -0.22270973 0.15597735
0.23578113 0.24775913 -0.022135843 0.2601237 -0.088834405 -0.22596706 0.16993241 0.15696067
0.19262187 -0.25209716 0.2956537 0.0053144107 -0.02200568 -0.0682941 -0.036343727 0.18392363
0.034080118 -0.12650806 -0.12247362 -0.28254637 0.099575385 -0.31377816 0.06771824 0.1813376
0.030756349 0.214318 0.051712006 0.17194313 -0.2706784 -0.31048858 -0.08136786 -0.27295482
-0.08554189 0.059938386 0.034814276 -0.27206957 0.013250257 0.28404754 -0.13530597 0.079847224
-0.10178739 -0.24600439 0.21208683 0.12348463 0.17955282 -0.2703521 -0.1586988 -0.1894645
0.22673248 0.03016288 -0.21953328 -0.028981185 0.30142808 -0.087009035 0.28217673 0.3107516
-0.24267828 -0.3142891 -0.11959634 -0.16793972 -0.020518105 -0.11597989 -0.18751049 0.17830583
0.174042 0.27108216 -0.19995436 -0.14566997 -0.29449803 -0.0033449933 -0.13038655 0.051826116
-0.09887376 0.3538212 0.17334521 -0.23634619 0.13415657 -0.010547224 0.0455927 0.18646589
0.029858863 -0.23095784 0.020667685 0.13027242 0.2545975 0.3476897 0.20999335 0.096596256
0.102609284 -0.030319646 0.21814369 0.038135245 0.21859163 0.28016064 0.054260533 0.26978633
-0.028634343 0.021148546 0.2497171 0.23789513 0.26105008 -0.08956374 0.13880831 -0.2198561
0.26151597 -0.22659744 0.2194101 0.17361636 -0.16660278 0.17346537 0.09237566 0.14007443
0.23068716 0.2849057 0.28609407 0.2974034 -0.036066577 0.30464175 -0.20387699 0.014461094
-0.050818015 0.10108829 -0.14692195 0.28079033 -0.10176129 0.21340127 -0.19815964 0.13905093

fc1.bias f4 [128]
00000000: dd02 3e3e ae31 20bd ca10 823d fd92 013e
00000010: 56b5 6b3e f3b9 4cbc 8dfb dcbd c02a 783d
00000020: cf03 13bd c702 5e3e f627 833e 685a fc3c
00000030: 68fb c83d 9937 8c3e b656 a83d 025c 98bc
00000040: 4269 87be edbe 723e f2b1 9a3e 0dbc 0dbd
00000050: fbf4 f33d ba21 13be d115 49be b38f 7ebd
00000060: b727 0f3e edb0 f73d dd81 4f3e 369f 903d
00000070: 98fd 243e 588c 5d3e cf61 103e 363f 603e
00000080: e97d 133e 3eae f8bc 0500 dbbb 424d 363e
00000090: 6201 e13d 28e7 8c3e eb59 073e 1cbf 0a3e
000000a0: 3ad5 363d caa8 cbbd 7be4 053e 4d52 68be
000000b0: b60b 803e ff26 0f3e 4206 993e 8a5d 363d
000000c0: c56b 13bd f66c 84be fa5e 94be 3fa0 b43d
000000d0: 946a 86bd 4f0c b83d 68ab 963c 9b42 853e
000000e0: 2378 6e3e a7ff bbbd 272b 49be 993c 363e
000000f0: 7de8 d53d 0433 4abe 4933 593e 0d83 8c3e
00000100: 29d1 35be f3ab 6ebc bc0c a63d 8ce5 833e
00000110: b5ea 86be 820d 973e 9cfd 4abe 5988 303e
00000120: 8dcf 88be ff44 8e3e 0ed4 a43e 1c84 0e3e
00000130: 4a91 39bc d8cc e63d 691c c0bd e33d 2d3e
00000140: f616 99be e22d 02be a9c2 db3c 6f9f 8abe
00000150: dba7 593e 6d03 2cbe 46d5 fd3d 14e8 763c
00000160: c61c 53be f843 ce3d 18bd 2ebe c049 b0bd
00000170: 45ea 5d3e 72a1 47be 8321 42be 9cce 32be
00000180: f951 9b3e 50dc 95be 76b7 02be da2e 963e
00000190: bc0f f5bd af95 89be 104e 6b3e a8d5 103e
000001a0: ae73 42be b162 a0be c874 423e ca0a a7bd
000001b0: 31d3 263e 5974 9abd 4d12 27be 3abb 9b3e
000001c0: 2380 303e dc36 7fbd 5ba9 a73e 240a 68be
000001d0: 7310 91be 2382 303d 14a9 62be 9bf1 ccbd
000001e0: e868 93be 9474 573e 2813 f43c fc50 6cbe
000001f0: a268 533e e181 bf3d d6f5 863e a0c3 923e
0.1855578 -0.03910988 0.063508585 0.12653728 0.23018393 -0.012495506 -0.10790167 0.060587645
-0.035892304 0.21680747 0.25616425 0.030804828 0.09813577 0.27386168 0.08219664 -0.01859856
-0.26447493 0.23705645 0.30213886 -0.034603167 0.11911961 -0.14368334 -0.19637229 -0.06214876
0.13979994 0.12094293 0.20264383 0.07061617 0.16112363 0.21635568 0.14099811 0.21899113
0.144035 -0.030356523 -0.006683352 0.17802909 0.10986592 0.27520108 0.13217895 0.13549465
0.044636942 -0.09944303 0.1307544 -0.22687645 0.25008935 0.1397972 0.29887587 0.0445228
-0.03599145 -0.2586438 -0.2897871 0.08819627 -0.06563297 0.08986723 0.01839228 0.26027378
0.23288016 -0.09179621 -0.19645368 0.17796554 0.10444734 -0.19746023 0.2121097 0.27443734
-0.1775557 -0.014567363 0.08107898 0.25761068 -0.26350942 0.29502493 -0.19823307 0.17239513
-0.2672085 0.27787015 0.32193035 0.13917583 -0.0113261435 0.112695396 -0.09380419 0.16918139
-0.2990033 -0.12712815 0.02682622 -0.27074763 0.21255438 -0.16798182 0.12394194 0.01506998
-0.20616445 0.10071558 -0.17064321 -0.08607817 0.21671398 -0.1949518 -0.18958096 -0.17461628
0.30335978 -0.29269648 -0.12765297 0.2933262 -0.11965892 -0.26872012 0.22978997 0.14144003
-0.18989441 -0.31325296 0.18989861 -0.08156355 0.162915 -0.07541723 -0.16315575 0.3041628
0.1723638 -0.062308177 0.32746395 -0.22660118 -0.28332862 0.043092858 -0.2213481 -0.1000702
-0.28790975 0.21040565 0.02979429 -0.23077768 0.20645383 0.09350944 0.26359433 0.28664875

fc2.weight f4 [128, 128]
00000000: 373a 893b 6280 5fbd f299 cbbc b387 28bd
00000010: b91b 9abd bfbd a2bd f944 2dbd ee01 a3bc
00000020: ed34 19bd 0049 3dbd 6cca a5bd 5c89 b43c
00000030: deee 9fbd eb69 c93c 7717 d73c 6737 9fbb
00000040: 1239 60bd 9409 07bd 98cf e9bc a77f b3bd
00000050: 64c2 843d ecad a3bd 9d8d 753c 4443 52bd
00000060: 653d ea3b 64ec 91bd bf66 903d 1aff 223d
00000070: 9e81 e43c 4a95 bdbc 0616 8cbc a20f 8c3d
00000080: 6f52 b3bc a312 853b 5d57 15bd d39b 833d
00000090: 3d4d b3bc b111 2e3c 781e 873d 0d20 613d
000000a0: 7e04 4f3d 25e6 8dbd 564e 1bbd 78a0 5fbc
000000b0: b8eb af3c 6aef 883d 55de 243d 4ba2 72bc
000000c0: 2181 473c 92d8 873c a35c 473d c8e8 2fbd
000000d0: 6cdc abbd 58d8 a6bd c78f fa3c 31c0 65bd
000000e0: e4c4 21bd 22c5 253d 52de a83d 4fc3 3d3d
000000f0: a38a 893d 1fcb 1b3b 33c2 ea3c a0d3 84bd
00000100: 8d2e 843d 64cf 05bc f356 a7bd f22b 8c3c
00000110: 140f 2b3d 442f a73d 3934 7bbc 969c 383c
00000120: 16d8 fdbc 4aef 373d 4d5e 4c3b 5e2f 833d
00000130: 2bec 943c bc9a d03b 2136 febc 4f12 80bd
00000140: f7c5 14bd 9740 b1bc bdf8 11bd 80e2 cdbc
00000150: 6863 aabd 639c 8a3b b1da 3a3d 9a2d 4d3d
00000160: fa7d 35bd 2d98 193c 4062 a53d 79bd 2ebd
00000170: 91dc 4dbd 9831 293d 746f adbd 0841 873d
00000180: a0c4 43bd 9cfc 183d 2e40 48bc 76c0 8d3d
00000190: 9c12 6f3c a4b0 e4bc 46c1 d03b 3af8 893d
000001a0: cd0e 643d 07d1 ccba 5147 87bd ca9b 323d
000001b0: e38b 4cbd 82b3 92bd e629 3bbd 2094 1a3c
000001c0: b968 1f3d abf1 653d cc00 acbd 2ce2 18bd
000001d0: 49e6 e13c d533 02bd 25ec 853d 42de a83d
000001e0: 5d2c 0abd 2a9c d63b 5dc3 8a3d f254 7e3d
000001f0: 915e 113d 91e7 613d 1ef3 b0bb 4c10 613b
00000200: b2e2 13bc 6693 e43c 71fa f1ba b05a fc39
00000210: 5472 66bc 1dce acbd be99 a7bd 2b50 dfbc
00000220: c0e2 67bd 536d cdbd 8795 81bd e6ab 103d
00000230: f81c 143c d7c8 cabc 4bef 453d 333c 833d
00000240: 13eb 8ebc 2381 633d 00cf 38bd 9e10 d23b
00000250: af15 58bd c068 f13c b3fb 06bd c185 0d3d
00000260: 5643 8e3c 043d c2bd 56ce 5f3c 24f2 b93b
00000270: 2d34 aebd cfbe 5e3d 5023 753b 7625 e1bc
00000280: 3fef a8bc 1601 a13c f1f5 74bc b68f 7cbd
00000290: ad75 7bbd 6b5b b8bd b5c1 86bb c8c3 783d
000002a0: 2ccf 91bc 772a afbd 3b6d eb3c 1ddb 6c3d
000002b0: ca93 8ebd 9fcd bcbd e13b 813d 1246 063d
000002c0: 7434 e43b bbb6 4c3d 8825 3b3d 910d 093d
000002d0: f415 973d 0dc1 4c3c 3d43 3a3d 882d 8e3d
000002e0: eadf 9c3d 243b ffbb 2500 373d e186 9a3d
000002f0: a401 383d ccd3 fbbb 2c19 e03b 2bb5 2fbd
00000300: 37c5 5b3c c697 09bc 4421 c33c e171 26bd
00000310: 7895 063d 4844 b9bd 679c b23d b0b8 723c
00000320: 38fb fd3c e018 b4bd 64e4 963d 9fd4 54bd
00000330: bb60 c9bb a9a4 583d b37d 1cbd 1467 0abd
00000340: a015 38bd ef70 25bd db44 04bd c2c6 3ebc
00000350: 67ff b1bd 7909 6d3d c6d5 b6bd 77e7 80bd
00000360: 4907 463b e84c 353d 1448 793d e61b babd
00000370: b713 09bd 66e1 643c 45c7 8dbd 930a 4abd
00000380: b84c 893c 6353 1bbd aa78 4b3d 6574 0f3d
00000390: 7eb6 8a3d a6e0 893b b115 8bbd ff16 e9bc
000003a0: e4b4 cdbd eafc 99bc 506c 8abd 9828 8fbd
000003b0: fb8f aabd 24f0 943d e09e 79bc 1f11 2a3d
000003c0: 0e48 aebd 4131 edbc d0ba 35bb 3947 d6bc
000003d0: 8f2d a23d 494c 0dbc 1a2e e13b cd75 c13c
000003e0: 0f7c 01bc c9dd a7bd cc0d 3ebc c5b9 b03c
000003f0: ad32 d13c 5f04 92bd 32ff b3bd 265b acbd
0.004187848 -0.054565795 -0.02485368 -0.041145038 -0.07524819 -0.079463474 -0.042302106 -0.019898381
-0.03740399 -0.046212196 -0.080952495 0.022038154 -0.07809232 0.024586638 0.026256306 -0.0048588994
-0.054741926 -0.03296812 -0.028541371 -0.08764582 0.064823896 -0.07992157 0.0149873765 -0.05133368
0.007148432 -0.07125166 0.07050847 0.039794065 0.027893838 -0.023142476 -0.017100345 0.06838919
-0.021889893 0.0040610596 -0.03646027 0.064262055 -0.021887416 0.010624335 0.06597608 0.054962207
0.050541393 -0.06928662 -0.037916504 -0.013649099 0.021474704 0.066862896 0.040251095 -0.0148092015
0.012176783 0.016582761 0.04867233 -0.042946607 -0.083916515 -0.08146733 0.030586137 -0.05609149
-0.03949441 0.040471204 0.08245529 0.04632884 0.06715896 0.0023772193 0.028657055 -0.06485677
0.06454191 -0.008167122 -0.08170881 0.017110799 0.041762426 0.08163312 -0.015332275 0.011267802
-0.030986827 0.04490594 0.0031184137 0.06405519 0.01817902 0.006366102 -0.03103167 -0.06253492
-0.036321606 -0.021637244 -0.035637606 -0.025132418 -0.083197415 0.0042300685 0.045618717 0.050092317
-0.044309594 0.00937466 0.0807538 -0.042661164 -0.050259177 0.041307062 -0.084685236 0.066042006
-0.047794938 0.037350282 -0.012222333 0.06921475 0.014591839 -0.02791626 0.0063706962 0.067367986
0.055678178 -0.001562626 -0.066053994 0.043605603 -0.049938094 -0.07163145 -0.045694254 0.00943473
0.03891823 0.056138676 -0.083985895 -0.03732507 0.027575629 -0.031787712 0.065391816 0.08245517
-0.033733714 0.006549378 0.06775544 0.06209273 0.035490576 0.05515248 -0.0054000756 0.003434199
-0.009026216 0.027902316 -0.0018461478 0.00048132753 -0.014065344 -0.084377505 -0.08183621 -0.027259907
-0.05661273 -0.100306176 -0.06327348 0.035320185 0.00904011 -0.024753971 0.04832391 0.064079665
-0.017446076 0.055543076 -0.045119286 0.0064106723 -0.052755054 0.029468894 -0.032954883 0.034551386
0.017366093 -0.09484294 0.013660034 0.0056746174 -0.085060455 0.054381188 0.003740508 -0.027483683
-0.020621894 0.019653838 -0.014951215 -0.06166049 -0.06139152 -0.090018116 -0.004112447 0.060733587
-0.017798983 -0.085530214 0.028738609 0.05782615 -0.06961782 -0.092189066 0.06310249 0.032781668
0.0069642607 0.049978953 0.04569009 0.033460204 0.07377234 0.012497199 0.04547428 0.06942278
0.07659896 -0.0077890325 0.044677872 0.07545257 0.04492344 -0.0076851603 0.006838938 -0.042897385
0.013413719 -0.008398002 0.023819573 -0.040635947 0.03285739 -0.09046227 0.08721238 0.014814541
0.03100358 -0.08793807 0.07367781 -0.051960584 -0.0061455644 0.052891407 -0.038205814 -0.03378971
-0.0449425 -0.040390905 -0.03229223 -0.011644067 -0.08691292 0.057870362 -0.08927493 -0.062941484
0.0030216745 0.044262797 0.060859755 -0.090873525 -0.033466067 0.013969755 -0.06922773 -0.04932649
0.016760215 -0.03792132 0.04967562 0.03502311 0.06773089 0.0042076884 -0.06791247 -0.028453348
-0.10044268 -0.018797357 -0.0675894 -0.069901645 -0.08328243 0.07272366 -0.015235633 0.041520234
-0.08509837 -0.02895415 -0.0027729757 -0.026157008 0.07918846 -0.008624145 0.006871951 0.023615742
-0.007903113 -0.08196599 -0.011599969 0.021572957 0.02553686 -0.0712974 -0.08788909 -0.08415823

fc2.bias f4 [128]
00000000: e1c9 35bd 93da 503d 2710 7d3d 8761 61bc
00000010: 7500 89bb 6298 c13d e734 b0bb f619 d5bb
00000020: b201 a7bd 98b4 ed3d d58a b13d f5b5 183d
00000030: b56c e1bb 9714 04bd 51ab 53bd 6246 abbd
00000040: bdc1 b1bd 12ec 97bd 7156 b1bd c868 7d3d
00000050: 3fac 633c d58a 43bd 573e 47bd c165 e33d
00000060: 0f94 853d 52e9 073c 5805 c73d 4215 e73c
00000070: 01cd ce3d 7ea3 643d 8719 92bb 1a89 083e
00000080: aa6c 6b3d c3d8 a1bd 496b 02bb 7181 e4bc
00000090: 2d4f c83d 6fbb dc3c de97 45bd 0707 aa3d
000000a0: 5470 66bb be4d c0ba 8c41 8e3d d998 04bd
000000b0: 280e e3bb a1a9 6e3d c0b7 0ebd a1e4 3cbd
000000c0: 8c6f f4bc 19ac 0b3d 60bc 7dbd a4e0 b8bc
000000d0: 81c1 3bbd 2d15 aebd f591 85bd ed0c 733c
000000e0: 7962 7abd a3d0 adbc d26a d8bc 33d3 8d3d
000000f0: e6d0 383a 7027 d53c 018c d83c 2924 0fbd
00000100: 50d0 9d3d 6b03 0c3c bf25 a93c e867 403d
00000110: 8c6c 773c 3805 30bc e51f 983d 671d ae3c
00000120: 99e6 b23d ac02 7b3c 36cb 71bd 2a2b 073d
00000130: 4d3f 5dbd cf6a 80bb f167 07bd dcdc 253d
00000140: a7a6 b6bc 6b05 17bb 9535 3c3d f0f0 a5bd
00000150: ec5f 33bd 9ed2 4cba 280c b1bd 535e 87bd
00000160: ad2b 78bd 9a49 1f3d 02ee 613d b3a2 babd
00000170: 6e16 0f3c 2c83 a43c 9dbc 833d 31d9 b0bd
00000180: db6d f53c e21d ccbc 1ece 10bc ae80 e8bc
00000190: d5c0 0a3d b47c 2dbd d12f 2dbd 3efe 9dbd
000001a0: 5c72 6f3d 5746 b3bc 9681 203d e1fd ed3d
000001b0: d345 44bd 3a4d 853d acd8 243d cde0 6f3b
000001c0: fee9 923c 6252 073d f242 693c df88 033e
000001d0: ee3f 9f3d 3348 84bb 8183 5ebd 64da 1d3d
000001e0: 28a2 7d3d 4a91 0dbd 17d6 58bc a62b 49bd
000001f0: bac1 41bc 7df4 a1bd 08e6 93bd 8556 953d
-0.04438198 0.0509897 0.061782982 -0.0137561625 -0.0041809627 0.09452893 -0.0053774 -0.006503339
-0.0815462 0.11606711 0.08669058 0.037282903 -0.006879414 -0.0322462 -0.051677052 -0.08363034
-0.08679531 -0.07418074 -0.086590655 0.061867505 0.013896047 -0.047739822 -0.048643436 0.111033924
0.065223806 0.008295374 0.09717816 0.028208379 0.10097695 0.05581998 -0.0044586095 0.1333355
0.057476677 -0.07902672 -0.0019900373 -0.027893754 0.097807266 0.026944844 -0.048240535 0.083021216
-0.0035162168 -0.0014671606 0.06946096 -0.03237233 -0.006929178 0.05826724 -0.034843206 -0.046116475
-0.029838346 0.034099672 -0.061947227 -0.022568054 -0.045838837 -0.08500133 -0.0652198 0.014834625
-0.061129067 -0.02121765 -0.026418123 0.06925049 0.0007050171 0.026019782 0.026433947 -0.034946594
0.07705748 0.008545737 0.020647882 0.046974093 0.015101563 -0.010743432 0.074279584 0.021254255
0.08735389 0.015320461 -0.059031688 0.03300015 -0.054015446 -0.0039189826 -0.03305811 0.04049383
-0.022296263 -0.0023044 0.045949537 -0.08102596 -0.04379265 -0.0007813367 -0.08644897 -0.06609788
-0.060588527 0.03888855 0.055158623 -0.09113064 0.008733375 0.020082079 0.064324595 -0.08635176
0.02995961 -0.024916593 -0.008838205 -0.028381672 0.033875305 -0.042355254 -0.04228193 -0.077145085
0.05845867 -0.021884127 0.039186083 0.11620689 -0.047918152 0.065088704 0.040245697 0.0036602498
0.017933842 0.03303755 0.014237152 0.12845181 0.077758655 -0.004036927 -0.05432463 0.03853835
0.061922222 -0.034562387 -0.013234637 -0.049113892 -0.011825973 -0.079079606 -0.07221609 0.07291893
