dqn_car_model_final.pth (torch, 303161 bytes, 24 tensors)

fc1.weight f4 [128, 10]
0	0xbec05063	-0.3756133
1	0xbde5fcca	-0.11229856
2	0xbe4f971b	-0.20272486
3	0xbf8686ac	-1.0509849
4	0x3e491f34	0.1964081
5	0xbf2e7fbc	-0.6816366
6	0xbdc51947	-0.09623962
7	0xbcf4a024	-0.029861517
8	0xbe57452e	-0.21022484
9	0x3dfae622	0.122509256
10	0x3eb2f328	0.34951138
11	0xbdc7a073	-0.097474
12	0x3eb42f48	0.35192323
13	0xbf225332	-0.63408196
14	0xbd1dffd9	-0.038574073
15	0xbf667869	-0.9002748
16	0xbe065aaf	-0.1312053
17	0xbf9fef42	-1.2494891
18	0xbeb2e76d	-0.3494219
19	0x3be24137	0.006904747
20	0xbf311fea	-0.6918932
21	0xbf0e68fa	-0.5562893
22	0xbeb4a304	-0.3528062
23	0x3d9edadc	0.07756588
24	0x3f3c87e5	0.7364486
25	0x3d7fdf81	0.06246901
26	0xbd122678	-0.035681218
27	0x3ef6266e	0.48076195
28	0xbcd1b285	-0.02559782
29	0xbe416007	-0.18884288
30	0x3e003cc4	0.1252318
31	0x3dd749e0	0.105121374
32	0xbd864f6c	-0.06558117
33	0x3d5a3687	0.053274658
34	0x3e791f8b	0.24328439
35	0xbe1efa8a	-0.1552526
36	0xbe5cd9dd	-0.21567483
37	0x3d0ec17d	0.034852494
38	0x3dc10347	0.09424453
39	0x3d2cb445	0.042164106
40	0xbf29edd3	-0.66378516
41	0xbd87edb0	-0.06637132
42	0x3e8da062	0.27661425
43	0x3b58e6f3	0.003309664
44	0x3ecc82d3	0.3994356
45	0x3e22aed4	0.15887004
46	0xbeacde44	-0.33763325
47	0x3e9b2ff8	0.30310035
48	0x3e7f8a73	0.24955158
49	0xbe01cbfc	-0.1267547
50	0xbd94b3a0	-0.07260823
51	0x39d2bffd	0.00040197364
52	0x3e8dfbcc	0.27731168
53	0x3e316a78	0.17325771
54	0x3e2d1545	0.16902645
55	0x3c89c60d	0.01681807
56	0x3e635980	0.2220211
57	0x3eaf4666	0.34233397
58	0xbdc4c52d	-0.09607921
59	0x3e7af2de	0.24506709
60	0x396a5738	0.0002234847
61	0xbd4c0971	-0.04981369
62	0xbddedbe3	-0.10881784
63	0xbd19d2ab	-0.037554424
64	0x3e8162e6	0.25270766
65	0xbeb7c989	-0.35895947
66	0xbe6e5d3f	-0.23277758
67	0xbd2bf1c8	-0.041978627
68	0x3dac4ee8	0.08413488
69	0x3e947d7d	0.2900199
70	0x3fa31333	1.2740234
71	0x3ec938d4	0.3930117
72	0x3d7a539c	0.061114892
73	0x3fcda6c2	1.6066515
74	0xbf99dc65	-1.2020384
75	0x3d4ff75f	0.05077302
76	0x3efe43bb	0.4966105
77	0xbe0a104a	-0.13482776
78	0x3e920e35	0.28526464
79	0x3e39a92d	0.18130942
80	0x3f0c8d64	0.54903245
81	0x3edd4c78	0.43222404
82	0xbe1f9f52	-0.1558812
83	0xbe3e8736	-0.18606266
84	0xbf568c36	-0.83807695
85	0x3ef2d45f	0.4742765
86	0xbed762c3	-0.42067537
87	0x3d17ad27	0.037030365
88	0x3ead6a3c	0.33870113
89	0xbe674090	-0.22583222
90	0x3d35cb5d	0.044383395
91	0xbc7b2c9d	-0.015330461
92	0x3e38f6c9	0.18062891
93	0xbd9a972f	-0.07548367
94	0xbe13ebd5	-0.14445432
95	0x3dd157f8	0.10221857
96	0xbe88e785	-0.26739135
97	0xbe941081	-0.2891884
98	0x3dc57037	0.09640544
99	0x3e1a9fe5	0.15100057
100	0xbe04652a	-0.12929216
101	0xbdb50f59	-0.08840818
102	0x3c5e495b	0.013567294
103	0x3d75cb0c	0.060008094
104	0xbf036b3e	-0.51335514
105	0x3eaa1b15	0.33223787
106	0x3e6d72ae	0.23188278
107	0x3ecdd879	0.40204218
108	0xbe1220bc	-0.142703
109	0x3ea8810c	0.32910955
110	0xbe4e6fb7	-0.20159803
111	0x3bf963b8	0.0076107644
112	0xbf018e90	-0.5060816
113	0xbed5904c	-0.41711652
114	0xbe9dec0e	-0.30844158
115	0xbf36f7da	-0.7147194
116	0xbde029ab	-0.109454475
117	0x3d807ad5	0.06273428
118	0x3e2ef913	0.17087202
119	0x3e68b0b2	0.22723654
120	0xbe42d4a9	-0.19026436
121	0xbe558b12	-0.20853832
122	0xbdf17bad	-0.117911674
123	0x3c587397	0.0132111525
124	0xbd362596	-0.04446944
125	0x3de463e8	0.11151868
126	0x3e9a1b4c	0.3009895
127	0x3e16f5dd	0.14742227
128	0x3e8e595f	0.2780256
129	0xbdbc0a89	-0.09181697
130	0x3c954e5f	0.018225847
131	0x3ed160f0	0.4089427
132	0x3de9a959	0.114092536
133	0xbf26eb06	-0.6520237
134	0x3f1e04b7	0.61725944
135	0x3e9babd7	0.3040454
136	0xbd39e0f8	-0.045380563
137	0xbdb5b067	-0.08871537
138	0xbd3e32c3	-0.04643513
139	0xbb7269e3	-0.0036989383
140	0xbe99b56a	-0.3002122
141	0x3dcb1be4	0.09917429
142	0x3e894069	0.26806954
143	0xbdd925ed	-0.10602937
144	0xbee24498	-0.44192958
145	0x3e7599f8	0.23984516
146	0x3e6b0c04	0.22953802
147	0x3e4c31e7	0.19940911
148	0x3e8fe768	0.28106236
149	0xbd08ac9e	-0.033367746
150	0x3d6885d8	0.05676827
151	0xbe420726	-0.1894804
152	0xbee7c237	-0.45265362
153	0x3f893e9d	1.0722233
154	0xbeecaf1a	-0.46227342
155	0xbfa0545e	-1.2525747
156	0x3eb81821	0.3595591
157	0xbd422a34	-0.04740353
158	0x3e5c8d8d	0.21538372
159	0x3b0ce8ee	0.0021501142
160	0xbe86be9f	-0.26317307
161	0x3e8a96e8	0.27068257
162	0xbe058ee8	-0.13042796
163	0xbd8d2505	-0.068918265
164	0xbea25c53	-0.31711063
165	0xbf5c3248	-0.86014223
166	0x3d997d6c	0.074946254
167	0x3e0c2939	0.136876
168	0x3bbb2347	0.0057109925
169	0x3d91b87c	0.07115266
170	0xbc5a0165	-0.013305997
171	0x3d902d7f	0.07039928
172	0xbac011fe	-0.00146538
173	0x3e9b8518	0.3037498
174	0x3ea2a5b9	0.3176706
175	0x3d694a73	0.056955766
176	0xbe93a1a8	-0.2883427
177	0xbe5a8bec	-0.21342438
178	0x3e35402d	0.17700262
179	0x3cb67a11	0.022275003
180	0xbdc8deb4	-0.09808102
181	0x3e40d26e	0.18830273
182	0x3d74ae1b	0.059736352
183	0xbeb03884	-0.34418118
184	0x3ea7e2d9	0.3279026
185	0xbd963c3a	-0.07335706
186	0xbdee137e	-0.116248116
187	0xbd764e03	-0.06013299
188	0xbdba4e9e	-0.09097026
189	0xbe02be4c	-0.12767905
190	0xbe23d669	-0.1599976
191	0xbea54a27	-0.32283136
192	0xbcca2f89	-0.02468087
193	0xbd484262	-0.048891433
194	0xbe86c2cc	-0.26320493
195	0x3e838e31	0.2569442
196	0x3eb19175	0.34681287
197	0x3e8426ba	0.25810796
198	0x3e4583a5	0.192885
199	0xbc936030	-0.017990202
200	0xbd746192	-0.059663363
201	0xbe3a6151	-0.18201186
202	0x3d94c756	0.07264583
203	0x3c7e186b	0.015508751
204	0x3efc12a6	0.49232978
205	0x3f1ea6ca	0.6197325
206	0xbf58dd3d	-0.8471258
207	0xbdccc3cd	-0.099982835
208	0xbe2fd6ec	-0.1717183
209	0xbe3928ac	-0.18081921
210	0xbc5f761b	-0.013638998
211	0x3d96a029	0.07354767
212	0xbdae3d11	-0.08507741
213	0x3bf999ff	0.0076172347
214	0x3dff6cc2	0.12471916
215	0xbd9458e3	-0.07243516
216	0xbdb0a814	-0.08625808
217	0xbe33c959	-0.17557277
218	0x3ca88816	0.020572703
219	0xbe9ceb24	-0.30648148
220	0x3e9d80e3	0.30762395
221	0xbed8f8a9	-0.42377213
222	0x3d96f280	0.07370472
223	0xbeb44d9b	-0.35215458
224	0x3f1cea29	0.612948
225	0x3d8531de	0.06503652
226	0xbe6b4a88	-0.2297765
227	0xbd264304	-0.040591255
228	0x3e67fc0b	0.2265474
229	0xbd14cedd	-0.036330093
230	0xbd5fd109	-0.05464271
231	0xbe852b82	-0.26009756
232	0xbda69eb0	-0.08135736
233	0x3e330881	0.17483713
234	0xbede6ba9	-0.43441513
235	0x3e825eb5	0.2546288
236	0x3b0a7239	0.002112521
237	0x3e60b204	0.21942908
238	0x3eac9209	0.33705166
239	0x3eace4a4	0.3376819
240	0x3e572e74	0.21013814
241	0xbe9787e8	-0.29595876
242	0x3e0d87b1	0.13821293
243	0xbec2f2eb	-0.38075957
244	0xbe324f85	-0.17413147
245	0xbe4f12b2	-0.20221975
246	0xbde2c1e8	-0.11072141
247	0x3e6465a6	0.22304401
248	0x3e56838c	0.20948619
249	0x3e8d0420	0.2754221
250	0xbe3b50ec	-0.18292588
251	0xbdb9baa1	-0.090688
252	0xbe967bf9	-0.2939146
253	0x3ed8690e	0.4226765
254	0x3de800f8	0.1132831
255	0xbe4c268e	-0.19936582

fc1.bias f4 [128]
0	0xbd9609cb	-0.073260866
1	0xb9a0795e	-0.00030608004
2	0x3e8f2b97	0.27962944
3	0xbeb366a5	-0.3503925
4	0xbe265505	-0.1624337
5	0xbd95ce00	-0.07314682
6	0xbe2b17d4	-0.16708308
7	0x3ecf9ad3	0.4054781
8	0xbe03c433	-0.12867813
9	0xbe889de6	-0.26682967
10	0xbd96aefc	-0.07357594
11	0xbe4917e2	-0.19638017
12	0x3e39fe19	0.18163337
13	0x3e850698	0.25981593
14	0xbe0c0b08	-0.13676083
15	0x3e1f558f	0.15559982
16	0xbddc9590	-0.10770714
17	0xbe040e82	-0.1289616
18	0xbea18b15	-0.31551424
19	0x3e46f6f5	0.19430144
20	0xbe0a5a13	-0.13510923
21	0xbe1b752c	-0.15181416
22	0xbd77e577	-0.06052157
23	0x3eb10d6a	0.34580547
24	0x3eba083b	0.36334404
25	0x3e800d4d	0.25010148
26	0xbdf44e29	-0.1192897
27	0xbd97ecba	-0.07418199
28	0x3e98d7dc	0.29852188
29	0xbe209eee	-0.15685627
30	0x3f072578	0.5279155
31	0x3dce165d	0.10062859
32	0x3e40bee1	0.18822815
33	0xbe51c832	-0.20486525
34	0x3e6e389c	0.23263782
35	0x3e7be560	0.24599218
36	0xbe8be991	-0.27326635
37	0x3df44d50	0.11928809
38	0x3ebf9618	0.374192
39	0xbea6ac42	-0.32553297
40	0xbe1e3240	-0.15448856
41	0xbd24bd19	-0.0402194
42	0x3ef7f70c	0.4843067
43	0xbd2ff172	-0.04295487
44	0xbc215d01	-0.009848834
45	0x3e3ea95a	0.1861929
46	0xbe8c0f86	-0.27355593
47	0x3ebe62f4	0.3718487
48	0x3e845066	0.2584259
49	0xbc80107d	-0.015632862
50	0x3f17542f	0.5911283
51	0x3ea15e1d	0.31517115
52	0x3e42cc8c	0.19023341
53	0xbca024a6	-0.019548725
54	0x3dde56c8	0.10856396
55	0x3da24cc7	0.079248
56	0xbe929e78	-0.28636527
57	0x3e8e2e14	0.2776953
58	0x3e2f4dfe	0.17119595
59	0xbe29f41c	-0.16597027
60	0xbe84072b	-0.2578672
61	0x3d952ac5	0.07283548
62	0xbe1bdb43	-0.1522036
63	0x3e8ccb4f	0.27498862
64	0xbd262769	-0.04056493
65	0xbdbbe49b	-0.091744624
66	0x3f086bd1	0.53289515
67	0x3eab431f	0.33449647
68	0x3db4f66f	0.08836066
69	0x3ec8d0fc	0.39221942
70	0x3e915f89	0.283932
71	0x3e899edd	0.26879016
72	0x3d82a3a9	0.06378872
73	0xbd6a403b	-0.05719016
74	0xbe59057a	-0.21193495
75	0x3e4e709e	0.20160148
76	0xbe86a1d9	-0.26295355
77	0xbd8e0db3	-0.06936207
78	0xbe0ad245	-0.13556774
79	0x3e1192bc	0.14216131
80	0xbe8801e7	-0.2656395
81	0xbdda8dd8	-0.10671586
82	0x3e49e86b	0.19717567
83	0xbe91b0f9	-0.28455332
84	0xbdcc981d	-0.09989951
85	0x3dbf6c3b	0.09346815
86	0xbeaac602	-0.33354193
87	0xbef185d7	-0.47172424
88	0x3e0fdfe5	0.14050253
89	0x3e00cf3b	0.12579052
90	0x3db7f4f9	0.08982272
91	0xbe920a34	-0.2852341
92	0x3e983a38	0.29731917
93	0x3ec595a9	0.38590744
94	0x3cb79347	0.022409094
95	0xbcf143ab	-0.029451212
96	0x3e984f6c	0.29748094
97	0xbe555e91	-0.20836855
98	0x3ebb3a87	0.3656809
99	0x3e863545	0.26212516
100	0xbc97fd89	-0.018553512
101	0xbebb3177	-0.36561176
102	0xbd8933db	-0.06699344
103	0x3d8f0d69	0.0698498
104	0x3de517ca	0.11186178
105	0xbab9aac1	-0.0014165269
106	0x3cf6636b	0.030076703
107	0xbb9487a9	-0.0045327735
108	0xbeaf354f	-0.3422036
109	0xbeaad15c	-0.33362854
110	0x3ea3ac8f	0.3196759
111	0x3ca7440c	0.02041819
112	0xbc96a9da	-0.018391538
113	0xbea459f0	-0.32099867
114	0xbcf3a401	-0.02974129
115	0x3b7ff013	0.0039053007
116	0xbd043010	-0.0322724
117	0x3d0db1b3	0.034593295
118	0x3e503773	0.20333652
119	0x3e049e0a	0.12950912
120	0xbd221e73	-0.03957982
121	0x3f142fad	0.5788525
122	0x3f0256a0	0.5091343
123	0x3e9d2b12	0.30696923
124	0x3e016eeb	0.12639968
125	0x3ebbb7ad	0.3666357
126	0xbe805bdd	-0.25070086
127	0x3e52ba52	0.20578888

fc2.weight f4 [128, 128]
0	0x3e8da69c	0.27666175
1	0x3eddd954	0.4332987
2	0xbd112799	-0.035438154
3	0xbc6f18ff	-0.014593362
4	0x3daf09c4	0.085467845
5	0x3d0968eb	0.033547323
6	0xbc2e9fae	-0.010658188
7	0x3e0442fa	0.12916175
8	0x3f11cbf2	0.5695182
9	0x3d6f506f	0.058426317
10	0x3e18bb3c	0.14915174
11	0x3dabeecc	0.08395156
12	0x3e0ba231	0.1363609
13	0x3e90cef0	0.2828288
14	0x3d0e8846	0.03479793
15	0x3e026cdd	0.1273684
16	0x3ed21c43	0.41037187
17	0xbd677438	-0.05650732
18	0xbd83b04d	-0.06430111
19	0x3dfa9e79	0.122372575
20	0x3f324d3e	0.6964911
21	0xbd6c7462	-0.05772818
22	0x3e944eb7	0.28966305
23	0x3df60d8e	0.12014304
24	0x3e0fe8fb	0.14053719
25	0x3de138cd	0.10997162
26	0xbd6e3af9	-0.05816171
27	0x3e0dea0a	0.1385881
28	0x3f898152	1.074259
29	0xbdb14927	-0.08656531
30	0x3e05ed41	0.13078786
31	0x3dc4535a	0.095862105
32	0x3de78b35	0.113058485
33	0x3f8a22a0	1.0791817
34	0xbe8f5d2a	-0.28000766
35	0xbe8e5210	-0.27796984
36	0x3c8c98ae	0.017162647
37	0x3e5113a8	0.20417655
38	0x3cd512c5	0.026009927
39	0xbd22cce3	-0.039746176
40	0x3f01532a	0.50517523
41	0xbc48766c	-0.012235265
42	0xbed41608	-0.41423059
43	0x3e083d6c	0.1330468
44	0x3e433d40	0.19066334
45	0xbba89453	-0.0051446347
46	0x3d8ddda9	0.06927044
47	0x3d5a9015	0.053360064
48	0x3e87416e	0.26417106
49	0x3e1743cd	0.14771958
50	0x3e83d39a	0.25747377
51	0x3e8e3928	0.27777982
52	0x3b329986	0.0027252152
53	0x3c806333	0.015672302
54	0x3d82cf43	0.06387188
55	0x3e97921d	0.29603663
56	0x3ce01f64	0.027358718
57	0xbdb3004d	-0.08740292
58	0x3d9f5079	0.07779021
59	0x3f168122	0.5879079
60	0x3db3628f	0.08759033
61	0x3e2ff1b0	0.1718204
62	0xbd9d6522	-0.07685305
63	0x3e6d9f5c	0.23205322
64	0x3e069e6e	0.13146374
65	0x3de516c3	0.11185982
66	0xb9b72308	-0.0003493058
67	0x3e66570a	0.2249414
68	0x3ecf3905	0.4047319
69	0x3d9606eb	0.07325538
70	0x3e36886a	0.17825475
71	0x3e062e81	0.13103677
72	0x3f178a5a	0.5919548
73	0xbd4de656	-0.050268494
74	0x3f4ff6d8	0.8123603
75	0x3e3dbf12	0.18529919
76	0x3e515bc6	0.20445165
77	0x3e26bc1e	0.16282699
78	0xbda29ba4	-0.07939842
79	0x3dbdd78e	0.092696294
80	0x3d7b1507	0.06129935
81	0xbd609428	-0.054828793
82	0x3dcbfbcf	0.09960138
83	0x3f89f05f	1.077648
84	0xbd8c9aba	-0.06865449
85	0x3dde11d9	0.10843248
86	0xbd7c5162	-0.06160105
87	0x3d85c279	0.06531233
88	0xbdc348ff	-0.09535407
89	0x3da62435	0.08112375
90	0x3d9baed9	0.07601709
91	0x3c9e086d	0.019291127
92	0xbe4e6ec4	-0.20159441
93	0x3dcec612	0.10096373
94	0x3d177de0	0.036985278
95	0x3f6d89bf	0.9278831
96	0xbee25ca4	-0.44211304
97	0xbc74ac5b	-0.014933671
98	0x3dd9ef1e	0.10641311
99	0xbba38bbd	-0.0049910233
100	0x3e125b98	0.14292753
101	0x3d1ce7db	0.038307052
102	0x3d6218f1	0.055199567
103	0x3d01dcf9	0.031704877
104	0xbe6b0200	-0.22949982
105	0x3ed43968	0.41450047
106	0x3f6530ee	0.89527786
107	0x3f754a88	0.9581685
108	0xbc9bfc4f	-0.019041209
109	0xbd342086	-0.04397633
110	0xbf34966a	-0.70542014
111	0x3dc983ef	0.098396175
112	0x3ebc39f2	0.3676296
113	0x3bffb650	0.0078037158
114	0x3dce1047	0.100616984
115	0x3db6a834	0.08918801
116	0x3e86fc4a	0.26364356
117	0x3f2c6cbe	0.6735343
118	0xba34427f	-0.0006876364
119	0x3df6df44	0.12054303
120	0x3e17b683	0.14815716
121	0x3ed31f53	0.41234836
122	0xbe7ee924	-0.24893624
123	0x3ec93a62	0.39302355
124	0x3d745730	0.05965346
125	0xbe6b7b38	-0.22996223
126	0x3d959d0a	0.073053434
127	0xbd812cdc	-0.06307384
128	0x3c4fdb07	0.0126864975
129	0x3d05b7ca	0.032645978
130	0x3d4b9e8f	0.04971176
131	0xbd9e010e	-0.07715045
132	0xbd58bc51	-0.052913968
133	0x3d072765	0.032996554
134	0xbb301513	-0.002686803
135	0xbd51aa28	-0.051187664
136	0x3c007ab1	0.007841752
137	0xbd8af788	-0.06785494
138	0x3bfbe5d9	0.007687312
139	0x3caca391	0.021074088
140	0x3c0bec14	0.008540172
141	0xbd7046cf	-0.05866128
142	0x3d099b3e	0.033595316
143	0xbca9a979	-0.020710694
144	0x3c750fef	0.014957412
145	0x3db11e88	0.086484015
146	0x3d514134	0.051087573
147	0x3b611e6f	0.0034350415
148	0xbd27f8f4	-0.041008905
149	0x3da44a8a	0.0802203
150	0xbd0837de	-0.033256404
151	0xbd5597b4	-0.05214663
152	0xbd87d8c3	-0.06633141
153	0xbd8a2612	-0.067455426
154	0xbd872107	-0.06598096
155	0x3d945946	0.0724359
156	0xbbf5db7c	-0.007502971
157	0xbd35fff0	-0.044433534
158	0x3c3d49f4	0.011553276
159	0xbd60042c	-0.05469148
160	0xbd94f574	-0.07273379
161	0x3d03dcf0	0.032193124
162	0x3d120a76	0.035654508
163	0x3d3cfd14	0.04613979
164	0x3d93342a	0.07187684
165	0xbd863e53	-0.06554856
166	0xbd6215ed	-0.05519669
167	0xbb594ccc	-0.0033157347
168	0xbc86578c	-0.016399167
169	0x3d8b1b35	0.06792299
170	0xbd8eafe7	-0.069671445
171	0xbce5d844	-0.028057225
172	0x3c7beb29	0.015375891
173	0xbde82c44	-0.11336568
174	0xbc4ecd70	-0.012622222
175	0x3d6b3ee3	0.05743302
176	0xbd30f5fe	-0.043203346
177	0x3d42be13	0.04754455
178	0xbd50e5ab	-0.05100028
179	0xbd8f062a	-0.069835976
180	0xbd7e166e	-0.06203311
181	0xbd1a82bc	-0.037722334
182	0x3d657289	0.056017432
183	0x3d1cb3da	0.038257457
184	0x3da4b06f	0.080414645
185	0x3d5367f9	0.051612828
186	0x3ca586c6	0.020205867
187	0x3db22d6b	0.08700069
188	0xbcdee324	-0.027207918
189	0xbd30c360	-0.043155074
190	0x3d9eeb15	0.07759682
191	0x3d78dbc5	0.060756464
192	0xbdbb908e	-0.09158431
193	0xbdb79181	-0.089632995
194	0x3c4e96d0	0.012609199
195	0xbdbafa28	-0.09129745
196	0xbca7975c	-0.020457916
197	0x3d053e26	0.032529972
198	0xbd70539e	-0.058673494
199	0x3d9e0758	0.077162445
200	0x3d4e106d	0.050308634
201	0xbdb4eccb	-0.08834227
202	0x3d10946f	0.035297807
203	0x3d890f70	0.066923976
204	0x3d3dc36a	0.04632894
205	0x3d8f23a8	0.06989223
206	0xbda48c64	-0.0803459
207	0xbbe8c5fa	-0.007103679
208	0xbce6332c	-0.028100573
209	0xbcdcf945	-0.02697433
210	0x3d48af62	0.048995383
211	0x3d39717b	0.04527424
212	0xbd9b9b3b	-0.07597967
213	0xbd94b148	-0.07260376
214	0x3d4eaefd	0.05045985
215	0x3d4b140c	0.049579665
216	0xbde9caa2	-0.11415602
217	0xbd9c1a84	-0.07622245
218	0x3d82d550	0.063883424
219	0x3cac9f79	0.021072136
220	0x3d752565	0.059850115
221	0xbd971ec3	-0.07378914
222	0xbdb58c50	-0.08864653
223	0xbd6b90fe	-0.057511322
224	0xbd97728e	-0.073948964
225	0x3d994b22	0.074850336
226	0xbcfda4c4	-0.030962355
227	0x3c7b1712	0.015325325
228	0xbdbfd530	-0.09366834
229	0x3cbfdda5	0.023421118
230	0x3d3a077f	0.045417305
231	0x3d255b1f	0.040370103
232	0x3cf3a271	0.029740544
233	0x3c87cb20	0.01657635
234	0xbcf718da	-0.030163217
235	0x3d0191af	0.031633075
236	0x3d2598f9	0.04042909
237	0xbc535660	-0.012899011
238	0xbdc8991e	-0.0979483
239	0xbd7c8aa8	-0.06165567
240	0x3d2a5e72	0.041593976
241	0x3bdbdf4a	0.0067099677
242	0xbc2a9d05	-0.010413413
243	0x3d6f0227	0.058351662
244	0xbdcf33a7	-0.10117274
245	0x3cba7ff2	0.022766087
246	0xbd239fae	-0.039947204
247	0xbd18a6f9	-0.037268613
248	0xbd48a63f	-0.04898667
249	0x3bd95161	0.0066320156
250	0xbcdaa266	-0.026688766
251	0xbd06bfeb	-0.03289787
252	0xbdb53351	-0.088476785
253	0x3d1252a4	0.035723343
254	0x3d50bc37	0.050960746
255	0xbd22aa87	-0.03971341

fc2.bias f4 [128]
0	0x3e281311	0.16413523
1	0xbcf4ad6b	-0.029867848
2	0xbbdb241b	-0.0066876537
3	0xbdae36cf	-0.08506548
4	0x3e17bfc0	0.1481924
5	0x3bf352e5	0.0074256533
6	0x3ac6fdbd	0.0015181821
7	0x3d3ace5d	0.04560696
8	0x3e3e8dd0	0.18608785
9	0x3e574117	0.21020924
10	0xbd479e57	-0.04873499
11	0xbd769cee	-0.060208254
12	0xbd44cc49	-0.048046384
13	0xbb5a4297	-0.003330385
14	0xbc805930	-0.015667528
15	0xbd9e36ca	-0.07725294
16	0x3e4257ca	0.18978801
17	0xbd5d87ff	-0.054084774
18	0x3e044077	0.12915216
19	0x3c0b7568	0.008511879
20	0x3ccb93f1	0.024850817
21	0xbcf9651a	-0.030443717
22	0xbcd637af	-0.026149599
23	0x3d0859ad	0.033288646
24	0xbcb35642	-0.021891717
25	0x3dfe30fa	0.12411685
26	0x3e4dcf77	0.20098673
27	0x3e1e3cb6	0.15452847
28	0xbcc964c8	-0.024584189
29	0xbdb04729	-0.08607323
30	0x3cd2f150	0.025749832
31	0x3e1d8cd5	0.15385754
32	0xbda0c8cc	-0.07850799
33	0xbdb590f5	-0.08865539
34	0x3e7ff188	0.2499448
35	0xbde395dd	-0.111125685
36	0x3c8b7550	0.017023712
37	0xbdb0fc91	-0.08641923
38	0x3d76674b	0.0601571
39	0x3d479575	0.048726518
40	0x3df7d225	0.12100629
41	0x3d150a2d	0.036386658
42	0x3e10a96c	0.1412713
43	0xbd3cb79f	-0.046073552
44	0xbd634b92	-0.05549199
45	0x3dd45c9a	0.10369225
46	0xbaa5aad2	-0.0012639409
47	0x3dba1e01	0.09087754
48	0xbdf80953	-0.121111535
49	0x3e06e784	0.13174254
50	0x3d801da1	0.06255651
51	0x3e55e15e	0.20886752
52	0x3d25a6ed	0.040442396
53	0xbd876844	-0.06611684
54	0xbd77ace0	-0.0604676
55	0xbd1eb7d8	-0.038749546
56	0xbd393f85	-0.045226593
57	0xbce23a81	-0.027615787
58	0xbccbeee3	-0.024894184
59	0xbd62d430	-0.05537814
60	0xbd85eb0c	-0.06538972
61	0xbdbe4342	-0.09290172
62	0x3d27cdbb	0.040967684
63	0xbd06fe1a	-0.032957174
64	0x3c59a549	0.013284036
65	0x3e7622a2	0.24036649
66	0xbcfb93c2	-0.030710105
67	0xbdbbcc4b	-0.09169825
68	0x3d8b6e85	0.06808189
69	0xbdb8086a	-0.0898598
70	0x3e1b751f	0.15181397
71	0xbce3dad4	-0.027814306
72	0x3cb11a23	0.021618908
73	0xbcf3a10d	-0.029739881
74	0x3e3db17d	0.18524738
75	0x3d51daf2	0.051234193
76	0xbcbfc362	-0.023408595
77	0xbd493fd9	-0.049133155
78	0xbd4995d8	-0.049215168
79	0xbdb9119d	-0.090365626
80	0x3e517eaf	0.20458482
81	0x3c82a35e	0.01594704
82	0x3e4997d2	0.19686821
83	0x3d295562	0.041341193
84	0xbdaccaea	-0.0843714
85	0xbd9336a5	-0.07188157
86	0xbd8d6d8d	-0.06905661
87	0xbd6f1a15	-0.058374483
88	0x3c613abe	0.013746915
89	0x3bfbe24a	0.007686888
90	0xbde07f57	-0.10961788
91	0xbc2c78d6	-0.010526856
92	0xbd86850b	-0.06568345
93	0x3dea448a	0.11438854
94	0xbdfc8e31	-0.12331808
95	0x3e640465	0.22267301
96	0xbcdd4537	-0.027010543
97	0x3d043ece	0.032286458
98	0x3d3f9a3c	0.04677795
99	0x3daf7dd2	0.0856892
100	0xbdb7ec32	-0.089805976
101	0x3dadd080	0.08487034
102	0xbdc875f1	-0.097881205
103	0xbdac6776	-0.08418171
104	0x3c882a7d	0.016621822
105	0xbc2ca009	-0.010536202
106	0xbd891f48	-0.066954195
107	0xbd2b4787	-0.04181626
108	0xbe12f98b	-0.14353006
109	0x3d948cfd	0.07253454
110	0x3e52bb88	0.2057935
111	0x3dd4389d	0.103623606
112	0xbd9db15d	-0.07699845
113	0x3d40952e	0.04701727
114	0x3d87e95b	0.06636306
115	0xbce9c782	-0.028537516
116	0x3c9ece43	0.019385463
117	0x3d2b1cbc	0.04177545
118	0xbcfebb33	-0.031095123
119	0x3cd5c66b	0.02609559
120	0x3d408e31	0.047010604
121	0x3d5b22d8	0.053500026
122	0x3e4a4967	0.19754563
123	0x3d4e87dd	0.050422538
124	0x3d913847	0.07090812
125	0x3c011b6d	0.007880074
126	0x3cc1c496	0.02365331
127	0x3e335736	0.17513737

fc3.weight f4 [3, 128]
0	0xbe093088	-0.1339742
1	0xbcc27817	-0.023738904
2	0x3d49994e	0.04921847
3	0xbdf4e36c	-0.1195744
4	0xbdfd0a7c	-0.12355515
5	0xbd9b98ca	-0.075975016
6	0x3db28835	0.08717386
7	0x3cc62bce	0.02419081
8	0xbe0ab840	-0.13546848
9	0xbddace46	-0.10683875
10	0xbd69112f	-0.056901153
11	0x3dd20ab9	0.102559514
12	0x3d5b4bba	0.053539015
13	0x3d71556a	0.058919348
14	0x3d506c8a	0.05088476
15	0x3d077ef5	0.03308006
16	0xbdc45d83	-0.095881484
17	0xbbdc04c4	-0.0067144353
18	0xbe2cac34	-0.16862565
19	0x3d95cbb9	0.07314248
20	0xbd1a500e	-0.037674002
21	0x3d129894	0.03579004
22	0x3d77601b	0.060394388
23	0x3d9a04d3	0.075204514
24	0xbcb51367	-0.022103978
25	0xbe2a5de9	-0.16637386
26	0xbe335edc	-0.17516655
27	0xbe3e2678	-0.18569362
28	0xbd248bf9	-0.04017255
29	0xbb8bab34	-0.0042623524
30	0x3bf4f803	0.0074758544
31	0xbe3ad1d0	-0.182441
32	0x3e2a11b7	0.1660832
33	0xbd27be7a	-0.040953137
34	0x3f3cea26	0.7379478
35	0x3d1a10c6	0.037613653
36	0x3c94baec	0.018155538
37	0x3c6eff0e	0.014587177
38	0xbdb4c724	-0.088270456
39	0xbd75b28a	-0.05998472
40	0xbdef2f85	-0.116789855
41	0x3cfb380b	0.030666372
42	0xbea26a85	-0.31721893
43	0xbe7ea097	-0.24865948
44	0x3cd5bf98	0.026092336
45	0xbe378882	-0.17923167
46	0x3d37d1b1	0.04487771
47	0xbdded15b	-0.10879775
48	0xbf29206d	-0.660651
49	0xbdb25e62	-0.08709408
50	0x3bc7ad0f	0.0060936282
51	0x3f2b4056	0.66895044
52	0xbddd4714	-0.10804573
53	0xbd846750	-0.06465018
54	0xbf215784	-0.63024163
55	0xbd71288a	-0.05887655
56	0x3d10d155	0.035355885
57	0x3d47bfc4	0.048766866
58	0xbc5f0559	-0.013612115
59	0x3d43192c	0.047631428
60	0xbd12df00	-0.0358572
61	0xbe52167d	-0.20516391
62	0xbe4b812e	-0.19873497
63	0x3d87c40e	0.06629191
64	0xbe57a3bd	-0.21058555
65	0xbdfe4d49	-0.12417085
66	0xbd77f16d	-0.060532976
67	0xbc88551c	-0.016642146
68	0xbe835c5c	-0.25656402
69	0x3ca512b0	0.020150512
70	0x3edb5420	0.4283762
71	0xbca1c10e	-0.019745376
72	0xbf478d4e	-0.7794999
73	0xbe373c7a	-0.17894164
74	0xbe3d1ceb	-0.18468063
75	0x3d3b1912	0.045678206
76	0x3d5f5d41	0.054532293
77	0x3d63a599	0.055577848
78	0xbe81199c	-0.2521485
79	0xbd25e6ef	-0.04050344
80	0xbe34ebf0	-0.17668128
81	0x3c4b933a	0.012425238
82	0xbe03f45d	-0.12886186
83	0x3cdcb0a3	0.026939696
84	0xbdd21928	-0.102587044
85	0xbc3fe569	-0.0117124105
86	0xbd4b86c2	-0.049689062
87	0xbe66cd9a	-0.22539368
88	0xbca47ddc	-0.020079546
89	0xbe1f05d8	-0.15529573
90	0xbc4a0a45	-0.01233155
91	0x3c3e2028	0.011604346
92	0xb93102b5	-0.00016881044
93	0xbe9aba4c	-0.30220258
94	0xbd8f9741	-0.07011271
95	0xbe12b2a2	-0.14325956
96	0xbd32e1bf	-0.04367232
97	0xbc789f95	-0.015174766
98	0xbceaafac	-0.02864822
99	0xbe4044f0	-0.18776298
100	0xbdf8d5ac	-0.1215013
101	0xbe4c6ca9	-0.19963326
102	0xbd4a7027	-0.049423363
103	0x3dabe1d4	0.08392683
104	0x3c43e65b	0.0119567765
105	0x3dbf01c6	0.0932651
106	0xbda70d9a	-0.08156891
107	0xbd8dba1e	-0.06920265
108	0xbd7a1b70	-0.061061323
109	0x3d811fc3	0.06304886
110	0xbe325f60	-0.17419195
111	0xbe1e22c9	-0.15442957
112	0xbda54333	-0.08069458
113	0x3d8c228e	0.06842528
114	0xbc2c88dd	-0.010530678
115	0x3d91b6f9	0.071149774
116	0x3d202870	0.039101064
117	0x3e0229b7	0.12711225
118	0x3d55e46f	0.052219804
119	0x3c3f6664	0.011682127
120	0xbd20cdd8	-0.039258808
121	0xbd8dc38f	-0.069220655
122	0xbe3a780d	-0.18209858
123	0x3da8dc63	0.082451604
124	0xbd9f2d1b	-0.07772275
125	0x3c8dd3b2	0.017312858
126	0xbd651e72	-0.055937238
127	0xbec019d5	-0.37519708
128	0xbe39e2b6	-0.1815289
129	0x3d86c7b2	0.065810576
130	0x3b4546a0	0.003010191
131	0xbe782404	-0.24232489
132	0xbe2d5ca8	-0.16929877
133	0xbc52fb8d	-0.012877357
134	0x3db457c3	0.08805802
135	0x3c55ffe8	0.013061501
136	0xbe2d815f	-0.16943882
137	0xbdef97be	-0.116988644
138	0x3d8bf29d	0.06833384
139	0x3dae7160	0.08517718
140	0xbd5f0a6a	-0.05445329
141	0x3d3cf7d5	0.04613479
142	0x3c8d84f2	0.017275307
143	0xbd626ce5	-0.05527963
144	0xbd5c11fe	-0.053728096
145	0x3da712f7	0.08157914
146	0xbe26ba0b	-0.16281907
147	0xbd10c887	-0.035347488
148	0xbbc1f57e	-0.0059191575
149	0x3d2733ed	0.040821005
150	0xbcaa0cb8	-0.020758018
151	0xbd4d9326	-0.05018916
152	0x3ccf21a6	0.0252846
153	0xbde82dd5	-0.11336867
154	0xbddc6099	-0.10760612
155	0xbe458b19	-0.19291343
156	0x3ce5e5c7	0.028063668
157	0x3c8e3bc2	0.01736248
158	0x3cc7ba26	0.024380755
159	0xbe94ce42	-0.29063612
160	0xbd2a2c66	-0.041546248
161	0xbb26159f	-0.0025342477
162	0x3f40a5ee	0.7525319
163	0x3c92fecc	0.017943762
164	0x3cc76859	0.024341749
165	0x3ce61e91	0.028090747
166	0x3da6a969	0.08137781
167	0xbd9c03e6	-0.07617931
168	0xbe05e8ef	-0.13077138
169	0xbc31bec3	-0.010848704
170	0xbea891b1	-0.32923654
171	0xbe40c5ca	-0.1882545
172	0x3c153184	0.009106044
173	0xbe04634a	-0.12928501
174	0x3d87058d	0.065928556
175	0xbe5362cc	-0.20643157
176	0xbf0f9f73	-0.56102675
177	0xbe453fb7	-0.19262587
178	0x3cfcf712	0.030879531
179	0x3f260701	0.6485444
180	0xbe4eb8d2	-0.20187691
181	0x3c9d5195	0.01920394
182	0xbf32548b	-0.6966025
183	0x3d1f602d	0.03891008
184	0x3c16e3ae	0.0092095565
185	0xbcad1d10	-0.021132022
186	0x3d54df81	0.051970962
187	0xbc96ca6a	-0.018407065
188	0xbc10dbcf	-0.008841469
189	0xbe2321f4	-0.15930921
190	0xbe2e608d	-0.17029019
191	0xbd7e767f	-0.062124725
192	0xbe3429be	-0.17594048
193	0xbdab87cf	-0.08375513
194	0x3bbb20c3	0.0057106926
195	0x3d684ad2	0.05671198
196	0xbe86b692	-0.26311165
197	0x3cfa0cae	0.030523624
198	0x3ee117a2	0.43963343
199	0x3d64ec6a	0.055889525
200	0xbf2abc6a	-0.6669375
201	0xbe8d3bab	-0.27584586
202	0xbde0d6d9	-0.10978479
203	0x3bf13104	0.0073605794
204	0xbd22fa2e	-0.03978937
205	0x3c9d4d9d	0.019202048
206	0xbe6d391c	-0.23166317
207	0x3aa39f3d	0.001248337
208	0xbe2f9c0d	-0.17149372
209	0x3d43ac65	0.04777183
210	0xbdec8be5	-0.1155012
211	0x3d720c41	0.059093717
212	0xbde3aeba	-0.11117311
213	0x3d8ae777	0.0678243
214	0xbba08b6a	-0.004899432
215	0xbe864ac2	-0.2622891
216	0x3cde52cf	0.027139096
217	0xbe21a190	-0.15784287
218	0x3d130c74	0.035900548
219	0xbd7de5f3	-0.061986875
220	0xbc550b59	-0.013003194
221	0xbe90fd2f	-0.28318164
222	0x3d496aab	0.049173992
223	0xbe06ff09	-0.13183226
224	0xbd4abaff	-0.04949474
225	0x3c629f6a	0.013831953
226	0xbd56ffd0	-0.052490056
227	0xbe0aca5d	-0.13553758
228	0xbe53876d	-0.2065713
229	0xbe572552	-0.2101033
230	0x3d426748	0.047461778
231	0xbc32770d	-0.010892642
232	0x3d304471	0.04303402
233	0x3c332f3b	0.010936554
234	0x3cdd2999	0.026997374
235	0xbcf83810	-0.03030017
236	0xbe17e21d	-0.14832349
237	0x3d37e0d0	0.044892132
238	0xbe3b3fc4	-0.18286043
239	0xbe244280	-0.16040993
240	0xbe1ba073	-0.15197925
241	0x3d2a21fc	0.041536316
242	0x3c361df4	0.01111554
243	0xbc2258a3	-0.009908828
244	0xbc95d589	-0.018290298
245	0xbd0cc8fd	-0.034371365
246	0x3d64cfa7	0.055862095
247	0xbcdf068a	-0.027224798
248	0x3d013e2b	0.03155343
249	0xbbb50149	-0.005523835
250	0xbda148d7	-0.07875221
251	0xbd934b15	-0.07192055
252	0x3cf7d66f	0.030253617
253	0xbd9a28b6	-0.07527296
254	0xbcef2cde	-0.029196199
255	0xbea4412b	-0.3208097

fc3.bias f4 [3]
0	0xbd9f8c93	-0.07790484
1	0xbd05298a	-0.032510318
2	0xbe304263	-0.17212825

fc1.weight f4 [128, 10]
0	0xbec05063	-0.3756133
1	0xbde5fcca	-0.11229856
2	0xbe4f971b	-0.20272486
3	0xbf8686ac	-1.0509849
4	0x3e491f34	0.1964081
5	0xbf2e7fbc	-0.6816366
6	0xbdc51947	-0.09623962
7	0xbcf4a024	-0.029861517
8	0xbe57452e	-0.21022484
9	0x3dfae622	0.122509256
10	0x3eb2f328	0.34951138
11	0xbdc7a073	-0.097474
12	0x3eb42f48	0.35192323
13	0xbf225332	-0.63408196
14	0xbd1dffd9	-0.038574073
15	0xbf667869	-0.9002748
16	0xbe065aaf	-0.1312053
17	0xbf9fef42	-1.2494891
18	0xbeb2e76d	-0.3494219
19	0x3be24137	0.006904747
20	0xbf3128dc	-0.6920297
21	0xbf0e6fe9	-0.5563951
22	0xbeb4b274	-0.352924
23	0x3d9ed5ec	0.07755646
24	0x3f3c7cd8	0.73627996
25	0x3d801798	0.062545
26	0xbd11a187	-0.035554435
27	0x3ef63672	0.48088413
28	0xbcd0b102	-0.025475029
29	0xbe414127	-0.1887251
30	0x3e003cc4	0.1252318
31	0x3dd749e0	0.105121374
32	0xbd864f6c	-0.06558117
33	0x3d5a3687	0.053274658
34	0x3e791f8b	0.24328439
35	0xbe1efa8a	-0.1552526
36	0xbe5cd9dd	-0.21567483
37	0x3d0ec17d	0.034852494
38	0x3dc10347	0.09424453
39	0x3d2cb445	0.042164106
40	0xbf29f4c1	-0.6638909
41	0xbd8821be	-0.06647061
42	0x3e8d9308	0.27651238
43	0x3b58d037	0.003308309
44	0x3ecc705e	0.3992948
45	0x3e22c15c	0.15894073
46	0xbeacd026	-0.33752555
47	0x3e9b3d4f	0.30320212
48	0x3e7fa529	0.24965347
49	0xbe01b148	-0.12665284
50	0xbd944e84	-0.07241538
51	0x3a17b6b7	0.00057874195
52	0x3e8df035	0.27722326
53	0x3e316f1f	0.17327546
54	0x3e2d0fb6	0.16900524
55	0x3c89a4e8	0.016802266
56	0x3e636a1b	0.22208445
57	0x3eaf453f	0.34232518
58	0xbdc4c78b	-0.09608372
59	0x3e7b0a0e	0.24515554
60	0x396a5738	0.0002234847
61	0xbd4c0971	-0.04981369
62	0xbddedbe3	-0.10881784
63	0xbd19d2ab	-0.037554424
64	0x3e8162e6	0.25270766
65	0xbeb7c989	-0.35895947
66	0xbe6e5d3f	-0.23277758
67	0xbd2bf1c8	-0.041978627
68	0x3dac4ee8	0.08413488
69	0x3e947d7d	0.2900199
70	0x3fa32443	1.2745441
71	0x3ec9631e	0.39333433
72	0x3d79fc1f	0.061031457
73	0x3fcda700	1.6066589
74	0xbf99df43	-1.2021259
75	0x3d5002f4	0.050784066
76	0x3efe4fdb	0.496703
77	0xbe0a1ef1	-0.13488366
78	0x3e920429	0.285188
79	0x3e39bf0c	0.18139285
80	0x3f0cac7d	0.54950696
81	0x3edd71b2	0.43250805
82	0xbe1fbd4e	-0.15599558
83	0xbe3e7248	-0.18598282
84	0xbf56938c	-0.8381889
85	0x3ef2dcc1	0.47434047
86	0xbed75327	-0.42055628
87	0x3d17aeec	0.037032053
88	0x3ead6a5b	0.33870205
89	0xbe672294	-0.22571784
90	0x3d35cb5d	0.044383395
91	0xbc7b2c9d	-0.015330461
92	0x3e38f6c9	0.18062891
93	0xbd9a972f	-0.07548367
94	0xbe13ebd5	-0.14445432
95	0x3dd157f8	0.10221857
96	0xbe88e785	-0.26739135
97	0xbe941081	-0.2891884
98	0x3dc57037	0.09640544
99	0x3e1a9fe5	0.15100057
100	0xbe0428c2	-0.12906173
101	0xbdb49c08	-0.08818823
102	0x3c5d1066	0.013492679
103	0x3d75e3b1	0.060031597
104	0xbf036a99	-0.5133453
105	0x3eaa1948	0.33222413
106	0x3e6d811b	0.23193781
107	0x3ecdd56f	0.402019
108	0xbe12262a	-0.14272371
109	0x3ea88ad4	0.32918417
110	0xbe4e497f	-0.20145224
111	0x3bfc4303	0.007698418
112	0xbf018590	-0.50594425
113	0xbed591d9	-0.41712835
114	0xbe9dd4a3	-0.3082629
115	0xbf36ffc2	-0.71484005
116	0xbde087e9	-0.10963423
117	0x3d802810	0.06257641
118	0x3e2ed50d	0.1707346
119	0x3e688cb1	0.2270992
120	0xbe427fa6	-0.18994007
121	0xbe553e02	-0.20824435
122	0xbdf1a14e	-0.117983446
123	0x3c58fed5	0.01324435
124	0xbd36333e	-0.044482462
125	0x3de461c3	0.11151459
126	0x3e9a22bf	0.30104634
127	0x3e16ecd5	0.14738782
128	0x3e8e54fa	0.27799207
129	0xbdbbe4e8	-0.0917452
130	0x3c99f05d	0.018791372
131	0x3ed18cd2	0.4092775
132	0x3de97e92	0.114010945
133	0xbf26ea7c	-0.65201545
134	0x3f1dff50	0.617177
135	0x3e9bab6e	0.30404228
136	0xbd39804e	-0.045288377
137	0xbdb5df6d	-0.08880506
138	0xbd3eb69d	-0.046560872
139	0xbb6d1114	-0.003617351
140	0xbe998f5e	-0.29992193
141	0x3dcbaaec	0.0994471
142	0x3e89363f	0.267992
143	0xbdd91572	-0.105997935
144	0xbee24521	-0.44193366
145	0x3e7598b1	0.23984028
146	0x3e6b1bca	0.2295982
147	0x3e4c2a96	0.1993812
148	0x3e8fe3db	0.28103527
149	0xbd085b4f	-0.033290204
150	0x3d6a1a8b	0.05715422
151	0xbe419b8a	-0.1890699
152	0xbee7cb4d	-0.45272294
153	0x3f893f0c	1.0722365
154	0xbeeca89e	-0.46222395
155	0xbfa054b0	-1.2525845
156	0x3eb81eef	0.359611
157	0xbd426eef	-0.047469076
158	0x3e5c7c79	0.21531858
159	0x3b1173ba	0.0022194223
160	0xbe86c197	-0.26319572
161	0x3e8a8f10	0.27062273
162	0xbe05e0aa	-0.13073984
163	0xbd8d4ac6	-0.068990275
164	0xbea25cba	-0.3171137
165	0xbf5c36b3	-0.86020964
166	0x3d99d0b5	0.07510511
167	0x3e0c4465	0.13697965
168	0x3bbf1701	0.0058315997
169	0x3d925c01	0.071464546
170	0xbc5a0165	-0.013305997
171	0x3d902d7f	0.07039928
172	0xbac011fe	-0.00146538
173	0x3e9b8518	0.3037498
174	0x3ea2a5b9	0.3176706
175	0x3d694a73	0.056955766
176	0xbe93a1a8	-0.2883427
177	0xbe5a8bec	-0.21342438
178	0x3e35402d	0.17700262
179	0x3cb67a11	0.022275003
180	0xbdc8deb4	-0.09808102
181	0x3e40d26e	0.18830273
182	0x3d74ae1b	0.059736352
183	0xbeb03884	-0.34418118
184	0x3ea7e2d9	0.3279026
185	0xbd963c3a	-0.07335706
186	0xbdee137e	-0.116248116
187	0xbd764e03	-0.06013299
188	0xbdba4e9e	-0.09097026
189	0xbe02be4c	-0.12767905
190	0xbe237595	-0.15962823
191	0xbea51f40	-0.32250404
192	0xbccabe44	-0.024748929
193	0xbd4817f9	-0.048850987
194	0xbe86c44f	-0.26321647
195	0x3e838e6b	0.25694594
196	0x3eb198db	0.34686932
197	0x3e842155	0.2580668
198	0x3e4578bc	0.19284338
199	0xbc92d175	-0.017922143
200	0xbd746192	-0.059663363
201	0xbe3a6151	-0.18201186
202	0x3d94c756	0.07264583
203	0x3c7e186b	0.015508751
204	0x3efc12a6	0.49232978
205	0x3f1ea6ca	0.6197325
206	0xbf58dd3d	-0.8471258
207	0xbdccc3cd	-0.099982835
208	0xbe2fd6ec	-0.1717183
209	0xbe3928ac	-0.18081921
210	0xbc5f761b	-0.013638998
211	0x3d96a029	0.07354767
212	0xbdae3d11	-0.08507741
213	0x3bf999ff	0.0076172347
214	0x3dff6cc2	0.12471916
215	0xbd9458e3	-0.07243516
216	0xbdb0a814	-0.08625808
217	0xbe33c959	-0.17557277
218	0x3ca88816	0.020572703
219	0xbe9ceb24	-0.30648148
220	0x3e9d814c	0.30762708
221	0xbed8fa3f	-0.42378423
222	0x3d96e1e7	0.07367306
223	0xbeb44a91	-0.3521314
224	0x3f1ced03	0.6129915
225	0x3d851f09	0.0650006
226	0xbe6b4bdc	-0.22978157
227	0xbd264918	-0.04059705
228	0x3e67fc01	0.22654726
229	0xbd14adab	-0.036298435
230	0xbd5e6b15	-0.05430134
231	0xbe85032b	-0.2597898
232	0xbda6c379	-0.08142752
233	0x3e331285	0.17487533
234	0xbede6d51	-0.43442777
235	0x3e825e99	0.25462797
236	0x3b0e1b28	0.0021683667
237	0x3e60a82c	0.21939152
238	0x3eac8d2a	0.3370145
239	0x3eacedd7	0.33775207
240	0x3e577170	0.21039367
241	0xbe976919	-0.2957237
242	0x3e0d69d2	0.13809898
243	0xbec2ef8b	-0.38073382
244	0xbe3252a5	-0.17414339
245	0xbe4f1418	-0.20222509
246	0xbde29d2a	-0.11065133
247	0x3e646205	0.22303016
248	0x3e568084	0.20947462
249	0x3e8d1310	0.27553606
250	0xbe3b0363	-0.1826301
251	0xbdb92a2c	-0.09041247
252	0xbe9685e2	-0.2939902
253	0x3ed86cfc	0.42270648
254	0x3de7fbfc	0.11327359
255	0xbe4c282a	-0.19937196

fc1.bias f4 [128]
0	0xbd9609cb	-0.073260866
1	0xb9a0795e	-0.00030608004
2	0x3e8f3ae8	0.2797463
3	0xbeb366a5	-0.3503925
4	0xbe263ae1	-0.16233398
5	0xbd95b18a	-0.073092535
6	0xbe2b17d4	-0.16708308
7	0x3ecfa5ac	0.40556085
8	0xbe03a658	-0.12856424
9	0xbe889de6	-0.26682967
10	0xbd969642	-0.07352878
11	0xbe494310	-0.19654489
12	0x3e3a0b3f	0.18168353
13	0x3e85112a	0.25989658
14	0xbe0bfd34	-0.13670808
15	0x3e1f615d	0.15564485
16	0xbddc47a8	-0.10755855
17	0xbe040e82	-0.1289616
18	0xbea18b15	-0.31551424
19	0x3e470439	0.19435205
20	0xbe0a5a13	-0.13510923
21	0xbe1b752c	-0.15181416
22	0xbd77ed18	-0.060528845
23	0x3eb113f0	0.34585524
24	0x3eba1047	0.36340544
25	0x3e8013ea	0.25015193
26	0xbdf44e29	-0.1192897
27	0xbd97d02a	-0.07412751
28	0x3e98cfd7	0.2984607
29	0xbe209eee	-0.15685627
30	0x3f072ce3	0.52802867
31	0x3dce3092	0.10067858
32	0x3e40cb1a	0.18827477
33	0xbe51b0cd	-0.204776
34	0x3e6e2aab	0.23258464
35	0x3e7bd6b7	0.24593626
36	0xbe8bc64e	-0.27299732
37	0x3df48274	0.119389445
38	0x3ebf8e02	0.3741303
39	0xbea6ac42	-0.32553297
40	0xbe1e3240	-0.15448856
41	0xbd24e262	-0.040254958
42	0x3ef7e803	0.48419198
43	0xbd2fb56c	-0.042897627
44	0xbc206b0d	-0.009791148
45	0x3e3ebb75	0.18626197
46	0xbe8c0f86	-0.27355593
47	0x3ebe69f0	0.371902
48	0x3e845d83	0.25852594
49	0xbc7f4445	-0.015580242
50	0x3f17582a	0.591189
51	0x3ea15218	0.31507945
52	0x3e42cc8c	0.19023341
53	0xbca024a6	-0.019548725
54	0x3dde7300	0.10861778
55	0x3da26641	0.0792966
56	0xbe929e78	-0.28636527
57	0x3e8e3c56	0.27780408
58	0x3e2f5c47	0.17125045
59	0xbe29f41c	-0.16597027
60	0xbe84072b	-0.2578672
61	0x3d9544b8	0.07288498
62	0xbe1bb59d	-0.15205999
63	0x3e8ce22a	0.275163
64	0xbd25eb0b	-0.040507358
65	0xbdbbcbcd	-0.09169731
66	0x3f0870f5	0.5329736
67	0x3eab4f12	0.33458763
68	0x3db4f5ae	0.08835922
69	0x3ec8d85a	0.39227563
70	0x3e91667b	0.283985
71	0x3e89a554	0.26883948
72	0x3d82adca	0.06380804
73	0xbd6a12e8	-0.057146937
74	0xbe59057a	-0.21193495
75	0x3e4e7eee	0.20165607
76	0xbe86a1d9	-0.26295355
77	0xbd8d8d8b	-0.06911763
78	0xbe0ad245	-0.13556774
79	0x3e11c168	0.14233935
80	0xbe8801e7	-0.2656395
81	0xbdda8dd8	-0.10671586
82	0x3e49d7f7	0.1971129
83	0xbe91b0f9	-0.28455332
84	0xbdcc6c06	-0.09981541
85	0x3dbf6c3b	0.09346815
86	0xbeaac602	-0.33354193
87	0xbef19155	-0.47181192
88	0x3e0fd16a	0.14044729
89	0x3e010232	0.12598494
90	0x3db83043	0.0899358
91	0xbe9229b7	-0.2854745
92	0x3e9837c5	0.2973005
93	0x3ec59cad	0.38596097
94	0x3cb7f9f4	0.022458054
95	0xbcf137cd	-0.029445553
96	0x3e98485e	0.29742712
97	0xbe555e91	-0.20836855
98	0x3ebb41ea	0.36573726
99	0x3e863062	0.26208788
100	0xbc979661	-0.018504323
101	0xbebb3177	-0.36561176
102	0xbd8933db	-0.06699344
103	0x3d8f2b6c	0.06990704
104	0x3de4f8c3	0.1118026
105	0xbab9aac1	-0.0014165269
106	0x3cf61142	0.030037526
107	0xbba0608b	-0.0048943213
108	0xbeaf354f	-0.3422036
109	0xbeaad15c	-0.33362854
110	0x3ea3a4f2	0.3196178
111	0x3ca7b442	0.020471696
112	0xbc96a9da	-0.018391538
113	0xbea459f0	-0.32099867
114	0xbcf09ad2	-0.0293707
115	0x3b7ff013	0.0039053007
116	0xbd0423f8	-0.032260865
117	0x3d0db1b3	0.034593295
118	0x3e503773	0.20333652
119	0x3e04adfc	0.12956995
120	0xbd215bca	-0.039394177
121	0x3f1435f8	0.5789485
122	0x3f0251be	0.5090598
123	0x3e9d3274	0.30702555
124	0x3e016eeb	0.12639968
125	0x3ebbb3d0	0.36660624
126	0xbe805bdd	-0.25070086
127	0x3e52766d	0.20552988

fc2.weight f4 [128, 128]
0	0x3e8da69c	0.27666175
1	0x3eddd954	0.4332987
2	0xbd112264	-0.035433188
3	0xbc6f18ff	-0.014593362
4	0x3daf113f	0.08548211
5	0x3d095f11	0.033537928
6	0xbc2e9fae	-0.010658188
7	0x3e0473b4	0.12934762
8	0x3f11da61	0.56973845
9	0x3d6f506f	0.058426317
10	0x3e18b4e4	0.14912754
11	0x3dac5a12	0.08415617
12	0x3e0b9ffc	0.13635248
13	0x3e90eb5a	0.2830456
14	0x3d0e75ba	0.03478024
15	0x3e028917	0.12747608
16	0x3ed24905	0.41071334
17	0xbd677438	-0.05650732
18	0xbd83b04d	-0.06430111
19	0x3dfa9881	0.12236119
20	0x3f324d3e	0.6964911
21	0xbd6c7462	-0.05772818
22	0x3e9458a0	0.28973866
23	0x3df60850	0.12013304
24	0x3e0fea80	0.14054298
25	0x3de13bb7	0.10997718
26	0xbd6e3af9	-0.05816171
27	0x3e0de77e	0.13857839
28	0x3f898167	1.0742615
29	0xbdb14927	-0.08656531
30	0x3e060c8c	0.13090724
31	0x3dc44c8a	0.09584911
32	0x3de78394	0.113043934
33	0x3f8a22ab	1.079183
34	0xbe8f5780	-0.27996445
35	0xbe8e4b6d	-0.2779192
36	0x3c8d084d	0.017215872
37	0x3e514140	0.20435047
38	0x3cd53cd6	0.026029985
39	0xbd22cce3	-0.039746176
40	0x3f01532a	0.50517523
41	0xbc485ddf	-0.012229412
42	0xbed3f3db	-0.41396984
43	0x3e083cd7	0.13304459
44	0x3e433c64	0.19066006
45	0xbba8ca71	-0.005151086
46	0x3d8ddda9	0.06927044
47	0x3d5a9181	0.05336142
48	0x3e875d88	0.26438546
49	0x3e174283	0.14771466
50	0x3e83eb97	0.25765678
51	0x3e8e3a71	0.27778962
52	0x3b329986	0.0027252152
53	0x3c806333	0.015672302
54	0x3d82c7ae	0.06385742
55	0x3e978dcf	0.2960038
56	0x3ce01f64	0.027358718
57	0xbdb30189	-0.08740527
58	0x3d9f4c2c	0.077782005
59	0x3f168122	0.5879079
60	0x3db3628f	0.08759033
61	0x3e2fef6b	0.17181174
62	0xbd9d51b6	-0.07681601
63	0x3e6dc9bf	0.23221491
64	0x3e06a020	0.1314702
65	0x3de512ef	0.11185252
66	0xb950056f	-0.0001983845
67	0x3e667734	0.2250641
68	0x3ecf4063	0.4047881
69	0x3d960d32	0.073267356
70	0x3e368852	0.1782544
71	0x3e062bd2	0.13102654
72	0x3f17851e	0.59187496
73	0xbd4d97bf	-0.050193544
74	0x3f4ff6d8	0.8123603
75	0x3e3dbce4	0.18529087
76	0x3e515bc6	0.20445165
77	0x3e26d157	0.16290794
78	0xbda29ba4	-0.07939842
79	0x3dbe2870	0.092850566
80	0x3d7b1507	0.06129935
81	0xbd609428	-0.054828793
82	0x3dcbfb26	0.09960012
83	0x3f89f05f	1.077648
84	0xbd8c9976	-0.06865208
85	0x3dde11d9	0.10843248
86	0xbd7c5162	-0.06160105
87	0x3d85c0e6	0.06530933
88	0xbdc2fa02	-0.095203415
89	0x3da642a1	0.08118177
90	0x3d9bd316	0.07608621
91	0x3c9dc371	0.019258233
92	0xbe4e40b3	-0.20141868
93	0x3dceb97a	0.100939706
94	0x3d17981e	0.037010305
95	0x3f6d8825	0.92785865
96	0xbee24f81	-0.44201282
97	0xbc74ac5b	-0.014933671
98	0x3dd9f182	0.10641767
99	0xbba2687f	-0.0049563046
100	0x3e1255f6	0.14290604
101	0x3d1ce7db	0.038307052
102	0x3d6218f1	0.055199567
103	0x3d01eef6	0.03172203
104	0xbe6aee8e	-0.22942564
105	0x3ed43968	0.41450047
106	0x3f653175	0.8952859
107	0x3f7544d1	0.9580813
108	0xbc9bfc4f	-0.019041209
109	0xbd342086	-0.04397633
110	0xbf349423	-0.7053854
111	0x3dc985af	0.09839951
112	0x3ebc39f2	0.3676296
113	0x3bffb650	0.0078037158
114	0x3dceb118	0.10092372
115	0x3db6a834	0.08918801
116	0x3e86f5db	0.26359448
117	0x3f2c6cbe	0.6735343
118	0xba34427f	-0.0006876364
119	0x3df6de19	0.120540805
120	0x3e17c01c	0.14819378
121	0x3ed329c2	0.41242796
122	0xbe7ebae4	-0.2487598
123	0x3ec9334e	0.39296955
124	0x3d745730	0.05965346
125	0xbe6b64bd	-0.22987647
126	0x3d959d0a	0.073053434
127	0xbd808146	-0.06274657
128	0x3c4fdb07	0.0126864975
129	0x3d05b7ca	0.032645978
130	0x3d4b9e8f	0.04971176
131	0xbd9e010e	-0.07715045
132	0xbd58bc51	-0.052913968
133	0x3d072765	0.032996554
134	0xbb301513	-0.002686803
135	0xbd51aa28	-0.051187664
136	0x3c007ab1	0.007841752
137	0xbd8af788	-0.06785494
138	0x3bfbe5d9	0.007687312
139	0x3caca391	0.021074088
140	0x3c0bec14	0.008540172
141	0xbd7046cf	-0.05866128
142	0x3d099b3e	0.033595316
143	0xbca9a979	-0.020710694
144	0x3c750fef	0.014957412
145	0x3db11e88	0.086484015
146	0x3d514134	0.051087573
147	0x3b611e6f	0.0034350415
148	0xbd27f8f4	-0.041008905
149	0x3da44a8a	0.0802203
150	0xbd0837de	-0.033256404
151	0xbd5597b4	-0.05214663
152	0xbd87d8c3	-0.06633141
153	0xbd8a2612	-0.067455426
154	0xbd872107	-0.06598096
155	0x3d945946	0.0724359
156	0xbbf5db7c	-0.007502971
157	0xbd35fff0	-0.044433534
158	0x3c3d49f4	0.011553276
159	0xbd60042c	-0.05469148
160	0xbd94f574	-0.07273379
161	0x3d03dcf0	0.032193124
162	0x3d120a76	0.035654508
163	0x3d3cfd14	0.04613979
164	0x3d93342a	0.07187684
165	0xbd863e53	-0.06554856
166	0xbd6215ed	-0.05519669
167	0xbb594ccc	-0.0033157347
168	0xbc86578c	-0.016399167
169	0x3d8b1b35	0.06792299
170	0xbd8eafe7	-0.069671445
171	0xbce5d844	-0.028057225
172	0x3c7beb29	0.015375891
173	0xbde82c44	-0.11336568
174	0xbc4ecd70	-0.012622222
175	0x3d6b3ee3	0.05743302
176	0xbd30f5fe	-0.043203346
177	0x3d42be13	0.04754455
178	0xbd50e5ab	-0.05100028
179	0xbd8f062a	-0.069835976
180	0xbd7e166e	-0.06203311
181	0xbd1a82bc	-0.037722334
182	0x3d657289	0.056017432
183	0x3d1cb3da	0.038257457
184	0x3da4b06f	0.080414645
185	0x3d5367f9	0.051612828
186	0x3ca586c6	0.020205867
187	0x3db22d6b	0.08700069
188	0xbcdee324	-0.027207918
189	0xbd30c360	-0.043155074
190	0x3d9eeb15	0.07759682
191	0x3d78dbc5	0.060756464
192	0xbdbb908e	-0.09158431
193	0xbdb79181	-0.089632995
194	0x3c4e96d0	0.012609199
195	0xbdbafa28	-0.09129745
196	0xbca7975c	-0.020457916
197	0x3d053e26	0.032529972
198	0xbd70539e	-0.058673494
199	0x3d9e0758	0.077162445
200	0x3d4e106d	0.050308634
201	0xbdb4eccb	-0.08834227
202	0x3d10946f	0.035297807
203	0x3d890f70	0.066923976
204	0x3d3dc36a	0.04632894
205	0x3d8f23a8	0.06989223
206	0xbda48c64	-0.0803459
207	0xbbe8c5fa	-0.007103679
208	0xbce6332c	-0.028100573
209	0xbcdcf945	-0.02697433
210	0x3d48af62	0.048995383
211	0x3d39717b	0.04527424
212	0xbd9b9b3b	-0.07597967
213	0xbd94b148	-0.07260376
214	0x3d4eaefd	0.05045985
215	0x3d4b140c	0.049579665
216	0xbde9caa2	-0.11415602
217	0xbd9c1a84	-0.07622245
218	0x3d82d550	0.063883424
219	0x3cac9f79	0.021072136
220	0x3d752565	0.059850115
221	0xbd971ec3	-0.07378914
222	0xbdb58c50	-0.08864653
223	0xbd6b90fe	-0.057511322
224	0xbd97728e	-0.073948964
225	0x3d994b22	0.074850336
226	0xbcfda4c4	-0.030962355
227	0x3c7b1712	0.015325325
228	0xbdbfd530	-0.09366834
229	0x3cbfdda5	0.023421118
230	0x3d3a077f	0.045417305
231	0x3d255b1f	0.040370103
232	0x3cf3a271	0.029740544
233	0x3c87cb20	0.01657635
234	0xbcf718da	-0.030163217
235	0x3d0191af	0.031633075
236	0x3d2598f9	0.04042909
237	0xbc535660	-0.012899011
238	0xbdc8991e	-0.0979483
239	0xbd7c8aa8	-0.06165567
240	0x3d2a5e72	0.041593976
241	0x3bdbdf4a	0.0067099677
242	0xbc2a9d05	-0.010413413
243	0x3d6f0227	0.058351662
244	0xbdcf33a7	-0.10117274
245	0x3cba7ff2	0.022766087
246	0xbd239fae	-0.039947204
247	0xbd18a6f9	-0.037268613
248	0xbd48a63f	-0.04898667
249	0x3bd95161	0.0066320156
250	0xbcdaa266	-0.026688766
251	0xbd06bfeb	-0.03289787
252	0xbdb53351	-0.088476785
253	0x3d1252a4	0.035723343
254	0x3d50bc37	0.050960746
255	0xbd22aa87	-0.03971341

fc2.bias f4 [128]
0	0x3e281a92	0.16416386
1	0xbcf4ad6b	-0.029867848
2	0xbbdb241b	-0.0066876537
3	0xbdae36cf	-0.08506548
4	0x3e17c6b9	0.148219
5	0x3bf352e5	0.0074256533
6	0x3ac6fdbd	0.0015181821
7	0x3d3ace5d	0.04560696
8	0x3e3e95cc	0.1861183
9	0x3e574d91	0.21025683
10	0xbd479e57	-0.04873499
11	0xbd769cee	-0.060208254
12	0xbd44cc49	-0.048046384
13	0xbb5a4297	-0.003330385
14	0xbc805930	-0.015667528
15	0xbd9e36ca	-0.07725294
16	0x3e426bde	0.1898646
17	0xbd5d87ff	-0.054084774
18	0x3e044e78	0.12920558
19	0x3c0b7568	0.008511879
20	0x3ccb93f1	0.024850817
21	0xbcf9651a	-0.030443717
22	0xbcd637af	-0.026149599
23	0x3d0859ad	0.033288646
24	0xbcb35642	-0.021891717
25	0x3dfe54a3	0.12418487
26	0x3e4de1e3	0.201057
27	0x3e1e4770	0.15456939
28	0xbcc964c8	-0.024584189
29	0xbdb04729	-0.08607323
30	0x3cd2f150	0.025749832
31	0x3e1d8e18	0.15386236
32	0xbda0c8cc	-0.07850799
33	0xbdb590f5	-0.08865539
34	0x3e7fe688	0.24990284
35	0xbde395dd	-0.111125685
36	0x3c8b7550	0.017023712
37	0xbdb0fc91	-0.08641923
38	0x3d76674b	0.0601571
39	0x3d479575	0.048726518
40	0x3df7e991	0.12105096
41	0x3d150a2d	0.036386658
42	0x3e10c874	0.14138967
43	0xbd3cb79f	-0.046073552
44	0xbd634b92	-0.05549199
45	0x3dd480d3	0.10376134
46	0xbaa5aad2	-0.0012639409
47	0x3dba2617	0.09089296
48	0xbdf80953	-0.121111535
49	0x3e06e830	0.1317451
50	0x3d801da1	0.06255651
51	0x3e55d31f	0.20881318
52	0x3d25bc0e	0.040462546
53	0xbd876844	-0.06611684
54	0xbd77ace0	-0.0604676
55	0xbd1eb7d8	-0.038749546
56	0xbd393f85	-0.045226593
57	0xbce23a81	-0.027615787
58	0xbccbeee3	-0.024894184
59	0xbd62d430	-0.05537814
60	0xbd85eb0c	-0.06538972
61	0xbdbe4342	-0.09290172
62	0x3d27cdbb	0.040967684
63	0xbd06fe1a	-0.032957174
64	0x3c5b5d12	0.013388889
65	0x3e76366b	0.24044196
66	0xbcfb93c2	-0.030710105
67	0xbdbbcc4b	-0.09169825
68	0x3d8b8913	0.06813254
69	0xbdb8086a	-0.0898598
70	0x3e1b7343	0.15180688
71	0xbce3dad4	-0.027814306
72	0x3ca91c54	0.02064339
73	0xbcf11acf	-0.029431729
74	0x3e3dc45d	0.18531938
75	0x3d51daf2	0.051234193
76	0xbcbfc362	-0.023408595
77	0xbd493fd9	-0.049133155
78	0xbd4995d8	-0.049215168
79	0xbdb9119d	-0.090365626
80	0x3e518c49	0.20463671
81	0x3c82a35e	0.01594704
82	0x3e49a61c	0.19692272
83	0x3d295562	0.041341193
84	0xbdaccaea	-0.0843714
85	0xbd9336a5	-0.07188157
86	0xbd8d6d8d	-0.06905661
87	0xbd6f1a15	-0.058374483
88	0x3c613abe	0.013746915
89	0x3bfbe24a	0.007686888
90	0xbde07f57	-0.10961788
91	0xbc2c78d6	-0.010526856
92	0xbd86850b	-0.06568345
93	0x3dea5eeb	0.114438854
94	0xbdfc8e31	-0.12331808
95	0x3e64135e	0.22273013
96	0xbcdd4537	-0.027010543
97	0x3d043ece	0.032286458
98	0x3d3f9a3c	0.04677795
99	0x3dafa110	0.08575642
100	0xbdb7ec32	-0.089805976
101	0x3dade8c4	0.08491662
102	0xbdc875f1	-0.097881205
103	0xbdac6776	-0.08418171
104	0x3c882a7d	0.016621822
105	0xbc2ca009	-0.010536202
106	0xbd891f48	-0.066954195
107	0xbd2b4787	-0.04181626
108	0xbe12f98b	-0.14353006
109	0x3d948cfd	0.07253454
110	0x3e52c7c7	0.20584022
111	0x3dd450c2	0.10366966
112	0xbd9db15d	-0.07699845
113	0x3d40952e	0.04701727
114	0x3d87e95b	0.06636306
115	0xbce9c782	-0.028537516
116	0x3c9ece43	0.019385463
117	0x3d2b1cbc	0.04177545
118	0xbcfebb33	-0.031095123
119	0x3cd5c66b	0.02609559
120	0x3d408e31	0.047010604
121	0x3d5b22d8	0.053500026
122	0x3e4a5fab	0.19763057
123	0x3d4e87dd	0.050422538
124	0x3d913847	0.07090812
125	0x3c011b6d	0.007880074
126	0x3cc1c496	0.02365331
127	0x3e33723b	0.17524044
