dqn_car_model_episode_900.pth (torch, 307153 bytes, 24 tensors)

fc1.weight f4 [128, 10]
-0.10563566 0.08982352 0.17694627 -0.20663425 -0.22201423 -0.2496143 -0.06196916 -0.08388029
0.13607922 -0.25967035 0.40061072 0.045261417 0.3100845 -0.066191636 0.1936385 0.043507725
0.1352923 0.31721246 0.29870003 -0.23669928 0.16626306 0.29602724 0.092149094 -0.30506417
-0.07413579 -0.29389095 0.26243317 -0.30358312 -0.24169864 0.20320557 -0.27327958 -0.07690601
-0.21660371 0.24946584 -0.06856503 0.15640624 0.016047621 0.1282991 -0.19159484 0.19288115
0.14125058 -0.060751636 0.17758852 0.18435465 0.1506329 0.2801141 0.13032523 0.2523827
0.06690612 -0.33872163 -0.06565253 0.16408531 0.2512986 0.21518132 0.13144562 0.11589763
0.1737847 0.19082354 0.3110613 0.090752564 -0.0034288734 -0.27817443 0.1777582 -0.29845205
-0.14758801 -0.24457519 0.03257497 0.018696127 0.05151712 -0.012855196 0.2795394 0.26987368
0.15216303 -0.010342891 0.15243237 -0.20317864 0.13840503 -0.30807415 0.20240454 0.0965895
-0.083024584 0.079892844 -0.10750275 0.13713825 -0.23261978 -0.15479478 -0.09019219 0.13153793
-0.29972196 0.057181884 -0.12307754 -0.2521867 0.22344238 0.25002185 0.14777218 -0.2535554
-0.052416623 0.3356874 -0.042900026 0.010206903 0.431518 0.1878051 0.14084055 -0.24811141
-0.26425827 -0.34197602 0.20803162 0.13790171 0.12615716 0.004694734 0.12536146 0.12180216
-0.13667555 -0.24269208 -0.3127139 -0.11174844 -0.11703488 0.036207564 -0.266746 -0.2688992
0.18952313 -0.09643385 -0.09190529 -0.26116875 -0.056131504 -0.08128075 -0.2227368 0.15594819
0.2357589 0.24778049 0.06232153 0.24951583 -0.088840395 -0.25136584 0.14720549 0.15954874
0.19259752 -0.2521245 0.29563466 0.005320353 -0.02200568 -0.0682941 -0.036343727 0.18392363
0.034080118 -0.12650806 -0.12247362 -0.28254637 0.099575385 -0.31377816 0.06771824 0.1813376
0.030756349 0.214318 0.051712006 0.17194313 -0.2706784 -0.31048858 -0.08136786 -0.27295482
-0.08554189 0.059938386 0.034814276 -0.27206957 0.013250257 0.28404754 -0.13530597 0.079847224
-0.10178739 -0.24600439 0.21208683 0.12348463 0.17955282 -0.2703521 -0.1586988 -0.1894645
0.22673248 0.03016288 -0.21953328 -0.028981185 0.30142808 -0.087009035 0.28217673 0.3107516
-0.24267828 -0.3142891 -0.11959634 -0.16793972 -0.020518105 -0.11597989 -0.18751049 0.17830583
0.174042 0.27108216 -0.19995436 -0.14566997 -0.29449803 -0.0033449933 -0.13038655 0.051826116
-0.009879125 0.3429326 0.17334205 -0.26220623 0.11085715 -0.0079141455 0.045568664 0.18643901
0.029840568 -0.23095468 0.10186722 0.12008961 0.2545866 0.32389253 0.18896016 0.099401854
0.1025861 -0.030345317 0.21812552 0.038145922 0.27086186 0.2711467 0.054220356 0.25139958
-0.044644915 0.02501629 0.24968718 0.23786314 0.2610243 -0.08952369 0.21945168 -0.23008484
0.26151225 -0.2515436 0.19765495 0.17625576 -0.16662292 0.17344269 0.09236084 0.14007811
0.23068716 0.2849057 0.28609407 0.2974034 -0.036066577 0.30464175 -0.20387699 0.014461094
-0.050818015 0.10108829 -0.060438458 0.27043572 -0.10175958 0.18863422 -0.22039492 0.14157243
00000000: 8257 d8bd 65f5 b73d 6731 353e ee97 53be
00000010: b357 63be e49a 7fbe 60d3 7dbd 6ec9 abbd
00000020: 5a58 0b3e 83f3 84be d91c cd3e 0964 393d
00000030: 65c3 9e3e 7b8f 87bd 2c49 463e 2835 323d
00000040: 118a 0a3e ac69 a23e 36ef 983e 4c61 72be
00000050: dd40 2a3e e290 973e aab8 bc3d 5f31 9cbe
00000060: 81d4 97bd e078 96be a45d 863e 3f6f 9bbe
00000070: d97f 77be 1f15 503e 4deb 8bbe e680 9dbd
00000080: 5dcd 5dbe f973 7f3e d36b 8cbd f528 203e
00000090: 4d76 833c d760 033e 7031 44be a382 453e
000000a0: fea3 103e b5d6 78bd c4d9 353e 77c7 3c3e
000000b0: 833f 1a3e 1e6b 8f3e fa73 053e 4e38 813e
000000c0: 1306 893d ec6c adbe d574 86bd fb05 283e
000000d0: 36aa 803e 7e58 5c3e ae99 063e bd5b ed3d
000000e0: 9ef4 313e 3f67 433e 6d43 9f3e 7bdc b93d
000000f0: f3b6 60bb e16c 8ebe 3f06 363e b5ce 98be
00000100: 5021 17be eb71 7abe 556d 053d 9f28 993c
00000110: 9e03 533d 9a9e 52bc ca1f 8f3e e22c 8a3e
00000120: a0d0 1b3e 3b75 29bc 3b17 1c3e 100e 50be
00000130: 0cba 0d3e e5bb 9dbe 2343 4f3e b7d0 c53d
00000140: cb08 aabd dc9e a33d 672a dcbd f86d 0c3e
00000150: e133 6ebe 8682 1ebe afb6 b8bd e1b1 063e
00000160: 2875 99be 8d37 6a3d 1410 fcbd 9d1e 81be
00000170: 14ce 643e dd02 803e 9751 173e 03d2 81be
00000180: d0b2 56bd 38df ab3e f0b7 2fbd db3a 273c
00000190: edef dc3e fb4f 403e 8138 103e eb10 7ebe
000001a0: dc4c 87be 7b17 afbe 3e06 553e 1b36 0d3e
000001b0: 582f 013e 48d6 993b c15e 003e 6973 f93d
000001c0: adf4 0bbe 4684 78be 091c a0be 5edc e4bd
000001d0: fcaf efbd 624e 143d ef92 88be 28ad 89be
000001e0: 5a12 423e 1c7f c5bd d738 bcbd e9b7 85be
000001f0: 26ea 65bd 8676 a6bd 1e15 64be e2b0 1f3e
00000200: c86a 713e 2bba 7d3e dc44 7f3d 1481 7f3e
00000210: f4f1 b5bd 06b3 80be 09bd 163e bf60 233e
00000220: 4938 453e 7616 81be 6d5d 973e 5b56 ae3b
00000230: 4145 b4bc c7dd 8bbd 29dd 14bd 7a56 3c3e
00000240: 9897 0b3d 548b 01be 73d3 fabd eba9 90be
00000250: 2eee cb3d 88a7 a0be dcaf 8a3d 90b0 393e
00000260: bdf4 fb3c 2e76 5b3e f8cf 533d dc11 303e
00000270: 5c96 8abe 5cf8 9ebe 31a4 a6bd bcc0 8bbe
00000280: 9630 afbd f481 753d 6a99 0e3d b44c 8bbe
00000290: 9b17 593c ae6e 913e a68d 0abe f186 a33d
000002a0: e875 d0bd 93e8 7bbe 4a2d 593e 82e5 fc3d
000002b0: b2dc 373e 976b 8abe f081 22be fb02 42be
000002c0: 8f2c 683e 2518 f73c 55cd 60be f369 edbc
000002d0: c854 9a3e cb31 b2bd 7879 903e d51a 9f3e
000002e0: a880 78be 80ea a0be edee f4bd 64f8 2bbe
000002f0: 9615 a8bc dd86 edbd c002 40be ce95 363e
00000300: 1138 323e 48cb 8a3e d6c0 4cbe 822a 15be
00000310: 72c8 96be ad37 5bbb 0d84 05be 9f47 543d
00000320: 0edc 21bc dd94 af3e 9480 313e e53f 86be
00000330: 1309 e33d 55aa 01bc 35a6 3a3d dee9 3e3e
00000340: 3574 f43c 627f 6cbe c39f d03d 8bf1 f53d
00000350: 2d59 823e 3ed5 a53e c67e 413e 3393 cb3d
00000360: a918 d23d be96 f8bc 4c5c 5f3e e63e 1c3d
00000370: 68ae 8a3e bed3 8a3e 2a16 5e3d 72b7 803e
00000380: 96dd 36bd f6ee cc3c ffad 7f3e 6592 733e
00000390: faa4 853e 3258 b7bd f1b7 603e 5c9b 6bbe
000003a0: efe4 853e 53ca 80be 0f66 4a3e 647c 343e
000003b0: 339f 2abe f69a 313e ae27 bd3d a370 0f3e
000003c0: 4139 6c3e 29df 913e ec7a 923e 4245 983e
000003d0: 8cba 13bd 01fa 9b3e 21c5 50be 39ee 6c3c
000003e0: 8d26 50bd 6107 cf3d 518e 77bd 8d76 8a3e
000003f0: 5467 d0bd 5429 413e 35af 61be 5df8 103e

fc1.bias f4 [128]
0.18553607 -0.039128266 0.063508585 0.12653728 0.23016138 -0.012515881 -0.107926846 0.060587645
-0.035892304 0.21678697 0.25614673 0.030804828 0.09810915 0.2738375 0.08219664 -0.01859856
-0.26447493 0.23705645 0.30213886 -0.034603167 0.11909619 -0.14370608 -0.19640236 -0.06216837
0.13979994 0.120925754 0.2026256 0.0705917 0.16112363 0.21633318 0.14097536 0.21897408
0.144035 -0.030373104 -0.006683352 0.17802909 0.10986592 0.275178 0.13217895 0.13549465
0.04461178 -0.09946655 0.1307544 -0.22689661 0.25006694 0.13977763 0.29885653 0.0445228
-0.03599145 -0.2586438 -0.2897871 0.08819627 -0.06565256 0.089848086 0.01839228 0.26025444
0.23288016 -0.09179621 -0.19645368 0.17796554 0.10444734 -0.19747846 0.21208632 0.2744143
-0.1775557 -0.014567363 0.08105576 0.25761068 -0.26350942 0.29500395 -0.19823307 0.17237692
-0.2672085 0.2778489 0.32191038 0.13915853 -0.011346201 0.112695396 -0.093822256 0.16918139
-0.29903594 -0.1271574 0.026804158 -0.27074763 0.21255438 -0.16798182 0.12391299 0.01506998
-0.20619078 0.10069165 -0.17065708 -0.08610729 0.21669357 -0.19498691 -0.1896015 -0.17461628
0.30334198 -0.29269648 -0.12768066 0.29329827 -0.11965892 -0.26872012 0.22976242 0.14144003
-0.18992256 -0.31325296 0.18989861 -0.08158999 0.16290106 -0.07541723 -0.16315575 0.30412754
0.1723638 -0.062332567 0.32744157 -0.22660118 -0.28332862 0.04306802 -0.22136757 -0.1000702
-0.28790975 0.2103844 0.029770467 -0.2308001 0.20645383 0.09350944 0.26359433 0.28664875
00000000: 2bfd 3d3e f644 20bd ca10 823d fd92 013e
00000010: 6daf 6b3e 690f 4dbc c008 ddbd c02a 783d
00000020: cf03 13bd 67fd 5d3e aa25 833e 685a fc3c
00000030: 73ed c83d 6e34 8c3e b656 a83d 025c 98bc
00000040: 4269 87be edbe 723e f2b1 9a3e 0dbc 0dbd
00000050: b4e8 f33d b027 13be b31d 49be 43a4 7ebd
00000060: b727 0f3e eca7 f73d 167d 4f3e 6292 903d
00000070: 98fd 243e 7286 5d3e d85b 103e be3a 603e
00000080: e97d 133e 04d1 f8bc 0500 dbbb 424d 363e
00000090: 6201 e13d 21e4 8c3e eb59 073e 1cbf 0a3e
000000a0: d8ba 363d 1eb5 cbbd 7be4 053e 9657 68be
000000b0: c608 803e de21 0f3e b903 993e 8a5d 363d
000000c0: c56b 13bd f66c 84be fa5e 94be 3fa0 b43d
000000d0: d974 86bd 4602 b83d 68ab 963c 1240 853e
000000e0: 2378 6e3e a7ff bbbd 272b 49be 993c 363e
000000f0: 7de8 d53d cb37 4abe 282d 593e 0880 8c3e
00000100: 29d1 35be f3ab 6ebc 9000 a63d 8ce5 833e
00000110: b5ea 86be c20a 973e 9cfd 4abe 9383 303e
00000120: 8dcf 88be 3642 8e3e 70d1 a43e 937f 0e3e
00000130: 6be5 39bc d8cc e63d e225 c0bd e33d 2d3e
00000140: 3d1b 99be 8d35 02be 6594 db3c 6f9f 8abe
00000150: dba7 593e 6d03 2cbe 18c6 fd3d 14e8 763c
00000160: ad23 53be 6c37 ce3d bbc0 2ebe 0559 b0bd
00000170: ebe4 5d3e a6aa 47be e526 42be 9cce 32be
00000180: a44f 9b3e 50dc 95be b8be 02be 312b 963e
00000190: bc0f f5bd af95 89be d746 6b3e a8d5 103e
000001a0: 0f7b 42be b162 a0be c874 423e a718 a7bd
000001b0: 89cf 263e 5974 9abd 4d12 27be 9bb6 9b3e
000001c0: 2380 303e 6f50 7fbd 6ca6 a73e 240a 68be
000001d0: 7310 91be 1868 303d 2eae 62be 9bf1 ccbd
000001e0: e868 93be 026f 573e 32e1 f33c dd56 6cbe
000001f0: a268 533e e181 bf3d d6f5 863e a0c3 923e

fc2.weight f4 [128, 128]
0.004187848 -0.054565795 -0.02485368 -0.041145038 -0.07524819 -0.079463474 -0.042302106 -0.019898381
-0.03740399 -0.046212196 -0.080952495 0.022038154 -0.07809232 0.024586638 0.026256306 -0.0048588994
-0.054741926 -0.03296812 -0.028541371 -0.08764582 0.064823896 -0.07992157 0.0149873765 -0.05133368
0.007148432 -0.07125166 0.07050847 0.039794065 0.027893838 -0.023142476 -0.017100345 0.06838919
-0.021889893 0.0040610596 -0.03646027 0.064262055 -0.021887416 0.010624335 0.06597608 0.054962207
0.050541393 -0.06928662 -0.037916504 -0.013649099 0.021474704 0.066862896 0.040251095 -0.0148092015
0.012176783 0.016582761 0.04867233 -0.042946607 -0.083916515 -0.08146733 0.030586137 -0.05609149
-0.03949441 0.040471204 0.08245529 0.04632884 0.06715896 0.0023772193 0.028657055 -0.06485677
0.06454191 -0.008167122 -0.08170881 0.017110799 0.041762426 0.08163312 -0.015332275 0.011267802
-0.030986827 0.04490594 0.0031184137 0.06405519 0.01817902 0.006366102 -0.03103167 -0.06253492
-0.036321606 -0.021637244 -0.035637606 -0.025132418 -0.083197415 0.0042300685 0.045618717 0.050092317
-0.044309594 0.00937466 0.0807538 -0.042661164 -0.050259177 0.041307062 -0.084685236 0.066042006
-0.047794938 0.037350282 -0.012222333 0.06921475 0.014591839 -0.02791626 0.0063706962 0.067367986
0.055678178 -0.001562626 -0.066053994 0.043605603 -0.049938094 -0.07163145 -0.045694254 0.00943473
0.03891823 0.056138676 -0.083985895 -0.03732507 0.027575629 -0.031787712 0.065391816 0.08245517
-0.033733714 0.006549378 0.06775544 0.06209273 0.035490576 0.05515248 -0.0054000756 0.003434199
-0.009026216 0.027902316 -0.0018461478 0.00048132753 -0.014065344 -0.084377505 -0.08183621 -0.027259907
-0.05661273 -0.100306176 -0.06327348 0.035320185 0.00904011 -0.024753971 0.04832391 0.064079665
-0.017446076 0.055543076 -0.045119286 0.0064106723 -0.052755054 0.029468894 -0.032954883 0.034551386
0.017366093 -0.09484294 0.013660034 0.0056746174 -0.085060455 0.054381188 0.003740508 -0.027483683
-0.020621894 0.019653838 -0.014951215 -0.06166049 -0.06139152 -0.090018116 -0.004112447 0.060733587
-0.017798983 -0.085530214 0.028738609 0.05782615 -0.06961782 -0.092189066 0.06310249 0.032781668
0.0069642607 0.049978953 0.04569009 0.033460204 0.07377234 0.012497199 0.04547428 0.06942278
0.07659896 -0.0077890325 0.044677872 0.07545257 0.04492344 -0.0076851603 0.006838938 -0.042897385
0.013413719 -0.008398002 0.023819573 -0.040635947 0.03285739 -0.09046227 0.08721238 0.014814541
0.03100358 -0.08793807 0.07367781 -0.051960584 -0.0061455644 0.052891407 -0.038205814 -0.03378971
-0.0449425 -0.040390905 -0.03229223 -0.011644067 -0.08691292 0.057870362 -0.08927493 -0.062941484
0.0030216745 0.044262797 0.060859755 -0.090873525 -0.033466067 0.013969755 -0.06922773 -0.04932649
0.016760215 -0.03792132 0.04967562 0.03502311 0.06773089 0.0042076884 -0.06791247 -0.028453348
-0.10044268 -0.018797357 -0.0675894 -0.069901645 -0.08328243 0.07272366 -0.015235633 0.041520234
-0.08509837 -0.02895415 -0.0027729757 -0.026157008 0.07918846 -0.008624145 0.006871951 0.023615742
-0.007903113 -0.08196599 -0.011599969 0.021572957 0.02553686 -0.0712974 -0.08788909 -0.08415823
00000000: 373a 893b 6280 5fbd f299 cbbc b387 28bd
00000010: b91b 9abd bfbd a2bd f944 2dbd ee01 a3bc
00000020: ed34 19bd 0049 3dbd 6cca a5bd 5c89 b43c
00000030: deee 9fbd eb69 c93c 7717 d73c 6737 9fbb
00000040: 1239 60bd 9409 07bd 98cf e9bc a77f b3bd
00000050: 64c2 843d ecad a3bd 9d8d 753c 4443 52bd
00000060: 653d ea3b 64ec 91bd bf66 903d 1aff 223d
00000070: 9e81 e43c 4a95 bdbc 0616 8cbc a20f 8c3d
00000080: 6f52 b3bc a312 853b 5d57 15bd d39b 833d
00000090: 3d4d b3bc b111 2e3c 781e 873d 0d20 613d
000000a0: 7e04 4f3d 25e6 8dbd 564e 1bbd 78a0 5fbc
000000b0: b8eb af3c 6aef 883d 55de 243d 4ba2 72bc
000000c0: 2181 473c 92d8 873c a35c 473d c8e8 2fbd
000000d0: 6cdc abbd 58d8 a6bd c78f fa3c 31c0 65bd
000000e0: e4c4 21bd 22c5 253d 52de a83d 4fc3 3d3d
000000f0: a38a 893d 1fcb 1b3b 33c2 ea3c a0d3 84bd
00000100: 8d2e 843d 64cf 05bc f356 a7bd f22b 8c3c
00000110: 140f 2b3d 442f a73d 3934 7bbc 969c 383c
00000120: 16d8 fdbc 4aef 373d 4d5e 4c3b 5e2f 833d
00000130: 2bec 943c bc9a d03b 2136 febc 4f12 80bd
00000140: f7c5 14bd 9740 b1bc bdf8 11bd 80e2 cdbc
00000150: 6863 aabd 639c 8a3b b1da 3a3d 9a2d 4d3d
00000160: fa7d 35bd 2d98 193c 4062 a53d 79bd 2ebd
00000170: 91dc 4dbd 9831 293d 746f adbd 0841 873d
00000180: a0c4 43bd 9cfc 183d 2e40 48bc 76c0 8d3d
00000190: 9c12 6f3c a4b0 e4bc 46c1 d03b 3af8 893d
000001a0: cd0e 643d 07d1 ccba 5147 87bd ca9b 323d
000001b0: e38b 4cbd 82b3 92bd e629 3bbd 2094 1a3c
000001c0: b968 1f3d abf1 653d cc00 acbd 2ce2 18bd
000001d0: 49e6 e13c d533 02bd 25ec 853d 42de a83d
000001e0: 5d2c 0abd 2a9c d63b 5dc3 8a3d f254 7e3d
000001f0: 915e 113d 91e7 613d 1ef3 b0bb 4c10 613b
00000200: b2e2 13bc 6693 e43c 71fa f1ba b05a fc39
00000210: 5472 66bc 1dce acbd be99 a7bd 2b50 dfbc
00000220: c0e2 67bd 536d cdbd 8795 81bd e6ab 103d
00000230: f81c 143c d7c8 cabc 4bef 453d 333c 833d
00000240: 13eb 8ebc 2381 633d 00cf 38bd 9e10 d23b
00000250: af15 58bd c068 f13c b3fb 06bd c185 0d3d
00000260: 5643 8e3c 043d c2bd 56ce 5f3c 24f2 b93b
00000270: 2d34 aebd cfbe 5e3d 5023 753b 7625 e1bc
00000280: 3fef a8bc 1601 a13c f1f5 74bc b68f 7cbd
00000290: ad75 7bbd 6b5b b8bd b5c1 86bb c8c3 783d
000002a0: 2ccf 91bc 772a afbd 3b6d eb3c 1ddb 6c3d
000002b0: ca93 8ebd 9fcd bcbd e13b 813d 1246 063d
000002c0: 7434 e43b bbb6 4c3d 8825 3b3d 910d 093d
000002d0: f415 973d 0dc1 4c3c 3d43 3a3d 882d 8e3d
000002e0: eadf 9c3d 243b ffbb 2500 373d e186 9a3d
000002f0: a401 383d ccd3 fbbb 2c19 e03b 2bb5 2fbd
00000300: 37c5 5b3c c697 09bc 4421 c33c e171 26bd
00000310: 7895 063d 4844 b9bd 679c b23d b0b8 723c
00000320: 38fb fd3c e018 b4bd 64e4 963d 9fd4 54bd
00000330: bb60 c9bb a9a4 583d b37d 1cbd 1467 0abd
00000340: a015 38bd ef70 25bd db44 04bd c2c6 3ebc
00000350: 67ff b1bd 7909 6d3d c6d5 b6bd 77e7 80bd
00000360: 4907 463b e84c 353d 1448 793d e61b babd
00000370: b713 09bd 66e1 643c 45c7 8dbd 930a 4abd
00000380: b84c 893c 6353 1bbd aa78 4b3d 6574 0f3d
00000390: 7eb6 8a3d a6e0 893b b115 8bbd ff16 e9bc
000003a0: e4b4 cdbd eafc 99bc 506c 8abd 9828 8fbd
000003b0: fb8f aabd 24f0 943d e09e 79bc 1f11 2a3d
000003c0: 0e48 aebd 4131 edbc d0ba 35bb 3947 d6bc
000003d0: 8f2d a23d 494c 0dbc 1a2e e13b cd75 c13c
000003e0: 0f7c 01bc c9dd a7bd cc0d 3ebc c5b9 b03c
000003f0: ad32 d13c 5f04 92bd 32ff b3bd 265b acbd

fc2.bias f4 [128]
-0.04438198 0.0509897 0.061782982 -0.0137561625 -0.004191807 0.094521135 -0.0053774 -0.006503339
-0.0815462 0.11604149 0.08669158 0.03730142 -0.006879414 -0.0322462 -0.051677052 -0.08363034
-0.08679531 -0.07418074 -0.086590655 0.061867505 0.013896047 -0.047739822 -0.048643436 0.11104886
0.065223806 0.008295374 0.097187325 0.028208379 0.10097254 0.05581998 -0.0044586095 0.13332185
0.057476677 -0.07902672 -0.0019900373 -0.027893754 0.09782209 0.026934491 -0.048240535 0.083021216
-0.0035162168 -0.0014671606 0.06946096 -0.03237233 -0.0069514764 0.05826724 -0.03485724 -0.046116475
-0.029838346 0.034067657 -0.061947227 -0.022614183 -0.045838837 -0.08500133 -0.0652198 0.014811216
-0.061129067 -0.021222955 -0.026418123 0.06925049 0.000723577 0.025960926 0.026412454 -0.034946594
0.07705748 0.008556809 0.020647882 0.046974093 0.015101563 -0.010743432 0.074279584 0.021254255
0.0873442 0.015320461 -0.059031688 0.03300015 -0.054015446 -0.0039189826 -0.03305811 0.04049383
-0.022296263 -0.0023044 0.045949537 -0.08102596 -0.04379265 -0.00078401284 -0.08644897 -0.06609788
-0.060588527 0.038875237 0.055158623 -0.09113064 0.008733375 0.020082079 0.064324595 -0.08635176
0.02995961 -0.024916593 -0.008838205 -0.028423164 0.033848878 -0.042364262 -0.04228193 -0.077145085
0.058434702 -0.021884127 0.039186083 0.11620052 -0.047918152 0.06505865 0.040245697 0.0036602498
0.017933842 0.03303755 0.014229666 0.12845695 0.077758655 -0.004037322 -0.05432463 0.03853835
0.06191162 -0.034562387 -0.013234637 -0.049113892 -0.011825973 -0.079079606 -0.07221609 0.07291893
00000000: e1c9 35bd 93da 503d 2710 7d3d 8761 61bc
00000010: 6d5b 89bb 4c94 c13d e734 b0bb f619 d5bb
00000020: b201 a7bd 29a7 ed3d 5b8b b13d 60c9 183d
00000030: b56c e1bb 9714 04bd 51ab 53bd 6246 abbd
00000040: bdc1 b1bd 12ec 97bd 7156 b1bd c868 7d3d
00000050: 3fac 633c d58a 43bd 573e 47bd 966d e33d
00000060: 0f94 853d 52e9 073c 260a c73d 4215 e73c
00000070: b1ca ce3d 7ea3 643d 8719 92bb 8685 083e
00000080: aa6c 6b3d c3d8 a1bd 496b 02bb 7181 e4bc
00000090: f356 c83d b9a5 dc3c de97 45bd 0707 aa3d
000000a0: 5470 66bb be4d c0ba 8c41 8e3d d998 04bd
000000b0: 36c9 e3bb a1a9 6e3d 77c6 0ebd a1e4 3cbd
000000c0: 8c6f f4bc 878a 0b3d 60bc 7dbd 6141 b9bc
000000d0: 81c1 3bbd 2d15 aebd f591 85bd beaa 723c
000000e0: 7962 7abd c3db adbc d26a d8bc 33d3 8d3d
000000f0: 6eae 3d3a 02ac d43c ee5e d83c 2924 0fbd
00000100: 50d0 9d3d dc31 0c3c bf25 a93c e867 403d
00000110: 8c6c 773c 3805 30bc e51f 983d 671d ae3c
00000120: 84e1 b23d ac02 7b3c 36cb 71bd 2a2b 073d
00000130: 4d3f 5dbd cf6a 80bb f167 07bd dcdc 253d
00000140: a7a6 b6bc 6b05 17bb 9535 3c3d f0f0 a5bd
00000150: ec5f 33bd 3686 4dba 280c b1bd 535e 87bd
00000160: ad2b 78bd a43b 1f3d 02ee 613d b3a2 babd
00000170: 6e16 0f3c 2c83 a43c 9dbc 833d 31d9 b0bd
00000180: db6d f53c e21d ccbc 1ece 10bc b2d7 e8bc
00000190: 1fa5 0a3d 2686 2dbd d12f 2dbd 3efe 9dbd
000001a0: 3a59 6f3d 5746 b3bc 9681 203d 8afa ed3d
000001b0: d345 44bd 783d 853d acd8 243d cde0 6f3b
000001c0: fee9 923c 6252 073d 8c23 693c 388a 033e
000001d0: ee3f 9f3d 834b 84bb 8183 5ebd 64da 1d3d
000001e0: 0a97 7d3d 4a91 0dbd 17d6 58bc a62b 49bd
000001f0: bac1 41bc 7df4 a1bd 08e6 93bd 8556 953d

fc3.weight f4 [5, 128]
0.07230105 -0.033501577 -0.087933004 0.08686657 -0.06466277 -0.019070148 -0.04886534 0.012396075
-0.045982484 -0.020092653 -0.08974097 -0.08896888 0.030849824 -0.07498946 0.025767233 0.039245144
0.06106914 0.013372963 -0.00813883 -0.0168472 -0.042736672 -0.08565541 0.044559386 -0.1136395
0.05813507 0.063952215 0.0299899 0.04956205 -0.1308945 -0.07920089 -0.0606559 -0.046202015
-0.08501804 0.012777902 -0.0040193447 -0.07833785 -0.11463683 -0.09849845 0.025624294 -0.07115253
-0.05574556 -0.08164369 0.08345234 -0.07155188 0.031108925 -0.068634175 -0.034182988 0.059102464
-0.061265185 -0.1292364 -0.024362637 0.010995988 -0.015491822 0.077949435 0.02532461 -0.11999894
0.026630418 -0.13133404 -0.07282536 0.08142503 -0.092828766 0.024762085 0.028523745 -0.0030570372
-0.073331565 -0.124797635 0.015017175 0.07875639 -0.036036976 0.06455708 -0.038230974 0.0692916
-0.0976155 -0.014203547 0.07587611 0.058203828 0.046420123 0.063864045 0.008490177 0.051791087
-0.030548763 0.08550976 -0.023824684 -0.0045287525 -0.028249757 -0.042711243 -0.023128515 0.05621886
-0.041287307 -0.011148505 0.019750604 -0.06012378 0.030218216 0.0094484985 0.024883404 0.0039427746
-0.08378858 0.06626456 0.064620934 -0.043248273 0.00496611 -0.12437441 0.08164634 0.021708693
-0.11449374 0.0017894855 0.051857393 -0.058986258 -0.08308315 -0.0496836 -0.04418859 0.039025936
-0.051401947 0.06382119 -0.11728943 -0.10090481 -0.0761295 -0.05891094 0.0527827 -0.077354036
-0.0075040064 0.05947582 -0.08286588 0.048848048 0.08280522 -0.03307179 -0.049259685 -0.029016824
-0.0309078 0.015722917 0.043493267 0.036117606 -0.060406152 0.017017603 -0.05171924 -0.038083617
0.047401674 -0.089954756 -0.066452965 -0.099831015 0.053100735 0.0530324 0.008388002 -0.049319737
-0.06309574 -0.075932436 0.04245314 -0.08626542 0.050866704 -0.019319225 -0.07873083 -0.11210514
-0.02667241 0.04808965 -0.055169687 0.0514277 -0.06694348 0.0846839 0.08005179 -0.086228155
-0.008488133 -0.007578119 0.065431155 -0.030224863 0.02281614 -0.05044727 0.06444035 0.007800033
0.0064752414 0.068174705 0.07232552 0.075465634 -0.079335675 0.05611172 -0.11188039 0.06548065
-0.050240338 0.011521601 -0.060113512 -0.067777686 -0.060105063 -0.03637942 -0.07439378 -0.028402194
-0.06768587 -0.03673545 0.019589841 -0.060486816 -0.008188962 -0.06496886 -0.056613714 -0.03232579
-0.015211524 -0.058274556 0.014962205 -0.07741527 -0.06542922 0.028586047 0.021265307 0.009434688
-0.014106352 0.014908643 0.051339265 -0.033838946 -0.044869885 0.06417066 -0.01260117 -0.02000181
-0.0219627 -0.006421494 -0.02599746 -0.073784254 -0.0061565693 -0.08377111 0.063086696 -0.019396054
0.022243705 -0.03905 -0.00874617 0.02355498 0.04038276 0.0239508 0.044446908 0.056337427
-0.067251824 0.034988265 0.06894954 -0.067249194 -0.09012467 -0.06659989 -0.026073262 -0.024869064
-0.088774696 0.05123205 -0.07445198 -0.118124776 0.042675495 -0.04332093 -0.007097582 -0.062656336
0.010171467 -0.03542229 -0.10128187 -0.014896769 -0.039028622 -0.08216983 -0.011348007 -0.05650181
-0.093209855 0.005507634 -0.064193234 -0.04873187 -0.018962795 -0.072320074 -0.07543297 0.043399036
00000000: 9312 943d f338 09bd 3816 b4bd 1ae7 b13d
00000010: ea6d 84bd 0039 9cbc 0627 48bd e818 4b3c
00000020: 2158 3cbd 5999 a4bc 1dca b7bd 5135 b6bd
00000030: c5b8 fc3c 1394 99bd ce15 d33c 84bf 203d
00000040: a223 7a3d 461a 5b3c ba58 05bc 2403 8abc
00000050: a60c 2fbd 1b6c afbd e783 363d d4bb e8bd
00000060: 0a1f 6e3d 61f9 823d 61ad f53c 9301 4b3d
00000070: 3509 06be 1434 a2bd 5272 78bd 533e 3dbd
00000080: f01d aebd 685a 513c b5b4 83bb 986f a0bd
00000090: b7c6 eabd 8eb9 c9bd 0aea d13c 6bb8 91bd
000000a0: 7555 64bd cf34 a7bd 0fe9 aa3d cb89 92bd
000000b0: 25d8 fe3c 1390 8cbd 7603 0cbd 6d15 723d
000000c0: 34f1 7abd 8c56 04be 2794 c7bc 8428 343c
000000d0: 69d1 7dbc f4a3 9f3d 8e75 cf3c 01c2 f5bd
000000e0: 0928 da3c 6e7c 06be 7625 95bd 2bc2 a63d
000000f0: 021d bebd dbd9 ca3c a1aa e93c 9358 48bb
00000100: dc2e 96bd e795 ffbd 990a 763c 084b a13d
00000110: 829b 13bd 8136 843d 1598 1cbd c1e8 8d3d
00000120: a3ea c7bd feb5 68bc ef64 9b3d 2367 6e3d
00000130: 0723 3e3d 27cb 823d 621a 0b3c e422 543d
00000140: 6641 fabc be1f af3d fc2b c3bc ee65 94bb
00000150: 096c e7bc fcf1 2ebd 0378 bdbc bf45 663d
00000160: e11c 29bd 38a8 36bc 05cc a13c 5a44 76bd
00000170: 318c f73c e0cd 1a3c 48d8 cb3c 6432 813b
00000180: 5999 abbd b7b5 873d fb57 843d 1a25 31bd
00000190: c0ba a23b 03b8 febd 3236 a73d 6ed6 b13c
000001a0: b27b eabd 2b8d ea3a 6b68 543d 939b 71bd
000001b0: 8027 aabd 0881 4bbd 18ff 34bd a9d9 1f3d
000001c0: d98a 52bd afb4 823d 7135 f0bd 2ea7 cebd
000001d0: c9e9 9bbd 994c 71bd ac32 583d cb6b 9ebd
000001e0: 2be4 f5bb eb9c 733d 96b5 a9bd e414 483d
000001f0: c895 a93d 4976 07bd 86c4 49bd b1b4 edbc
00000200: 5b32 fdbc 59cd 803c ff25 323d 0ef0 133d
00000210: 716c 77bd 8068 8b3c 8ed7 53bd 91fd 1bbd
00000220: 4228 423d 333a b8bd 7e18 88bd 3474 ccbd
00000230: 2880 593d 8038 593d d56d 093c 7e03 4abd
00000240: 5738 81bd 7782 9bbd 58e3 2d3d edab b0bd
00000250: 9b59 503d 5a43 9ebc a13d a1bd 6197 e5bd
00000260: 1980 dabc a7f9 443d 9cf9 61bd daa5 523d
00000270: aa19 89bd c16e ad3d 31f2 a33d 6398 b0bd
00000280: cf11 0bbc df51 f8bb c500 863d 229a f7bc
00000290: eae8 ba3c cca1 4ebd 4df9 833d 6b97 ff3b
000002a0: 432e d43b 2e9f 8b3d 671f 943d ba8d 9a3d
000002b0: be7a a2bd 67d5 653d 8c21 e5bd b81a 863d
000002c0: d0c8 4dbd 19c5 3c3c 9639 76bd 07cf 8abd
000002d0: ba30 76bd 9602 15bd c45b 98bd b8ab e8bc
000002e0: e49e 8abd e977 16bd e07a a03c 06c1 77bd
000002f0: ff2a 06bc 650e 85bd c8e3 67bd 0c68 04bd
00000300: c239 79bc 4db1 6ebd 0924 753c e68b 9ebd
00000310: c1ff 85bd 492d ea3c 9534 ae3c f393 1a3c
00000320: 541e 67bc 6243 743c 1f49 523d b59a 0abd
00000330: 7cc9 37bd e86b 833d 2375 4ebc d6da a3bc
00000340: 1feb b3bc 656b d2bb a0f8 d4bc 331c 97bd
00000350: 0cbd c9bb 3090 abbd 9933 813d 79e4 9ebc
00000360: 6e38 b63c e5f2 1fbd 194c 0fbc 60f6 c03c
00000370: 6568 253d 7834 c43c f60d 363d 13c2 663d
00000380: 53bb 89bd db4f 0f3d 6b35 8d3d f2b9 89bd
00000390: 4893 b8bd 8665 88bd 9897 d5bc 35ba cbbc
000003a0: 82cf b5bd b3d8 513d 487a 98bd 67eb f1bd
000003b0: 80cc 2e3d 4a71 31bd d592 e8bb f751 80bd
000003c0: 3aa6 263c f716 11bd de6c cfbd 9411 74bc
000003d0: 7adc 1fbd a848 a8bd feec 39bc 716e 67bd
000003e0: cfe4 bebd 6279 b43b be77 83bd 129b 47bd
000003f0: dd57 9bbc 8c1c 94bd 9a7c 9abd 30c3 313d

fc3.bias f4 [5]
-0.0019723054 0.039429206 0.013541389 0.008463803 0.01183881
00000000: cb41 01bb 8580 213d b4dc 5d3c c3ab 0a3c
00000010: 91f7 413c

fc1.weight f4 [128, 10]
-0.106271 0.08986948 0.17693157 -0.20645607 -0.22186305 -0.2496077 -0.061983366 -0.08389448
0.13606498 -0.25965565 0.39985374 0.04531354 0.31006464 -0.065987535 0.1938164 0.043517146
0.13527305 0.31719324 0.29868072 -0.23667943 0.16626306 0.29602724 0.092149094 -0.30506417
-0.07413579 -0.29389095 0.26243317 -0.30358312 -0.24169864 0.20320557 -0.27327958 -0.07690601
-0.21660371 0.24946584 -0.06856503 0.15640624 0.016047621 0.1282991 -0.19159484 0.19288115
0.14060119 -0.06070592 0.17756999 0.18453045 0.15078758 0.280118 0.13030712 0.2523646
0.06688798 -0.33870307 -0.06625821 0.16412732 0.25128138 0.21534234 0.13158478 0.115899436
0.1737679 0.19080673 0.31104445 0.09076978 -0.004097258 -0.2781266 0.17774041 -0.29826465
-0.14742512 -0.24456745 0.032557704 0.018678878 0.051499814 -0.01283741 0.2795394 0.26987368
0.15216303 -0.010342891 0.15243237 -0.20317864 0.13840503 -0.30807415 0.20240454 0.0965895
-0.083024584 0.079892844 -0.10750275 0.13713825 -0.23261978 -0.15479478 -0.09019219 0.13153793
-0.29972196 0.057181884 -0.12365653 -0.2521461 0.22342499 0.25017738 0.14790611 -0.25355467
-0.05243362 0.3356704 -0.042917058 0.01022428 0.43089733 0.18784769 0.14082418 -0.24794811
-0.26411727 -0.3419728 0.20801568 0.13788576 0.12614119 0.0047111004 0.12536146 0.12180216
-0.13667555 -0.24269208 -0.3127139 -0.11174844 -0.11703488 0.036207564 -0.266746 -0.2688992
0.18898633 -0.096393935 -0.09192166 -0.2610167 -0.05600172 -0.08128161 -0.22275282 0.15593219
0.23574285 0.24779685 0.061661508 0.24956185 -0.08886007 -0.25118756 0.14736243 0.15955307
0.19257832 -0.25214368 0.2956154 0.0053400323 -0.02200568 -0.0682941 -0.036343727 0.18392363
0.034080118 -0.12650806 -0.12247362 -0.28254637 0.099575385 -0.31377816 0.06771824 0.1813376
0.030756349 0.214318 0.051712006 0.17194313 -0.2706784 -0.31048858 -0.08136786 -0.27295482
-0.08554189 0.059938386 0.034814276 -0.27206957 0.013250257 0.28404754 -0.13530597 0.079847224
-0.10178739 -0.24600439 0.21208683 0.12348463 0.17955282 -0.2703521 -0.1586988 -0.1894645
0.22673248 0.03016288 -0.21953328 -0.028981185 0.30142808 -0.087009035 0.28217673 0.3107516
-0.24267828 -0.3142891 -0.11959634 -0.16793972 -0.020518105 -0.11597989 -0.18751049 0.17830583
0.174042 0.27108216 -0.19995436 -0.14566997 -0.29449803 -0.0033449933 -0.13038655 0.051826116
-0.0105733555 0.3429798 0.17332025 -0.26202273 0.11101926 -0.007909616 0.04554736 0.18641771
0.02981922 -0.23093288 0.10124278 0.12013212 0.25456974 0.32405576 0.18910134 0.09940458
0.10256966 -0.030361736 0.21810906 0.03816277 0.27050415 0.27117687 0.05420556 0.25151244
-0.044552747 0.025008569 0.24967256 0.23784852 0.26100963 -0.0895089 0.21881676 -0.23004016
0.26149365 -0.2513704 0.19780436 0.17625917 -0.16664104 0.17342459 0.092342675 0.14009668
0.23068716 0.2849057 0.28609407 0.2974034 -0.036066577 0.30464175 -0.20387699 0.014461094
-0.050818015 0.10108829 -0.06111527 0.2704809 -0.10178 0.1888092 -0.2202403 0.14157666
00000000: 9ca4 d9bd 7d0d b83d 8d2d 353e 3869 53be
00000010: 1130 63be 2999 7fbe 45e2 7dbd ded0 abbd
00000020: 9e54 0b3e 96f1 84be a1b9 cc3e b19a 393d
00000030: cbc0 9e3e 7924 87bd ce77 463e 093f 323d
00000040: 0585 0a3e 2767 a23e aeec 983e 185c 72be
00000050: dd40 2a3e e290 973e aab8 bc3d 5f31 9cbe
00000060: 81d4 97bd e078 96be a45d 863e 3f6f 9bbe
00000070: d97f 77be 1f15 503e 4deb 8bbe e680 9dbd
00000080: 5dcd 5dbe f973 7f3e d36b 8cbd f528 203e
00000090: 4d76 833c d760 033e 7031 44be a382 453e
000000a0: c2f9 0f3e c5a6 78bd e8d4 353e 8df5 3c3e
000000b0: 0f68 1a3e a06b 8f3e 3b6f 053e ef35 813e
000000c0: 91fc 883d 7d6a adbe 62b2 87bd fe10 283e
000000d0: f4a7 803e b482 5c3e 29be 063e af5c ed3d
000000e0: 36f0 313e d762 433e 3841 9f3e 82e5 b93d
000000f0: 4b42 86bb 9c66 8ebe 9501 363e 25b6 98be
00000100: 9cf6 16be e46f 7abe 3a5b 053d 7204 993c
00000110: 78f1 523d 0054 52bc ca1f 8f3e e22c 8a3e
00000120: a0d0 1b3e 3b75 29bc 3b17 1c3e 100e 50be
00000130: 0cba 0d3e e5bb 9dbe 2343 4f3e b7d0 c53d
00000140: cb08 aabd dc9e a33d 672a dcbd f86d 0c3e
00000150: e133 6ebe 8682 1ebe afb6 b8bd e1b1 063e
00000160: 2875 99be 8d37 6a3d a33f fdbd 4b19 81be
00000170: 85c9 643e 4017 803e b374 173e ebd1 81be
00000180: a3c4 56bd fedc ab3e ccc9 2fbd bd83 273c
00000190: 939e dc3e 255b 403e 3734 103e 1ce6 7dbe
000001a0: 613a 87be 0f17 afbe 1002 553e ed31 0d3e
000001b0: 282b 013e 935f 9a3b c15e 003e 6973 f93d
000001c0: adf4 0bbe 4684 78be 091c a0be 5edc e4bd
000001d0: fcaf efbd 624e 143d ef92 88be 28ad 89be
000001e0: a285 413e 2f6a c5bd 6c41 bcbd fba3 85be
000001f0: 0f62 65bd f976 a6bd 5119 64be b0ac 1f3e
00000200: 9366 713e 75be 7d3e c790 7c3d 248d 7f3e
00000210: 45fc b5bd a89b 80be 2de6 163e e161 233e
00000220: 4033 453e fa18 81be e75a 973e 70fb ae3b
00000230: 4145 b4bc c7dd 8bbd 29dd 14bd 7a56 3c3e
00000240: 9897 0b3d 548b 01be 73d3 fabd eba9 90be
00000250: 2eee cb3d 88a7 a0be dcaf 8a3d 90b0 393e
00000260: bdf4 fb3c 2e76 5b3e f8cf 533d dc11 303e
00000270: 5c96 8abe 5cf8 9ebe 31a4 a6bd bcc0 8bbe
00000280: 9630 afbd f481 753d 6a99 0e3d b44c 8bbe
00000290: 9b17 593c ae6e 913e a68d 0abe f186 a33d
000002a0: e875 d0bd 93e8 7bbe 4a2d 593e 82e5 fc3d
000002b0: b2dc 373e 976b 8abe f081 22be fb02 42be
000002c0: 8f2c 683e 2518 f73c 55cd 60be f369 edbc
000002d0: c854 9a3e cb31 b2bd 7879 903e d51a 9f3e
000002e0: a880 78be 80ea a0be edee f4bd 64f8 2bbe
000002f0: 9615 a8bc dd86 edbd c002 40be ce95 363e
00000300: 1138 323e 48cb 8a3e d6c0 4cbe 822a 15be
00000310: 72c8 96be ad37 5bbb 0d84 05be 9f47 543d
00000320: de3b 2dbc 0c9b af3e dd7a 313e d827 86be
00000330: 115e e33d 5697 01bc de8f 3a3d 49e4 3e3e
00000340: 7047 f43c ab79 6cbe 6058 cf3d d407 f63d
00000350: f756 823e a3ea a53e c8a3 413e a194 cb3d
00000360: 0b10 d23d 2db9 f8bc fb57 5f3e 9150 1c3d
00000370: 857f 8a3e b2d7 8a3e a606 5e3d 3dc6 803e
00000380: f17c 36bd c5de cc3c 2aaa 7f3e 908e 733e
00000390: 0ea3 853e 7150 b7bd 8011 603e a68f 6bbe
000003a0: 7fe2 853e 9fb3 80be 3a8d 4a3e 497d 343e
000003b0: f3a3 2abe 3796 313e 281e bd3d 8175 0f3e
000003c0: 4139 6c3e 29df 913e ec7a 923e 4245 983e
000003d0: 8cba 13bd 01fa 9b3e 21c5 50be 39ee 6c3c
000003e0: 8d26 50bd 6107 cf3d 0154 7abd 797c 8a3e
000003f0: 0872 d0bd 3357 413e ac86 61be 79f9 103e

fc1.bias f4 [128]
0.18552186 -0.039147537 0.063508585 0.12653728 0.23014328 -0.012532713 -0.10794412 0.060587645
-0.035892304 0.21676995 0.25613075 0.030804828 0.09809312 0.27381828 0.08219664 -0.01859856
-0.26447493 0.23705645 0.30213886 -0.034603167 0.11907487 -0.14372252 -0.19641697 -0.062186502
0.13979994 0.1209058 0.20260684 0.070575066 0.16112363 0.21631536 0.1409561 0.21895543
0.144035 -0.030391712 -0.006683352 0.17802909 0.10986592 0.27516097 0.13217895 0.13549465
0.044595588 -0.09948301 0.1307544 -0.22691727 0.2500491 0.13975963 0.2988358 0.0445228
-0.03599145 -0.2586438 -0.2897871 0.08819627 -0.06567011 0.08983014 0.01839228 0.26023442
0.23288016 -0.09179621 -0.19645368 0.17796554 0.10444734 -0.19749615 0.21206489 0.2743973
-0.1775557 -0.014567363 0.081036866 0.25761068 -0.26350942 0.29498288 -0.19823307 0.17235939
-0.2672085 0.27782863 0.3218905 0.13914454 -0.011363868 0.112695396 -0.09384068 0.16918139
-0.2990539 -0.1271752 0.026787393 -0.27074763 0.21255438 -0.16798182 0.123895235 0.01506998
-0.2062084 0.10067216 -0.17067724 -0.086124524 0.21667375 -0.19500506 -0.18961811 -0.17461628
0.30332294 -0.29269648 -0.12769924 0.2932803 -0.11965892 -0.26872012 0.22974682 0.14144003
-0.18993783 -0.31325296 0.18989861 -0.081610166 0.16288102 -0.07541723 -0.16315575 0.30410925
0.1723638 -0.062355258 0.32742262 -0.22660118 -0.28332862 0.04305081 -0.22138625 -0.1000702
-0.28790975 0.2103635 0.029754566 -0.23082116 0.20645383 0.09350944 0.26359433 0.28664875
00000000: 71f9 3d3e 2b59 20bd ca10 823d fd92 013e
00000010: aeaa 6b3e 0256 4dbc cf11 ddbd c02a 783d
00000020: cf03 13bd f1f8 5d3e 9223 833e 685a fc3c
00000030: 0ce5 c83d e931 8c3e b656 a83d 025c 98bc
00000040: 4269 87be edbe 723e f2b1 9a3e 0dbc 0dbd
00000050: 87dd f33d ff2b 13be 8821 49be 46b7 7ebd
00000060: b727 0f3e 769d f73d 2b78 4f3e a989 903d
00000070: 98fd 243e c681 5d3e cc56 103e da35 603e
00000080: e97d 133e 0af8 f8bc 0500 dbbb 424d 363e
00000090: 6201 e13d e6e1 8c3e eb59 073e 1cbf 0a3e
000000a0: dda9 363d c0bd cbbd 7be4 053e 005d 68be
000000b0: 7006 803e 261d 0f3e 0201 993e 8a5d 363d
000000c0: c56b 13bd f66c 84be fa5e 94be 3fa0 b43d
000000d0: 0d7e 86bd ddf8 b73d 68ab 963c 723d 853e
000000e0: 2378 6e3e a7ff bbbd 272b 49be 993c 363e
000000f0: 7de8 d53d 6e3c 4abe 8a27 593e ce7d 8c3e
00000100: 29d1 35be f3ab 6ebc a8f6 a53d 8ce5 833e
00000110: b5ea 86be ff07 973e 9cfd 4abe fb7e 303e
00000120: 8dcf 88be 8e3f 8e3e d5ce a43e e87b 0e3e
00000130: 842f 3abc d8cc e63d 8b2f c0bd e33d 2d3e
00000140: 981d 99be 373a 02be 3c71 db3c 6f9f 8abe
00000150: dba7 593e 6d03 2cbe c9bc fd3d 14e8 763c
00000160: 4b28 53be 352d ce3d 04c6 2ebe 0e62 b0bd
00000170: b9df 5d3e 68af 47be 402b 42be 9cce 32be
00000180: 254d 9b3e 50dc 95be 97c3 02be d628 963e
00000190: bc0f f5bd af95 89be c042 6b3e a8d5 103e
000001a0: 107f 42be b162 a0be c874 423e 3b23 a7bd
000001b0: 48ca 263e 5974 9abd 4d12 27be 35b4 9b3e
000001c0: 2380 303e 3a68 7fbd f0a3 a73e 240a 68be
000001d0: 7310 91be 0c56 303d 14b3 62be 9bf1 ccbd
000001e0: e868 93be 8869 573e d9bf f33c 625c 6cbe
000001f0: a268 533e e181 bf3d d6f5 863e a0c3 923e

fc2.weight f4 [128, 128]
0.004187848 -0.054565795 -0.02485368 -0.041145038 -0.07524819 -0.079463474 -0.042302106 -0.019898381
-0.03740399 -0.046212196 -0.080952495 0.022038154 -0.07809232 0.024586638 0.026256306 -0.0048588994
-0.054741926 -0.03296812 -0.028541371 -0.08764582 0.064823896 -0.07992157 0.0149873765 -0.05133368
0.007148432 -0.07125166 0.07050847 0.039794065 0.027893838 -0.023142476 -0.017100345 0.06838919
-0.021889893 0.0040610596 -0.03646027 0.064262055 -0.021887416 0.010624335 0.06597608 0.054962207
0.050541393 -0.06928662 -0.037916504 -0.013649099 0.021474704 0.066862896 0.040251095 -0.0148092015
0.012176783 0.016582761 0.04867233 -0.042946607 -0.083916515 -0.08146733 0.030586137 -0.05609149
-0.03949441 0.040471204 0.08245529 0.04632884 0.06715896 0.0023772193 0.028657055 -0.06485677
0.06454191 -0.008167122 -0.08170881 0.017110799 0.041762426 0.08163312 -0.015332275 0.011267802
-0.030986827 0.04490594 0.0031184137 0.06405519 0.01817902 0.006366102 -0.03103167 -0.06253492
-0.036321606 -0.021637244 -0.035637606 -0.025132418 -0.083197415 0.0042300685 0.045618717 0.050092317
-0.044309594 0.00937466 0.0807538 -0.042661164 -0.050259177 0.041307062 -0.084685236 0.066042006
-0.047794938 0.037350282 -0.012222333 0.06921475 0.014591839 -0.02791626 0.0063706962 0.067367986
0.055678178 -0.001562626 -0.066053994 0.043605603 -0.049938094 -0.07163145 -0.045694254 0.00943473
0.03891823 0.056138676 -0.083985895 -0.03732507 0.027575629 -0.031787712 0.065391816 0.08245517
-0.033733714 0.006549378 0.06775544 0.06209273 0.035490576 0.05515248 -0.0054000756 0.003434199
-0.009026216 0.027902316 -0.0018461478 0.00048132753 -0.014065344 -0.084377505 -0.08183621 -0.027259907
-0.05661273 -0.100306176 -0.06327348 0.035320185 0.00904011 -0.024753971 0.04832391 0.064079665
-0.017446076 0.055543076 -0.045119286 0.0064106723 -0.052755054 0.029468894 -0.032954883 0.034551386
0.017366093 -0.09484294 0.013660034 0.0056746174 -0.085060455 0.054381188 0.003740508 -0.027483683
-0.020621894 0.019653838 -0.014951215 -0.06166049 -0.06139152 -0.090018116 -0.004112447 0.060733587
-0.017798983 -0.085530214 0.028738609 0.05782615 -0.06961782 -0.092189066 0.06310249 0.032781668
0.0069642607 0.049978953 0.04569009 0.033460204 0.07377234 0.012497199 0.04547428 0.06942278
0.07659896 -0.0077890325 0.044677872 0.07545257 0.04492344 -0.0076851603 0.006838938 -0.042897385
0.013413719 -0.008398002 0.023819573 -0.040635947 0.03285739 -0.09046227 0.08721238 0.014814541
0.03100358 -0.08793807 0.07367781 -0.051960584 -0.0061455644 0.052891407 -0.038205814 -0.03378971
-0.0449425 -0.040390905 -0.03229223 -0.011644067 -0.08691292 0.057870362 -0.08927493 -0.062941484
0.0030216745 0.044262797 0.060859755 -0.090873525 -0.033466067 0.013969755 -0.06922773 -0.04932649
0.016760215 -0.03792132 0.04967562 0.03502311 0.06773089 0.0042076884 -0.06791247 -0.028453348
-0.10044268 -0.018797357 -0.0675894 -0.069901645 -0.08328243 0.07272366 -0.015235633 0.041520234
-0.08509837 -0.02895415 -0.0027729757 -0.026157008 0.07918846 -0.008624145 0.006871951 0.023615742
-0.007903113 -0.08196599 -0.011599969 0.021572957 0.02553686 -0.0712974 -0.08788909 -0.08415823
00000000: 373a 893b 6280 5fbd f299 cbbc b387 28bd
00000010: b91b 9abd bfbd a2bd f944 2dbd ee01 a3bc
00000020: ed34 19bd 0049 3dbd 6cca a5bd 5c89 b43c
00000030: deee 9fbd eb69 c93c 7717 d73c 6737 9fbb
00000040: 1239 60bd 9409 07bd 98cf e9bc a77f b3bd
00000050: 64c2 843d ecad a3bd 9d8d 753c 4443 52bd
00000060: 653d ea3b 64ec 91bd bf66 903d 1aff 223d
00000070: 9e81 e43c 4a95 bdbc 0616 8cbc a20f 8c3d
00000080: 6f52 b3bc a312 853b 5d57 15bd d39b 833d
00000090: 3d4d b3bc b111 2e3c 781e 873d 0d20 613d
000000a0: 7e04 4f3d 25e6 8dbd 564e 1bbd 78a0 5fbc
000000b0: b8eb af3c 6aef 883d 55de 243d 4ba2 72bc
000000c0: 2181 473c 92d8 873c a35c 473d c8e8 2fbd
000000d0: 6cdc abbd 58d8 a6bd c78f fa3c 31c0 65bd
000000e0: e4c4 21bd 22c5 253d 52de a83d 4fc3 3d3d
000000f0: a38a 893d 1fcb 1b3b 33c2 ea3c a0d3 84bd
00000100: 8d2e 843d 64cf 05bc f356 a7bd f22b 8c3c
00000110: 140f 2b3d 442f a73d 3934 7bbc 969c 383c
00000120: 16d8 fdbc 4aef 373d 4d5e 4c3b 5e2f 833d
00000130: 2bec 943c bc9a d03b 2136 febc 4f12 80bd
00000140: f7c5 14bd 9740 b1bc bdf8 11bd 80e2 cdbc
00000150: 6863 aabd 639c 8a3b b1da 3a3d 9a2d 4d3d
00000160: fa7d 35bd 2d98 193c 4062 a53d 79bd 2ebd
00000170: 91dc 4dbd 9831 293d 746f adbd 0841 873d
00000180: a0c4 43bd 9cfc 183d 2e40 48bc 76c0 8d3d
00000190: 9c12 6f3c a4b0 e4bc 46c1 d03b 3af8 893d
000001a0: cd0e 643d 07d1 ccba 5147 87bd ca9b 323d
000001b0: e38b 4cbd 82b3 92bd e629 3bbd 2094 1a3c
000001c0: b968 1f3d abf1 653d cc00 acbd 2ce2 18bd
000001d0: 49e6 e13c d533 02bd 25ec 853d 42de a83d
000001e0: 5d2c 0abd 2a9c d63b 5dc3 8a3d f254 7e3d
000001f0: 915e 113d 91e7 613d 1ef3 b0bb 4c10 613b
00000200: b2e2 13bc 6693 e43c 71fa f1ba b05a fc39
00000210: 5472 66bc 1dce acbd be99 a7bd 2b50 dfbc
00000220: c0e2 67bd 536d cdbd 8795 81bd e6ab 103d
00000230: f81c 143c d7c8 cabc 4bef 453d 333c 833d
00000240: 13eb 8ebc 2381 633d 00cf 38bd 9e10 d23b
00000250: af15 58bd c068 f13c b3fb 06bd c185 0d3d
00000260: 5643 8e3c 043d c2bd 56ce 5f3c 24f2 b93b
00000270: 2d34 aebd cfbe 5e3d 5023 753b 7625 e1bc
00000280: 3fef a8bc 1601 a13c f1f5 74bc b68f 7cbd
00000290: ad75 7bbd 6b5b b8bd b5c1 86bb c8c3 783d
000002a0: 2ccf 91bc 772a afbd 3b6d eb3c 1ddb 6c3d
000002b0: ca93 8ebd 9fcd bcbd e13b 813d 1246 063d
000002c0: 7434 e43b bbb6 4c3d 8825 3b3d 910d 093d
000002d0: f415 973d 0dc1 4c3c 3d43 3a3d 882d 8e3d
000002e0: eadf 9c3d 243b ffbb 2500 373d e186 9a3d
000002f0: a401 383d ccd3 fbbb 2c19 e03b 2bb5 2fbd
00000300: 37c5 5b3c c697 09bc 4421 c33c e171 26bd
00000310: 7895 063d 4844 b9bd 679c b23d b0b8 723c
00000320: 38fb fd3c e018 b4bd 64e4 963d 9fd4 54bd
00000330: bb60 c9bb a9a4 583d b37d 1cbd 1467 0abd
00000340: a015 38bd ef70 25bd db44 04bd c2c6 3ebc
00000350: 67ff b1bd 7909 6d3d c6d5 b6bd 77e7 80bd
00000360: 4907 463b e84c 353d 1448 793d e61b babd
00000370: b713 09bd 66e1 643c 45c7 8dbd 930a 4abd
00000380: b84c 893c 6353 1bbd aa78 4b3d 6574 0f3d
00000390: 7eb6 8a3d a6e0 893b b115 8bbd ff16 e9bc
000003a0: e4b4 cdbd eafc 99bc 506c 8abd 9828 8fbd
000003b0: fb8f aabd 24f0 943d e09e 79bc 1f11 2a3d
000003c0: 0e48 aebd 4131 edbc d0ba 35bb 3947 d6bc
000003d0: 8f2d a23d 494c 0dbc 1a2e e13b cd75 c13c
000003e0: 0f7c 01bc c9dd a7bd cc0d 3ebc c5b9 b03c
000003f0: ad32 d13c 5f04 92bd 32ff b3bd 265b acbd

fc2.bias f4 [128]
-0.04438198 0.0509897 0.061782982 -0.0137561625 -0.004205695 0.09447702 -0.0053774 -0.006503339
-0.0815462 0.11602712 0.08667743 0.03728071 -0.006879414 -0.0322462 -0.051677052 -0.08363034
-0.08679531 -0.07418074 -0.086590655 0.061867505 0.013896047 -0.047739822 -0.048643436 0.11104072
0.065223806 0.008295374 0.09714724 0.028208379 0.1009574 0.05581998 -0.0044586095 0.13330594
0.057476677 -0.07902672 -0.0019900373 -0.027893754 0.097805515 0.026918449 -0.048240535 0.083021216
-0.0035162168 -0.0014671606 0.06946096 -0.03237233 -0.0069749616 0.05826724 -0.03487082 -0.046116475
-0.029838346 0.034062933 -0.061947227 -0.022629369 -0.045838837 -0.08500133 -0.0652198 0.01480008
-0.061129067 -0.021229882 -0.026418123 0.06925049 0.00070481433 0.025948014 0.026386112 -0.034946594
0.07705748 0.008538668 0.020647882 0.046974093 0.015101563 -0.010743432 0.074279584 0.021254255
0.087337 0.015320461 -0.059031688 0.03300015 -0.054015446 -0.0039189826 -0.03305811 0.04049383
-0.022296263 -0.0023044 0.045949537 -0.08102596 -0.04379265 -0.0008043461 -0.08644897 -0.06609788
-0.060588527 0.038843162 0.055158623 -0.09113064 0.008733375 0.020082079 0.064324595 -0.08635176
0.02995961 -0.024916593 -0.008838205 -0.028429933 0.033831198 -0.042371497 -0.04228193 -0.077145085
0.058437377 -0.021884127 0.039186083 0.11618666 -0.047918152 0.065046094 0.040245697 0.0036602498
0.017933842 0.03303755 0.014217772 0.12844068 0.077758655 -0.0040557547 -0.05432463 0.03853835
0.061888482 -0.034562387 -0.013234637 -0.049113892 -0.011825973 -0.079079606 -0.07221609 0.07291893
00000000: e1c9 35bd 93da 503d 2710 7d3d 8761 61bc
00000010: edcf 89bb 2b7d c13d e734 b0bb f619 d5bb
00000020: b201 a7bd a09f ed3d f083 b13d a8b3 183d
00000030: b56c e1bb 9714 04bd 51ab 53bd 6246 abbd
00000040: bdc1 b1bd 12ec 97bd 7156 b1bd c868 7d3d
00000050: 3fac 633c d58a 43bd 573e 47bd 5169 e33d
00000060: 0f94 853d 52e9 073c 22f5 c63d 4215 e73c
00000070: c1c2 ce3d 7ea3 643d 8719 92bb 5a81 083e
00000080: aa6c 6b3d c3d8 a1bd 496b 02bb 7181 e4bc
00000090: 424e c83d 1484 dc3c de97 45bd 0707 aa3d
000000a0: 5470 66bb be4d c0ba 8c41 8e3d d998 04bd
000000b0: 388e e4bb a1a9 6e3d b4d4 0ebd a1e4 3cbd
000000c0: 8c6f f4bc 9385 0b3d 60bc 7dbd 3a61 b9bc
000000d0: 81c1 3bbd 2d15 aebd f591 85bd 097c 723c
000000e0: 7962 7abd 4aea adbc d26a d8bc 33d3 8d3d
000000f0: 4ac3 383a ee90 d43c b027 d83c 2924 0fbd
00000100: 50d0 9d3d c5e5 0b3c bf25 a93c e867 403d
00000110: 8c6c 773c 3805 30bc e51f 983d 671d ae3c
00000120: bedd b23d ac02 7b3c 36cb 71bd 2a2b 073d
00000130: 4d3f 5dbd cf6a 80bb f167 07bd dcdc 253d
00000140: a7a6 b6bc 6b05 17bb 9535 3c3d f0f0 a5bd
00000150: ec5f 33bd c1da 52ba 280c b1bd 535e 87bd
00000160: ad2b 78bd 021a 1f3d 02ee 613d b3a2 babd
00000170: 6e16 0f3c 2c83 a43c 9dbc 833d 31d9 b0bd
00000180: db6d f53c e21d ccbc 1ece 10bc e4e5 e8bc
00000190: 9592 0a3d bc8d 2dbd d12f 2dbd 3efe 9dbd
000001a0: 085c 6f3d 5746 b3bc 9681 203d 46f3 ed3d
000001b0: d345 44bd e336 853d acd8 243d cde0 6f3b
000001c0: fee9 923c 6252 073d a8f1 683c f485 033e
000001d0: ee3f 9f3d 23e6 84bb 8183 5ebd 64da 1d3d
000001e0: c77e 7d3d 4a91 0dbd 17d6 58bc a62b 49bd
000001f0: bac1 41bc 7df4 a1bd 08e6 93bd 8556 953d
